models/initial/100.pt (torch, 249991 bytes, 10 tensors)

conv1.weight f4 [6, 1, 5, 5]
000000 e5 c5 20 40 b8 ee b5 be 41 e0 53 3e 1d 36 51 3f
       2.5120785 -0.3553369 0.20691015 0.81723195
000010 fa c0 0a 3e 85 d1 29 3e ec 61 5e be 48 b6 42 3e
       0.13550177 0.16583832 -0.21717042 0.19014847
000020 a8 94 3d 3e a7 f4 45 3e b2 9e 4a 3e 49 82 38 3e
       0.18513739 0.19331609 0.197871 0.1801845
000030 ca 98 53 3e e4 8a 5c 3e f8 11 48 3e 10 ce 34 3f
       0.20663753 0.21537358 0.19538105 0.70626926
000040 30 9e 8d 3e d1 c9 21 3f c5 a9 6d 3f 9c 93 07 3f
       0.2765975 0.6319857 0.9283717 0.5295961
000050 5a f1 4f 3e d6 df 75 3e 42 1f be 3e fb 9d 1e 3f
       0.20306912 0.24011168 0.37133223 0.6195981
000060 16 ad 54 3e af 62 bb 3c 9a 27 c4 bc d0 dd 81 3d
       0.20769152 0.022874204 -0.023944665 0.063411355
000070 5c ea fe 3c 3f 1d 46 bd 8d 0e bb b8 f0 22 0d 3d
       0.03111761 -0.048367735 -8.919565e-05 0.034457147
000080 37 57 8c 3d 01 68 a0 bc 7f 80 59 be 8a e0 0b 3c
       0.068525724 -0.019580843 -0.21240424 0.008537421
000090 80 ff ee 3c 45 cf a4 3e b3 90 bc 3e b9 09 3d 3f
       0.029174566 0.32189384 0.36829147 0.7384296
0000a0 74 f6 1b bc 1f b5 d5 bd bd d6 c3 3e 53 4b 9a 3f
       -0.009519208 -0.10434937 0.3824977 1.2054237
0000b0 9d 37 a2 3f db 4d 41 be 21 0c 94 be 90 af 58 3f
       1.2673222 -0.18877356 -0.28915504 0.8464289
0000c0 60 0f 93 3f ab 8f 44 40 c9 29 88 3e e1 86 33 3f
       1.1489067 3.0712688 0.2659438 0.70127684
0000d0 8a 3f 90 3e 40 21 89 3f 99 4d 03 40 29 48 8e 3e
       0.28173476 1.0713272 2.0516112 0.2778943
0000e0 c8 4e bd 3e 4d 67 5a 3f 0b 59 93 3f a3 b6 ab 3f
       0.36974168 0.85313874 1.1511549 1.3415111
0000f0 4d 29 89 3e a2 a2 26 3f ab 9e 8f 3e 8e 7e a6 3e
       0.26789322 0.6509191 0.28050742 0.3251843
000100 69 e2 11 3f 66 10 9a 3e 2d 9c 1f 3f db c6 92 3e
       0.569861 0.30090636 0.6234768 0.2866734
000110 81 e9 78 3c 9b c6 39 be 64 b3 92 3e 91 8a 1f 3f
       0.01519239 -0.18142168 0.2865249 0.6232081
000120 6e 3d 8f 3e 40 21 9d 3c e9 5b 72 3e cd bc 86 be
       0.27976555 0.019180894 0.23667873 -0.2631592
000130 7d 62 cc be 3e 04 13 3e ee 9e 48 3f cd b9 04 40
       -0.3991889 0.14357087 0.7836751 2.0738404
000140 b5 11 7e bc 7c f5 8e 3c af 6d 15 3e ed f1 60 be
       -0.015507151 0.01745104 0.14592622 -0.21967287
000150 1f 1e cc be 95 66 d4 3c f1 72 2b bd a4 7e 0c 3d
       -0.3986673 0.025927821 -0.041857664 0.03430046
000160 e4 01 08 3e a3 df 40 3d 4f da bf 3c c2 10 cb bd
       0.13281971 0.047088277 0.023419527 -0.09915306
000170 84 12 5a bb f9 16 63 3d 15 3c 0d 3e 44 d1 84 3c
       -0.0033275196 0.05544183 0.1379245 0.016213067
000180 4b dd 02 be fd 4d 75 bd 84 9b 02 bd d8 65 3b be
       -0.12779729 -0.05988883 -0.031886593 -0.18300569
000190 8e 52 d6 3f 76 d0 c4 3f 91 82 89 3e be cd 5d 3e
       1.6743944 1.5376117 0.26857427 0.21660516
0001a0 ac af 89 3e a2 b4 84 3f 67 78 82 3f 74 6b 8d 3e
       0.2689184 1.0367625 1.0192994 0.27621043
0001b0 e6 ed 65 3e e9 9f 8c 3e 98 56 99 3e 42 2e f8 3e
       0.22454032 0.27465752 0.29948878 0.48472792
0001c0 de 6c 7b 3e fa ff 3e 3e 0a e9 4f 3e b7 05 a4 be
       0.24553248 0.18652335 0.20303741 -0.3203561
0001d0 bc 02 38 be 5f 5f 56 bd fe f5 89 bd e6 02 8d bd
       -0.17969793 -0.052337047 -0.067363724 -0.068853185
0001e0 43 90 65 be 65 32 35 be 56 be b8 3e c5 a5 d9 bb
       -0.22418313 -0.17695005 0.36082715 -0.0066420757
0001f0 46 3a 17 3d 91 fe 34 3f 78 51 31 3f 9f d6 28 3f
       0.03692081 0.7070094 0.69264936 0.65952486
000200 2c c5 76 3e 6b fd 5c 3e 3d 36 62 3f 4d b2 60 3f
       0.24098653 0.21581046 0.8836401 0.87772065
000210 02 97 34 3f 4d 67 6b 3e 94 8a 75 3e 36 8b 5a 3f
       0.7054292 0.22988625 0.23978645 0.8536867
000220 4b 5d 5d 3f bc 5c 8e 3e e6 ab 72 3e c5 58 3c 3e
       0.8647048 0.27805126 0.23698387 0.18393238
000230 db 2d 7c 3f 40 23 2b 3f 0e 45 8e 3e 3b 6e 72 3e
       0.9850747 0.6685066 0.2778706 0.23674862
000240 4b 35 75 3e 21 62 3f 40 d0 0c 2b 3f be 35 8b 3e
       0.23946111 2.9903643 0.66816425 0.2718944
000250 cb b1 5f 3e 7f eb 73 3e
       0.21845166 0.23820303

conv1.bias f4 [6]
000000 bd 3d 8a be 7a cf c8 be 94 ee b1 be a9 31 23 be
       -0.27000228 -0.39220792 -0.34752333 -0.15936913
000010 15 e3 9e be 3b be 99 be
       -0.31032625 -0.30027947

conv2.weight f4 [16, 6, 5, 5]
000000 16 79 4e bd 65 2f 99 bd 45 d5 6e 3d c1 e2 d3 3d
       -0.050408445 -0.07479743 0.05830886 0.10345984
000010 b5 ab c0 3d 13 ac 59 bc 22 53 e3 bc 3e a8 0d 3e
       0.094077505 -0.013285655 -0.027749602 0.1383371
000020 d0 64 c9 3d fe 0d bd 3d a9 66 d8 3b 4c 77 73 bc
       0.098336816 0.092311844 0.006604035 -0.014859986
000030 d0 8a 88 3d 18 00 32 bc dd c2 91 bd 09 3f 43 3d
       0.066671014 -0.01086428 -0.07117245 0.047667537
000040 5c 3b 0c bd fe 36 c5 bd 74 1d bd bc b6 0d b9 bd
       -0.034236297 -0.096296296 -0.023085333 -0.09035818
000050 34 08 24 bc 35 98 93 3c 00 09 3b bc 0e b3 58 3b
       -0.010011721 0.018016914 -0.01141572 0.003306571
000060 af 40 10 39 fb 40 d4 3d f0 f7 d0 3d e9 9a 19 3a
       0.00013757007 0.103639565 0.1020354 0.000585957
000070 1a 6c 53 3e fd 29 45 3f 59 63 fe 3d 5b 41 0e bc
       0.20646706 0.77017194 0.12421293 -0.008682574
000080 43 59 21 bd d1 9a 09 bd 58 4c 2e 3b e6 80 81 3b
       -0.039391767 -0.03359491 0.0026595797 0.0039521335
000090 1e 58 4e bd 49 cc 3c ba a4 f8 95 bc 9d 18 ae bd
       -0.050377004 -0.0007202072 -0.018307038 -0.08500788
0000a0 2f 40 41 3d b0 eb a9 bc 50 ef bf 3c f1 74 0f bc
       0.04718035 -0.020742267 0.023429543 -0.008755908
0000b0 d6 89 48 bd a6 b6 b8 3c e3 76 45 3b 81 df ac 3d
       -0.048959576 0.022548031 0.0030130676 0.084410675
0000c0 ab 4b bb bb 75 02 46 bd 59 e3 a6 bc 8e 38 02 3e
       -0.0057158074 -0.048342187 -0.02037208 0.12716886
0000d0 15 db 87 bd a6 c5 b3 3e 09 2c 47 3f 94 e0 a4 bc
       -0.066335835 0.3511173 0.7780157 -0.020126618
0000e0 f9 83 92 bc b6 b4 fc bc db d0 02 3e ff a4 c7 3e
       -0.017885195 -0.030847888 0.12774985 0.3899307
0000f0 64 b2 8d bd d4 f1 72 bc 74 90 66 bd 33 ca c8 3b
       -0.06918791 -0.014828164 -0.056290105 0.0061276197
000100 53 2f 46 3e 93 04 8c 3d 13 dc c1 bc c8 22 dc bb
       0.1935399 0.0683681 -0.02366451 -0.0067180134
000110 49 4f 92 bd 43 fa 5e be 7a 86 8e 3c 8d 9f 37 3d
       -0.07144029 -0.21775155 0.017398108 0.044829894
000120 a1 68 bf 3d f7 ca 86 3d 68 09 2c 3c 5c de 9c 3e
       0.09346128 0.06581681 0.0105002895 0.30638397
000130 a2 a9 21 3e c5 87 86 3d 18 02 b5 3e e2 73 38 3f
       0.15787366 0.06568865 0.3535316 0.72051823
000140 69 28 b3 3c d1 a6 b7 3d c1 7a 07 bc b3 37 fc 3d
       0.021869855 0.089673646 -0.008269013 0.12315311
000150 ab 23 0d 3f a9 c1 84 bc ea 0d aa 3d a2 63 b4 bd
       0.5513255 -0.016205626 0.08303435 -0.08808066
000160 40 67 21 3e 36 58 32 3e 48 46 ad 3d 3f 1b 8d 3d
       0.15762043 0.17416462 0.08460671 0.068899624
000170 9f 4f 4f 3d b6 36 18 be f6 1b b7 bd e7 32 dc 3d
       0.050613042 -0.1486462 -0.0894088 0.10751896
000180 f2 3a 60 3d 0e a0 14 bd 70 ca de bc ed a4 8c 3d
       0.054743715 -0.036285453 -0.02719614 0.068673946
000190 e7 75 91 3e 5f 39 e4 bd 16 95 22 3d 62 61 2a 3e
       0.28410265 -0.11143755 0.03969296 0.16638711
0001a0 70 1f e6 3e ff 3e f0 bd 13 0e 9d bd a8 70 10 3e
       0.4494586 -0.117307656 -0.076687 0.14105475
0001b0 d1 20 c8 3d bd a9 7b 3d 05 eb 97 3d b5 7a ac 3c
       0.09771884 0.061441172 0.07417873 0.021054605
0001c0 6a 66 8f 3d 8c 54 e0 3c 31 bb ae 3c 8d 3b cb 3d
       0.07001956 0.027384065 0.021329494 0.09923468
0001d0 3b ee a0 bc e0 19 c3 3d 91 88 19 3d 2b 41 ca bd
       -0.019644847 0.0952642 0.037483755 -0.09875711
0001e0 df 2c 4c 3d f1 90 32 bd 76 58 75 3d 6e 4e 5d 3a
       0.04984748 -0.04359526 0.059898816 0.0008442168
0001f0 12 73 38 3d e2 27 9e 3d a6 a9 07 3c 0f 89 29 bd
       0.045031615 0.07722451 0.008280193 -0.041390475
000200 cc 38 90 3d 8b fc 8d 3e 76 d8 3b bb 6b 8e 97 bc
       0.07042083 0.27731737 -0.0028662956 -0.018500527
000210 da f2 27 bc b4 5a 21 3c 54 bf e6 3d c5 39 e1 3c
       -0.010250771 0.0098482855 0.11266962 0.027493367
000220 83 20 19 bd d7 e4 81 bd e5 9a f8 bc 8e ec 87 3b
       -0.03738452 -0.06342476 -0.030347297 0.0041480726
000230 03 ba c9 3c 2a 42 9b bd 90 66 29 bd 31 3d a7 bc
       0.02462483 -0.07580979 -0.041357577 -0.02041492
000240 88 e5 8f bc 14 02 0f 3d 05 71 d9 bc af 10 c0 bc
       -0.017565504 0.03491409 -0.02654315 -0.023445455
000250 22 30 29 bd 1a 03 d1 bd 6a 32 6a 3e 08 d9 35 3e
       -0.04130567 -0.1020567 0.22870794 0.17758572
000260 5e d5 ce 3d ff 4d 5b 3d 0e cf b4 3d d9 a4 82 3e
       0.1009929 0.05354118 0.08828555 0.25516394
000270 99 6d 0e 3e aa f8 ec 3d 31 c6 19 3e 51 16 c7 3d
       0.13908996 0.115708664 0.1501701 0.097210534
000280 ab f9 70 bd ce 15 5e 3c 2e 52 19 3d 23 d2 54 bd
       -0.058831852 0.013555003 0.03743189 -0.051958214
000290 5c 6b 93 bd e8 f9 c2 bd 2e 4e c0 bc be 0b e1 bc
       -0.071982116 -0.09520322 -0.023474779 -0.02747142
0002a0 3c 82 44 3c 2a 1c d6 bd ce e7 29 3d 02 0a 0c 3c
       0.011993941 -0.104545906 0.04148083 0.008547308
0002b0 a0 6d 03 bd c1 8c 89 3d 88 05 73 bc fb 60 0c 3e
       -0.03208697 0.067163 -0.014832862 0.1370887
0002c0 2a 74 88 3d 21 9b 68 bd 84 df 78 3d 50 af 4a 3e
       0.066627815 -0.056788567 0.060760036 0.19793439
0002d0 0f d7 70 3d 1e 25 c2 3d e3 87 3a 3d 1f 52 cd 3d
       0.058798846 0.09479736 0.045539748 0.10025429
0002e0 74 c9 58 3e a0 9a 89 3d 48 a2 b2 3c c3 ff f8 3d
       0.21170598 0.067189455 0.021805897 0.12158158
0002f0 ea 7c 8c 3d 75 95 f5 3c 74 33 fb 3c f6 09 1c bd
       0.06859763 0.029978493 0.030664183 -0.038095437
000300 7d 62 37 bc f1 8e 2d bd 48 ef 51 bd 1b 68 8d 3d
       -0.011192915 -0.042372648 -0.051253587 0.06904622
000310 9c 01 1f bd 11 ff 94 3c 43 35 c6 3d 63 8c 8f 3d
       -0.038819894 0.018188031 0.096781276 0.070091985
000320 b7 e3 03 3e 0e 72 39 3e cd 7b 7d bd 63 9c fe 3d
       0.12879835 0.18109915 -0.061885644 0.12432172
000330 ea 68 83 3f 7c d8 0b bd d9 eb a7 3b 15 b4 a7 bd
       1.0266392 -0.034142002 0.005124551 -0.08188645
000340 c3 b5 a3 bd 6c aa 3b 3d 8d 11 97 3c 20 a8 31 bd
       -0.07993653 0.045816824 0.018440986 -0.043373227
000350 7f c1 93 bd b9 34 c2 bc b8 df 12 be 74 36 12 bc
       -0.07214641 -0.02370678 -0.14343154 -0.008924115
000360 0a 94 6c 3c c1 c7 53 3d b0 e1 6e 3d 09 9c 0f 3c
       0.014439592 0.051704172 0.0583207 0.008765229
000370 33 cd a5 bc e3 08 88 bd 4b 45 f3 bb 79 ab 07 3c
       -0.020239448 -0.0664232 -0.007424032 0.008280628
000380 bd 50 09 3e a0 a6 ab 3e 66 96 c6 3e a7 9f c0 3d
       0.13409705 0.33525562 0.3878662 0.09405451
000390 aa 0a 16 3e 22 45 a5 3f b1 92 04 3e 43 c3 c3 3d
       0.14652506 1.2911723 0.12946583 0.095587276
0003a0 00 1d 2a 3d bb 94 94 bd 12 2c a9 3d 1f 53 27 3d
       0.041531563 -0.072549306 0.08260359 0.040850755
0003b0 9a 60 88 3c 3c fa 7a 3c f2 19 c5 bc 5d cc f0 b9
       0.016647626 0.01531845 -0.024060223 -0.0004592863
0003c0 33 29 b5 3c 44 6f 7a bc 74 4b c5 3d a9 da 10 3e
       0.022114372 -0.015285317 0.09633532 0.14145912
0003d0 9c 4c de 3d 16 08 92 3d 4d 50 d4 3c c7 ed af ba
       0.10854456 0.071304485 0.025917197 -0.0013422304
0003e0 0a 17 64 3d f3 cc 9e 3d 27 d1 c0 3e 0c ba cb 3d
       0.055686034 0.07753935 0.3765957 0.09947595
0003f0 2f 8c bd bc 29 77 b5 3e 03 70 ec 3e f0 19 08 3e
       -0.023138134 0.35442474 0.46179208 0.13291144

conv2.bias f4 [16]
000000 f2 d4 40 bd fc 09 f2 be 58 9e 0b bf 84 2d 2e bd
       -0.04707808 -0.47273242 -0.5453849 -0.042523876
000010 b0 06 c8 3f 71 55 2b be 47 1d 05 bf 37 06 8b bd
       1.5627041 -0.16731812 -0.519978 -0.06788295
000020 2b b4 36 40 2a 01 16 40 83 88 87 bd 87 95 90 39
       2.8547466 2.343821 -0.066178344 0.00027577227
000030 7d 1d 14 bf 0c d0 c3 be 28 24 86 be 9e fc 81 be
       -0.57857496 -0.38244665 -0.2619946 -0.25388044

fc1.weight f4 [120, 400]
000000 1c 88 1e bd a7 00 16 bc 43 b3 8c bc 0a dc f2 bc
       -0.038704023 -0.009155429 -0.017175322 -0.029645938
000010 14 dd 1b be 47 84 7a bc ba db bb 3a a9 c5 94 bc
       -0.15221053 -0.015290326 0.0014332451 -0.018160658
000020 37 74 04 bd c7 67 bc bd 03 d8 58 bd c4 15 2b 3d
       -0.032337394 -0.091994815 -0.05294038 0.041768804
000030 de 0d 35 bc 79 fe 8e 3c 8f 7c df bc ff c4 8c 3c
       -0.0110506695 0.017455326 -0.027281074 0.017183779
000040 e6 34 6b 3b 72 01 3f bd ec c4 f7 3c ff 01 a0 bb
       0.0035889684 -0.046632238 0.030245267 -0.0048830505
000050 03 b3 93 bc ad 38 22 3d 11 c6 8c 3c 78 32 de 3c
       -0.018029695 0.03960483 0.01718429 0.027123675
000060 f0 d9 67 bd 7c 0a c5 bd c5 b6 df bb 83 97 1e bd
       -0.056604326 -0.0962114 -0.0068272077 -0.03871871
000070 5a 0e b1 3c d5 07 48 be a3 d3 06 bd f8 12 95 3b
       0.021613289 -0.19534238 -0.032916676 0.0045493804
000080 33 7b 41 bd 43 34 46 b9 37 ec 07 b9 1d 95 04 bc
       -0.047236633 -0.0001890222 -0.000129626 -0.008092192
000090 c4 f7 01 bd 05 c4 11 3d 99 4e d6 bc 8f 0b b0 bd
       -0.03173043 0.03558733 -0.026160525 -0.085959546
0000a0 f5 b3 92 3c a3 af 8e bc ca 30 17 3c 2d ee ba bb
       0.017908076 -0.017417734 0.009227941 -0.0057046623
0000b0 1c 60 51 3c 46 63 16 bd db 4a a1 bc 5d 34 48 bd
       0.012779262 -0.03671577 -0.019689014 -0.048878063
0000c0 36 aa c5 3c 4d 50 a6 3b ef 75 8a 3d 35 b4 b0 3d
       0.024129014 0.0050754906 0.06760775 0.08628122
0000d0 0e 4a f0 3c ea 87 cd 3c 16 42 20 3e 73 8e 7e bb
       0.029332187 0.025089223 0.1565021 -0.003884223
0000e0 98 20 09 bd 6c e0 74 3d ff 17 19 bc 63 cd 69 3d
       -0.03347835 0.059784338 -0.0093441 0.057080638
0000f0 50 2c d2 3b 5e 53 5f bd 34 39 c7 3b 0f 99 53 3d
       0.006413974 -0.054522865 0.006079817 0.05165964
000100 d4 7b 97 3d f5 7b 10 bd f0 a9 16 bd a2 47 43 bd
       0.07396665 -0.035274465 -0.03678316 -0.047675736
000110 30 0e 6d 3c 35 e1 2a 3c ad a2 01 3d 0c 4e 0a 3d
       0.014468715 0.01042967 0.03164928 0.033765838
000120 dd de 45 bc 58 15 28 3c a5 e9 c9 3d e2 35 4d be
       -0.0120770605 0.010258995 0.09859017 -0.20040086
000130 68 6e c6 bd 18 9f 19 bc 71 b9 eb bc 28 c6 f7 bc
       -0.09689027 -0.00937631 -0.028774949 -0.030245855
000140 b7 0e ee bd 73 c5 8e bc 40 51 8d 3c c2 84 24 3d
       -0.116239004 -0.017428135 0.017250657 0.04016567
000150 43 bb 2c bd fc 15 c6 bc f4 72 f7 bc 61 54 1e 3d
       -0.042170774 -0.024180405 -0.030206181 0.03865469
000160 91 e0 aa bc 15 59 36 3d 8c ab 5a bd 7b e0 e1 bc
       -0.020859035 0.04451855 -0.053386256 -0.027572861
000170 3f 87 bd 3c 24 c0 08 3c 33 39 3b 3d 27 d7 9b bd
       0.02313578 0.008346591 0.045708846 -0.076093964
000180 07 9f e6 bc 86 7d 1e 3d 28 70 9f 3c 47 34 51 3d
       -0.028152002 0.038693927 0.01946266 0.051075246
000190 06 3e bf 3d 58 b9 4a 3d 85 c8 85 3d bb 02 76 3c
       0.09338002 0.049493164 0.06532387 0.015015299
0001a0 31 8c 07 3d 68 c7 4b 3d 63 de 92 3d f3 10 a0 3d
       0.03309268 0.049750715 0.07171323 0.07815733
0001b0 ed 8c c1 3c 13 8d aa 3d 52 b8 64 3d be 8c a2 bc
       0.023626769 0.08327689 0.055839844 -0.019842502
0001c0 cf 72 a4 bb fb 2a f5 3c e0 cd 8b 3c 54 66 07 3c
       -0.005018569 0.029927721 0.017065942 0.008264143
0001d0 b7 91 47 3d fe 56 5c 3d 2d 24 3e 3d f8 70 a4 bb
       0.04872295 0.0537939 0.04642122 -0.0050183497
0001e0 b0 a7 94 3d 43 07 9d 3d a5 8a 08 3d 01 a9 d6 3d
       0.07258546 0.07667401 0.033335347 0.10481454
0001f0 45 6c bc 3d 55 a0 35 bd 1f 8b 01 3c 03 d4 d2 bc
       0.09200338 -0.044342358 0.007906704 -0.02573586
000200 2c df 9f bd 84 bf f2 bd 58 cc 26 bc e0 ee ad 3c
       -0.078062385 -0.11852935 -0.010180555 0.021232069
000210 ac c6 31 bd 81 45 8c bc 96 54 3f 3c 14 1f 5a 3b
       -0.04340236 -0.017122986 0.011677882 0.0033282684
000220 27 ad 69 bd a5 4f 78 bd 35 1f 02 bd 37 0b a0 3a
       -0.057049897 -0.06062283 -0.031768043 0.0012210374
000230 6e 11 bc bc c0 5a d2 bc 68 b4 81 bd 6f a3 35 bd
       -0.02295753 -0.025678039 -0.06333238 -0.044345316
000240 f0 8b 1a bd 9b a3 bc bd 03 f7 89 bb 6c 12 7b bd
       -0.03773111 -0.09210893 -0.0042103543 -0.061296865
000250 e8 f5 92 bc 54 47 34 bd 53 5b fe 3b d9 f3 52 bc
       -0.017939523 -0.044013336 0.0077623515 -0.012875521
000260 f0 49 23 bd 98 2d 53 bc d5 2b 71 bb ee a7 b2 3d
       -0.039865434 -0.012889288 -0.0036799808 0.08723436
000270 3f 62 2d 3c b6 ca 8d bd 18 27 d2 3b d9 50 4c bc
       0.010582506 -0.0692343 0.0064133517 -0.012470447
000280 55 1d 84 3d 69 80 24 3d 8f 8d 5e 3c d8 a6 06 bd
       0.06450907 0.040161524 0.013583555 -0.03287396
000290 f2 af 70 bc da a9 b0 3c d4 42 28 3d ec 1d 29 3d
       -0.014690386 0.021565367 0.041079357 0.0412883
0002a0 ba 85 3e bd 85 4e ef 3c be 99 36 3e 63 7f a5 3d
       -0.04651425 0.029212246 0.17832085 0.08080938
0002b0 86 2d 83 3d 8a 40 62 3d 10 1f 07 3d 32 83 1f bd
       0.06405167 0.05523733 0.032988608 -0.038943477
0002c0 c6 a0 28 3d 0c fc 31 bc 3c 40 05 bc 6f 28 33 bd
       0.04116895 -0.010863315 -0.00813299 -0.043739732
0002d0 f0 62 9b bc 13 1e 20 3d 8d 0f 3f 3d 84 52 99 3b
       -0.018968076 0.03909118 0.04664569 0.004679026
0002e0 f2 49 0c 3d 6b 8b a9 bd 07 eb fc bc 49 e8 0f bc
       0.034250207 -0.08278545 -0.030873789 -0.008783408
0002f0 64 82 98 bb 5b da 45 bd 75 a7 09 bd 75 30 f0 3b
       -0.0046542156 -0.048303943 -0.033606965 0.0073299953
000300 78 3f b9 bc 8b 27 c7 bc 83 34 0f bb 5a e8 c4 bd
       -0.022613272 -0.024310848 -0.0021851368 -0.0961463
000310 1e b1 0f bd 0c 07 3b bc 48 8e 4a 3c 31 dd af 3c
       -0.03508102 -0.011415254 0.012363024 0.021467777
000320 16 a7 01 3e 55 8e bb 3d 43 06 a0 3d 4f 77 f3 3c
       0.12661394 0.09158007 0.07813694 0.029719977
000330 2c d2 cb 3d 96 c1 bc 3d 54 d8 b4 3d c5 bb 0b 3d
       0.099521965 0.09216611 0.08830324 0.034114618
000340 30 a1 b6 3d f9 75 d1 3d bf 47 ff 3d 58 c5 d3 3d
       0.08917463 0.102275796 0.12464856 0.10340375
000350 70 cd 8e 3d 07 94 75 3b 0a 94 8d 3d 93 86 c4 3d
       0.06972778 0.0037472264 0.06913002 0.095959805
000360 77 c1 9d 3d 29 91 05 3d dd 89 ab 3d fa 97 f1 3d
       0.07702916 0.03260914 0.08375905 0.11796565
000370 93 46 e9 3d f8 04 c2 3d b3 36 76 3d 09 58 9f 3d
       0.11390414 0.09473604 0.06011076 0.07780463
000380 b7 65 9b 3d 3d 2a 1a 3e f5 4e a2 3d c2 f9 df 3d
       0.0758776 0.15055175 0.07925216 0.109363094
000390 cc ee 77 3d 2a 43 02 3e bb 26 77 3c de 41 56 bc
       0.06053047 0.12720934 0.015084918 -0.013077227
0003a0 ec 13 d1 3c a8 09 88 bb 23 7f 3d 3d 1f 24 64 3d
       0.025522195 -0.0041515417 0.046263825 0.05569851
0003b0 8f c3 1b 3d 19 4b 6c 3d 8c ab be bb f8 50 7d 3d
       0.038028296 0.057688806 -0.00581879 0.061844796
0003c0 13 8e ab 3d 81 c6 4a 3d f5 c0 1d b9 a7 35 c4 3a
       0.08376708 0.049505714 -0.00015044569 0.0014969603
0003d0 83 27 b9 3c 67 3e 45 3e 6f ed 05 3d ec b7 de 3d
       0.022601848 0.19262086 0.032697137 0.10874924
0003e0 44 8e ba 3d 8b 10 16 3e bd d3 04 3c ef 07 b4 3b
       0.09109166 0.14654748 0.008107123 0.00549411
0003f0 6e 04 85 bc 65 89 f4 bc e0 e6 c2 bd c0 98 07 3d
       -0.016237464 -0.029850671 -0.09516692 0.033104658

fc1.bias f4 [120]
000000 b6 c4 3d 3e d9 7b 8f bd b0 f2 31 be c5 ad fa 3e
       0.1853207 -0.07006044 -0.17377734 0.489607
000010 d5 eb e3 bd 5a 4f 98 3e e4 17 f0 bc 1d 29 5f be
       -0.11128966 0.2974804 -0.029308267 -0.21793027
000020 05 01 40 bc 06 70 2e bc 1e 30 9f 3d 17 19 ec 3e
       -0.011718993 -0.010646826 0.077728495 0.46112892
000030 0b 25 d5 bc dd 66 a4 3d b5 4d d6 bd f8 04 1d be
       -0.02601864 0.08027432 -0.1046404 -0.15333927
000040 3f b0 1d be 78 44 ba 3e d8 e7 5a 3a 27 c6 3b 3d
       -0.15399264 0.36380363 0.00083505874 0.04584327
000050 6b 7c f5 bc 04 3e 1e 3e 9c bc e5 3c 41 80 0c be
       -0.029966554 0.15453345 0.028044038 -0.137208
000060 40 b1 a7 bb c2 1a 94 bc 54 d0 08 bd 48 b6 7a bd
       -0.0051175654 -0.018079165 -0.033401802 -0.061208993
000070 94 2a ff bc 98 7c 49 bd 90 c6 0b 3e c8 41 1c 3e
       -0.031148233 -0.049191087 0.13649964 0.15259469
000080 b3 f9 fd 3d 2f 03 12 bd 77 5a d2 3e 81 c4 3f bd
       0.12401142 -0.035647567 0.41084644 -0.04681826
000090 2b 6f 28 bd 5d f5 21 bd 06 74 45 3d 09 d7 b8 3d
       -0.041121643 -0.039540637 0.04820635 0.0902539
0000a0 85 c7 27 be c1 c2 44 bd 39 1f 12 bd 9d 24 ef bd
       -0.16384704 -0.048037294 -0.035674307 -0.11676905
0000b0 41 78 8e 3c 6f 7d 19 3e 8e ea 99 3b b5 40 18 be
       0.017391326 0.14989255 0.0046971506 -0.14868434
0000c0 f0 41 bc bc e6 32 b1 3d 30 a6 73 bd 92 e0 e2 3e
       -0.02298066 0.08652286 -0.05948466 0.4431196
0000d0 59 fd ba 3c 6c ca aa bc c3 36 c4 bc bd eb 04 bd
       0.022825884 -0.020848475 -0.023951894 -0.03245138
0000e0 77 53 2a bc ef b1 03 3e 6f f4 30 bd f9 f3 ac 3c
       -0.010395876 0.12860845 -0.04320186 0.021112429
0000f0 6e f7 61 bd 0a 72 13 bd 26 fc c1 bc e0 4d 4e 3e
       -0.055167608 -0.035997428 -0.023679804 0.20146894
000100 4a a9 05 bd 67 56 c1 bd 4f fb 22 3e 81 e9 24 bd
       -0.03263215 -0.09440308 0.15916179 -0.04026175
000110 45 79 93 3e 20 b2 c4 3d 89 31 55 bd fc f6 15 3e
       0.2880346 0.09604287 -0.052049194 0.14644998
000120 71 33 a8 3a a6 86 cc 3b c3 8c 95 bd 4f 92 4e bd
       0.0012832714 0.0062416373 -0.07302239 -0.0504325
000130 1e af 10 bc 5f 57 40 3d 55 3e 7d 3e 36 18 71 3e
       -0.008830814 0.046958324 0.24730809 0.23544392
000140 2b 98 36 bd 2d 54 2a 3d ab 87 64 bb 2c b0 00 bd
       -0.044578712 0.041584183 -0.0034870903 -0.03141801
000150 22 c5 e1 bc 63 8d 09 bc 15 92 2f be 53 86 dc bc
       -0.02755982 -0.008395526 -0.1714557 -0.02691952
000160 66 3a 39 bc 21 b4 02 be a4 01 ef ba fc 0e 9d bc
       -0.011305427 -0.12764026 -0.0018234742 -0.019172184
000170 4e fb a3 bd c8 73 a1 bc 81 a9 e1 3d ee 95 cf 3d
       -0.08006917 -0.01970853 0.110186584 0.10136019
000180 71 83 f5 3d 00 49 f7 3b ba 67 16 3d 65 aa 97 bc
       0.11987961 0.007546544 0.036720015 -0.018513868
000190 16 52 10 be 19 a5 2e bd af 0e db 3b d5 9b 23 bd
       -0.14093813 -0.04263792 0.0066851 -0.039943535
0001a0 c5 75 14 3c de 71 d2 bd de a7 9d 3c 6e 6b e9 bd
       0.009061282 -0.10275625 0.019245084 -0.11397444
0001b0 bd 5d 00 be 35 55 73 bd b6 44 84 bc 4f 2a 89 be
       -0.12535758 -0.05940743 -0.016146045 -0.2679009
0001c0 7c fc 34 bd f6 93 ee bc 64 f2 14 be 1d 5d 44 bd
       -0.0441861 -0.029123288 -0.1454559 -0.047940362
0001d0 81 9c d9 3c d6 46 97 bc 2a 27 66 bd 78 54 6b 3e
       0.026563885 -0.018466394 -0.056189694 0.22981441

fc2.weight f4 [84, 120]
000000 12 19 bf bc 50 bb 5a 3c e6 34 43 bc 11 8b 3f bd
       -0.023327384 0.013350323 -0.011914467 -0.046763483
000010 5d ef 8b 3b c2 b8 87 bd 5e 58 03 bc 8a af 96 bd
       0.0042704777 -0.06627037 -0.008016674 -0.073577
000020 f6 d5 40 bc c5 a6 ef 3b 23 56 48 bd 49 bd d1 bc
       -0.011769762 0.0073135816 -0.04891027 -0.025602954
000030 52 2f b8 3d 06 0b 42 3d 90 57 5f bd 6b de 8a bd
       0.08993401 0.047373794 -0.054526865 -0.06780704
000040 15 99 0c 3d 80 fe 6d bd 2a 41 ba 3b 47 dc aa bd
       0.034325678 -0.05810404 0.0056840377 -0.08342796
000050 e9 30 ab 3d 88 72 a4 bd c6 68 01 bd cf f9 2d bd
       0.08358938 -0.080296576 -0.03159406 -0.042474564
000060 36 0e 39 3d b6 e9 bc 3a f4 17 63 bc 4b 01 64 bd
       0.04517957 0.0014412913 -0.013860691 -0.055665296
000070 f9 93 0c bc 87 0a 99 bd 6f d8 a1 bd 5e 9b a8 bd
       -0.008580201 -0.07472711 -0.079026096 -0.08232759
000080 f4 50 79 3d cb 17 81 3d 32 c6 25 bd e2 c2 a8 3d
       0.06086822 0.06303366 -0.040472217 0.08240296
000090 98 9f 7b 3c 6a f2 86 3d 3b 5b ad bd 5a 43 2b bd
       0.015357874 0.065892056 -0.084646665 -0.04181228
0000a0 9a f0 b6 bd 52 3c a0 bd 8f 7f 8d 3d c6 85 92 3d
       -0.0893261 -0.07824005 0.069090955 0.071544215
0000b0 e9 9f 96 3d ae 62 fb 3c fd ee 94 bd a9 90 16 3d
       0.07354719 0.030686703 -0.07272146 0.036759052
0000c0 b1 13 5d bd 70 9b 33 bc 4f ad a2 bd 8b 30 ba bd
       -0.053973857 -0.010962352 -0.07943212 -0.0909129
0000d0 33 1d c5 3c b2 3f e9 3c 97 96 b4 3c 63 c2 d8 bc
       0.024061775 0.028472755 0.022044463 -0.026459878
0000e0 be 0f b9 bd 33 29 3d bd 91 6c ba bd 02 d2 ad bd
       -0.09036206 -0.04618187 -0.09102739 -0.084873214
0000f0 82 c7 1e 3d 7a 66 79 bd 01 40 81 bd 90 24 06 3d
       0.038764484 -0.060888745 -0.06311036 0.032749712
000100 e1 98 89 3d 68 7f b4 bd ba b8 85 bd d0 d2 33 bd
       0.067186125 -0.08813363 -0.065293744 -0.04390222
000110 20 c8 b4 bd 76 17 91 bc e9 d5 a4 bd 4a 85 72 3d
       -0.08827233 -0.017711382 -0.080486126 0.059209146
000120 86 c6 a8 bc 10 32 7f bc d7 ab 9f 3d 3b 72 0b 3d
       -0.020602476 -0.015575901 0.07796448 0.034044486
000130 14 61 08 bd c8 89 75 bc 56 4e 05 bc dc 21 91 3d
       -0.033295706 -0.014986463 -0.0081363525 0.07086536
000140 b5 fa 98 3c b7 f3 ae 3d 6c ee cf bc 5e 23 9b 3d
       0.018674234 0.08542579 -0.025382243 0.07575105
000150 fb f1 b4 bd be 7c 09 3d 3e 4d 50 3c 04 fd 85 bd
       -0.088352166 0.03356623 0.0127137285 -0.065423995
000160 6b 39 2c bd c5 7c 1f bd 18 f9 9b bb eb 3d 8d 3d
       -0.042046946 -0.03893735 -0.004759919 0.068965755
000170 07 89 a0 3d 8f 71 76 bd 8a 24 46 3c e0 75 c8 3c
       0.07838636 -0.06016689 0.0120936725 0.02447027
000180 5f e4 78 3d 41 99 87 3d 52 f1 80 bb f8 cb 68 bd
       0.060764667 0.06621028 -0.0039350176 -0.056835145
000190 5d 79 90 3d 3f 0b 83 3d 2c 9d a6 bd 78 a1 a8 3d
       0.07054398 0.063986294 -0.08135447 0.08233923
0001a0 90 2b 90 3d f1 06 7b 3d fd d6 f5 3c 37 20 94 3b
       0.07039559 0.061285917 0.030009741 0.004520442
0001b0 2c a9 40 bc 3a 22 90 3c a6 9d 40 bd ef 67 b5 bd
       -0.011759084 0.017594445 -0.047025345 -0.088577144
0001c0 88 4e 81 3d d8 1b 0d 3d 08 0a ed 3c 8b 46 8c bd
       0.06313807 0.034450382 0.028935447 -0.068493925
0001d0 97 43 8c bd 7c 6d 72 bd 72 fd 3a 3c ba e4 b6 bd
       -0.06848829 -0.059186444 0.011412965 -0.08930345
0001e0 1f 3e c4 3d a4 15 99 bd 2a 56 44 3c 23 c8 dc 3d
       0.09582161 -0.07474831 0.011983434 0.107803605
0001f0 76 b4 7f 3d a8 5a d5 3d 1d 60 9b 3a 91 12 47 bd
       0.06242796 0.10417682 0.0011854206 -0.04860169
000200 2d 3b 88 3d 1e 11 0f 3d 1d bf 53 3c 04 96 67 bc
       0.06651912 0.034928434 0.012923983 -0.014134888
000210 7e 4a 19 bd e6 cc 10 3d 28 c7 01 3d af b7 bf 3b
       -0.037424557 0.035351656 0.03168407 0.005850754
000220 e8 25 bf 3c 72 c3 a6 bc 30 54 fa bc dc 3f b0 3d
       0.023333505 -0.020356867 -0.030557722 0.0860593
000230 71 22 66 bd 1a be aa bc 5f 01 60 bd 47 0b 8f bd
       -0.05618519 -0.0208426 -0.054688808 -0.06984573
000240 38 5d a0 3d 82 9d 36 3d c6 1b 1a 3d b6 09 38 bd
       0.0783028 0.044583805 0.037624143 -0.044931136
000250 2e a9 a2 bb 82 7b b2 3d b3 65 3f 3d f6 66 26 3d
       -0.0049640154 0.087149635 0.046727847 0.040625535
000260 5a 23 2e bd 87 20 a4 bd d4 c2 de 3d 23 7f e0 3c
       -0.042514183 -0.080140166 0.10877004 0.027404374
000270 42 0f 89 bc 3a 37 89 bd ee 99 ae bc 6f 1c 53 3d
       -0.016730908 -0.06699987 -0.021313634 0.05154079
000280 42 26 74 bd 66 d1 ae bc 6d e1 48 bd 77 f3 89 bc
       -0.059606798 -0.021340083 -0.049043108 -0.016839726
000290 e4 15 3d bd c9 4a 40 3d cb 89 77 bc 3f 4e db 3c
       -0.046163455 0.04694632 -0.015108536 0.02677071
0002a0 dc d2 ba 3d 88 12 a2 3d da e5 91 bc 08 fb 58 3d
       0.091222495 0.07913691 -0.017809797 0.052973777
0002b0 fe c6 8d 3d 92 bf 56 bd 63 33 8b 3d e5 1f 08 3d
       0.069227204 -0.05242879 0.067969106 0.033233542
0002c0 05 64 44 3c a1 cc d7 39 83 2e 94 3d a6 a7 02 3c
       0.011986737 0.00041160456 0.07235434 0.007974541
0002d0 f9 fd bd bd 5b de fd 3c 19 e4 5b 3d d9 54 90 3d
       -0.09276957 0.030989816 0.053684328 0.070474334
0002e0 ce cc a5 bc c7 dd a5 3d 89 f3 c2 bc c6 23 9a bd
       -0.02023926 0.08098941 -0.023797767 -0.075263545
0002f0 7c e3 db 3d f0 a8 94 3d 9e 38 3c 3d b4 68 ae 3c
       0.107367486 0.07258785 0.04595243 0.02129016
000300 38 78 27 bd f6 e8 7b bd be 48 2c 3d 74 6e 1b bd
       -0.040886134 -0.061501466 0.04206156 -0.037947133
000310 0d c7 87 bd 36 8e 5b bd 83 c7 a2 bc f9 bd ac 3d
       -0.06629763 -0.05360242 -0.019870525 0.08434672
000320 c1 22 18 bd bb 20 49 3b 48 d2 a0 3d ea 0b 59 bd
       -0.03714252 0.0030689675 0.07852608 -0.052989878
000330 88 6a 8f bd 9e 01 ad bd 77 61 82 bd ae 23 bf bd
       -0.07002741 -0.08447574 -0.06366246 -0.09332977
000340 04 3d 56 3d 2c 27 dc 3b 5e 95 85 3c 0e d5 41 bd
       0.052304283 0.006718537 0.016306575 -0.047322325
000350 d7 29 d3 3b c3 0a 6a bd f5 40 70 3d b9 6b 14 bd
       0.0064441967 -0.05713917 0.058655698 -0.036235545
000360 e8 14 5f 3b 02 a2 16 bd f7 09 3e bd af b3 a8 bd
       0.003403956 -0.036775596 -0.046396222 -0.08237397
000370 c8 08 a3 bd 4f 3a 40 3c d0 a2 1f bd 3a f5 67 bd
       -0.07960659 0.011732652 -0.03897363 -0.05663035
000380 3d 0b 7c bd 63 d8 d1 3b db 13 5f 3d de 2f 0c 3d
       -0.061534155 0.006403969 0.054462295 0.034225337
000390 98 8c 56 bb 5c b7 09 3d 02 df 41 bd 9d c4 90 bc
       -0.003273761 0.03362213 -0.047331817 -0.017671878
0003a0 39 9f 57 3a 39 7a 89 bd 92 cf 38 3c a2 c2 a6 bd
       0.0008225325 -0.06712765 0.011279957 -0.08142592
0003b0 55 cc 60 bd dc fc 88 3d db 5b 14 bd 8e e9 5d 3c
       -0.054882366 0.06688854 -0.036220413 0.013544453
0003c0 8c b8 82 3d f1 da ad bc 60 d2 92 3c 34 50 5c 3e
       0.06382856 -0.021222563 0.01792258 0.2151497
0003d0 aa 66 84 bd ec 14 c8 3d 16 13 a1 3d 3b c3 6f be
       -0.06464894 0.097696155 0.078649685 -0.23414318
0003e0 19 d7 56 bd ab ee 7d bd 2c 68 b9 3d c1 27 8f 3e
       -0.052451227 -0.06199519 0.09053072 0.27960017
0003f0 83 21 6e bd 3e 03 01 bb b0 eb 39 bd c6 40 bf bc
       -0.058137428 -0.001968577 -0.045390785 -0.023346316

fc2.bias f4 [84]
000000 24 e9 88 bc 8c ec 8b 3d cf 4f 9c 3e cd ed e8 bd
       -0.016712733 0.06832227 0.3052964 -0.11373482
000010 ed f8 45 3f cf 0d ba bd 67 c6 43 bd 84 23 f6 bc
       0.77332956 -0.09084665 -0.047796633 -0.030046232
000020 e8 cc ce bd da e5 30 be 9a 1c 1a 3d da ee 25 bb
       -0.100976765 -0.17275181 0.037624933 -0.0025319369
000030 aa 03 aa bc e9 e1 da 3a eb c4 c5 bd b3 b2 0e be
       -0.0207537 0.0016699407 -0.096567 -0.13935356
000040 30 38 fe 3e c7 68 5b 3d dc 95 03 be 84 6b b3 bd
       0.49652243 0.05356672 -0.12850136 -0.08760741
000050 1b e3 55 bd 42 9a 2c 3d d4 ba 4f 3e 72 a3 1b be
       -0.052218538 0.0421393 0.20286113 -0.15199068
000060 4a 2c e2 bd 01 a8 8f bd df 7b 22 bc 2e 52 76 bd
       -0.11043604 -0.07014466 -0.0099172285 -0.060136966
000070 00 2b 33 bd f2 5a 45 bd cd 90 2a be 80 3f 51 bb
       -0.04374218 -0.048182435 -0.166568 -0.0031928718
000080 51 9a bd 3e a9 a9 47 3e c1 1f a7 bd 45 a9 16 3e
       0.37031797 0.19498314 -0.081603535 0.14713009
000090 1a 31 8b bd d3 71 9e bd 64 6d ef bc 58 1e 3c bd
       -0.06796475 -0.07736554 -0.029226966 -0.045927376
0000a0 e0 98 32 bc 92 4f a2 bd 1f 4a ab 3d 6e 25 77 bd
       -0.010900706 -0.07925333 0.08363747 -0.06033843
0000b0 7f 8e d7 3e 00 e8 3b 3c d9 de e9 bc 4f 26 39 3e
       0.42100903 0.011468887 -0.028548645 0.1808102
0000c0 81 4d 2e bc c6 bd ff bb 56 99 11 be 10 85 1c be
       -0.010638596 -0.007804605 -0.1421865 -0.15285134
0000d0 01 90 f0 bc 6a f0 af 3e 53 35 93 bb f6 67 c2 bc
       -0.029365541 0.3436311 -0.0044924407 -0.023731213
0000e0 5a f9 da bd e4 4c 75 3b 38 b3 b6 bc 7a f5 89 bd
       -0.10692091 0.0037429864 -0.022302255 -0.06736274
0000f0 79 94 59 bd 68 af 75 bd dd b9 16 3e ca 7f 18 bd
       -0.05312011 -0.059981734 0.14719339 -0.037231244
000100 9c 15 ec bc c2 51 97 3b e6 5d 63 3c 14 c4 9a bd
       -0.028818898 0.0046179006 0.013877368 -0.0755693
000110 e1 ee d4 bd 5f 48 c5 3d 24 39 89 bd c5 cd ae bd
       -0.10397125 0.09632944 -0.06700352 -0.08535341
000120 f1 89 59 bd c2 9d 07 bd 7c db ac bd 56 67 f5 3e
       -0.053110067 -0.033109434 -0.08440301 0.47930402
000130 0f 56 b0 bd 45 bf 2a 3f 85 9b 34 3d eb fa 97 bc
       -0.086101644 0.66698104 0.044093627 -0.018552264
000140 a8 62 7e bd 93 67 01 3e b8 c8 92 bd a7 ef 0f bd
       -0.062105805 0.12637167 -0.0716719 -0.03514066

fc3.weight f4 [11, 84]
000000 d4 fe b1 bd fb 2c fb 3c 94 5c cd 3c 4d 9f b9 3d
       -0.08691183 0.030661097 0.025068559 0.09063587
000010 c8 0d 15 3f 5b 02 b3 3d 8f 91 ca be 48 63 77 bd
       0.58224154 0.08740684 -0.39564177 -0.060397416
000020 10 53 a9 3d de 00 3a bd c3 65 ab 3d 64 23 31 3f
       0.08267796 -0.045410983 0.08369019 0.69194627
000030 a4 8b 23 3d 38 46 3f 3e a5 12 29 bc 0f ce 86 3d
       0.039928094 0.1867913 -0.010319387 0.06582271
000040 08 c1 dc 3d a3 62 93 be 6b f9 ab 3d ce fd 82 bd
       0.10779005 -0.2878619 0.08397182 -0.06396066
000050 b1 84 36 bd 72 e6 e2 be 99 bb ee 3e df ef 68 3d
       -0.044560138 -0.4431644 0.466275 0.056869384
000060 11 ca 9d be 6c 7d bf bd 4d 2d 88 bd 14 e6 6a be
       -0.30818227 -0.09350094 -0.066492654 -0.2293933
000070 bc d2 6c bf bb 7a f0 bc 02 f9 b4 bf a4 4e ce be
       -0.92509055 -0.029355397 -1.4138491 -0.40294373
000080 95 fb 80 3c fe 20 79 3f df b0 f3 3b 31 6e 24 3e
       0.015744964 0.9731597 0.007436856 0.1605766
000090 31 cd ae 3d 68 dd 98 bf 28 85 02 3f ec d0 d0 3d
       0.08535231 -1.1942568 0.5098443 0.10196099
0000a0 f4 06 fc bd cc 8f 95 3d 07 38 b0 3e a7 dc c6 3d
       -0.12306014 0.07302818 0.34417745 0.09710055
0000b0 7c ec de bd 4a fb c4 bd 1f b6 2b 3e 6c 2e 95 3e
       -0.108849496 -0.09618242 0.16768692 0.2913698
0000c0 6f 09 37 3d 4e 4e 36 bf 06 33 5d bd d8 64 e9 bd
       0.04468673 -0.71213233 -0.054003738 -0.113961875
0000d0 37 9b 60 3d 10 3b 42 be 42 db 35 be 48 ce 82 bf
       0.054835524 -0.18967843 -0.17759421 -1.0219202
0000e0 1b 0f eb 3b 2e 15 76 bd 8e 85 31 3d 35 5f f9 bb
       0.0071734316 -0.060078792 0.04334026 -0.0076102265
0000f0 19 9b eb bd ac ac 21 3d aa c2 37 3f c2 8c 26 bf
       -0.11504192 0.039471313 0.7178141 -0.6505853
000100 1b 64 46 bc a7 7d 6c bf d5 3a b7 3c 1c ee 8b bc
       -0.012108828 -0.9237923 0.02236692 -0.017081313
000110 e6 29 55 bd 8b 4e ce 3c fe 37 86 3e 22 4e eb bc
       -0.05204191 0.025183937 0.26214594 -0.02872378
000120 e7 34 cd 38 31 7a 44 bf 1a 22 6c 3d c5 bf 2c be
       9.7850156e-05 -0.7674895 0.05764971 -0.1687003
000130 30 ca 9f 3e 5e 72 67 3d 72 45 87 3d d7 54 a3 bd
       0.31208944 0.056505553 0.066050425 -0.07975166
000140 cb 57 1e 3e df 18 37 be 40 12 04 3e 74 9f e9 be
       0.15463178 -0.17880581 0.12897587 -0.45629466
000150 42 f0 bd bd cf ab a5 3d 3d fa 09 3e c5 65 b3 bd
       -0.09274341 0.080894105 0.13474365 -0.087596454
000160 de 38 29 3f eb 30 3a bd ae dd 5f be 03 22 c3 bc
       0.661024 -0.045456808 -0.21861908 -0.023819929
000170 ab b3 d5 bd e1 d4 5d bd 52 15 1b bd a3 e8 e8 3d
       -0.104346596 -0.054158095 -0.03786213 0.11372497
000180 7b c8 4b bd 8d 86 b5 3d 21 7d dd bc e4 8f 84 3d
       -0.04975174 0.08863554 -0.027037205 0.064727575
000190 9d 56 41 3e 07 05 ed bd 37 a9 d0 bd eb fc ff bc
       0.18880697 -0.115732245 -0.10188525 -0.03124853
0001a0 25 c9 89 bc df b6 89 be 75 92 ae 3e 6c a8 02 bc
       -0.016819546 -0.26897332 0.34096113 -0.007974725
0001b0 a3 ca 80 bf 2a b6 59 3b 4c ab 00 3c db aa 89 bf
       -1.006184 0.003322015 0.00785334 -1.0755266
0001c0 c9 da 04 bf 99 d9 9a 3c f7 8a 5d bf b4 f8 76 be
       -0.5189634 0.018902587 -0.8654017 -0.2411831
0001d0 c1 8c 84 3d a6 2e fe 3e 25 59 26 bc 1b 0c ef 3d
       0.06472159 0.49644965 -0.01015309 0.11672231
0001e0 ac 5e d5 bd 62 65 27 bf 25 86 ac 3d c3 5b 1d 3d
       -0.10418448 -0.6538907 0.084240235 0.03841759
0001f0 96 ba be 39 0c 38 bf 3d c4 ad 32 3e 14 f1 47 bd
       0.0003637864 0.09336862 0.17449099 -0.048813894
000200 7c 17 20 3d c1 56 8f 3c f2 8a 99 3d 68 d1 62 3e
       0.039084896 0.017497422 0.07497205 0.22150195
000210 88 29 aa bc 4b 2f bc be 4a ac 83 3d 52 ff 57 bd
       -0.020771757 -0.36754832 0.06429346 -0.052733727
000220 ce ac b6 3d 27 3d 5a 3d 41 6c 2b bd 9c 02 f0 be
       0.08919679 0.053280976 -0.041851286 -0.4687699
000230 17 48 43 bd 49 2f c1 be 73 26 bd bd e5 ff 12 3c
       -0.047676172 -0.37731388 -0.09235849 0.008972143
000240 ba 2a 2c bd c9 53 d4 3d 31 1d cd 3e 60 ed 9d be
       -0.042032935 0.10367543 0.40061334 -0.30845165
000250 a3 54 e9 be d2 3b ef be a4 a8 7e 3d 74 d4 84 bc
       -0.45572385 -0.46725327 0.062172547 -0.016214587
000260 11 9a 05 be ba 2d 78 3d ea 07 2a 3e 66 5a b7 bd
       -0.13047053 0.060590483 0.16604581 -0.08952789
000270 e7 80 cb 3d 23 6f c7 be b7 fc 47 bd 53 28 f8 3b
       0.099366955 -0.38951978 -0.048824992 0.0075731664
000280 ac 6c 4a 3e d5 6d 53 3e 3f a0 04 bd 49 53 58 3d
       0.19768018 0.20647366 -0.032379385 0.052813802
000290 da 53 78 be e1 ba e4 3a a8 c6 94 3c 9e f6 8b be
       -0.24250737 0.0017450714 0.018161133 -0.2733659
0002a0 3c 92 ca bd 08 14 54 3c 46 84 51 3e 5a e0 35 3d
       -0.09891173 0.012944229 0.20460615 0.04440341
0002b0 0f 33 0c 3f a7 b1 c8 3b 1b 01 15 be 78 12 d5 bd
       0.5476541 0.0061246934 -0.14551203 -0.10403913
0002c0 f4 cb 65 3d 99 6e 4f bf 06 5a ed 39 9b e0 48 bf
       0.056102708 -0.81028134 0.00045271235 -0.7846772
0002d0 e1 da 90 bd 84 72 0a 3e 30 74 a7 bd 0c 99 dc 3c
       -0.07072998 0.13520247 -0.08176458 0.026928447
0002e0 5f a4 84 3e 49 30 3f bd c8 53 60 bd ac 82 1e bf
       0.25906655 -0.046676908 -0.0547674 -0.6191814
0002f0 a9 a8 d6 bd a4 f3 08 be 65 dc 6c 3e 40 0c 84 bd
       -0.10481388 -0.13374192 0.23130949 -0.06447649
000300 59 ac e6 be d4 c5 6b 3d 51 9c d3 3d ab ea a5 be
       -0.45053366 0.05756171 0.10332549 -0.324056
000310 59 b1 58 be dc 81 cb 3c af 15 e0 be eb 5a ba bd
       -0.21161403 0.024842195 -0.43766543 -0.090993725
000320 6c c0 0a 3e 59 11 87 3e ce 21 ae bd 91 b0 1d 3e
       0.13549966 0.26380423 -0.085025415 0.15399386
000330 29 78 4c 3d d6 94 9c be 89 d7 18 bf 75 d5 c9 bd
       0.04991928 -0.30582303 -0.5970388 -0.09855167
000340 5e 83 13 bf ef ff 30 be 18 ed 37 3e 25 18 86 bc
       -0.57622325 -0.17285131 0.17961538 -0.016368935
000350 52 05 37 3d 64 b2 fb 3a 4a 05 a2 3b 66 fe 7c 3e
       0.04468281 0.0019202945 0.004944478 0.2470642
000360 b8 69 a7 3d 62 68 32 be 53 a4 26 bd f9 c7 6f be
       0.08174461 -0.17422631 -0.040684056 -0.23416127
000370 00 b5 6a bd 9b c8 eb 3d ad 3e 67 3d 07 0d 39 be
       -0.05730152 0.11512872 0.056456257 -0.18071376
000380 c0 dc cd be 7a d4 65 bd 72 4b 35 3d 27 57 98 3d
       -0.4020748 -0.056110837 0.044261403 0.07438498
000390 b2 e7 6b bd 5a 97 b0 3c 17 fa a1 3e 16 42 c2 bd
       -0.05759401 0.021556545 0.31636116 -0.09485261
0003a0 58 4b ca bd 3a f3 6c be d8 84 3c bd 9a 8d 0c be
       -0.09877652 -0.23139659 -0.046025127 -0.13725892
0003b0 13 a2 3b bf 5f 1f ce 3d ff e4 46 3d 39 c2 41 bd
       -0.7329418 0.10064577 0.04855823 -0.047304366
0003c0 48 97 bf bc dd ac 20 be bc 1b d1 bd ad 2a c0 3d
       -0.023387566 -0.15690942 -0.10210368 0.0938314
0003d0 7f fe 5d 3d 0d c6 07 3e 3c 5f bb 3d a1 c2 a6 bd
       0.054197785 0.13259144 0.09149024 -0.08142591
0003e0 94 bd 8a bd fd 9b a0 3d 2c 39 ac 3c 04 cd 10 be
       -0.067744404 0.078422524 0.021023355 -0.14140707
0003f0 b4 e6 b0 3c b8 f9 5d 3b 2a d1 27 3e 78 12 29 bd
       0.021594383 0.0033870768 0.16388384 -0.04127738

fc3.bias f4 [11]
000000 11 f4 8a 3e 1c 7a b8 3e 12 bc 4e 3e d3 9a 68 3e
       0.27139333 0.36030662 0.2018893 0.22715311
000010 4c 43 62 3d 05 70 a8 3d ab c3 8f bc e3 8c e8 bd
       0.05523996 0.08224491 -0.017549356 -0.11354997
000020 d7 a0 3f be 73 b4 91 be 54 38 3d bf
       -0.187137 -0.28457984 -0.73914075
