models/1296_pixels/1.pt (torch, 771783 bytes, 10 tensors)

conv1.weight f4 [6, 1, 5, 5]
0	0xbd32921b	-0.04359637
1	0xbd0361be	-0.032075636
2	0xbe0ffbad	-0.1406085
3	0x3d04fd8c	0.032468364
4	0xbd82f03c	-0.06393477
5	0x3e1cca0a	0.15311447
6	0xbda06f96	-0.07833783
7	0xbcbc00bd	-0.02294957
8	0xbe323f50	-0.17406964
9	0x3d9eaf8d	0.077483274
10	0xbe2abc4a	-0.16673389
11	0xbdecd695	-0.11564366
12	0xbd462a4f	-0.048380192
13	0xbd8ddcb3	-0.06926861
14	0xbe2a2849	-0.1661693
15	0x3da90989	0.08253772
16	0x3e13795f	0.14401768
17	0xbd094b7b	-0.03351925
18	0xbd9e9521	-0.07743288
19	0x3e007c6a	0.1254746
20	0x3d541b93	0.05178411
21	0xbcc580ff	-0.024109362
22	0x3a6115f5	0.00085863407
23	0x3dd47bf6	0.10375206
24	0xbddb2091	-0.10699571
25	0xbdbb5391	-0.091467984
26	0x3dd9bdb3	0.106318854
27	0x3d4bcb74	0.049754575
28	0x3dafc5f9	0.08582682
29	0x3e17b497	0.14814983
30	0x3db1ad79	0.086756654
31	0xbe0a5947	-0.13510619
32	0xbe42464e	-0.18972132
33	0xbe17c1cf	-0.14820026
34	0x3e2995ac	0.16561002
35	0x3daf28f7	0.08552735
36	0x3cf66911	0.030079396
37	0x3dcaf2d0	0.09909594
38	0xbdf2520b	-0.11832055
39	0xbd88204a	-0.06646784
40	0x3e222d19	0.15837516
41	0x3e081eda	0.13293019
42	0xbe2348e5	-0.15945776
43	0xbdc160cf	-0.09442293
44	0xbdfd885c	-0.12379524
45	0xbdd3719c	-0.10324404
46	0xbdbdee99	-0.092740245
47	0x3ccb4104	0.024811275
48	0x3be4b25d	0.0069792704
49	0xbde85010	-0.11343396
50	0xbe224a44	-0.15848643
51	0xbe346a4b	-0.17618673
52	0x3e0f82b5	0.14014705
53	0x3e06d42c	0.13166875
54	0xbc8de8a2	-0.017322842
55	0xbdeafd66	-0.11474113
56	0xbd3227a8	-0.04349485
57	0x3e1a0a45	0.1504298
58	0xbe2f7b1a	-0.17136803
59	0xbd06ae14	-0.032880858
60	0x3e31a52e	0.17348167
61	0xbd6c7ecd	-0.057738114
62	0x3dec754f	0.11545812
63	0xbe1138cc	-0.14181823
64	0x3d9d4cc3	0.07680657
65	0x3e38f9b8	0.1806401
66	0x3db46e85	0.088101424
67	0xbd9ddaf6	-0.07707779
68	0x3dc00ad0	0.09377062
69	0x3e4681b1	0.19385411
70	0x3d8aced4	0.067777306
71	0x3e03d7be	0.12875268
72	0xbde98f6b	-0.11404308
73	0x3e423246	0.1896449
74	0x3e1905df	0.14943646
75	0x3d084514	0.033269003
76	0x3da7d20b	0.081943594
77	0xbe3b45d6	-0.18288359
78	0xbe42b77a	-0.19015303
79	0x3dd3a90e	0.10334979
80	0xbdd1c64c	-0.102429
81	0xbdacb054	-0.084320694
82	0x3e2d076d	0.16897364
83	0xbe06304c	-0.13104361
84	0x3e3953ca	0.18098369
85	0xbc9ef7b3	-0.019405222
86	0x3c93abad	0.018026197
87	0x3e491869	0.19638218
88	0xbdfc5c82	-0.12322332
89	0xbcce345c	-0.025171451
90	0xbd25c0c9	-0.040467057
91	0xbe3fcd68	-0.187307
92	0xbd82f7ec	-0.063949436
93	0xbd6e6894	-0.058205202
94	0xbe1c09fd	-0.15238185
95	0xbdf7564f	-0.12077009
96	0x3d9cf831	0.07664526
97	0xbe12c233	-0.14331894
98	0x3dd4d9a5	0.10393075
99	0xbe1ab719	-0.15108909
100	0x3e238b5e	0.15971133
101	0x3e334dc7	0.17510138
102	0xbd6a5001	-0.057205204
103	0xbd6d703a	-0.057968356
104	0x3cbf4cf4	0.023352124
105	0xbb7baff2	-0.0038404432
106	0xbdcca3ac	-0.099921554
107	0xbdc847cd	-0.0977932
108	0xbd3533a4	-0.0442387
109	0x3d83e6fc	0.06440541
110	0x3dc818e5	0.09770373
111	0x3c3db84c	0.011579584
112	0xbe1c031e	-0.15235564
113	0x3dd3a627	0.103344254
114	0xbe215567	-0.15755235
115	0xbe3518ce	-0.17685243
116	0xbe1471ca	-0.14496532
117	0xbe3518e1	-0.17685272
118	0x3e271eea	0.16320387
119	0x3e164f35	0.14678653
120	0x3da7d58d	0.081950285
121	0x3e2a2e5f	0.16619252
122	0x3da3f8a1	0.080064066
123	0x3e231363	0.15925364
124	0x3e21e189	0.15808691
125	0xbdd5fbf0	-0.10448444
126	0xbd0ff49c	-0.035145387
127	0x3d24a20e	0.04019361
128	0x3c8743f6	0.016511898
129	0x3e0dd383	0.13850217
130	0xbd4fcfdf	-0.05073535
131	0x3dd8f543	0.10593655
132	0xbd21b396	-0.039477907
133	0x3c26c623	0.010179075
134	0x3e0a8cd5	0.13530286
135	0x3e2dc2c7	0.16968833
136	0xbce6c54b	-0.028170248
137	0xbd6457ca	-0.055747785
138	0xbe1e968b	-0.15487115
139	0xbdf041fa	-0.11731334
140	0x3d816870	0.06318748
141	0x3da95b2c	0.08269343
142	0x3e306354	0.1722539
143	0xbe386ee9	-0.18011059
144	0x3e29218a	0.165167
145	0x3e3a76c9	0.18209375
146	0x3e4a8802	0.19778445
147	0xbc94a16f	-0.018143384
148	0xbd06cbb1	-0.0329091
149	0xbdeaaa18	-0.11458224

conv1.bias f4 [6]
0	0x3b5a41ba	0.0033303336
1	0x3de1ee17	0.1103174
2	0x3e10989f	0.1412072
3	0xbbaac723	-0.005211727
4	0xbe03fbec	-0.1288907
5	0x3dfac497	0.12244528

conv2.weight f4 [16, 6, 5, 5]
0	0xbd9ddb68	-0.07707864
1	0x3d6de9a9	0.058084164
2	0xbd78799e	-0.06066286
3	0xbd736fcf	-0.0594328
4	0xbc875dbf	-0.016524194
5	0x3d840905	0.06447033
6	0xbda5f292	-0.08102907
7	0x3d3c51b8	0.04597637
8	0xbd9264bb	-0.07148119
9	0x3da48305	0.080328025
10	0x3d81f2d7	0.06345146
11	0xbcc6a44f	-0.02424827
12	0x3d1bd254	0.03804238
13	0xbc59cd6c	-0.013293605
14	0x3d28fdc0	0.04125762
15	0x3d7093c3	0.058734667
16	0xbd012b8a	-0.031535663
17	0x3d95b1a3	0.07309272
18	0xbd762864	-0.060097113
19	0x3d159bd9	0.03652558
20	0x3d2c9868	0.042137533
21	0x3d52446e	0.05133479
22	0x3ca8ef75	0.020621995
23	0xbd5115ec	-0.051046297
24	0xbd874731	-0.066053756
25	0x3ce30ac7	0.0277151
26	0x3d26ca6f	0.0407204
27	0x3c425c23	0.011862787
28	0xbd0b0bd3	-0.033946823
29	0xbd86dc0f	-0.065849416
30	0xbd715dd3	-0.05892737
31	0xbd8c7a39	-0.068592496
32	0xbd5c185a	-0.05373416
33	0xbd3ba5c0	-0.04581237
34	0xbd62fd45	-0.055417318
35	0x3b44ff17	0.0030059272
36	0x3d639b15	0.05556782
37	0x3d917330	0.071020484
38	0x3c7bf34b	0.01537783
39	0x3c94c8cc	0.018162154
40	0x3d3c8510	0.046025336
41	0xbce25615	-0.027628938
42	0xbd903bff	-0.07042693
43	0xbd70a2c4	-0.058748975
44	0x3d99016d	0.07470975
45	0xbcd6770f	-0.026179818
46	0x3d2e8a63	0.042612445
47	0x3d71bc8c	0.059017703
48	0x3d5941a3	0.05304111
49	0x3d4b0de1	0.049573783
50	0xbd97f970	-0.07420623
51	0xbd975397	-0.0738899
52	0xbd00dce0	-0.031460643
53	0xbbec6f3c	-0.0072154086
54	0xbd92b0be	-0.07162617
55	0x3ca9fc46	0.020750176
56	0x3d9277c0	0.07151747
57	0xbd9dddc2	-0.077083126
58	0xbd99c075	-0.075074114
59	0x3d89b882	0.06724645
60	0xbce0f462	-0.02746028
61	0x3c87f212	0.01659492
62	0x3d88e69b	0.066846095
63	0x3bf6da3b	0.0075333393
64	0x3d5ab42d	0.053394485
65	0x3ca827c2	0.02052677
66	0x3d0f4b81	0.034984116
67	0xbd2ac7b8	-0.041694373
68	0xbcd62f8b	-0.026145717
69	0xbca99f1a	-0.020705748
70	0xbd56a9e6	-0.05240812
71	0x3d74ae69	0.059736643
72	0xbd508967	-0.050912287
73	0x3d126c1f	0.035747644
74	0xbca74921	-0.020420613
75	0xbd944444	-0.07239583
76	0x3d85862a	0.065197304
77	0xbda6de05	-0.081478156
78	0x3cbead6c	0.023276053
79	0x3d4b9b40	0.049708605
80	0x3d1f51b9	0.038896296
81	0x3d80184f	0.062546365
82	0x3d7fddd7	0.062467422
83	0x3d5aecb5	0.053448398
84	0x3d16ec11	0.036846224
85	0x3d5d3c33	0.05401249
86	0xbd0d6b22	-0.034525998
87	0x3d941586	0.07230668
88	0x3c66a504	0.014077429
89	0xbbbaaf17	-0.005697142
90	0x3d90c3f4	0.07068625
91	0xbb4b2058	-0.003099462
92	0x3d7c276d	0.061561037
93	0x3c8120b1	0.015762659
94	0x3cd381e6	0.025818776
95	0x3bf78bb4	0.0075544957
96	0x3d9ac0d3	0.075563096
97	0x3d59b6a5	0.0531527
98	0xbca2ad2f	-0.019857971
99	0xbce2ccf0	-0.027685612
100	0x3d21a244	0.03946139
101	0x3d262846	0.04056575
102	0x3d3c038a	0.045901813
103	0x3cf8fad2	0.030393038
104	0x3d9aa1ea	0.07550414
105	0x3da37026	0.07980375
106	0xbd7da98b	-0.061929267
107	0xbbe7affd	-0.00707054
108	0x3ba71eb9	0.005100098
109	0x3d70591c	0.05867873
110	0x3b483b84	0.0030553052
111	0xbd19903c	-0.03749107
112	0x3d7815bf	0.060567614
113	0x3d031cd2	0.032009907
114	0x3d442de8	0.047895342
115	0xbd7721df	-0.060335036
116	0xbc55b610	-0.013043895
117	0x3d768929	0.0601894
118	0xbd0bf308	-0.03416732
119	0x3cf3fcc5	0.029783616
120	0xbd8ea7bd	-0.06965587
121	0xbc931f40	-0.017959237
122	0x3d12c1f1	0.03582949
123	0x3d117107	0.035508182
124	0xbd48ef89	-0.049056564
125	0xbd800ddf	-0.06252646
126	0x3d22deff	0.039763447
127	0x3c066d31	0.008204744
128	0x3d726834	0.059181407
129	0xbda12c30	-0.07869756
130	0xbc6d203d	-0.014473018
131	0xbd3dc588	-0.04633096
132	0x3da64320	0.08118272
133	0x3cf9c524	0.030489512
134	0x3c5a082b	0.013307611
135	0x3b68d9f4	0.00355303
136	0xbcbe9d80	-0.023268461
137	0x3c9e404c	0.019317769
138	0xbcb23b5e	-0.021756824
139	0x3da522b0	0.08063257
140	0x3da023e9	0.07819349
141	0x3d3fff04	0.04687406
142	0xbda56bdc	-0.08077213
143	0x3ae0441e	0.0017110144
144	0xbc9e182d	-0.019298637
145	0x3d98acd7	0.074548416
146	0xbd938333	-0.07202759
147	0xbc0cde0c	-0.008597862
148	0xbd5efa76	-0.054438077
149	0x3d887670	0.06663215
150	0x3cf9dd79	0.030501114
151	0xbb5844e3	-0.0033000044
152	0xbd18aa8b	-0.037272017
153	0x3d9e7cec	0.07738671
154	0x3d94ab90	0.072592854
155	0x3d9a2466	0.07526474
156	0x3d48a97e	0.048989765
157	0x3c1b2fc4	0.009471837
158	0xbd220142	-0.03955198
159	0x3cc7ae25	0.02437503
160	0xbc8ad890	-0.016948968
161	0xbd1e9582	-0.0387168
162	0xbd9e5958	-0.07731885
163	0x3c963d34	0.01833973
164	0x3b43bede	0.0029868404
165	0xbcbc67e5	-0.02299876
166	0x3d89f59d	0.067363
167	0x3d1b7363	0.03795184
168	0xbd3425a1	-0.0439812
169	0xbc5737da	-0.013135875
170	0xbd9916c6	-0.07475047
171	0xbd283546	-0.04106643
172	0xbd86541c	-0.06559011
173	0x3c3839c3	0.01124424
174	0x3d45ab98	0.048259348
175	0xbd6a8c13	-0.05726249
176	0x3a3fcc65	0.0007316529
177	0xbd4513b8	-0.04811451
178	0x3d10ff37	0.03539964
179	0xbce3e120	-0.027817309
180	0xbc64f3a0	-0.0139741
181	0xbc80b7be	-0.015712615
182	0xbd0a103a	-0.03370688
183	0x3c109cf2	0.008826481
184	0xbd9a8b1d	-0.07546065
185	0xbb4aefde	-0.0030965726
186	0xbd03beda	-0.032164432
187	0x3d182033	0.037140083
188	0x3da8d025	0.082428254
189	0xbc0e357d	-0.008679745
190	0x3ca004fc	0.019533627
191	0xbd39ebb7	-0.04539081
192	0xbc6d82eb	-0.014496545
193	0xbc4df2af	-0.012570067
194	0xbd83cb58	-0.06435269
195	0x3d8a38f1	0.06749142
196	0xbbc02d18	-0.0058647506
197	0xbd765e60	-0.060148597
198	0xbd2204e2	-0.039555438
199	0x3d8edbcf	0.06975519
200	0x3c46f24d	0.01214273
201	0x3c937985	0.018002281
202	0x3cb530ae	0.022117939
203	0xbb90ba5d	-0.0044167475
204	0xbd6356e1	-0.055502776
205	0xbd7a6816	-0.06113442
206	0xbd9c9fad	-0.07647643
207	0xbd0a8e9c	-0.03382741
208	0xbd80a708	-0.06281859
209	0xbd2a06ba	-0.04151032
210	0xbd8c18fe	-0.068407044
211	0xbc2686db	-0.010163988
212	0xbcfa754d	-0.030573511
213	0x3d9f67b8	0.07783455
214	0xbcc3d841	-0.023906829
215	0xbab10810	-0.0013506431
216	0x3d7de4e9	0.061985884
217	0x3ceeb7f6	0.029140454
218	0x3c0b2c19	0.0084944
219	0x3c94132a	0.018075544
220	0x3cdebfd2	0.027191076
221	0x3cd01b4c	0.025403641
222	0xbc849ca8	-0.01618798
223	0x3d245b56	0.040126167
224	0x3d6f83e2	0.058475383
225	0x3da058ab	0.07829412
226	0x3d14ae4e	0.036299042
227	0xbd94f749	-0.072737284
228	0x3ca58b3a	0.02020799
229	0x3d80797d	0.06273172
230	0x3d333ab7	0.043757167
231	0x3d64fc57	0.055904713
232	0xbd5243d6	-0.051334225
233	0xbd9fd452	-0.07804169
234	0x3cef9b7b	0.029248944
235	0xba20c7d7	-0.0006133294
236	0xbd236cc2	-0.03989864
237	0xbd529c2b	-0.051418465
238	0x3cb0b3fd	0.0215702
239	0xbd2e74c7	-0.042591836
240	0x3d1dc8e2	0.038521655
241	0x3d87fb40	0.06639719
242	0x3d8d2b57	0.06893032
243	0xbd9b3565	-0.075785436
244	0xbda2789b	-0.0793316
245	0x3d7854b9	0.060627673
246	0xbc251b36	-0.010077288
247	0x3cb08190	0.021546155
248	0xbd9d9e1f	-0.07696175
249	0xbd79f788	-0.06102708
250	0x3d3721d6	0.044710003
251	0x3c50ec26	0.012751615
252	0xbd886b6d	-0.06661115
253	0x3d036f60	0.032088637
254	0xba7dd505	-0.00096829265
255	0xbd2d5deb	-0.042325895

conv2.bias f4 [16]
0	0x3d0c14b7	0.034199443
1	0xbc827dbd	-0.015929097
2	0x3d5ee649	0.054418836
3	0xba0ec5a7	-0.00054463226
4	0xbd6980d4	-0.057007626
5	0xbd5ff31d	-0.05467521
6	0xbd819cc7	-0.06328731
7	0x3d83cd49	0.064356394
8	0xbcab77b1	-0.020931097
9	0xbd33404e	-0.043762498
10	0x3d85702a	0.06515534
11	0x3d92414e	0.07141362
12	0x3cc6bec6	0.02426089
13	0xbd1605a0	-0.03662646
14	0xbcd6ebbc	-0.026235454
15	0xbd84f251	-0.06491531

fc1.weight f4 [120, 576]
0	0xbb325f00	-0.002721727
1	0xbc0e5f56	-0.008689722
2	0xbc09e4b0	-0.00841634
3	0xba2c21ab	-0.0006566296
4	0x3cb18686	0.021670591
5	0xbccb88d6	-0.024845522
6	0xbcbb7a6b	-0.022885522
7	0xbc2d7b7b	-0.010588522
8	0x3bfec72b	0.0077752075
9	0x3ba99c20	0.0051760823
10	0xbc6765f0	-0.014123425
11	0xbcbf1296	-0.023324292
12	0x3c589666	0.0132194515
13	0xbbe938c0	-0.007117361
14	0x3c80a4c8	0.015703574
15	0x3ce15ab8	0.027509078
16	0xbb65bcc0	-0.003505513
17	0xbd1deb16	-0.038554274
18	0xbc946b30	-0.018117517
19	0xbcc1e9a3	-0.023670977
20	0x3d194d7f	0.03742742
21	0x3c3c81d0	0.011505559
22	0xbc78611b	-0.0151598705
23	0xbd1b60bb	-0.037934046
24	0x3a7533ab	0.00093537074
25	0xbba230b6	-0.0049496545
26	0xbd27ab37	-0.040934768
27	0x3c36590b	0.011129628
28	0xbcfed106	-0.03110553
29	0xbc157abb	-0.0091234995
30	0x3d00a1b8	0.031404227
31	0x3ccbeecb	0.024894139
32	0x3d235470	0.039875448
33	0xbd269c16	-0.0406762
34	0xbc575e70	-0.013145074
35	0xbd25c768	-0.04047337
36	0x3cafe85b	0.0214731
37	0x3c9c9eeb	0.019118747
38	0x3d24f498	0.040272325
39	0x3d0c630c	0.034274146
40	0xbd1a2d5c	-0.037640914
41	0x3ce2e583	0.02769733
42	0x3c009b80	0.007849574
43	0xbd0cc92f	-0.03437155
44	0x3d2819f0	0.04104036
45	0xbceee188	-0.029160276
46	0xbbd509b6	-0.006501402
47	0x3d072987	0.032998588
48	0x3cc0b973	0.02352593
49	0xbc27069b	-0.010194446
50	0xbcfd215e	-0.0308997
51	0x3cb41150	0.021980911
52	0xbcba435b	-0.022737196
53	0x3c1ccb6b	0.009569983
54	0x3ca43ab6	0.020047527
55	0xbc42837b	-0.011872168
56	0xbcd3ef80	-0.025871038
57	0x3c06fe00	0.008239269
58	0x3c791786	0.015203362
59	0x3d1253b3	0.035724353
60	0x3b0b7dab	0.002128462
61	0x3c774396	0.015091797
62	0xbc3597a0	-0.0110835135
63	0x3d251247	0.040300634
64	0xbbee6000	-0.0072746277
65	0x3cb4ebde	0.022085126
66	0x3c9d543b	0.019205203
67	0xbcccd066	-0.025001716
68	0xbd1c0510	-0.038090765
69	0x3a7fb9ab	0.0009755145
70	0x3a40eb00	0.00073592365
71	0x3d14a5ff	0.03629112
72	0x3ccd36a6	0.025050472
73	0x3cb24ce0	0.021765172
74	0xbc740cf6	-0.014895668
75	0x3d25ef1b	0.040511232
76	0x3c404fab	0.011737744
77	0x3abb9b00	0.0014313161
78	0x3c88510b	0.016640207
79	0x3a81a600	0.0009891391
80	0x3cc9b20b	0.02462103
81	0x3a12a456	0.0005593946
82	0x3cf21e00	0.02955532
83	0xbcf60708	-0.03003265
84	0xbd12bbd8	-0.035823673
85	0xbd1abcd7	-0.037777748
86	0x3d1a8a92	0.037729807
87	0xbc66da4b	-0.014090131
88	0x3c950b93	0.018193996
89	0x3cc7228e	0.02430847
90	0x3c53eed6	0.012935361
91	0xbd193504	-0.037404075
92	0x3c359ff0	0.011085495
93	0xbbd8edcb	-0.006620144
94	0xbcdb1048	-0.026741162
95	0x3d0eb7fb	0.034843426
96	0xbd1f563a	-0.03890059
97	0xb80bf000	-3.33637e-05
98	0x3cd5f923	0.026119774
99	0x3cb5f8bb	0.02221333
100	0x3c9d87a3	0.019229716
101	0xbcfc5160	-0.030800521
102	0xbc189830	-0.009313628
103	0x3c6ca3b0	0.014443323
104	0x3d118cd0	0.03553468
105	0x3c5dccd6	0.013537606
106	0xbd0630da	-0.032761432
107	0x3cf55d93	0.029951846
108	0x3cd9df18	0.026595637
109	0x39e1bd56	0.0004305641
110	0xbc7bcb20	-0.015368253
111	0xbc83a3c3	-0.016069299
112	0x3c98cd36	0.01865254
113	0xbbc59d40	-0.0060307086
114	0xbb148880	-0.0022664368
115	0x3ce1ef4e	0.02757993
116	0x3c6b5080	0.014362454
117	0x3cd99803	0.026561743
118	0xbc3a5b0b	-0.011374245
119	0xbca8c0c0	-0.020599723
120	0xbc8e67ae	-0.017383423
121	0xbcc7d2c0	-0.024392486
122	0x3bbb8b6b	0.005723407
123	0x3cce5f03	0.02519179
124	0x3b233ad6	0.0024906895
125	0x3c86d58e	0.016459253
126	0xbb78052b	-0.0037844877
127	0xbd001f34	-0.031279758
128	0x3bed2100	0.0072366
129	0x3c7bbf7b	0.015365477
130	0x3cbe4150	0.023224503
131	0xbc4cbce6	-0.012496209
132	0x3c9f3040	0.019432187
133	0xba147a00	-0.00056639314
134	0xbbd4e52b	-0.0064970455
135	0x3cec9146	0.028877866
136	0xbc3930d6	-0.011303147
137	0x3ce72943	0.028217917
138	0xbb7173c0	-0.0036842674
139	0xbcc646c8	-0.024203673
140	0x3cb52806	0.022113811
141	0xbcdd5238	-0.027016744
142	0x3bbf56e0	0.0058392137
143	0xbcbbf6ee	-0.022944894
144	0x3c2afceb	0.010436277
145	0x3b99fd96	0.0046994193
146	0x3b688bc0	0.0035483688
147	0xbd2a0c4b	-0.04151563
148	0x3caad483	0.020853287
149	0x3b246bd6	0.002508869
150	0xbceecdd8	-0.029150888
151	0x3c66f370	0.014096126
152	0x3d0a7107	0.033799198
153	0xbca4894b	-0.020084998
154	0x3a9fca80	0.0012191087
155	0x3d0d1f5a	0.034453727
156	0x3ad276ab	0.0016057094
157	0xbca6439e	-0.020295914
158	0xbaf06b00	-0.0018342435
159	0xba345c00	-0.0006880164
160	0xbcf243b6	-0.029573303
161	0x3ccc1ec8	0.024917021
162	0xbcc2df43	-0.0237881
163	0xbd1f6640	-0.038915873
164	0x3b69e0eb	0.003568704
165	0x3cba1386	0.022714388
166	0xbd282a64	-0.04105605
167	0xbb473780	-0.003039807
168	0x3d02c93b	0.03193019
169	0xbc34b0b6	-0.011028459
170	0x3b5f1540	0.0034039766
171	0x3c01878b	0.007905851
172	0xbcf3f898	-0.029781625
173	0xbd1e7156	-0.038682304
174	0x3ce47dfb	0.027892103
175	0xbb6e516b	-0.0036364447
176	0x3bd4b4b6	0.006491269
177	0xbce1777b	-0.027522793
178	0xbb93c5cb	-0.0045096627
179	0x3c7572a6	0.014980948
180	0x3c92bcbe	0.017912265
181	0x3d049af3	0.032374334
182	0x3b99b28b	0.0046904734
183	0x3c15ba1b	0.009138609
184	0xbbae7d56	-0.005325
185	0xbd07ccaf	-0.033154186
186	0xbc8d2c3b	-0.017233005
187	0x3d191897	0.037376966
188	0xbceb28e8	-0.028706029
189	0x3ceb2270	0.028702945
190	0xbd0da804	-0.03458406
191	0x3a9a4cab	0.0011772116
192	0xbcce9508	-0.025217548
193	0x3d162cbe	0.036663763
194	0x3cf26d88	0.029593244
195	0x3b343fab	0.002750377
196	0x3b49582b	0.0030722718
197	0x3c89be03	0.016814237
198	0xbc6c627b	-0.014427776
199	0xbcea617b	-0.028610935
200	0xbd27d8b3	-0.040978145
201	0x3cd37f9e	0.025817689
202	0x3cbd090b	0.023075601
203	0x3cc2bd1e	0.023771819
204	0xbcd6ca43	-0.026219493
205	0xba651656	-0.0008738985
206	0xbc5f916b	-0.01364551
207	0xbd1e12f4	-0.038592294
208	0xbc1c5360	-0.0095413625
209	0xbce9e548	-0.028551713
210	0x3c159e8b	0.009132038
211	0xbc118ee6	-0.008884167
212	0xbc589a30	-0.013220355
213	0xbc9f9f9e	-0.019485291
214	0x3ca738b3	0.020412778
215	0x3d0bbdcc	0.03411655
216	0x3d0a939e	0.033832185
217	0x3cd5cd8e	0.026098993
218	0x3c8dd11b	0.017311623
219	0xbd02cb5b	-0.031932216
220	0xbca93276	-0.020653944
221	0xbce0c4e0	-0.027437627
222	0x3c1d17fb	0.009588237
223	0xbb9169d6	-0.0044376655
224	0x3d236104	0.039887443
225	0x3c971a36	0.018445116
226	0x3cd59d1b	0.02607589
227	0xbc83b378	-0.016076788
228	0xbca5f7d6	-0.020259779
229	0xbcf8192e	-0.030285444
230	0x3cc68cc6	0.024237048
231	0xbc48e0c0	-0.012260616
232	0x3d1d83f6	0.038455926
233	0xbca42500	-0.020037174
234	0xbd16674e	-0.036719613
235	0xbcfdc2d3	-0.030976688
236	0xbd0e7186	-0.034776233
237	0xba44b656	-0.0007503977
238	0x3cfb9073	0.030708527
239	0xbd0ed5cf	-0.034871873
240	0xbc89bb93	-0.016813075
241	0xbc84aa76	-0.016194563
242	0x3c86c200	0.016449928
243	0x3bce6a00	0.0062992573
244	0x3cf31953	0.029675161
245	0x3cc9f96e	0.02465507
246	0x3cdef9ab	0.02721866
247	0x3d096fa6	0.033553742
248	0xbd0733c8	-0.033008367
249	0x3c8bd42e	0.017068949
250	0xbba1f0cb	-0.004942035
251	0x3ce60c0e	0.02808192
252	0x3d219ebe	0.03945803
253	0x3bf16676	0.0073669506
254	0xbce7c8bb	-0.028293958
255	0xbb43a900	-0.002985537

fc1.bias f4 [120]
0	0xbccbbbbe	-0.024869796
1	0x3c1a7324	0.009426866
2	0xbc2272fa	-0.009915108
3	0x3d192907	0.037392642
4	0x3c2d6c54	0.0105849095
5	0x3ca9ee58	0.020743534
6	0x3ccf612b	0.025314888
7	0xbbfc40b7	-0.0076981443
8	0xbce6a497	-0.028154654
9	0x3d039693	0.03212602
10	0xbbd02315	-0.0063518384
11	0x3d0f691d	0.035012353
12	0x3d0707e5	0.032966513
13	0xbcd78200	-0.026307106
14	0x3c0b8d52	0.00851758
15	0xbb2e3f16	-0.0026587895
16	0xbd1a7288	-0.03770688
17	0x3a3bbc95	0.0007161585
18	0xbc75627b	-0.014977093
19	0xbc0d4698	-0.008622788
20	0xbd0997ef	-0.03359216
21	0x3d04ec8c	0.03245215
22	0xbc8b1089	-0.016975658
23	0xbbb2e455	-0.005459348
24	0xbc634a85	-0.013872747
25	0x3be6e17a	0.007045922
26	0x3c30a680	0.010781884
27	0x3ca0d134	0.019631006
28	0x3d020272	0.031740613
29	0x3cbe90c2	0.023262385
30	0x3cf2cd1c	0.02963882
31	0xbc8c6604	-0.017138489
32	0xbc76d06b	-0.015064339
33	0xbcd8585d	-0.026409322
34	0xbd0524e3	-0.03250588
35	0xbd2964fc	-0.04135607
36	0xbcae4560	-0.021273315
37	0xbd29d59e	-0.041463487
38	0x3cce09ef	0.025151221
39	0x3d1aee98	0.037825197
40	0x3c1c705d	0.009548274
41	0x3cc8ed33	0.024527168
42	0xbb1ac3e2	-0.002361529
43	0xbc4b7c2e	-0.012419743
44	0xbb2d1f4a	-0.0026416355
45	0x3b83b173	0.0040189563
46	0x3cd22b48	0.025655404
47	0xbcde1688	-0.027110353
48	0xbcb3c6ed	-0.021945441
49	0x3c23f0f8	0.010006182
50	0x3d17a905	0.037026424
51	0x3cbbab22	0.02290875
52	0xbcf1c283	-0.029511696
53	0x3cf56b14	0.029958285
54	0x3cff7a83	0.031186348
55	0xbd20cdbd	-0.039258707
56	0x3ba21660	0.004946515
57	0x3cc8d6eb	0.024516543
58	0x3c0784c4	0.0082714
59	0x3cca6c23	0.024709767
60	0xbcfe5c82	-0.03104997
61	0x3c153558	0.009106956
62	0x3c34880c	0.011018764
63	0x3b99ea00	0.0046970844
64	0x3bf580c3	0.0074921562
65	0xbcd8b3c9	-0.026452916
66	0x3d0cc8cd	0.034371186
67	0x3d042dee	0.032270364
68	0xbd20f5d4	-0.03929694
69	0x3cc78f51	0.02436033
70	0xbb524e46	-0.0032090112
71	0x3aca94d9	0.0015455737
72	0x3ad39b0a	0.0016144228
73	0xbcfc1c9e	-0.030775364
74	0x3be7bb54	0.007071892
75	0xbc3ab253	-0.011395055
76	0xbcabbdd5	-0.020964542
77	0xbb016b64	-0.0019747848
78	0x3d2f52b7	0.042803492
79	0x3b723a64	0.0036961073
80	0x3b9de65a	0.00481872
81	0x3ce2ff1a	0.027709533
82	0x3b5ab7df	0.0033373756
83	0xbd0f7cd7	-0.035031166
84	0xbd00a0d5	-0.03140338
85	0xbcc2fa66	-0.02380104
86	0xbce7d3a8	-0.028299168
87	0xbd250b86	-0.040294193
88	0xbd2819df	-0.041040298
89	0x3b8aa216	0.004230748
90	0x3d2469d8	0.040140003
91	0x3d064712	0.03278262
92	0xbd03ee08	-0.032209426
93	0x3cfae81f	0.030628262
94	0x3d0e1c7d	0.034695137
95	0xbbaebbc6	-0.005332443
96	0xbd223843	-0.039604437
97	0xbab47e5c	-0.0013770568
98	0xbcc24866	-0.023716163
99	0x3bd2d6ea	0.006434311
100	0x3d217bd6	0.03942474
101	0xbc84df68	-0.01621981
102	0xbcbea5cc	-0.023272417
103	0xbb8f9c2a	-0.00438263
104	0x3b8a1993	0.0042144745
105	0xbc89aff9	-0.016807543
106	0xbccfc038	-0.025360212
107	0xbbec7f99	-0.0072173593
108	0x3cb1587e	0.021648642
109	0x3d326d31	0.043561164
110	0xbb039547	-0.002007799
111	0xbd0a2665	-0.033728022
112	0x3cc1cd2b	0.023657402
113	0xbbf3614a	-0.0074273692
114	0x3d0b85b5	0.03406306
115	0xbcf0025a	-0.029297996
116	0x3babfc39	0.005248573
117	0xb9cf081d	-0.00039488162
118	0xbcbe0626	-0.023196291
119	0x3caef40c	0.021356605

fc2.weight f4 [84, 120]
0	0x3d2f4144	0.04278685
1	0xbd8c96a5	-0.06864671
2	0xbc3ba17d	-0.011452076
3	0xbd610106	-0.054932617
4	0xbc63ab86	-0.013895875
5	0x3da236f7	0.0792064
6	0x3d065168	0.03279248
7	0xbd021553	-0.031758618
8	0xbc525afc	-0.012839075
9	0xbd62957c	-0.05531834
10	0x3db997c2	0.09062149
11	0xbabc5af0	-0.0014370363
12	0xbcbcf3ef	-0.023065535
13	0x3c8d740a	0.017267246
14	0x3d8ba829	0.068191834
15	0xbd423e02	-0.047422417
16	0xbd15a1ef	-0.036531385
17	0x3d71da9a	0.059046365
18	0xbdaec897	-0.08534353
19	0xbcd80d63	-0.02637357
20	0xbd7b8421	-0.061405305
21	0xbdab677e	-0.08369349
22	0x3c6dc0fc	0.014511343
23	0x3d83697c	0.06416604
24	0x3d564ba7	0.05231824
25	0x3cfeb2e1	0.031091155
26	0xbd347f04	-0.044066444
27	0xbd5ff296	-0.054674707
28	0xbc873c21	-0.016508164
29	0x3d202f7f	0.039107796
30	0xbd21304f	-0.03935271
31	0x3da56e19	0.0807764
32	0xbcfc7b76	-0.03082059
33	0x3d82d1f5	0.063877024
34	0xbcf615b3	-0.030039644
35	0x3d877bbb	0.066153966
36	0xbd90cfcc	-0.07070884
37	0x3cdbfb88	0.026853338
38	0x3da4b168	0.0804165
39	0xbda3f3bc	-0.08005473
40	0xbd46227c	-0.04837273
41	0x3ce7f60c	0.028315566
42	0xbd56893f	-0.05237698
43	0x3d9e0756	0.07716243
44	0xbd54dd34	-0.05196877
45	0x3d466dd5	0.048444588
46	0xbda62c12	-0.081138745
47	0xbbb0ae79	-0.0053918925
48	0x3d254627	0.040350106
49	0xbd43149a	-0.04762707
50	0xbc6fc67d	-0.014634726
51	0xbda399d2	-0.07988323
52	0xbdaf1241	-0.085484035
53	0xbda630c1	-0.08114768
54	0x3c47ea31	0.012201832
55	0x3d2b0042	0.041748293
56	0xbc8c1212	-0.01709846
57	0x3d272ae9	0.040812407
58	0x3d8b2f7f	0.067961685
59	0x3da0c0f6	0.078493044
60	0xbdbaa58f	-0.09113609
61	0x3caa8d10	0.020819217
62	0x3d5d8e4a	0.054090776
63	0x3c60c1b5	0.013718058
64	0xbd7f7f25	-0.062377114
65	0x3bd9fd42	0.006652505
66	0xbbd13a6d	-0.0063851387
67	0x3ccb4730	0.024814218
68	0x3da5887c	0.08082673
69	0xbdaf1c84	-0.08550361
70	0x3d90c5fa	0.07069011
71	0x3cb57353	0.022149717
72	0x3b4b8dc7	0.0031059848
73	0xbc9b60e4	-0.0189671
74	0xbd37db31	-0.04488677
75	0x3cf0ab36	0.029378515
76	0x3ce1c660	0.027560413
77	0x3cd6c671	0.026217671
78	0xbb87e239	-0.004146841
79	0xbce259c8	-0.027630702
80	0x3c379eeb	0.011207323
81	0xbdae4a63	-0.08510282
82	0xbcbcc157	-0.02304141
83	0xbda0de48	-0.07854897
84	0x3da6d947	0.08146911
85	0xbd888d78	-0.06667608
86	0x3d8a6949	0.06758363
87	0xbdb603aa	-0.088874176
88	0x3c486fe1	0.012233705
89	0x3cf2eb3b	0.029653182
90	0x3c092729	0.008371153
91	0xbd635e7a	-0.05551002
92	0xbd9f307a	-0.07772918
93	0x3d43aefa	0.047774293
94	0x3c10cac2	0.008837404
95	0x3d952bcf	0.072837465
96	0xbd482a09	-0.048868213
97	0xbc608a92	-0.013704913
98	0x3d1c4cdb	0.038159233
99	0xbd32de96	-0.043669306
100	0xbda880d0	-0.08227694
101	0x3d69636a	0.056979574
102	0x3db7bb20	0.08971238
103	0x3d9e3d74	0.07726565
104	0xbcef64f3	-0.029222941
105	0xbd11eb40	-0.035624743
106	0xbd8b4daf	-0.06801926
107	0xbd6030cd	-0.05473404
108	0xbb11f65d	-0.0022272088
109	0x3d8b26c3	0.067945026
110	0x3d544e8b	0.051832717
111	0x3c807c04	0.015684135
112	0xbda3f1e8	-0.08005124
113	0x3d638725	0.055548806
114	0xbcfce0c4	-0.030868895
115	0xbc77d4c2	-0.015126409
116	0xbd6968f0	-0.05698484
117	0x3d06b48e	0.032887034
118	0x3da7265b	0.081616126
119	0x3c27afe4	0.010234807
120	0xbc711610	-0.014714733
121	0x3d498635	0.049200255
122	0x3d3a31df	0.045457717
123	0xbd9f76d0	-0.077863336
124	0x3d2452db	0.04011808
125	0x3d938d7b	0.0720472
126	0xbd5e0ba2	-0.054210313
127	0x3af0b9fb	0.0018365973
128	0x3d848a42	0.06471683
129	0x3d338691	0.043829504
130	0xbd98d66a	-0.07462771
131	0xbd4167b2	-0.047218032
132	0x3d2b9bac	0.041896507
133	0xbd9f0deb	-0.077663265
134	0x3d4f49e5	0.05060758
135	0x3d9c3808	0.076278746
136	0xbcf3325e	-0.029687103
137	0x3ca43744	0.020045884
138	0x3d4d06c5	0.050055284
139	0x3c0b71ee	0.00851105
140	0xbc998626	-0.018740725
141	0x3c2f3184	0.010692958
142	0x3da2f0bc	0.07956073
143	0xbb43725c	-0.0029822802
144	0xbd9476c5	-0.07249216
145	0xbd8e58bc	-0.069505185
146	0x3c20cab3	0.009813952
147	0xbcbec166	-0.023285579
148	0xbc86b22b	-0.016442379
149	0x3d4f0489	0.050541434
150	0xbcfee282	-0.031113867
151	0xbdb74913	-0.08949485
152	0xbd917561	-0.071024664
153	0x3d08596c	0.033288404
154	0x3db4d75c	0.08830139
155	0x3d24bb2d	0.040217567
156	0x3d5be5dc	0.053686008
157	0xbd90491d	-0.07045195
158	0x3cd128ec	0.025532208
159	0x3bb6856f	0.0055701057
160	0xbce7276f	-0.028217046
161	0xbd1d1d09	-0.03835777
162	0xbd8981ef	-0.06714236
163	0x3d36d17d	0.044633377
164	0xbdba0061	-0.090821035
165	0x3a517be1	0.00079911767
166	0x3d8e6fb7	0.06954902
167	0x3d5cfae5	0.05395021
168	0xbb21f86c	-0.0024714721
169	0xbce101f2	-0.027466748
170	0xbd0a1cb1	-0.03371877
171	0x3c73da6e	0.014883621
172	0xbd9d1262	-0.07669522
173	0x3c720680	0.0147720575
174	0xbd250885	-0.040291328
175	0x3d9fb52c	0.07798228
176	0xbdaba673	-0.08381357
177	0x3d73573f	0.059409376
178	0xbd116cc1	-0.035504106
179	0x3d74757d	0.059682358
180	0x3ce1d53e	0.027567502
181	0xbd6bb6a2	-0.05754722
182	0x3d14c01e	0.03631603
183	0x3d564cf2	0.052319475
184	0x3d898ec6	0.06716685
185	0xbd9cc4d6	-0.07654731
186	0xbccdd3fc	-0.025125496
187	0xbcf53f96	-0.029937547
188	0xbc903670	-0.017604083
189	0xbd0d574a	-0.034507073
190	0xbc744159	-0.014908158
191	0xbd9e8590	-0.07740319
192	0xbd2485ac	-0.040166542
193	0xbce4f495	-0.027948657
194	0x3da147ce	0.07875024
195	0x3d237eb0	0.03991574
196	0x3d46332a	0.048388638
197	0xbd46dec2	-0.048552282
198	0x3d9eb679	0.07749648
199	0x3d522c3f	0.051311728
200	0xbca6e3f1	-0.020372363
201	0xbdb63c25	-0.088981904
202	0x3be8dab1	0.007106148
203	0xbc99310c	-0.018700145
204	0x3d86ddeb	0.06585296
205	0x3d5361f9	0.051607106
206	0x3d0a59d7	0.033777084
207	0x3b998e7e	0.004686176
208	0xbd537d5e	-0.05163323
209	0xbcd6ddf9	-0.026228892
210	0xbb33db8d	-0.0027444095
211	0x3d1057b9	0.03523991
212	0x3d1fb4a8	0.038990647
213	0xbc5a5ec9	-0.013328263
214	0x3cec8fd5	0.028877178
215	0xbb740f1c	-0.0037240451
216	0x3d023c48	0.03179577
217	0xbd6725ac	-0.05643241
218	0x3c8d0dcd	0.017218495
219	0xbdb12158	-0.08648938
220	0x3cbb6678	0.02287601
221	0x3d5ee691	0.054419104
222	0x3ce855cb	0.028361222
223	0xbd942217	-0.072330646
224	0x3d8da0f9	0.06915469
225	0x3db99e1b	0.09063359
226	0x3c87370a	0.016505737
227	0xbc0c7175	-0.008571972
228	0x3c6d96ae	0.014501257
229	0xbcff025c	-0.031129055
230	0xbd92c0a7	-0.07165652
231	0xbc61f537	-0.013791374
232	0x3d370d52	0.044690438
233	0x3dae5045	0.08511404
234	0x3d32e070	0.04367107
235	0x3da50364	0.08057287
236	0x3d85f8a6	0.065415666
237	0x3c7923c3	0.01520628
238	0xbdac856e	-0.08423887
239	0xbc230241	-0.009949268
240	0x3cf2116c	0.029549323
241	0x3b0bdb14	0.0021340298
242	0x3c1d49b9	0.009600096
243	0x3c9318aa	0.017956097
244	0x3db4fe13	0.08837523
245	0x3d2d83a5	0.042361874
246	0x3ccc5d5d	0.024946863
247	0xbda98dfb	-0.08279034
248	0xbd89b577	-0.06724065
249	0x3d079b72	0.03310723
250	0xbd783858	-0.06060061
251	0xbd511b08	-0.05105117
252	0x3d0118a8	0.031517655
253	0x3d96b5c5	0.073588885
254	0x3cde9e82	0.027175192
255	0xbc27b023	-0.010234865

fc2.bias f4 [84]
0	0xbdb4a9c1	-0.088214405
1	0xbd4b6309	-0.049654994
2	0x3d3ac95c	0.045602188
3	0x3c846da3	0.01616556
4	0xbb84eb95	-0.004056404
5	0xbda15b49	-0.078787394
6	0xbd6be1c9	-0.057588372
7	0xbda75b8e	-0.081717595
8	0x3d7523d8	0.059848636
9	0x3d905cfc	0.07048985
10	0xbdae24e2	-0.085031286
11	0x3d5eec05	0.054424305
12	0x3d8566b1	0.065137275
13	0x3d54d9fe	0.051965706
14	0x3d114770	0.03546852
15	0xbd6dff65	-0.05810489
16	0xbd0fbbb7	-0.03509113
17	0x3d72f5f2	0.059316583
18	0x3da7c905	0.08192638
19	0x3d637837	0.055534568
20	0x3d888ca3	0.06667449
21	0xbd3d2379	-0.046176407
22	0xbd8cb9d7	-0.06871384
23	0x3d4909b5	0.049081523
24	0xbd02f43c	-0.0319712
25	0xbd50e9b2	-0.05100412
26	0xbda32142	-0.07965328
27	0xbd28040b	-0.04101948
28	0xbcaa1eb8	-0.020766601
29	0xbd9d4cee	-0.07680689
30	0x3d624ec4	0.055250898
31	0x3dbe18ab	0.09282049
32	0x3d3cebd3	0.046123337
33	0xbd9d026b	-0.07666477
34	0xbd0d30fa	-0.034470536
35	0x3d74bacc	0.059748456
36	0xbd38904f	-0.0450595
37	0xbd78e57a	-0.06076572
38	0x3d70b594	0.058766916
39	0xbd244d94	-0.040113047
40	0xbd84245c	-0.064522475
41	0xbcfa6f66	-0.030570697
42	0xbdb72ba8	-0.08943874
43	0x3d629097	0.055313673
44	0xbd2971a7	-0.041368153
45	0x3d9d5cf5	0.07683746
46	0x3c999096	0.018745702
47	0xbd898bca	-0.06716116
48	0xbd617752	-0.055045433
49	0x3d641926	0.055688046
50	0x3cf82813	0.030292546
51	0xbb13a8f6	-0.0022531128
52	0xbca9dceb	-0.020735225
53	0xbd2589b3	-0.040414523
54	0xbb9f5c19	-0.004863274
55	0xbbe02ef5	-0.006841535
56	0x3d607228	0.054796368
57	0x3db1d44b	0.0868307
58	0x3d236e0a	0.039899863
59	0x3d069ff4	0.032867387
60	0x3d187961	0.03722513
61	0x3dac7664	0.08421019
62	0xbc296db3	-0.010341096
63	0xbda0841d	-0.078376986
64	0x3cfcc1e7	0.030854179
65	0xbc998e1b	-0.018744519
66	0x3c87e454	0.016588368
67	0x3da8cd1e	0.08242248
68	0x3d097657	0.033560123
69	0xbc0f435a	-0.008744085
70	0x3d418b57	0.047252025
71	0x3d46470d	0.048407603
72	0xbdb5be12	-0.08874144
73	0x3d858470	0.06519401
74	0x3c800faa	0.01563247
75	0xbda9c49f	-0.082894556
76	0xbd0114e4	-0.031514063
77	0xbd805dd9	-0.062679
78	0x3d95146a	0.07279284
79	0x3d0e7978	0.03478381
80	0x3ccd0d12	0.025030646
81	0x3bde49dc	0.006783707
82	0xbcf3074e	-0.02966657
83	0x3cfbdf40	0.030746102

fc3.weight f4 [1297, 84]
0	0xbd20cd47	-0.039258268
1	0x3d2918f6	0.04128357
2	0xbdc56778	-0.09638876
3	0x3d3e6fdb	0.046493392
4	0xbc942de1	-0.018088283
5	0x3d80cbda	0.062888816
6	0xbcd561ab	-0.026047548
7	0x3da66c72	0.08126153
8	0x3d9ef07e	0.07760714
9	0xbddc3000	-0.10751343
10	0xbd15bb56	-0.03655561
11	0x3d80743a	0.062721685
12	0xbd50a4ac	-0.050938293
13	0xbdbf04e5	-0.093271054
14	0x3c9a5134	0.018837549
15	0x3d938705	0.07203487
16	0xbd93d73c	-0.07218787
17	0x3dc11ca0	0.09429288
18	0xbcd0c9bc	-0.02548682
19	0x3b8b24c4	0.004246326
20	0x3d7e7f71	0.062133256
21	0xbd8e0b49	-0.06935746
22	0x3c97c103	0.018524652
23	0xbd7e3ecf	-0.062071618
24	0x3dc26b0e	0.09493075
25	0x3d0853b6	0.033282958
26	0x3d8c7a43	0.06859257
27	0xbdccc60c	-0.09998712
28	0x3db9ea58	0.09077901
29	0x3db9caf7	0.090719156
30	0xbd82d3ca	-0.06388052
31	0xbc895282	-0.016762976
32	0xbd44e3af	-0.0480687
33	0xbd424048	-0.047424585
34	0x3d8bcf97	0.06826704
35	0xb9baa77d	-0.00035601473
36	0x3ddd0a36	0.10792963
37	0xbbaa4f0f	-0.005197413
38	0x3d352277	0.04422232
39	0x3d87d85b	0.066330634
40	0x3b946baa	0.004529436
41	0xbbe2b05e	-0.0069179973
42	0xbdcd0438	-0.1001057
43	0x3dda5b16	0.106619045
44	0xbdcaa535	-0.09894792
45	0x3db1eb13	0.08687415
46	0x3da455ed	0.080242015
47	0x3d79aa16	0.060953222
48	0xbd603382	-0.05473662
49	0xbd0babb9	-0.034099314
50	0xbd4a172e	-0.049338512
51	0xbd9398a4	-0.07206848
52	0x3cb6c6e7	0.02231164
53	0xbd4bcd11	-0.049756113
54	0x3c99927d	0.018746609
55	0xbcec8f73	-0.028876996
56	0x3d289239	0.041155074
57	0x3bb866db	0.0056274957
58	0xbd8f8012	-0.07006849
59	0x3d829c88	0.06377512
60	0xbcbbaf5d	-0.022910768
61	0xbc9ffd67	-0.019530011
62	0x3d10881e	0.03528606
63	0xbd10baf5	-0.035334546
64	0x3da53040	0.080658436
65	0x3d65862a	0.056036152
66	0x3d3c620e	0.04599195
67	0x3dd58e30	0.10427511
68	0xbd3b8490	-0.04578072
69	0xbcbbcc71	-0.022924634
70	0x3ca487ff	0.02008438
71	0x3d234b8a	0.03986696
72	0xbdc8315f	-0.09775042
73	0x3da400e5	0.08007983
74	0x3db8c3a5	0.09021691
75	0xbc97f843	-0.018550998
76	0xbd8cf59e	-0.06882785
77	0xbdae78c5	-0.08519129
78	0xbddc486e	-0.10756002
79	0xbc2ade1f	-0.010428934
80	0xbdac742c	-0.084205955
81	0x3d385023	0.0449983
82	0x3d9a9132	0.07547225
83	0xbdce94e3	-0.10086992
84	0x3dbc919c	0.0920746
85	0xbd2d89f2	-0.042367883
86	0xbcad1997	-0.021130366
87	0x3d0beb86	0.03416016
88	0x3d7234bc	0.059132323
89	0x3d15abfb	0.036540966
90	0x3db595b4	0.08866444
91	0xba83fc5d	-0.0010069717
92	0x3d6d0226	0.057863377
93	0xbdbc69bb	-0.09199854
94	0xbd380585	-0.04492714
95	0xbdd99a8a	-0.10625179
96	0xbdc43982	-0.09581281
97	0xbdda74c0	-0.106667995
98	0x3dbc6ff1	0.09201039
99	0xbcbe20a3	-0.023208922
100	0xbd7a8b96	-0.061168276
101	0xbac802b9	-0.00152596
102	0x3d0da35a	0.034579612
103	0x3dc386c3	0.09547188
104	0xbdc89d28	-0.097956
105	0xbd5b8b81	-0.05359984
106	0xbd9823e9	-0.07428724
107	0x3c5dbd1c	0.013533857
108	0xbd455320	-0.048174977
109	0x3c3f2e9e	0.011668829
110	0xbdc4b88b	-0.09605511
111	0xbdaa45f9	-0.083141275
112	0xbd6c9c98	-0.057766527
113	0xbd3861d7	-0.045015182
114	0xbdade69c	-0.08491251
115	0x3d845703	0.06461909
116	0xbbe3e5a2	-0.0069548646
117	0x3db9bede	0.09069608
118	0x3d974115	0.0738546
119	0xbae91950	-0.0017784033
120	0xbcfaa2f6	-0.030595284
121	0x3ddc7a59	0.107655235
122	0xbcac8e38	-0.021063909
123	0xbc5dcf94	-0.01353826
124	0x3d40039d	0.046878446
125	0x39de97c0	0.00042456202
126	0xbda3be87	-0.079953246
127	0xbd24f9c3	-0.040277254
128	0xbbc6fb26	-0.0060724197
129	0xbd59b2ac	-0.05314891
130	0x3c7a7f92	0.015289204
131	0x3d91ce8a	0.07119472
132	0xbd355266	-0.044268034
133	0x3dcc140f	0.099647634
134	0xbd95a622	-0.07307078
135	0xbdcf2254	-0.101139694
136	0x3daf0b3f	0.08547067
137	0xbbcb8bfd	-0.0062117563
138	0xbda948a1	-0.08265806
139	0x3d27fd87	0.041013267
140	0xbdc2f411	-0.09519208
141	0xbdc753df	-0.09732794
142	0x3c01bd18	0.007918619
143	0x3c32d3ba	0.010914737
144	0xbd88f76d	-0.06687818
145	0x3dcf0c26	0.10109739
146	0x3d881c74	0.06646052
147	0x3d9fd32a	0.07803948
148	0x3d833836	0.06407206
149	0xbbd8afd4	-0.006612757
150	0x3d86919f	0.06570744
151	0xbd73e868	-0.05954781
152	0x3dcc77f2	0.09983815
153	0x3d8def44	0.06930402
154	0x3c6be32d	0.014397425
155	0xbcba2006	-0.022720348
156	0x3dde0a26	0.108417794
157	0xbd3f627f	-0.046724793
158	0x3d574522	0.052556165
159	0xbcd74db3	-0.026282167
160	0x3c89ac9e	0.016805943
161	0x3d5e694e	0.054299645
162	0xbdaa60b3	-0.08319225
163	0xbce2f8b0	-0.027706474
164	0x3b3b1283	0.002854497
165	0xbd4e3e45	-0.050352354
166	0xbd7eb536	-0.062184535
167	0xbdaa5e31	-0.08318747
168	0xbd159cde	-0.036526553
169	0xbdd0d806	-0.10197453
170	0x3c67efde	0.01415631
171	0x3d5fdbfc	0.054653153
172	0x3d025fc9	0.03182963
173	0xbc1e421e	-0.009659318
174	0xbc8fc91b	-0.01755195
175	0x3d52a1b2	0.051423736
176	0x3ddbcdfb	0.10732647
177	0x3d8fc25c	0.07019493
178	0xbdc8febb	-0.09814211
179	0xbd055f1f	-0.032561418
180	0x3c668399	0.014069461
181	0xbd758659	-0.059942577
182	0x3d63bfdb	0.05560289
183	0xbdbe9759	-0.09306211
184	0x3d545ce4	0.0518464
185	0xbd1ec7b2	-0.038764663
186	0x3d10a4d6	0.03531345
187	0x3dbf68cf	0.093461625
188	0x3dba4e5f	0.09096979
189	0xbdbfe4bc	-0.093697995
190	0x3d4f47bc	0.05060552
191	0xbd966fae	-0.0734552
192	0x3ddaaa3a	0.106769994
193	0xbb2d26d2	-0.0026420844
194	0xbd2b0e32	-0.041761585
195	0xbd1c0197	-0.038087454
196	0x3d0b0ddf	0.033948775
197	0x3a968d8a	0.0011486274
198	0x3d87cf2e	0.06631313
199	0x3ddae115	0.10687462
200	0x3da509b9	0.08058495
201	0xbdc13f32	-0.09435882
202	0x3d44d57c	0.048055157
203	0xbcffbfd5	-0.031219402
204	0xbda4ef4f	-0.08053457
205	0xbb146e8d	-0.0022648901
206	0xbd90161c	-0.07035467
207	0x3d3ad0fd	0.045609463
208	0xbdc315b0	-0.09525621
209	0x3d346d7b	0.04404972
210	0xbaacdf07	-0.0013189026
211	0xbc466b98	-0.012110613
212	0x3ce91383	0.028451687
213	0x3d63d707	0.055624988
214	0xbc260f67	-0.010135508
215	0x3d5725ec	0.0525264
216	0x3d03551e	0.032063596
217	0xbdb5b8aa	-0.088731125
218	0x392de9ee	0.00016585711
219	0x3d81a977	0.06331151
220	0xbdd0f2aa	-0.102025345
221	0xbc3b5e42	-0.011436047
222	0xbdc2c9f1	-0.095111735
223	0x3dd0ed08	0.1020146
224	0xbca1de1b	-0.019759228
225	0xbdd8b198	-0.10580748
226	0xbd866aee	-0.06563364
227	0x3d13fa74	0.036127523
228	0x3dad9247	0.08475166
229	0xbdc1c334	-0.0946106
230	0x3cb29111	0.021797689
231	0xbd7f1b3b	-0.06228183
232	0x3b884536	0.004158641
233	0xbdcee15e	-0.10101579
234	0x3bc6c709	0.0060662073
235	0x3d3cd713	0.04610355
236	0x3cecbb60	0.028897941
237	0x3db1c1ae	0.086795196
238	0xbd5ca9c8	-0.053872854
239	0xbd70491b	-0.05866347
240	0x3d43a3e4	0.04776372
241	0xbd932d6d	-0.07186399
242	0x3d560d82	0.052258976
243	0xbdd0fa7c	-0.10204026
244	0x3bace815	0.00527669
245	0xbcef4158	-0.029205963
246	0xbd89499a	-0.067034915
247	0xbd1a1720	-0.03761971
248	0x3d94562c	0.072429985
249	0xbd3efa27	-0.046625283
250	0x3da904b8	0.08252853
251	0x3cd0dc7a	0.025495756
252	0xbd84515b	-0.0646083
253	0xbd53f721	-0.051749352
254	0xbd851b93	-0.064994
255	0xbd817f53	-0.06323113

fc3.bias f4 [1297]
0	0x3d5afd3d	0.053464163
1	0xbdca19ad	-0.098681785
2	0xbd579fe0	-0.052642703
3	0x3d91d614	0.0712091
4	0xbd9cd402	-0.07657625
5	0x3dabd07d	0.08389375
6	0xbbfa1971	-0.0076324274
7	0x3b9ff658	0.0048816614
8	0xbd95de8d	-0.07317839
9	0xbd87855c	-0.06617233
10	0xbdbfa64d	-0.09357891
11	0x3c0de74e	0.008661104
12	0x3d7f83e0	0.062381625
13	0xbd57426e	-0.052553587
14	0xbdafacc0	-0.08577871
15	0x3dc2bc22	0.0950854
16	0xbc93443c	-0.017976873
17	0x3dcbf73a	0.09959264
18	0xbd4c29d2	-0.04984457
19	0xbdd503d4	-0.10401121
20	0x3d9cc80f	0.07655346
21	0x3d4c1575	0.04982515
22	0xbc2479c5	-0.010038798
23	0xbdc4f37d	-0.09616754
24	0xbd3a9937	-0.045556273
25	0xbd20df65	-0.039275546
26	0x3d851b03	0.06499293
27	0x3dc1c627	0.09461623
28	0x3d5b5a60	0.053552985
29	0x3d6ba721	0.057532433
30	0xbd73d556	-0.059529625
31	0xbd8d250f	-0.06891834
32	0xbcbf5d62	-0.023359958
33	0xbc9fdf38	-0.019515619
34	0xbda42842	-0.08015491
35	0x3cef3c20	0.029203475
36	0xbd82f08f	-0.06393539
37	0xbd929e84	-0.07159141
38	0x3d8b2481	0.06794072
39	0xbd8175ca	-0.063212946
40	0xbdb64623	-0.08900096
41	0x3db6e7fc	0.08930966
42	0xbd018aa4	-0.03162636
43	0xbd7e9a94	-0.062159136
44	0xbdb505df	-0.088390104
45	0xbd94fd89	-0.072749205
46	0x3d686700	0.056738853
47	0xbdb78499	-0.08960838
48	0x3bec30c0	0.00720796
49	0xbd06fd34	-0.032956317
50	0x3d255a17	0.04036912
51	0xbd83d256	-0.06436603
52	0x3dd52f3e	0.10409401
53	0x3d998688	0.07496363
54	0xbd72aba0	-0.059245706
55	0x3cbc2d56	0.022970837
56	0xbcf4c844	-0.02988065
57	0xbcd4474a	-0.0259129
58	0xbd56bd72	-0.052426763
59	0x3dc0c703	0.094129585
60	0xbd9ec0c6	-0.07751612
61	0xbd818741	-0.06324626
62	0x3c88e277	0.01670955
63	0x3d3d8f89	0.046279464
64	0xbb848f55	-0.004045407
65	0xbd6a001d	-0.057129014
66	0x3d3b3405	0.045703907
67	0x3dc98902	0.09840585
68	0x3db015b5	0.0859789
69	0x3d68f224	0.05687155
70	0xbd9fad81	-0.07796765
71	0x3dae8354	0.085211426
72	0xbd57303b	-0.05253623
73	0xbd42a8c4	-0.04752423
74	0xbda4007c	-0.08007905
75	0x3d8aaee4	0.06771639
76	0xba826845	-0.0009949288
77	0xbcfd6dda	-0.03093617
78	0x3d11d76e	0.03560584
79	0xbc9cc7e6	-0.019138288
80	0xbd512e1e	-0.05106937
81	0xbdb30576	-0.08741276
82	0xbd6b3f60	-0.057433486
83	0x3dbc72cb	0.092015825
84	0xbd6e6f78	-0.058211774
85	0x3d4d5180	0.050126553
86	0xbc02d8f5	-0.007986297
87	0xbd9025d7	-0.070384674
88	0xbca49731	-0.020091625
89	0xbc2c3d17	-0.010512612
90	0xbd6190aa	-0.055069603
91	0xbd98220b	-0.07428368
92	0x3dc2385a	0.094834045
93	0xbc7f99ce	-0.015600635
94	0x3b7b361d	0.0038331815
95	0xbd70158e	-0.058614306
96	0xbbe01cfd	-0.006839393
97	0xbdc173b1	-0.094458945
98	0xbd78f0f5	-0.06077667
99	0x3d520172	0.05127091
100	0xbda44c6b	-0.08022388
101	0x3d8ee078	0.06976408
102	0xbc3b60d2	-0.011436658
103	0xbd8499b7	-0.06474631
104	0xbd1c9478	-0.03822753
105	0xbd8155f0	-0.063152194
106	0xbddc0bf1	-0.10744465
107	0x3dbebb5b	0.09313079
108	0x3d32063f	0.043462988
109	0x3d3aeeff	0.04563808
110	0x3cf1488b	0.029453536
111	0xbbfdac83	-0.0077415123
112	0x3c053328	0.008129872
113	0xbd1631e2	-0.036668666
114	0xbd93fc17	-0.07225817
115	0x3d8ae6f6	0.067823336
116	0x3dc036bb	0.09385439
117	0xbb8bc7f4	-0.0042657796
118	0x3c408ea4	0.011752758
119	0xbd4936b5	-0.04912444
120	0xbdbaa6ca	-0.09113844
121	0xbc6bae1f	-0.014384775
122	0xbd9a9ee9	-0.07549841
123	0x3dd43e31	0.103634246
124	0xbaa9d34d	-0.0012956649
125	0x3dbc100e	0.0918275
126	0xbdc17331	-0.09445799
127	0x3bad157d	0.0052821026
128	0xbdbcf5bf	-0.0922656
129	0x3d623f0b	0.055235904
130	0xbc588ccb	-0.013217161
131	0xbdb9c7f4	-0.09071341
132	0x3cdbbc2c	0.026823126
133	0xbda25277	-0.07925885
134	0xbd507f59	-0.0509027
135	0x3ce46d24	0.027884074
136	0x3ddddf6b	0.10833629
137	0xbdc4c57f	-0.09607982
138	0xbdd655c1	-0.10465575
139	0x3cf29207	0.029610647
140	0x3dd20020	0.1025393
141	0xbb5659ba	-0.003270729
142	0xbbed3eaf	-0.0072401385
143	0xbd6e1bd5	-0.05813201
144	0x3dd05720	0.10172868
145	0x3cf9e697	0.030505462
146	0xbdd6b3d3	-0.104835175
147	0x3d8957df	0.06706213
148	0x3d8f5091	0.06997789
149	0x3d04db47	0.03243568
150	0xbd083f0d	-0.033263255
151	0x3ca78470	0.020448893
152	0x3dca895f	0.09889483
153	0xbc9f5058	-0.01944749
154	0x3d34561f	0.044027444
155	0x3d5498ed	0.051903654
156	0xbd0d8850	-0.034553826
157	0xbd3207c1	-0.043464426
158	0xbd6b93da	-0.05751405
159	0x3d1a2cb0	0.037640274
160	0xbdb83163	-0.08993795
161	0x3c1af173	0.00945698
162	0x3d1bf2d1	0.038073365
163	0xbc9a0d2c	-0.018805109
164	0xbbb3dc11	-0.0054888804
165	0xbdb0dbe6	-0.08635692
166	0x3dc43294	0.095799595
167	0x3d9f187d	0.07768343
168	0x3c426e71	0.011867152
169	0xbdae9350	-0.085241914
170	0xbc9eb2da	-0.019372392
171	0xbd79dfa8	-0.06100431
172	0xbd5ece7a	-0.05439613
173	0x3dd655d6	0.10465591
174	0xbdc87feb	-0.097900234
175	0x3d3084f3	0.04309554
176	0xbcdb6f5e	-0.026786502
177	0x3d9ce928	0.076616585
178	0x3da061d8	0.07831162
179	0xbcf64278	-0.030060992
180	0xbda1a68e	-0.07893096
181	0x3dd3e315	0.10346047
182	0x3d49f682	0.049307354
183	0x3cd11b4a	0.025525708
184	0xbd1d72d6	-0.038439594
185	0x3c730532	0.014832782
186	0xbd8697a4	-0.06571892
187	0x3dc5afd4	0.09652677
188	0xbd753064	-0.059860602
189	0x3d3d3491	0.04619271
190	0x3aa2d074	0.0012421743
191	0x3dc8987b	0.09794708
192	0xbdbe15f6	-0.092815325
193	0xbd5b6ce6	-0.05357065
194	0xbb1afd8a	-0.0023649656
195	0x3bda5cc3	0.00666389
196	0x3c088aaa	0.008333841
197	0xbd854d79	-0.06508917
198	0x3d2879c4	0.04113175
199	0xbd29a4f4	-0.041417077
200	0x3dd6bc3e	0.10485123
201	0xbc10dc23	-0.008841547
202	0x3ce7f18d	0.028313423
203	0xbc9f06a2	-0.019412342
204	0xbcfdb78a	-0.030971307
205	0x3db01364	0.085974485
206	0xbdcb7774	-0.09934893
207	0xbdd36bd1	-0.10323299
208	0xbc327c27	-0.010893858
209	0x3d133e1c	0.035947904
210	0x3dc49bee	0.09600054
211	0xbdae37a3	-0.085067056
212	0xbce05aa7	-0.027386976
213	0x3dd47657	0.10374134
214	0xbc324a2a	-0.01088194
215	0xbdcafa6b	-0.09911045
216	0xbba22dcc	-0.004949307
217	0xbd8f62e8	-0.07001287
218	0x3c8f89c5	0.017521748
219	0xbdd9b086	-0.10629372
220	0x3d3df186	0.046372913
221	0xbd8269b6	-0.06367819
222	0x3c911249	0.017708914
223	0x3db71252	0.08939041
224	0x3dc6a55b	0.09699508
225	0xbdba6090	-0.09100449
226	0x3dc9ecd3	0.09859624
227	0xbdc09411	-0.094032414
228	0xbdbde00f	-0.092712514
229	0x3d1aa270	0.03775257
230	0x3dcc037d	0.09961603
231	0x3ddb7ebb	0.10717531
232	0x3d0937c2	0.03350044
233	0x3b4e92ee	0.0031520682
234	0xbdaf8036	-0.08569376
235	0xbc96e331	-0.01841888
236	0xbddae0de	-0.10687421
237	0x3dcd9601	0.100383766
238	0x3d72bdf7	0.059263196
239	0xbc86fd95	-0.01647834
240	0x3d48cee0	0.049025416
241	0xbdd69a65	-0.10478667
242	0x3dc38271	0.09546364
243	0x3d9db011	0.076995976
244	0xbd2d5b0b	-0.042323153
245	0x3d4d6900	0.050148964
246	0x3d5c96e4	0.053854838
247	0x3d2af65c	0.041738853
248	0x3d00f76b	0.031485956
249	0x3c4575c8	0.012052007
250	0xbd07d46f	-0.033161577
251	0x3dd2bbbf	0.10289716
252	0x3d166326	0.03671565
253	0xbd7de444	-0.06198527
254	0x3c0cdf51	0.008598165
255	0x3c816b2b	0.015798172
