models/1296_pixels/10.pt (torch, 771783 bytes, 10 tensors)

conv1.weight f4 [6, 1, 5, 5]
000000 9a b0 a6 bd 50 da 9d bd 0d a1 8a be bc 06 ab 3d
       -0.08139153 -0.077076554 -0.27075997 0.08350894
000010 42 ee e5 bd ac d0 c1 3e dc eb 33 be ea 22 81 3b
       -0.11227085 0.37854517 -0.17570442 0.0039409297
000020 05 b2 9e be b6 73 4b 3e 00 cc a1 be 64 b2 7c be
       -0.30995193 0.19868359 -0.31600952 -0.24677426
000030 cb 3f c1 bd 00 ab 27 be 5c d7 97 be c1 4b 0b 3e
       -0.09435996 -0.16373825 -0.29656494 0.13603117
000040 f8 e4 a0 3e 25 ed cc bd fe 72 29 be b0 34 96 3e
       0.3142469 -0.10006169 -0.16547772 0.29337072
000050 32 c1 85 3d 6c 69 a6 bd 45 bc 70 bd db 9c 54 3e
       0.0653099 -0.081255764 -0.058773298 0.2076296
000060 6e 37 60 be 5a 1c 84 be fd 0a 57 3e 10 a9 b6 3c
       -0.21896145 -0.2580288 0.21000285 0.022297412
000070 5f 6c bc 3d 42 df 6d 3e b6 6b 04 3e 4f 42 b5 be
       0.09200358 0.23229697 0.12931713 -0.35402152
000080 6b 97 cf be 42 ba c7 be 4e 19 af 3e 2b 4f 9a 3d
       -0.4054521 -0.3900929 0.34198993 0.07534631
000090 a9 5e 78 bd d6 c4 90 3e d6 85 98 be 81 61 27 be
       -0.06063715 0.28275174 -0.2978961 -0.16345789
0000a0 48 63 7b 3e 67 65 6b 3e ca d6 bb be 50 7e 41 be
       0.24549592 0.229879 -0.3668731 -0.1889584
0000b0 99 52 82 be 45 1a 84 be 5c 0b 8b be a1 5f 24 3c
       -0.25453642 -0.25801292 -0.27157104 0.010032565
0000c0 3b 08 31 bc 0e 57 81 be 48 4b 3e bd de e0 63 bd
       -0.010805185 -0.2526173 -0.046458513 -0.055634372
0000d0 92 24 71 3e cb e2 6f 3e 21 9c c1 3d 3e 7c dd 3a
       0.23549107 0.23426358 0.09453607 0.0016897989
0000e0 e2 28 93 3d 5e 0a 78 3e 62 a6 48 bd 8b 8b a1 3d
       0.07185532 0.24222705 -0.0489868 0.07887944
0000f0 a3 26 87 3e c9 ef 4e 3d 2a 46 55 3e b6 1c 84 bc
       0.26396665 0.050521646 0.20827547 -0.016126972
000100 26 97 36 3e 29 f5 8a 3e 3a 14 4d 3e 1d f5 3a 3d
       0.17831096 0.27140167 0.20027247 0.045643914
000110 8b c5 4d 3e 08 fe 8c 3e 63 48 32 3e 8f a1 6a 3e
       0.20094888 0.2753756 0.17410426 0.22913192
000120 47 92 42 3b 44 ba 8f 3e 04 1f 81 3e 04 45 92 3d
       0.002968924 0.28071797 0.25218976 0.0714207
000130 08 0c 18 3e 03 85 8f be 7d 70 8f be 64 60 39 3e
       0.1484834 -0.28031167 -0.2801551 0.18103176
000140 6b a3 0b be d3 81 0b be e1 05 a6 3e b8 be 51 be
       -0.13636558 -0.13623743 0.3242636 -0.2048291
000150 83 43 ac 3e ed c2 27 bc 43 ee 47 3d 01 83 ba 3e
       0.33645257 -0.010239345 0.04881121 0.36428073
000160 4a 84 3c be b9 2a af bc 42 12 2f bd cb af 89 be
       -0.1840984 -0.021382676 -0.04274202 -0.26891932
000170 cd ba d4 bd 91 94 ba bd 76 f0 4d be cf 92 34 be
       -0.10387192 -0.09110368 -0.2011126 -0.17634128
000180 7b 32 3a 3e 98 ee 54 be 0b fd 60 3e 20 06 4e be
       0.1818332 -0.20794141 0.21971528 -0.20119524
000190 56 30 4b 3e f8 d1 69 3e 0e 6d e7 bd 78 85 c1 bd
       0.19842657 0.22834003 -0.113000974 -0.09449285
0001a0 f6 e5 9b 3c f4 70 2c bd c3 ce 2c be 29 8f 21 be
       0.019030552 -0.042099908 -0.16875748 -0.15777268
0001b0 6e b0 bf bd 06 1c aa 3d b6 82 04 3e 1d 16 a6 3c
       -0.09359823 0.08306126 0.12940487 0.020274216
0001c0 62 30 84 be 95 5f 16 3e b6 bb 8d be a6 74 8d be
       -0.25818163 0.14684899 -0.27682275 -0.27628058
0001d0 28 0e 70 be 44 11 99 be 35 01 4b 3e 15 2b 2f 3e
       -0.234429 -0.29895985 0.19824679 0.17106278
0001e0 b4 d7 bd 3d 57 3f 5c 3e 5d c3 80 3d 1f 2e 30 3e
       0.09269658 0.21508537 0.062872626 0.17205094
0001f0 43 e6 33 3e 9a 34 e9 bb a5 74 83 3d ca a8 ff 3d
       0.17568307 -0.0071168663 0.064187326 0.12483366
000200 03 1f f6 3d b7 ba 5e 3e 0a f8 4a 3d bb 02 3f 3e
       0.12017634 0.21750914 0.049552955 0.18653385
000210 39 0b 6c 3d ec d5 d8 3d 7a b0 5a 3e 20 de 72 3e
       0.05762789 0.10587677 0.21356383 0.23717546
000220 d5 fa 96 3d e5 43 31 3d 2c c0 3e bd 53 ab 27 bc
       0.07372061 0.04327764 -0.046569988 -0.010233718
000230 95 9e 28 3e 31 2f 3c 3e dd 64 75 3e 73 a3 91 bd
       0.16466744 0.18377377 0.23964258 -0.071112536
000240 c3 75 52 3e c7 37 87 3e 09 9c 8c 3e fb 70 a3 3d
       0.20552735 0.26409742 0.27462795 0.07980534
000250 4b 94 75 3d 09 95 61 bc
       0.059955876 -0.013768443

conv1.bias f4 [6]
000000 4a 62 24 3f e4 54 78 3f 5d ec 5b bd 3e 55 fd 3e
       0.6421248 0.9700453 -0.05369221 0.49479097
000010 09 c5 e9 3c 7a 7c 90 bd
       0.028536336 -0.07054992

conv2.weight f4 [16, 6, 5, 5]
000000 a4 5d e5 3b f3 a7 18 3e 8d 92 c2 3c 5a d8 dd 3c
       0.006999688 0.14907818 0.023751521 0.027080704
000010 ac ec 93 3d 08 74 22 3e c7 0a 08 bb 37 4d 0b 3e
       0.07222876 0.15864575 -0.0020758377 0.13603674
000020 22 0c dc 3b c4 12 2e 3e 38 3f 1c 3e 8b b6 53 3d
       0.0067153135 0.16999346 0.15258491 0.05168776
000030 de 96 03 3e e3 02 8e 3d cd 66 07 3e be 90 18 3e
       0.1285052 0.06934144 0.13222809 0.14898965
000040 07 6f 3d 3d 26 73 24 3e a8 b9 88 3c 6c 3d 00 3e
       0.046248462 0.1605955 0.01669009 0.1252343
000050 69 bb 03 3e 19 50 10 3e 4c b4 db 3d 21 bb 01 3d
       0.1286446 0.14093055 0.10727748 0.0316726
000060 fd 1c a7 3c 30 41 19 3e 1b f5 2b 3e 78 2e 09 3e
       0.020399565 0.14966273 0.16792719 0.13396633
000070 81 0d b0 3d 97 27 48 3d 17 74 6b 3d 46 69 1d 3d
       0.08596326 0.04886588 0.05748376 0.038430475
000080 50 e2 72 3d 68 30 93 3d 75 e5 7b 3d 34 65 f4 3d
       0.05929786 0.07186967 0.061498124 0.119333655
000090 da 52 31 3e 05 5f 4e 3e ea f2 04 3e f9 b5 0d 3e
       0.17316762 0.20153435 0.1298329 0.13838948
0000a0 1e 52 38 3e 75 b2 ad 3d 2e 27 28 3d 56 55 41 3d
       0.18000075 0.084813036 0.04105299 0.047200523
0000b0 ac c0 53 3e d4 aa c0 3d 9f d5 2b 3e 5f dc 3f 3e
       0.20678967 0.09407583 0.16780709 0.18736409
0000c0 31 a3 32 3e 23 74 34 3e c5 75 af bd be 6c b4 bd
       0.17445065 0.17622428 -0.08567385 -0.088098034
0000d0 dd f6 d2 bc 3a 95 61 bc 55 6e a3 bd 14 ef a8 3c
       -0.02575248 -0.013768489 -0.079800285 0.020621814
0000e0 a4 9c 90 3d 1f 66 9c bd 97 e4 b7 bd 0b d1 94 3d
       0.07061127 -0.076366656 -0.08979147 0.07266434
0000f0 ad bb fb bc 71 9c 9b 3c c4 b1 a1 3d 79 c2 97 3b
       -0.03072914 0.018995496 0.07895234 0.0046313372
000100 cc de 70 3d 04 a4 9f 3c 6f fc 0d 3d c3 0c 6e bd
       0.058806226 0.019487388 0.034664568 -0.05811764
000110 30 29 f5 bc 88 0c e0 bc 69 e5 84 bd 97 a5 55 3d
       -0.029926866 -0.027349725 -0.06489069 0.052159872
000120 ad 3e 85 bd 59 30 23 3d 34 63 0f bd c9 ba 35 bb
       -0.06506095 0.03984103 -0.035006717 -0.002772974
000130 65 bb 19 3e 76 c7 56 bc 79 0b cb 3d bc ab 04 3e
       0.15012892 -0.013109079 0.099142976 0.12956136
000140 b3 1f ea 3d bd b8 10 3e ed a6 0a 3e 00 3e 0a 3e
       0.114318274 0.14132972 0.1354024 0.13500214
000150 ec 07 e2 3d 96 2f 06 3e bf 3f 1a 3d c5 91 13 3e
       0.11036667 0.1310409 0.03765845 0.14411075
000160 30 7b b4 3d 7c fc 84 3d 0f aa 1d 3e 58 48 88 3d
       0.08812559 0.0649347 0.15396903 0.066544235
000170 2a 97 11 3e b1 d2 ba 3d cc bc dc 3d 6f 74 b0 3d
       0.14217821 0.091222174 0.10778198 0.08615958
000180 42 3b 1b 3e ff 28 0a 3e 3a 10 56 3d da be 51 3d
       0.15159324 0.13492201 0.05226157 0.0512074
000190 7f 4b a7 3d 0f 86 a8 3d 0f 24 b9 3d 87 6d 95 3d
       0.081686966 0.08228695 0.09040081 0.07296281
0001a0 1c 92 fc 3d c7 f2 08 3e 2e 16 d6 bc 00 8a f6 3c
       0.12332556 0.13373862 -0.026133623 0.0300951
0001b0 cb ea 14 3d 93 a9 c7 3d 93 c1 3b 3d 08 ed 3b bc
       0.03635673 0.097491406 0.045838904 -0.011470087
0001c0 9d 0f dc 3d 63 23 94 3d ee c5 bf 3d ac e1 c0 bc
       0.107451655 0.07233312 0.09363924 -0.023545109
0001d0 f6 35 a9 3c 5a 0e de 3d 91 8f de bb 4d d1 8a 3d
       0.020655613 0.10842581 -0.006792017 0.06778202
0001e0 91 72 0c bd 5d ff a0 3c 44 5e 99 3d 47 7f 9b 3d
       -0.034288947 0.019653017 0.07488683 0.075926356
0001f0 1b a8 01 bc eb b9 92 bd 7e df 16 3d 66 08 7a 3c
       -0.007913615 -0.07164367 0.036834233 0.015260791
000200 de bc 7b 3d 7f 0d a8 bd 71 25 71 bc 2f fd 45 bd
       0.061459415 -0.08205699 -0.014718399 -0.048337158
000210 0d d3 be 3d 73 c2 b9 3c e2 49 7a 3c 41 69 00 3c
       0.093175985 0.022675728 0.015276404 0.0078375945
000220 f0 71 ac bc 5d 52 05 3d a8 8d c3 bc 34 2a c4 3d
       -0.021050423 0.03254925 -0.023871258 0.09578362
000230 f0 6e be 3d 8c 0b 48 3d e6 06 b0 bd 41 0c 77 ba
       0.092985034 0.048839137 -0.08595066 -0.0009424128
000240 e9 54 61 bc 1e 96 98 3d 3a 36 a2 bd 66 7b 14 bc
       -0.013753154 0.074505076 -0.07920499 -0.009062624
000250 f9 65 57 bd ac eb 8d 3d d6 58 20 3d e5 d6 99 3b
       -0.052587483 0.069297165 0.03914722 0.004694807
000260 69 47 f5 bc c6 23 b0 3d c8 f0 a8 3d c0 f7 ab 3d
       -0.029941278 0.08600573 0.082490504 0.08396864
000270 90 25 6b 3d 0f a8 90 3c b7 86 01 bd 56 19 06 3d
       0.05740887 0.017658262 -0.031622615 0.032739006
000280 b9 33 06 bc b4 e2 f5 bc f5 0e 8e bd 27 79 e0 3c
       -0.008191043 -0.030015327 -0.069364466 0.02740152
000290 4d 3a 3e 3c 74 ba 76 bc 9d 23 9c 3d 60 17 41 3d
       0.01161058 -0.015059102 0.0762398 0.047141433
0002a0 bb a6 0f bd ee 3a 9e bb e6 89 89 bd bf e3 08 bd
       -0.035071116 -0.0048288023 -0.06715755 -0.03342032
0002b0 4c 3d 73 bd dd 47 a3 3c 4c bb 69 3d 99 b5 44 bd
       -0.05938463 0.019931728 0.057063386 -0.048024748
0002c0 c3 2d 31 3c 4e d7 20 bd 7e e2 42 3d 5b 7a 89 bc
       0.010814133 -0.03926783 0.04757928 -0.016781976
0002d0 b9 1b 3c bb 3b 0b 78 bb df ec bd bc c4 ab 99 3c
       -0.0028703047 -0.003784849 -0.023184238 0.018758662
0002e0 b8 42 89 bd b4 d1 ef 3b f4 ab b7 bc 70 5c 46 3d
       -0.06702179 0.0073186997 -0.02242086 0.048428
0002f0 e6 d3 c1 3d 86 16 46 3b 4f cb f1 3c 6f 22 18 bd
       0.094642445 0.0030225827 0.02951589 -0.037142213
000300 90 31 99 bb 6c e8 10 bb 88 30 61 bd f8 f0 a1 3d
       -0.0046750978 -0.002211119 -0.054977924 0.07907289
000310 78 9b 60 3b f2 97 58 bd 3e ee eb bc 38 a1 a7 3d
       0.0034272354 -0.05287928 -0.028800126 0.08185047
000320 49 bb 38 3c 59 d3 98 3c 08 a8 b6 3c 47 85 81 bb
       0.011275121 0.018655466 0.02229692 -0.0039526555
000330 39 75 69 bd 92 c3 7d bd 44 86 a1 bd e0 93 0a bd
       -0.056996558 -0.06195409 -0.07886937 -0.03383243
000340 d6 ae 85 bd 93 b3 31 bd 0e a6 8d bd 2e 31 21 bc
       -0.06527488 -0.043384146 -0.06916438 -0.0098383855
000350 e3 60 03 bd 61 08 a2 3d 70 9e c7 bc a0 19 d5 ba
       -0.03207482 0.079117544 -0.024367541 -0.0016258247
000360 c0 d2 83 3d cf d8 00 3d af 07 20 3c e3 54 98 3c
       0.06436682 0.031456765 0.009767457 0.018595165
000370 24 11 e2 3c 6c 10 dc 3c fe eb 77 bc c8 d7 2a 3d
       0.027596064 0.0268633 -0.0151319485 0.04170969
000380 f5 5a 74 3d cc 67 b2 3d 22 d6 36 3d 9d 16 86 bd
       0.059657056 0.08711204 0.044637807 -0.06547282
000390 a4 25 e9 3c f7 f3 93 3d ca 56 56 3d 3f a1 87 3d
       0.028460331 0.07224267 0.052328862 0.06622552
0003a0 a8 fd 31 bd 97 0d 90 bd e4 9e 1c 3d d3 8b ec 3b
       -0.043454796 -0.07033842 0.038237467 0.007218817
0003b0 84 3e 06 bd d3 62 30 bd 11 50 00 3d 7e cd 0c bd
       -0.032774463 -0.043062996 0.031326357 -0.03437566
0003c0 ef 0c 43 3d c3 94 98 3d 91 60 9e 3d 98 4f 8b bd
       0.047619756 0.07450249 0.07733262 -0.06802291
0003d0 22 8e 90 bd 9d 65 8e 3d 5d 1d 1f bb cb ea f5 3c
       -0.0705836 0.06952975 -0.0024278976 0.030019185
0003e0 e8 f6 8c bd c3 bc 5a bd e3 53 59 3d 30 a1 ad 3c
       -0.06883031 -0.053402673 0.053058516 0.021195024
0003f0 f1 85 77 bd ef a8 25 3d 24 88 d4 3b 5a 9a 10 bd
       -0.06043047 0.04044431 0.006485956 -0.03530345

conv2.bias f4 [16]
000000 4a 5e 03 3e e5 d4 8c bc 6b 4b b2 3d a7 c5 0e ba
       0.12828937 -0.01719136 0.08705791 -0.00054463226
000010 0a 97 f3 bd 1e ad a2 3d a3 6c 86 bd db 1e aa 3d
       -0.11894043 0.07943176 -0.065636896 0.083066665
000020 a2 84 ed bc 82 ee 22 3d 81 ae fb 3c a6 bd c3 3d
       -0.028993908 0.03977824 0.030722858 0.09557657
000030 fe d6 e2 3c 68 24 73 bd 86 e0 87 bd 13 f6 4e bd
       0.027690407 -0.05936089 -0.06634621 -0.050527643

fc1.weight f4 [120, 576]
000000 00 5f 32 bb 56 5f 0e bc b0 e4 09 bc ab 21 2c ba
       -0.002721727 -0.008689722 -0.00841634 -0.0006566296
000010 86 86 b1 3c d6 88 cb bc 6b 7a bb bc 7b 7b 2d bc
       0.021670591 -0.024845522 -0.022885522 -0.010588522
000020 2b c7 fe 3b 20 9c a9 3b f0 65 67 bc 96 12 bf bc
       0.0077752075 0.0051760823 -0.014123425 -0.023324292
000030 66 96 58 3c c0 38 e9 bb c8 a4 80 3c b8 5a e1 3c
       0.0132194515 -0.007117361 0.015703574 0.027509078
000040 c0 bc 65 bb 16 eb 1d bd 30 6b 94 bc a3 e9 c1 bc
       -0.003505513 -0.038554274 -0.018117517 -0.023670977
000050 7f 4d 19 3d d0 81 3c 3c 1b 61 78 bc bb 60 1b bd
       0.03742742 0.011505559 -0.0151598705 -0.037934046
000060 ab 33 75 3a b6 30 a2 bb 37 ab 27 bd 0b 59 36 3c
       0.00093537074 -0.0049496545 -0.040934768 0.011129628
000070 06 d1 fe bc bb 7a 15 bc b8 a1 00 3d cb ee cb 3c
       -0.03110553 -0.0091234995 0.031404227 0.024894139
000080 70 54 23 3d 16 9c 26 bd 70 5e 57 bc 68 c7 25 bd
       0.039875448 -0.0406762 -0.013145074 -0.04047337
000090 5b e8 af 3c eb 9e 9c 3c 98 f4 24 3d 0c 63 0c 3d
       0.0214731 0.019118747 0.040272325 0.034274146
0000a0 5c 2d 1a bd 83 e5 e2 3c 80 9b 00 3c 2f c9 0c bd
       -0.037640914 0.02769733 0.007849574 -0.03437155
0000b0 f0 19 28 3d 88 e1 ee bc b6 09 d5 bb 87 29 07 3d
       0.04104036 -0.029160276 -0.006501402 0.032998588
0000c0 73 b9 c0 3c 9b 06 27 bc 5e 21 fd bc 50 11 b4 3c
       0.02352593 -0.010194446 -0.0308997 0.021980911
0000d0 5b 43 ba bc 6b cb 1c 3c b6 3a a4 3c 7b 83 42 bc
       -0.022737196 0.009569983 0.020047527 -0.011872168
0000e0 80 ef d3 bc 00 fe 06 3c 86 17 79 3c b3 53 12 3d
       -0.025871038 0.008239269 0.015203362 0.035724353
0000f0 ab 7d 0b 3b 96 43 77 3c a0 97 35 bc 47 12 25 3d
       0.002128462 0.015091797 -0.0110835135 0.040300634
000100 00 60 ee bb de eb b4 3c 3b 54 9d 3c 66 d0 cc bc
       -0.0072746277 0.022085126 0.019205203 -0.025001716
000110 10 05 1c bd ab b9 7f 3a 00 eb 40 3a ff a5 14 3d
       -0.038090765 0.0009755145 0.00073592365 0.03629112
000120 a6 36 cd 3c e0 4c b2 3c f6 0c 74 bc 1b ef 25 3d
       0.025050472 0.021765172 -0.014895668 0.040511232
000130 ab 4f 40 3c 00 9b bb 3a 0b 51 88 3c 00 a6 81 3a
       0.011737744 0.0014313161 0.016640207 0.0009891391
000140 0b b2 c9 3c 56 a4 12 3a 00 1e f2 3c 08 07 f6 bc
       0.02462103 0.0005593946 0.02955532 -0.03003265
000150 d8 bb 12 bd d7 bc 1a bd 92 8a 1a 3d 4b da 66 bc
       -0.035823673 -0.037777748 0.037729807 -0.014090131
000160 93 0b 95 3c 8e 22 c7 3c d6 ee 53 3c 04 35 19 bd
       0.018193996 0.02430847 0.012935361 -0.037404075
000170 f0 9f 35 3c cb ed d8 bb 48 10 db bc fb b7 0e 3d
       0.011085495 -0.006620144 -0.026741162 0.034843426
000180 3a 56 1f bd 00 f0 0b b8 23 f9 d5 3c bb f8 b5 3c
       -0.03890059 -3.33637e-05 0.026119774 0.02221333
000190 a3 87 9d 3c 60 51 fc bc 30 98 18 bc b0 a3 6c 3c
       0.019229716 -0.030800521 -0.009313628 0.014443323
0001a0 d0 8c 11 3d d6 cc 5d 3c da 30 06 bd 93 5d f5 3c
       0.03553468 0.013537606 -0.032761432 0.029951846
0001b0 18 df d9 3c 56 bd e1 39 20 cb 7b bc c3 a3 83 bc
       0.026595637 0.0004305641 -0.015368253 -0.016069299
0001c0 36 cd 98 3c 40 9d c5 bb 80 88 14 bb 4e ef e1 3c
       0.01865254 -0.0060307086 -0.0022664368 0.02757993
0001d0 80 50 6b 3c 03 98 d9 3c 0b 5b 3a bc c0 c0 a8 bc
       0.014362454 0.026561743 -0.011374245 -0.020599723
0001e0 ae 67 8e bc c0 d2 c7 bc 6b 8b bb 3b 03 5f ce 3c
       -0.017383423 -0.024392486 0.005723407 0.02519179
0001f0 d6 3a 23 3b 8e d5 86 3c 2b 05 78 bb 34 1f 00 bd
       0.0024906895 0.016459253 -0.0037844877 -0.031279758
000200 00 21 ed 3b 7b bf 7b 3c 50 41 be 3c e6 bc 4c bc
       0.0072366 0.015365477 0.023224503 -0.012496209
000210 40 30 9f 3c 00 7a 14 ba 2b e5 d4 bb 46 91 ec 3c
       0.019432187 -0.00056639314 -0.0064970455 0.028877866
000220 d6 30 39 bc 43 29 e7 3c c0 73 71 bb c8 46 c6 bc
       -0.011303147 0.028217917 -0.0036842674 -0.024203673
000230 06 28 b5 3c 38 52 dd bc e0 56 bf 3b ee f6 bb bc
       0.022113811 -0.027016744 0.0058392137 -0.022944894
000240 eb fc 2a 3c 96 fd 99 3b c0 8b 68 3b 4b 0c 2a bd
       0.010436277 0.0046994193 0.0035483688 -0.04151563
000250 83 d4 aa 3c d6 6b 24 3b d8 cd ee bc 70 f3 66 3c
       0.020853287 0.002508869 -0.029150888 0.014096126
000260 07 71 0a 3d 4b 89 a4 bc 80 ca 9f 3a 5a 1f 0d 3d
       0.033799198 -0.020084998 0.0012191087 0.034453727
000270 ab 76 d2 3a 9e 43 a6 bc 00 6b f0 ba 00 5c 34 ba
       0.0016057094 -0.020295914 -0.0018342435 -0.0006880164
000280 b6 43 f2 bc c8 1e cc 3c 43 df c2 bc 40 66 1f bd
       -0.029573303 0.024917021 -0.0237881 -0.038915873
000290 eb e0 69 3b 86 13 ba 3c 64 2a 28 bd 80 37 47 bb
       0.003568704 0.022714388 -0.04105605 -0.003039807
0002a0 3b c9 02 3d b6 b0 34 bc 40 15 5f 3b 8b 87 01 3c
       0.03193019 -0.011028459 0.0034039766 0.007905851
0002b0 98 f8 f3 bc 56 71 1e bd fb 7d e4 3c 6b 51 6e bb
       -0.029781625 -0.038682304 0.027892103 -0.0036364447
0002c0 b6 b4 d4 3b 7b 77 e1 bc cb c5 93 bb a6 72 75 3c
       0.006491269 -0.027522793 -0.0045096627 0.014980948
0002d0 be bc 92 3c f3 9a 04 3d 8b b2 99 3b 1b ba 15 3c
       0.017912265 0.032374334 0.0046904734 0.009138609
0002e0 56 7d ae bb af cc 07 bd 3b 2c 8d bc 97 18 19 3d
       -0.005325 -0.033154186 -0.017233005 0.037376966
0002f0 e8 28 eb bc 70 22 eb 3c 04 a8 0d bd ab 4c 9a 3a
       -0.028706029 0.028702945 -0.03458406 0.0011772116
000300 08 95 ce bc be 2c 16 3d 88 6d f2 3c ab 3f 34 3b
       -0.025217548 0.036663763 0.029593244 0.002750377
000310 2b 58 49 3b 03 be 89 3c 7b 62 6c bc 7b 61 ea bc
       0.0030722718 0.016814237 -0.014427776 -0.028610935
000320 b3 d8 27 bd 9e 7f d3 3c 0b 09 bd 3c 1e bd c2 3c
       -0.040978145 0.025817689 0.023075601 0.023771819
000330 43 ca d6 bc 56 16 65 ba 6b 91 5f bc f4 12 1e bd
       -0.026219493 -0.0008738985 -0.01364551 -0.038592294
000340 60 53 1c bc 48 e5 e9 bc 8b 9e 15 3c e6 8e 11 bc
       -0.0095413625 -0.028551713 0.009132038 -0.008884167
000350 30 9a 58 bc 9e 9f 9f bc b3 38 a7 3c cc bd 0b 3d
       -0.013220355 -0.019485291 0.020412778 0.03411655
000360 9e 93 0a 3d 8e cd d5 3c 1b d1 8d 3c 5b cb 02 bd
       0.033832185 0.026098993 0.017311623 -0.031932216
000370 76 32 a9 bc e0 c4 e0 bc fb 17 1d 3c d6 69 91 bb
       -0.020653944 -0.027437627 0.009588237 -0.0044376655
000380 04 61 23 3d 36 1a 97 3c 1b 9d d5 3c 78 b3 83 bc
       0.039887443 0.018445116 0.02607589 -0.016076788
000390 d6 f7 a5 bc 2e 19 f8 bc c6 8c c6 3c c0 e0 48 bc
       -0.020259779 -0.030285444 0.024237048 -0.012260616
0003a0 f6 83 1d 3d 00 25 a4 bc 4e 67 16 bd d3 c2 fd bc
       0.038455926 -0.020037174 -0.036719613 -0.030976688
0003b0 86 71 0e bd 56 b6 44 ba 73 90 fb 3c cf d5 0e bd
       -0.034776233 -0.0007503977 0.030708527 -0.034871873
0003c0 93 bb 89 bc 76 aa 84 bc 00 c2 86 3c 00 6a ce 3b
       -0.016813075 -0.016194563 0.016449928 0.0062992573
0003d0 53 19 f3 3c 6e f9 c9 3c ab f9 de 3c a6 6f 09 3d
       0.029675161 0.02465507 0.02721866 0.033553742
0003e0 c8 33 07 bd 2e d4 8b 3c cb f0 a1 bb 0e 0c e6 3c
       -0.033008367 0.017068949 -0.004942035 0.02808192
0003f0 be 9e 21 3d 76 66 f1 3b bb c8 e7 bc 00 a9 43 bb
       0.03945803 0.0073669506 -0.028293958 -0.002985537

fc1.bias f4 [120]
000000 be bb cb bc 08 7a ae 3c 03 de 11 bc 0f 17 2d 3d
       -0.024869796 0.021298423 -0.008903029 0.04225832
000010 d2 e3 04 3c cb 4a bc 3c 35 f7 9e 3c 3f 69 9b 3b
       0.008110957 0.022984883 0.019404987 0.004742771
000020 e6 2b df bc 91 41 9f 3c 94 2c e1 bb 67 f4 06 3d
       -0.027242612 0.019440444 -0.006871769 0.032947924
000030 97 59 05 3d 00 82 d7 bc 36 da 2d 3c 77 05 50 bb
       0.032556143 -0.026307106 0.010611108 -0.0031741539
000040 88 72 1a bd 27 be 54 3c 7b 62 75 bc 95 8b fa bb
       -0.03770688 0.012984789 -0.014977093 -0.007646034
000050 27 bc 24 bd 9b b8 2c 3d 7c 28 66 bc f6 29 76 bc
       -0.0402185 0.04216824 -0.014047738 -0.015024653
000060 22 85 b9 b8 39 57 8a 3c 0b ea b2 3c 09 e4 a0 3c
       -8.846285e-05 0.016887294 0.021840116 0.019639986
000070 de d7 e9 3c 39 e7 c1 3c fb 0c aa 3c 6b 49 62 bc
       0.028545316 0.023669826 0.020758143 -0.0138114495
000080 c6 f7 62 bc a3 dc d7 bc e3 24 05 bd d3 01 38 bd
       -0.013853019 -0.026350325 -0.03250588 -0.044923615
000090 df 6d 18 bd cc e2 29 bd 14 16 ce 3c d5 e1 31 3d
       -0.037214156 -0.041476056 0.025157012 0.04342826
0000a0 f7 8d d9 3a 04 45 d5 3c 9f 91 6d bc ec 2f 4b bc
       0.0016598095 0.026033886 -0.014500051 -0.012401562
0000b0 2b 22 ce 3b d3 ac 50 bb 6a f6 a3 3c 95 b4 ca bc
       0.0062906942 -0.0031841293 0.02001496 -0.024744311
0000c0 d8 ca b3 bc ba 96 65 3b 20 24 4a 3d 27 15 b8 3c
       -0.02194731 0.0035032467 0.049350858 0.022471024
0000d0 75 d8 f6 bc 5b e5 26 3d 81 af 47 3d 9d 65 3e bd
       -0.030132512 0.040746074 0.048751358 -0.046483625
0000e0 b0 24 6c 3c da 44 c8 3c 7a 13 08 3d b9 06 c1 3c
       0.014413044 0.024446893 0.0332217 0.023562776
0000f0 67 5c 01 bd 58 0f 0a 3c 71 9f 71 3b f6 c3 99 3b
       -0.031582262 0.00842651 0.0036868716 0.00469255
000100 83 77 ea 3b de bd d8 bc 1a 9f 16 3d 9d db 04 3d
       0.00715536 -0.026457723 0.036772825 0.032436002
000110 34 e9 20 bd 9a 7b 9c 3c f7 44 3e bc d1 94 d0 b9
       -0.0392849 0.019101907 -0.011613122 -0.00039783728
000120 b8 ac 3d ba d5 f4 00 bd 54 1f b9 3b b9 cd 3a bc
       -0.0007235515 -0.03148349 0.0056494866 -0.011401587
000130 63 4a 0d bd 7b 77 23 bb cd 3e 5d 3d 3c 4b 15 bc
       -0.03449477 -0.0024943042 0.05401497 -0.009112176
000140 23 f3 1c bb cc f7 c4 3c b7 13 71 bc 23 04 17 bd
       -0.0023948632 0.02404394 -0.014714173 -0.03686918
000150 f6 3a 13 bd d3 74 c8 bc a8 d3 e7 bc a8 98 29 bd
       -0.0359449 -0.024469769 -0.028299168 -0.04140535
000160 5c 89 3d bd da 94 8a 3b 25 18 26 3d 3d fe fd 3c
       -0.046273574 0.0042291703 0.04055037 0.03100502
000170 e1 7d 07 bd 72 b5 f8 3c 41 37 0d 3d 23 04 b1 bb
       -0.03307903 0.030359957 0.034476522 -0.0054021045
000180 fb c2 2c bd 6d 51 b5 ba e1 d8 13 bd 24 37 62 3c
       -0.042178135 -0.0013833471 -0.036095504 0.013807092
000190 c9 a4 42 3d 5e fd d0 bc 74 2a dc bc 99 3e 8d bb
       0.047520433 -0.02551144 -0.026875712 -0.0043104407
0001a0 99 4a b8 3b 8c d1 8a bc 78 da 4a bd 86 b9 ed bb
       0.005624127 -0.016945623 -0.049524754 -0.007254782
0001b0 e2 a1 ae 3c a4 94 86 3d 67 db 11 bc 66 36 34 bd
       0.021317426 0.0657132 -0.008902407 -0.04399719
0001c0 6a 60 c0 3c 11 6a 17 bc af c5 f9 3c fa b3 09 bd
       0.023483474 -0.009241597 0.03048977 -0.033618905
0001d0 3f 74 1d 3b b5 4b 15 bc 57 06 be bc 39 c4 76 3c
       0.0024025587 -0.009112288 -0.023196382 0.015061432

fc2.weight f4 [84, 120]
000000 44 41 2f 3d a5 96 8c bd 7d a1 3b bc 06 01 61 bd
       0.04278685 -0.06864671 -0.011452076 -0.054932617
000010 86 ab 63 bc f7 36 a2 3d 68 51 06 3d 53 15 02 bd
       -0.013895875 0.0792064 0.03279248 -0.031758618
000020 fc 5a 52 bc 7c 95 62 bd c2 97 b9 3d f0 5a bc ba
       -0.012839075 -0.05531834 0.09062149 -0.0014370363
000030 ef f3 bc bc 0a 74 8d 3c 29 a8 8b 3d 02 3e 42 bd
       -0.023065535 0.017267246 0.068191834 -0.047422417
000040 ef a1 15 bd 9a da 71 3d 97 c8 ae bd 63 0d d8 bc
       -0.036531385 0.059046365 -0.08534353 -0.02637357
000050 21 84 7b bd 7e 67 ab bd fc c0 6d 3c 7c 69 83 3d
       -0.061405305 -0.08369349 0.014511343 0.06416604
000060 a7 4b 56 3d e1 b2 fe 3c 04 7f 34 bd 96 f2 5f bd
       0.05231824 0.031091155 -0.044066444 -0.054674707
000070 21 3c 87 bc 7f 2f 20 3d 4f 30 21 bd 19 6e a5 3d
       -0.016508164 0.039107796 -0.03935271 0.0807764
000080 76 7b fc bc f5 d1 82 3d b3 15 f6 bc bb 7b 87 3d
       -0.03082059 0.063877024 -0.030039644 0.066153966
000090 cc cf 90 bd 88 fb db 3c 68 b1 a4 3d bc f3 a3 bd
       -0.07070884 0.026853338 0.0804165 -0.08005473
0000a0 7c 22 46 bd 0c f6 e7 3c 3f 89 56 bd 56 07 9e 3d
       -0.04837273 0.028315566 -0.05237698 0.07716243
0000b0 34 dd 54 bd d5 6d 46 3d 12 2c a6 bd 79 ae b0 bb
       -0.05196877 0.048444588 -0.081138745 -0.0053918925
0000c0 27 46 25 3d 9a 14 43 bd 7d c6 6f bc d2 99 a3 bd
       0.040350106 -0.04762707 -0.014634726 -0.07988323
0000d0 41 12 af bd c1 30 a6 bd 31 ea 47 3c 42 00 2b 3d
       -0.085484035 -0.08114768 0.012201832 0.041748293
0000e0 12 12 8c bc e9 2a 27 3d 7f 2f 8b 3d f6 c0 a0 3d
       -0.01709846 0.040812407 0.067961685 0.078493044
0000f0 8f a5 ba bd 10 8d aa 3c 4a 8e 5d 3d b5 c1 60 3c
       -0.09113609 0.020819217 0.054090776 0.013718058
000100 25 7f 7f bd 42 fd d9 3b 6d 3a d1 bb 30 47 cb 3c
       -0.062377114 0.006652505 -0.0063851387 0.024814218
000110 7c 88 a5 3d 84 1c af bd fa c5 90 3d 53 73 b5 3c
       0.08082673 -0.08550361 0.07069011 0.022149717
000120 c7 8d 4b 3b e4 60 9b bc 31 db 37 bd 36 ab f0 3c
       0.0031059848 -0.0189671 -0.04488677 0.029378515
000130 60 c6 e1 3c 71 c6 d6 3c 39 e2 87 bb c8 59 e2 bc
       0.027560413 0.026217671 -0.004146841 -0.027630702
000140 eb 9e 37 3c 63 4a ae bd 57 c1 bc bc 48 de a0 bd
       0.011207323 -0.08510282 -0.02304141 -0.07854897
000150 47 d9 a6 3d 78 8d 88 bd 49 69 8a 3d aa 03 b6 bd
       0.08146911 -0.06667608 0.06758363 -0.088874176
000160 e1 6f 48 3c 3b eb f2 3c 29 27 09 3c 7a 5e 63 bd
       0.012233705 0.029653182 0.008371153 -0.05551002
000170 7a 30 9f bd fa ae 43 3d c2 ca 10 3c cf 2b 95 3d
       -0.07772918 0.047774293 0.008837404 0.072837465
000180 09 2a 48 bd 92 8a 60 bc db 4c 1c 3d 96 de 32 bd
       -0.048868213 -0.013704913 0.038159233 -0.043669306
000190 d0 80 a8 bd 6a 63 69 3d 20 bb b7 3d 74 3d 9e 3d
       -0.08227694 0.056979574 0.08971238 0.07726565
0001a0 f3 64 ef bc 40 eb 11 bd af 4d 8b bd cd 30 60 bd
       -0.029222941 -0.035624743 -0.06801926 -0.05473404
0001b0 5d f6 11 bb c3 26 8b 3d 8b 4e 54 3d 04 7c 80 3c
       -0.0022272088 0.067945026 0.051832717 0.015684135
0001c0 e8 f1 a3 bd 25 87 63 3d c4 e0 fc bc c2 d4 77 bc
       -0.08005124 0.055548806 -0.030868895 -0.015126409
0001d0 f0 68 69 bd 8e b4 06 3d 5b 26 a7 3d e4 af 27 3c
       -0.05698484 0.032887034 0.081616126 0.010234807
0001e0 10 16 71 bc 49 fa 44 3d f8 c6 31 3d f1 d2 a5 bd
       -0.014714733 0.048090253 0.043402642 -0.080968745
0001f0 10 b6 11 3d 23 34 93 3d 0b a7 67 bd 21 50 1a b9
       0.03557402 0.07187679 -0.05655579 -0.00014716435
000200 80 4e 7b 3d 0a a3 1d 3d 8d 24 99 bd 1b f7 4e bd
       0.06135416 0.038485564 -0.07477675 -0.050528627
000210 1e 75 26 3d eb 0d 9f bd 1d 47 4f 3d 0a 38 9c 3d
       0.040639035 -0.077663265 0.05060493 0.07627876
000220 5e 32 f3 bc 59 7e 9b 3c c5 06 4d 3d 31 6c 0b 3c
       -0.029687103 0.018981146 0.050055284 0.008509682
000230 f1 8a ac bc 41 8e 25 3c 69 fa 9f 3d 4b 8c a8 bb
       -0.021062346 0.010104717 0.07811434 -0.0051436774
000240 4a 15 95 bd 3c 2c 90 bd 9e ea 1c 3c 3a de be bc
       -0.07279451 -0.07039687 0.0095774215 -0.023299325
000250 53 ae 86 bc 8f 04 4f 3d 81 e2 fe bc 26 49 b7 bd
       -0.016440546 0.050541457 -0.031113865 -0.08949499
000260 9e be 95 bd 6c 59 08 3d 5c d7 b4 3d 61 49 18 3d
       -0.07311748 0.033288404 0.08830139 0.037179355
000270 b8 99 40 3d 06 49 90 bd ec 28 d1 3c 33 c4 90 3b
       0.047021598 -0.07045178 0.025532208 0.00441792
000280 97 a7 0a bd 7a 2c 1d bd 83 38 95 bd 7d d1 36 3d
       -0.033851232 -0.038372494 -0.072861694 0.044633377
000290 4c 00 ba bd ae 1e 32 bb b8 c6 87 3d e5 fa 5c 3d
       -0.09082088 -0.002717893 0.066296995 0.05395021
0002a0 6c f8 21 bb 91 79 ff bc ea cd 0d bd 70 d0 74 3c
       -0.0024714721 -0.031185897 -0.034620203 0.0149422735
0002b0 a2 12 9d bd e4 b8 52 3c fe 6c 2b bd 85 01 9a 3d
       -0.076695696 0.012861464 -0.04185199 0.07519821
0002c0 2d ab ab bd b3 5b 73 3d 9f ea 13 bd 41 2a 6e 3d
       -0.083822586 0.059413623 -0.036112424 0.058145765
0002d0 97 d3 e1 3c 73 3c 71 bd e3 0a 0d 3d 9d 24 4d 3d
       0.027566714 -0.05889554 0.03443421 0.050083745
0002e0 c1 8e 89 3d d6 c4 9c bd 4c 3b f0 bc 96 3f f5 bc
       0.06716681 -0.07654731 -0.02932515 -0.029937547
0002f0 d5 36 90 bc fc 34 18 bd cb d6 74 bc 8a 16 a3 bd
       -0.017604271 -0.037159905 -0.014943789 -0.07963283
000300 21 46 2f bd 81 f8 e4 bc 9d 47 a1 3d 0d 7f 23 3d
       -0.04279149 -0.027950527 0.07874987 0.039916087
000310 2f 40 37 3d a0 f4 49 bd 58 b0 9d 3d 3a fa 37 3d
       0.044738945 -0.04930556 0.076996505 0.04491637
000320 28 75 c2 bc 79 28 be bd 76 3f b7 3b a8 47 99 bc
       -0.023737505 -0.09285063 0.005592282 -0.018710926
000330 8f d9 83 3d f9 61 53 3d d7 59 0a 3d 23 8a 59 3b
       0.064379804 0.051607106 0.033777084 0.0033193908
000340 7a 08 54 bd f9 dd d6 bc 8f 32 cb bb 16 57 10 3d
       -0.051765896 -0.026228892 -0.0062010954 0.0352393
000350 7f b4 1f 3d e8 b3 86 bc 7d 8b ec 3c 16 7b 7c bb
       0.038990494 -0.016443208 0.028875107 -0.0038525513
000360 3e 89 f7 3c ac 25 67 bd 67 a4 54 3c 16 87 b3 bd
       0.03021681 -0.05643241 0.01297865 -0.08766
000370 78 66 bb 3c 20 af 4b 3d 43 57 c9 3c c4 3c 94 bd
       0.02287601 0.04972756 0.024577742 -0.072381526
000380 12 a0 8d 3d f5 9d b9 3d b8 f0 17 3c 3e 73 0c bc
       0.069152966 0.09063331 0.0092737 -0.008572398
000390 e4 7c 6d 3c 80 e4 00 bd 2f 80 9c bd d1 d6 69 bc
       0.014495108 -0.031467915 -0.076416366 -0.014272408
0003a0 52 0d 37 3d 44 c4 ad 3d f0 d1 32 3d 41 aa a0 3d
       0.044690438 0.084847 0.043657243 0.07844973
0003b0 72 f8 85 3d 9a 70 25 3c 6e 85 ac bd 3c 3b 5c bc
       0.06541528 0.010097647 -0.08423887 -0.013441857
0003c0 6c 11 f2 3c 34 15 06 3d fa 58 18 bd 62 0c 98 3d
       0.029549323 0.032735065 -0.03719423 0.07424237
0003d0 f8 00 06 bd 3a 72 7e 3b d6 ba 88 3d 9c af 39 bd
       -0.032715768 0.0038825409 0.06676261 -0.04533349
0003e0 4c 2a b3 bd 30 eb f1 3d 0c 50 99 bd 1c af 09 3b
       -0.08748302 0.118124366 -0.07485971 0.0021008914
0003f0 d5 9d 7e 3c c5 b5 96 3d f6 90 6b 3c 63 48 28 bc
       0.01554056 0.073588885 0.014377823 -0.010271165

fc2.bias f4 [84]
000000 c1 a9 b4 bd 78 5f 63 bd 48 64 e7 3c e6 d2 20 3c
       -0.088214405 -0.055510968 0.02824606 0.009815907
000010 30 23 89 3c 49 5b a1 bd 8e 5a 7a bd e8 da c1 bd
       0.016740412 -0.078787394 -0.061121516 -0.09465581
000020 d4 db 81 3d 9b 4c 4c 3d 4c 11 b8 bd fc 7d 0c 3d
       0.06340757 0.049877744 -0.08987674 0.034299836
000030 12 c9 b2 3d 82 77 7f 3d 67 ce 32 3c 37 02 95 bd
       0.08729757 0.06236983 0.010913468 -0.07275813
000040 83 7c 86 bd 02 9e b1 3d f9 78 bf 3d 37 60 51 3d
       -0.065667175 0.08672716 0.093492456 0.05111715
000050 45 89 a4 3d fa 27 41 bd ec d8 73 bd 40 79 ab 3d
       0.080339946 -0.047157265 -0.059533045 0.08372736
000060 31 c3 32 bd 88 cd 52 bd 01 e8 ac bd 22 51 7b bd
       -0.04364318 -0.05146554 -0.08442689 -0.06135667
000070 17 61 57 bc 58 10 af bd f6 86 a2 3d 0e a8 f6 3d
       -0.013145707 -0.08548039 0.07935898 0.12043773
000080 bc a5 8a 3d d2 82 b4 bd 2e 49 5a bd 05 46 87 3d
       0.067698926 -0.088140145 -0.053292446 0.06605152
000090 93 ac 4e bd 3f f3 9d bd e1 04 41 3d fd f3 0b bd
       -0.05045755 -0.07712411 0.047123794 -0.034168232
0000a0 e6 81 74 bd 94 d8 15 bd 99 10 c2 bd 55 31 bd 3d
       -0.059694193 -0.036583498 -0.09475822 0.09237925
0000b0 a7 71 29 bd 76 17 75 3d 0e 30 78 3d aa 0c 92 bd
       -0.041368153 0.059836827 0.060592704 -0.07131322
0000c0 78 a0 73 bd ca 84 40 3d d2 0b 5e 3c c2 16 30 bb
       -0.059479207 0.047001638 0.013552623 -0.0026869033
0000d0 d3 99 47 bd 24 cc 29 bd 5f 9d c8 bb 16 e0 e4 bb
       -0.048730683 -0.04145445 -0.0061222757 -0.006984721
0000e0 1d 7f 83 3d 52 72 85 3d 04 6e 41 3d 94 14 1a 3d
       0.06420729 0.065159455 0.04722406 0.03761728
0000f0 5d 36 9e 3c 8e ed 64 3d d6 6d 50 bc 79 f4 d3 bd
       0.019313032 0.055890612 -0.012721499 -0.10349364
000100 bd a8 b5 b9 da 45 e8 bc b4 f6 70 3c 7c 69 bf 3d
       -0.0003464873 -0.02835362 0.014707256 0.093462914
000110 81 d0 b0 3d 34 68 2c bc 34 da 2c 3d e7 36 ee 3c
       0.08633519 -0.010522891 0.042200282 0.029078914
000120 2a 03 cc bd 93 15 cd 3c 64 c4 e5 3b 7e e1 e6 bd
       -0.09961541 0.025034701 0.007011937 -0.11273478
000130 7d 26 0e bd d9 5d 80 bd 9d ee a2 3d af cc f0 3c
       -0.034704674 -0.062679 0.07955668 0.029394476
000140 3f 80 81 3d 21 98 1e 3b 5a 54 7f bd bf 4b 63 3c
       0.06323289 0.0024199563 -0.062336303 0.01387304

fc3.weight f4 [1297, 84]
000000 47 cd 20 bd 3e dd 28 3d af 83 e8 bd 31 55 86 3d
       -0.039258268 0.041226618 -0.11353242 0.06559218
000010 4b 22 bc 3c da cb 80 3d f8 de d5 bc e3 b5 93 3d
       0.02296557 0.062888816 -0.026107296 0.072124265
000020 81 b1 bf 3d b7 b6 af bd 62 5a 16 bd 54 02 80 3d
       0.09360028 -0.08579772 -0.03670729 0.06250444
000030 ac ef 47 bd 7b a0 80 bd 2f 0d 9c 3c a2 08 5b 3d
       -0.048812553 -0.06280609 0.019049255 0.05347503
000040 bd c3 a7 bd e8 d4 c4 3d 33 b4 ac bc 75 08 1b bc
       -0.08191631 0.09610921 -0.02108202 -0.0094624655
000050 18 3a 82 3d 48 0c 8e bd 92 b6 c4 3c d4 03 ff bc
       0.06358737 -0.06935936 0.024012838 -0.031129755
000060 06 39 c2 3d ee 79 08 3d a9 a0 8b 3d ad d2 ee bd
       0.094835326 0.033319406 0.06817753 -0.11661277
000070 52 57 5c 3d ca 82 99 3d a6 e1 64 3c 21 32 43 3d
       0.053794213 0.07495649 0.013969814 0.04765523
000080 61 c1 74 bc 84 75 50 bd af de 57 3d 1c a3 b5 3c
       -0.014938683 -0.05089332 0.052702602 0.022172503
000090 38 06 dd 3d 96 a4 0a bc 33 44 37 3d 79 29 b3 3d
       0.10792202 -0.008462092 0.044742774 0.08748145
0000a0 f3 c4 9a 3c 1f de ff bc 98 47 d6 bd 3b 1b 04 3e
       0.01889274 -0.031233845 -0.10462874 0.12901013
0000b0 35 a5 ca bd 8d c3 a1 3d 2b 4c f4 3d 51 8a 79 3d
       -0.09894792 0.078986265 0.119285904 0.060922924
0000c0 ca 46 63 bd c6 dd 31 bd ac c1 49 bd 3b 8a 6c bd
       -0.05548743 -0.04342439 -0.049256966 -0.057749014
0000d0 b7 56 95 3c 00 75 47 bd 26 af bd 3b 82 91 ec bc
       0.018229825 -0.048695564 0.0057887016 -0.028877977
0000e0 d2 a0 0f 3d 85 85 7f bc b1 09 96 bd 91 66 b1 3d
       0.03506548 -0.015595798 -0.07326067 0.08662141
0000f0 4f 1a 32 bd 4c 94 50 bd 47 26 85 3d ec 8d 94 bd
       -0.04348212 -0.050922677 0.065014414 -0.07253632
000100 f7 a2 9d 3c 7d 2a ac 3d 14 2c 41 3d a4 cd d9 3d
       0.019242747 0.084065415 0.047161177 0.10634926
000110 3b 91 8c 3c d8 18 34 bd 21 65 ab 3c 7d 78 ec 3c
       0.017159095 -0.043969005 0.020922245 0.028866047
000120 4d 1d cd bd d4 66 76 3d c2 08 99 3d 8c 59 0b bd
       -0.10015354 0.06015666 0.074723735 -0.034020945
000130 40 f6 8c bd c5 78 ae bd 8d 94 d7 bd 74 b2 4a bc
       -0.06882906 -0.08519129 -0.10526381 -0.012371648
000140 79 e6 57 bb c5 3e 39 3d 75 57 3b 3d b9 ac fc bd
       -0.003294377 0.045225877 0.045737702 -0.12337632
000150 9c 91 bc 3d ef ac 2d bd a2 7b 00 bd f2 1c 37 3d
       0.0920746 -0.04240125 -0.031367905 0.04470534
000160 03 9d a3 3d fb ab 15 3d d5 83 b5 3d 66 69 a2 bb
       0.07988932 0.036540966 0.088630356 -0.004956412
000170 78 c4 92 3d 86 3e a4 bd 7f 4d 38 bd 69 2a d9 bd
       0.0716638 -0.08019738 -0.04499578 -0.10603792
000180 0c ac bf bd e2 cb b0 bd 08 f4 bc 3d bf ac 08 bd
       -0.09358987 -0.086326376 0.09226233 -0.03336787
000190 08 75 97 bd 10 50 e1 39 eb 6f 0a 3d 37 34 b7 3d
       -0.07395369 0.00042974995 0.03379814 0.08945506
0001a0 5b 71 c5 bd 72 87 5b bd d9 6c 95 bd 3f 98 ff 3c
       -0.096407615 -0.053595968 -0.07296152 0.031200526
0001b0 8a 97 45 bd 08 88 40 3c 9f 62 c8 bd 8c fe c4 bd
       -0.048240222 0.011751182 -0.097844355 -0.096188635
0001c0 00 44 98 bd 0f 51 54 bd 09 67 35 bd d8 dd c9 3d
       -0.07434845 -0.051835116 -0.044287715 0.098567665
0001d0 68 4a 31 3c 77 f4 b6 3d 28 9b 88 3d 45 fa 17 3c
       0.0108209625 0.08933347 0.06670219 0.0092759775
0001e0 c8 b3 fa bc dd 01 da 3d 0f f1 a6 bc e6 e6 9a 39
       -0.030603305 0.10644887 -0.020378618 0.00029545202
0001f0 2f 08 61 3d 7e ac 34 bc 52 59 a7 bd 88 93 00 bd
       0.054939445 -0.0110274535 -0.081713334 -0.031390697
000200 26 fb c6 bb dd 3f 6e bd 2a 2a 16 3d b7 bf 91 3d
       -0.0060724197 -0.058166374 0.036661305 0.07116645
000210 bb e7 45 bd 47 f6 c4 3d 50 6e 95 bd 63 e7 b9 bd
       -0.0483167 0.09617286 -0.07296431 -0.09077337
000220 1f f1 a9 3d 2f 75 ad bb 02 1a b7 bd ff fc 27 3d
       0.08297943 -0.0052935104 -0.089405075 0.04101276
000230 c4 7a c5 bd 37 41 d8 bd 06 e1 dd 3b 85 29 b2 3c
       -0.09642556 -0.10559314 0.0067712096 0.021748314
000240 fd c5 9e bd da 8e b1 3d af d8 aa 3d ef 84 52 3d
       -0.07752607 0.08669825 0.0834211 0.051396307
000250 c2 bd 0d 3d cd 18 30 3c f6 13 89 3d f9 34 80 bd
       0.034604795 0.0107481005 0.0669326 -0.06260104
000260 f9 a6 07 3e e0 66 76 3d 55 51 7a 3c 71 bb df bc
       0.13247289 0.060156703 0.01527818 -0.027311059
000270 1f e5 db 3d 90 67 74 bd a5 c1 3c 3d 0c 16 0c bd
       0.10737061 -0.059669077 0.04608311 -0.034200713
000280 24 aa 89 3c 4e 69 5e 3d b1 03 a5 bd a5 e6 e9 bc
       0.016804762 0.054299645 -0.08057345 -0.028552363
000290 96 f3 1f 3d c4 2e 4d bd 42 7c 9f bd 12 82 c0 bd
       0.03905066 -0.050093427 -0.07787372 -0.09399809
0002a0 de 9c 15 bd 32 e9 d0 bd 81 15 10 bc 7f d3 7d 3d
       -0.036526553 -0.102007285 -0.008794189 0.061969277
0002b0 d7 3e 04 3d 1e 42 1e bc c1 0a 90 bc 9b 3a 41 3d
       0.03228649 -0.009659318 -0.017583253 0.04717503
0002c0 26 b8 f4 3d f8 c5 6a 3d 54 1e c9 bd f5 4e 05 bd
       0.11949186 0.057317704 -0.09820238 -0.032546002
0002d0 d6 26 82 3c 27 75 4f bd da ba 64 3d f6 18 d4 bd
       0.015887659 -0.050648835 0.055842258 -0.103563234
0002e0 2f 99 a8 3a f3 08 18 bd 4a 3f 2f 3c db cd b2 3d
       0.0012863035 -0.03711791 0.010696242 0.0873067
0002f0 ab 05 bd 3d 16 e6 bf bd c4 b7 0a 3d 22 96 87 bd
       0.09229597 -0.09370057 0.03386666 -0.066204324
000300 fa 77 da 3d f3 d9 2a bb c5 e0 4a bd 65 1a 80 bd
       0.10667415 -0.002606985 -0.049530763 -0.06255034
000310 6c 91 93 3c 7c a2 b2 bb 7a 8d 5d 3d 33 74 cb 3d
       0.018013678 -0.0054514986 0.05409 0.099342726
000320 56 ed b3 3d 8b b7 c3 bd 53 bc 28 3d 42 60 1a bd
       0.087855026 -0.095564924 0.041195225 -0.037689455
000330 55 f5 a4 bd 96 5e 57 bb 09 c8 8e bd 5c 5e 6a 3d
       -0.08054606 -0.0032862774 -0.069717474 0.057218894
000340 01 3b b3 bd 61 68 06 3d 39 dc 40 bb 8d 92 f5 bc
       -0.087514885 0.032814387 -0.0029428138 -0.029977107
000350 83 13 e9 3c 9b ce 29 3d 82 1b e1 bb 17 fa 56 3d
       0.028451687 0.0414568 -0.0068697343 0.052484598
000360 a8 98 0e 3c b6 9c bc bd a3 b5 8e 39 9e bd 92 3d
       0.008703388 -0.09209578 0.0002721968 0.07165073
000370 e1 62 da bd e1 e0 2e bc 39 38 d1 bd e6 ec d0 3d
       -0.10663391 -0.0106737325 -0.10215802 0.10201435
000380 d5 e0 af bc 03 90 e9 bd 87 d2 88 bd 4b 86 f5 3c
       -0.021469513 -0.11404421 -0.0668078 0.029971262
000390 09 23 8f 3d 4a 31 e0 bd f6 be fb 3c ae 5f f4 bd
       0.06989104 -0.10946901 0.030730706 -0.11932312
0003a0 15 db de bc 4f 69 b4 bd 9c 4c e7 3b 14 5d b2 3b
       -0.027204076 -0.088091485 0.007058693 0.0054432247
0003b0 ec b9 22 3d da 08 9f 3d 6f a2 59 bd f4 06 81 bd
       0.03972809 0.0776536 -0.053133424 -0.06300154
0003c0 f4 b9 3f 3d 93 f1 cf bd 7b 7d 3d 3d f8 ec e3 bd
       0.046808198 -0.101534985 0.046262246 -0.111291826
0003d0 94 dd ac 3b 58 41 ef bc c6 ef 84 bd ba 8b 55 bd
       0.0052754376 -0.029205963 -0.06491046 -0.052135207
0003e0 fa ca 12 3d eb fd 3d bd a8 f3 85 3d ae b5 63 3c
       0.035838105 -0.046384733 0.06540614 0.013898296
0003f0 5b 51 84 bd 85 1b 54 bd 9d 09 b0 bd a8 05 4a bd
       -0.0646083 -0.051784057 -0.085955836 -0.0493218

fc3.bias f4 [1297]
000000 90 9a 79 3d 9a 40 9b bd 78 fa 53 bd 39 fb a3 3d
       0.060938418 -0.07580681 -0.051752537 0.08006901
000010 63 a4 70 bd b2 56 b2 3d 7d 81 f8 3b ab da 3c 3c
       -0.05875052 0.08707942 0.0075837956 0.011526744
000020 0b 5b 76 bd 90 cc 72 bd 33 3a 99 bd 3c c8 2b 3c
       -0.06014542 -0.059277117 -0.07481804 0.010484751
000030 a3 83 81 3d c8 53 13 bd 60 62 98 bd 1e 08 d4 3d
       0.06323936 -0.035968572 -0.074406385 0.10353111
000040 f1 36 5f bc 9a 71 e0 3d 0c b6 24 bd 90 f7 c1 bd
       -0.013623939 0.10959168 -0.040212676 -0.09471047
000050 2a 79 9a 3d 8d 05 86 3d e5 50 db ba 4a 13 b8 bd
       0.075426415 0.065440275 -0.0016732482 -0.08988054
000060 1d 69 45 bd 66 ff c9 bc 6c 7e 9b 3d ef a8 ac 3d
       -0.048195947 -0.024657916 0.075924724 0.08430659
000070 7c 90 71 3d 1c 75 54 3d 5a af 5c bd 48 08 59 bd
       0.05897568 0.051869497 -0.053878166 -0.052986413
000080 c3 a4 8c bc f0 df 15 3a 36 69 85 bd 59 5f 28 3d
       -0.017168408 0.0005717268 -0.06514208 0.041106556
000090 51 95 3a bd 7c b4 80 bd 2d 04 86 3d c4 41 65 bd
       -0.045552555 -0.06284425 0.06543765 -0.055970922
0000a0 e9 dc ae bd b4 37 c3 3d 60 0f a1 bc b1 39 49 bd
       -0.08538229 0.09532109 -0.019660652 -0.049127284
0000b0 15 a3 ad bd 6f b8 85 bd aa 88 86 3d c7 68 9d bd
       -0.08478371 -0.065293185 0.06569035 -0.07686
0000c0 86 6a 50 bb 1b 09 04 bd 59 c7 13 3d 45 50 6b bd
       -0.0031801774 -0.032235246 0.036078785 -0.057449598
0000d0 fb 25 e7 3d 1b 70 a7 3d 73 65 4c bd a7 e7 20 3d
       0.11286541 0.08175679 -0.049901437 0.03928342
0000e0 ed 2e cb bc c5 27 dd bb 31 f8 0d bd 2d 5b b8 3d
       -0.02480265 -0.0067491257 -0.034660522 0.090017654
0000f0 b7 5e 89 bd 35 65 62 bd ae 19 b1 3c 63 31 5e 3d
       -0.067075185 -0.0552723 0.02161869 0.054246318
000100 90 ba 88 ba 44 d1 02 bd 5d 0f 3f 3d af ff d0 3d
       -0.0010431577 -0.031937853 0.04664551 0.10205018
000110 bd 5d ab 3d 80 b1 7a 3d 6a 85 6c bd 61 71 9f 3d
       0.083674885 0.061204433 -0.05774442 0.07785297
000120 6c 3a 32 bd d2 1d 06 bd fa 14 ae bd 21 5e 80 3d
       -0.043512747 -0.032743283 -0.08500095 0.06267954
000130 b6 d9 28 3c 7a c1 f6 bc 0a 0a 23 3d be a3 6c bc
       0.010305813 -0.030121554 0.039804496 -0.014443336
000140 62 0a 30 bd 6a 10 9f bd 3c 30 39 bd 84 ec cf 3d
       -0.04297865 -0.077668026 -0.045212016 0.10152534
000150 74 76 41 bd 9f 5a 48 3d 2b b9 8a 3b 91 79 69 bd
       -0.047232106 0.048914548 0.0042334995 -0.0570007
000160 92 3d 3e bc fd aa e4 39 c8 a8 12 bd b8 9f 64 bd
       -0.011611359 0.00043614945 -0.035805494 -0.055816382
000170 3b dd c5 3d f4 6c f2 bb 29 fe 4b 3b be d2 43 bd
       0.09661337 -0.007398242 0.0031126833 -0.0478084
000180 06 5a d8 ba b2 12 b3 bd ca db 5e bd ab 11 86 3d
       -0.0016506321 -0.087438 -0.054408826 0.06546339
000190 d6 7b 96 bd 79 7a 9a 3d 71 d4 68 bb cd b9 55 bd
       -0.073478386 0.07542891 -0.0035527016 -0.052179147
0001a0 56 d2 04 bd 97 93 64 bd 42 e0 c2 bd e4 f4 bd 3d
       -0.032427154 -0.055804815 -0.0951543 0.09275225
0001b0 68 3c 1c 3d 28 00 3a 3d d1 2a 0e 3d 18 43 1e 3c
       0.038143545 0.045410305 0.0347088 0.009659551
0001c0 52 dd 1a 3c 3a ed e8 bc d5 b1 86 bd 79 36 95 3d
       0.009452181 -0.028433431 -0.065768875 0.072857805
0001d0 63 ad b6 3d 5e a2 99 bb 44 4b 8f 3c 05 58 13 bd
       0.0891979 -0.004688545 0.017491944 -0.035972614
0001e0 8c 51 ae bd ce b0 90 3b ce 96 89 bd aa d5 d7 3d
       -0.085116476 0.004415608 -0.06718217 0.105388
0001f0 05 76 5f 3c 06 29 d1 3d 2e a7 a0 bd 69 4f 29 3c
       0.013638978 0.10212903 -0.07844387 0.010333874
000200 9d be bd bd 3a fe 6d 3d 1d 30 36 bc 01 f7 a6 bd
       -0.09264872 0.058103777 -0.01111987 -0.08152581
000210 d6 20 a6 3c d0 1e 90 bd 84 4a 42 bd 2f 82 d4 3c
       0.02027933 -0.07037127 -0.047434345 0.025940983
000220 7f 11 e3 3d 8a 70 9c bd f0 69 ca bd 5b d9 1e 3d
       0.110873215 -0.076386526 -0.09883487 0.038781505
000230 1f b2 d6 3d b8 cc fb 38 98 9b a1 bb 61 db 43 bd
       0.10483193 0.000120067445 -0.0049318783 -0.047816638
000240 cc 45 e3 3d 7a c7 18 3d a2 91 c5 bd 81 26 94 3d
       0.11097297 0.03729961 -0.09646918 0.072339065
000250 88 7c ab 3d 59 b4 1c 3d 70 95 aa bc 33 6d 05 3d
       0.08373362 0.03825793 -0.02082321 0.032574844
000260 00 9b bb 3d 94 3c e1 bb d3 16 35 3d 08 74 5a 3d
       0.09160423 -0.0068736766 0.04421122 0.053333312
000270 e9 1b ac bc c7 ac 0a bd 0b bd 54 bd a6 53 36 3d
       -0.021009402 -0.03385618 -0.051938098 0.044513367
000280 2a 5a 9e bd c8 a2 b9 3c 03 0f 21 3d a0 75 5a bc
       -0.07732041 0.022660628 0.039320957 -0.013333708
000290 d5 af cb bb db 48 af bd e8 df ba 3d 9d ad 8d 3d
       -0.006216029 -0.08558818 0.09124738 0.0691788
0002a0 84 2f 71 3c e7 de 8e bd 67 45 01 bc 79 84 32 bd
       0.014720801 -0.06976109 -0.007890082 -0.043583367
0002b0 fd 69 81 bd 3e 9f d4 3d 3e c3 bc bd 28 76 03 3d
       -0.06319044 0.103819355 -0.09216927 0.032095104
0002c0 38 e4 cd bc ba b9 a9 3d 1e 3b b4 3d 54 f9 fb bc
       -0.025133237 0.08287378 0.08800338 -0.030758537
0002d0 a4 57 a7 bd 2b 59 dc 3d eb 1e 11 3d 13 11 d5 3c
       -0.08171013 0.10759195 0.035429876 0.026009118
0002e0 a4 c7 e9 bc 62 57 cd 3c 91 16 8d bd 55 36 ce 3d
       -0.028537579 0.025066081 -0.0688907 0.10068957
0002f0 46 fb 4c bd 5b c6 3f 3d 31 6b 15 ba f4 42 d3 3d
       -0.05004432 0.046820026 -0.00056998717 0.10315505
000300 4d f6 d1 bd ff d2 69 bd 0c f6 a5 39 82 34 8f 3a
       -0.10252056 -0.057085987 0.00031654572 0.0010925683
000310 fc cd 80 3c cc b5 84 bd c4 d3 3f 3d 33 be d9 bc
       0.015723221 -0.064799875 0.046832815 -0.026579952
000320 0c a9 ef 3d c9 eb 50 bc 6b c6 0a 3d e9 ae 10 bd
       0.11702165 -0.012751528 0.033880632 -0.035323057
000330 65 6b 25 bd 75 dc a8 3d 58 fb ad bd 58 ac a1 bd
       -0.040385623 0.08245174 -0.08495206 -0.078942
000340 33 3a 0e bc 1b 5d 07 3d 6f 25 c5 3d bb 5d 99 bd
       -0.008680868 0.033047777 0.096262805 -0.07488581
000350 37 1e ed bc 32 24 d5 3d 7b fc 0c bb 24 5a c2 bd
       -0.028945072 0.10407294 -0.0021512795 -0.09489849
000360 de 52 19 3b 56 de 6f bd b6 52 ea 3c 78 2e be bd
       0.002339534 -0.058561645 0.028603893 -0.09286207
000370 13 2e 1c 3d d6 63 45 bd 5b cb d1 3c a8 0c a9 3d
       0.038129877 -0.048190914 0.025609663 0.08254367
000380 7d e4 cf 3d aa 4b bc bd 0b d6 bc 3d 98 44 a7 bd
       0.101510026 -0.09194119 0.09220513 -0.0816738
000390 6f 84 b2 bd 7d 23 31 3d 38 b8 c0 3d 53 2b f8 3d
       -0.08716666 0.043246735 0.09410137 0.121176384
0003a0 00 93 02 3d 79 bd d2 b8 5f 72 b4 bd 24 66 3c bc
       0.03187847 -0.00010048872 -0.08810877 -0.011498962
0003b0 7f b3 c1 bd f6 9d e5 3d 27 99 17 3d e8 19 03 bc
       -0.09458064 0.11211769 0.03701129 -0.008001782
0003c0 7a 0a 45 3d 36 d4 c6 bd 13 95 aa 3d 32 28 87 3d
       0.048105694 -0.09708445 0.08329215 0.065994635
0003d0 5d b7 13 bd 96 64 57 3d ea 1a 3c 3d 96 63 3a 3d
       -0.03606354 0.05258616 0.045924105 0.04550513
0003e0 a9 2f 1e 3d 28 21 9f 3c 9d ac e4 bc f9 59 c5 3d
       0.03861967 0.01942499 -0.02791434 0.096363015
0003f0 d6 02 d1 3c 66 16 93 bd 61 21 4e 3c 81 2d d4 3c
       0.025514048 -0.071820065 0.0125812 0.025900604
