models/1296_pixels/11.pt (torch, 771783 bytes, 10 tensors)

conv1.weight f4 [6, 1, 5, 5]
00000000: 9fb3 afbd 6e41 bbbd 468d a1be e7e1 be3d
00000010: d4cb febd 274a da3e ba16 55be 0ee7 353c
00000020: 739a b1be a5c9 613e 6fd2 b4be b387 91be
00000030: 64f7 e1bd c39c 4abe ff5b a9be 92d5 123e
00000040: 2056 b53e 841f e5bd 73e7 42be f094 a83e
00000050: d03a 923d fd72 b5bd d795 8ebd 8f1d 683e
00000060: 584c 7ebe 74d9 96be 8c81 643e e256 bb3b
00000070: 2999 b63d b88d 803e 2881 033e ff55 cbbe
00000080: b26e e7be 7e40 e0be c102 be3e e585 a03d
00000090: 26ad 93bd 56dd 9e3e 3e9b b1be 8b3b 3ebe
000000a0: 6263 823e a86f 7a3e 75d3 cfbe e212 5abe
000000b0: 6fe9 96be 50d6 95be adfc 9fbe 275d 533b
000000c0: f72f e7bc f351 92be d425 79bd 532f 8dbd
000000d0: c082 643e 0a88 673e e738 a43d c80c 4abc
000000e0: 9aef 703d 163b 673e caa5 83bd 07a0 873d
000000f0: bc8f 823e ba01 f83c c271 483e 4aac ddbc
00000100: 1882 283e 20c5 813e 9021 433e 3c46 fe3c
00000110: 2333 443e 64fb 813e d2e2 213e c144 5d3e
00000120: 8c6c 6fbc 1379 873e 0924 743e 179f 9b3d
00000130: b596 243e d0db a3be 42ec a3be b1ca 4c3e
00000140: 1a58 1bbe cb30 1bbe bb09 be3e 2759 72be
00000150: 9b13 c33e 92bb 91bc dcef 593d e35b d33e
00000160: ee89 57be e050 e4bc 6c81 5dbd feb9 99be
00000170: e5da fdbd 3894 e7bd 5281 64be a780 4dbe
00000180: 0210 543e bcd4 73be a6db 7f3e 4a81 64be
00000190: 3fef 633e 433f 853e fdde 01be fc2c cfbd
000001a0: 471d b53c c9f9 3ebd 02ac 3ebe c86a 31be
000001b0: b45a d2bd aec2 c93d b211 183e 9a59 0a3d
000001c0: 570f 97be dbc5 373e 9e95 a3be c267 9fbe
000001d0: a74b 89be cf5c adbe d9e3 633e d34b 443e
000001e0: 5ad9 d73d 4c77 7a3e 6ebf 873d be09 413e
000001f0: c2e0 433e 719e 95bc 96a3 603d 9ab2 e23d
00000200: 3278 e53d 22f8 4f3e ea6e 1b3d a1a0 363e
00000210: a7da 4e3d 6eb4 c93d c4f7 4f3e 598e 663e
00000220: 0bc3 773d 3bcc 013d 5fa4 74bd e713 bcbc
00000230: d2c3 1e3e f7da 323e 1900 6e3e 1a9b a9bd
00000240: 3f66 453e b9fa 823e a289 863e e1ef 883d
00000250: 7497 4b3d 4e76 e6bc
-0.08579182 -0.09143339 -0.31553096 0.09320431 -0.12441221 0.426347 -0.20809451 0.011102451
-0.34688148 0.22049578 -0.35316798 -0.28423843 -0.11033514 -0.19786362 -0.33078 0.14339283
0.3541727 -0.11187652 -0.19033603 0.3292613 0.07140124 -0.08859823 -0.069621734 0.22667526
-0.2483381 -0.2946278 0.22315043 0.0057171443 0.08915932 0.25108123 0.12842238 -0.39714047
-0.4520164 -0.43799204 0.37111476 0.07838038 -0.0721076 0.3102824 -0.34688753 -0.18577401
0.25466448 0.24456656 -0.40591016 -0.21296266 -0.2947497 -0.2926507 -0.31247464 0.0032251568
-0.028221114 -0.28578147 -0.06082709 -0.06893792 0.22315502 0.22610489 0.08018666 -0.012332149
0.05882225 0.22581133 -0.06428106 0.0662232 0.25500286 0.03027426 0.19574645 -0.027059693
0.16455877 0.25345707 0.19055772 0.03103935 0.19160132 0.25387108 0.15809181 0.21608259
-0.014613282 0.2645956 0.23841871 0.07598703 0.16073115 -0.3200364 -0.32016188 0.19999196
-0.15170327 -0.15155332 0.371168 -0.23666821 0.38100895 -0.017789636 0.053207263 0.41281042
-0.2104871 -0.027870595 -0.054078504 -0.30024713 -0.123952664 -0.11307567 -0.22314957 -0.20068608
0.20709231 -0.2381162 0.24986133 -0.22314945 0.22259234 0.26024827 -0.1268272 -0.10116002
0.022108687 -0.046624932 -0.18620303 -0.1732589 -0.102712065 0.09851585 0.148505 0.033776857
-0.2950389 0.1794657 -0.31950086 -0.31133848 -0.2681553 -0.3385987 0.22254886 0.1916955
0.105395034 0.2445957 0.06628309 0.18851373 0.19128707 -0.018264027 0.054843508 0.11069222
0.11204566 0.20309499 0.037947573 0.17834713 0.050501492 0.09848867 0.20309359 0.22515239
0.06048874 0.03168891 -0.05972707 -0.022958709 0.15504387 0.17466341 0.23242225 -0.082815364
0.19277285 0.2558191 0.2627688 0.06686378 0.049704984 -0.028132584

conv1.bias f4 [6]
00000000: 2922 433f 55b9 903f 1cbc e3bd 68fb 1b3f
00000010: f626 523d 1f31 f0bd
0.76224 1.1306559 -0.111198634 0.6093049 0.051306687 -0.11728119

conv2.weight f4 [16, 6, 5, 5]
00000000: bb4f 7f3c e203 223e 9976 f73c 5326 0e3d
00000010: 5dd0 a53d 9885 2c3e afec 813b 8b3f 133e
00000020: 7ac5 593c b59e 373e fe16 243e d453 683d
00000030: 89d7 0a3e 90e4 9a3d 57ec 0f3e cd6e 203e
00000040: 0025 533d 7022 2b3e 2e12 b43c b335 083e
00000050: 7cbe 0b3e 3529 193e c20c eb3d 01f2 1d3d
00000060: 9b7b e73c 4216 263e 3760 383e 3579 133e
00000070: 117b c73d 683f 773d 0420 8b3d 17c3 3d3d
00000080: 248e 8b3d 27c6 a83d ff36 933d 229c 043e
00000090: 5f08 3b3e 6233 593e b5c8 0e3e 864f 183e
000000a0: b998 453e 296f c03d a65a 4d3d b706 633d
000000b0: 59a1 603e 544d d93d 6524 393e 40d5 4c3e
000000c0: 667a 3e3e 317d 413e 3c24 b3bd ec28 b7bd
000000d0: d5d0 bebc 6401 63bc 47ef a5bd 02c3 ad3c
000000e0: 5c65 943d 2b0c 97bd ab9d b9bd ebf3 973d
000000f0: a70a f2bc eea3 b23c ce93 aa3d 5466 cc3b
00000100: 1b43 7b3d 0c60 a73c 2ae6 133d fe1d 72bd
00000110: c059 edbc 3f26 e0bc 1fdf 87bd 0b7a 543d
00000120: e3ea 87bd ea43 293d 4ae3 16bd a791 733b
00000130: 16a8 223e 1c2c 07bc 0c60 d83d 3835 0d3e
00000140: d7f1 f63d 7066 173e 8b15 103e 4e7b 113e
00000150: 5def ee3d 3f08 0e3e 7807 2f3d dded 183e
00000160: f3e2 bf3d 9a20 903d 9588 263e e53e 933d
00000170: 954d 193e 6c94 c73d b4c2 ed3d 7986 c13d
00000180: 56d9 223e dd31 133e faf9 703d d356 743d
00000190: 65df ba3d 9473 ba3d 6e87 ca3d 38d7 a53d
000001a0: eb21 083e dcab 143e 3ba1 96bc a13b 1b3d
000001b0: f551 353d a008 d93d 96c7 5f3d c895 c3bb
000001c0: 53cb ec3d c15f a33d eb65 d13d 8451 7dbc
000001d0: 7948 e63c cfd6 f03d 3633 d8b9 c400 9c3d
000001e0: c955 d7bc 3a11 ea3c 0b66 ab3d 67ba ad3d
000001f0: 2f3e 453a 4572 97bd 6672 123d c074 8a3c
00000200: b2ef 7e3d bb08 aabd b1f3 74bc 0827 44bd
00000210: eefd c53d 15aa b63c 217c 803c 5dc7 123c
00000220: 9d75 a2bc b136 123d 9832 bdbc 0212 ca3d
00000230: 542a c33d 6eec 4d3d 52be afbd 3265 e5b9
00000240: 2ee9 4ebc 0076 973d 467c a4bd c46c 1abc
00000250: e6c0 54bd f05f 8e3d 08da 233d e8af ae3b
00000260: 3889 f2bc d116 b33d 96e9 ab3d 7709 ae3d
00000270: e8da 6e3d 133c 993c 2b4f fcbc 2474 0b3d
00000280: a725 ebbb 5d55 edbc ccef 8bbd da2d e93c
00000290: aaf8 4c3c 4ff6 6bbc 13f6 9d3d 7379 443d
000002a0: 9d0e 0cbd a7ea 74bb ba6d 88bd 9f2c 06bd
000002b0: c387 71bd 6aba aa3c f690 6e3d a0e2 46bd
000002c0: 420f 2e3c 706a 22bd c38f 463d 08d8 84bc
000002d0: 30d3 2bbb 85b9 72bb 59a7 bebc 3280 973c
000002e0: 80b7 89bd 8274 f13b a7b3 b7bc cf06 463d
000002f0: 6c7d c23d 809a 4b3b bd42 f13c 8e5a 1abd
00000300: 1350 a0bb 35d4 04bb fe84 63bd 2813 a33d
00000310: 0d83 533b 9a35 5bbd dba8 ebbc b4a6 a83d
00000320: 0409 1f3c e270 8e3c dba5 a83c 826e c6bb
00000330: 6f7d 75bd 32f9 82bd 7c7f a5bd 5b5b 12bd
00000340: 723f 8abd c5cd 3bbd 8f76 91bd 641d 3abc
00000350: a0ba 0bbd af71 9e3d b583 d6bc 1b75 67bb
00000360: a6cc 803d b111 f73c abbf 053c 26ce 883c
00000370: 54f3 d23c cc3d d23c 5ac5 88bc 615c 243d
00000380: 5b26 6e3d ccea b63d 0c85 3d3d b73b 83bd
00000390: b166 f83c 171d 983d c100 5d3d c418 8c3d
000003a0: 2d73 2bbd 4e8a 8dbd 91a8 243d 93f7 133c
000003b0: 7125 01bd c183 2bbd 817a 083d 616f 06bd
000003c0: 0761 4a3d de7b 9c3d 6c98 a13d bde6 87bd
000003d0: b156 8dbd 0fc4 923d 0346 b4ba 6f8f 023d
000003e0: 049d 89bd 47fa 54bd 3171 653d a78e c53c
000003f0: cb17 6cbd 3433 323d 7e6a 183c 9de6 05bd
0.015582974 0.15821794 0.030207919 0.034704518 0.08096383 0.16847837 0.0039649825 0.14379708
0.013291711 0.17931636 0.16024396 0.05672057 0.13558783 0.07563126 0.14055 0.15667267
0.051548958 0.16712356 0.021981325 0.13301735 0.13646883 0.14957125 0.11477043 0.03856087
0.028257182 0.16219428 0.18005453 0.14401706 0.0974027 0.060363203 0.06793216 0.04632863
0.068142205 0.082409196 0.07188224 0.12950185 0.18264912 0.21211007 0.13943751 0.14874086
0.1929654 0.09396202 0.050135277 0.055426326 0.21936549 0.10610452 0.1808029 0.20003223
0.18601379 0.18895413 -0.087471455 -0.08943352 -0.023292938 -0.013855312 -0.08102279 0.021211151
0.07245895 -0.07375368 -0.09063276 0.074195705 -0.029546095 0.021806683 0.08328973 0.0062377844
0.061343294 0.02043154 0.036108173 -0.059110634 -0.02897346 -0.027361987 -0.06634354 0.0518742
-0.06636598 0.041324534 -0.036837853 0.0037165673 0.15884432 -0.008250263 0.105651945 0.13789833
0.12057846 0.1478517 0.14070718 0.14207193 0.11666749 0.13870333 0.042731732 0.14934488
0.09369459 0.07037468 0.1626304 0.071897306 0.14971001 0.09745106 0.11609402 0.09449477
0.1590322 0.1437449 0.058832146 0.059653115 0.091246404 0.09104076 0.098891124 0.0809769
0.13294189 0.14518684 -0.018387428 0.037898663 0.044267613 0.10597348 0.0546337 -0.005968783
0.115622185 0.07977248 0.102245174 -0.015461329 0.02811073 0.117597215 -0.00041236886 0.076173335
-0.026286023 0.028572667 0.083690725 0.08482819 0.00075242197 -0.07394842 0.03575363 0.016901374
0.06224031 -0.083024465 -0.014950679 -0.047888786 0.09667574 0.022297898 0.01568419 0.008958665
-0.019831473 0.03569669 -0.023095414 0.09866716 0.09529558 0.050274305 -0.085812226 -0.0004375368
-0.012628837 0.073955536 -0.08031516 -0.009425346 -0.051941775 0.069518924 0.040002853 0.0053310283
-0.029606447 0.08744586 0.08394162 0.08497899 0.058314234 0.018705403 -0.030799469 0.034046307
-0.0071761194 -0.028971368 -0.06832847 0.028464247 0.012510458 -0.014401986 0.077129506 0.047967386
-0.034193624 -0.003737131 -0.06661554 -0.032757398 -0.058967363 0.020840842 0.058243714 -0.04855597
0.010623755 -0.039652288 0.048476946 -0.016216293 -0.0026218407 -0.0037036848 -0.023273157 0.018493745
-0.06724453 0.007368625 -0.022424532 0.048346337 0.094965786 0.003106743 0.029450769 -0.037684016
-0.004892358 -0.0020268087 -0.055546753 0.07962638 0.0032274157 -0.053517915 -0.02876704 0.08234921
0.009706739 0.017387811 0.020586899 -0.006055654 -0.059934076 -0.063951865 -0.08080956 -0.035731655
-0.067503825 -0.045850534 -0.071026914 -0.011359546 -0.034113526 0.07736527 -0.02618585 -0.0035317603
0.062890336 0.030159803 0.008163373 0.016699862 0.025750794 0.025664233 -0.016695667 0.040127162
0.058142047 0.08931503 0.04626946 -0.06407874 0.030322405 0.074274234 0.053955797 0.06840661
-0.041857887 -0.06911145 0.04019982 0.009031194 -0.031529848 -0.041873697 0.033319954 -0.032821063
0.04940894 0.07640813 0.078904 -0.06635807 -0.06901301 0.071663015 -0.0013753775 0.03187507
-0.067194015 -0.051996496 0.05601615 0.024115874 -0.05763988 0.043505862 0.0093027335 -0.032690633

conv2.bias f4 [16]
00000000: 8601 0d3e 10a6 a3bc be22 b73d a7c5 0eba
00000010: a5ec 05be 0f2a c43d c78d 86bd abcc a83d
00000020: 5847 ebbc a927 463d b106 cf3c 8f62 c33d
00000030: 4c1f a83c b8df 94bd 77b1 68bd 38ba 38bd
0.13770112 -0.019976646 0.089421734 -0.00054463226 -0.13078554 0.095783345 -0.06570011 0.08242162
-0.028720543 0.048377667 0.025271745 0.09540283 0.020522736 -0.072692335 -0.05680987 -0.045099467

fc1.weight f4 [120, 576]
00000000: 005f 32bb 565f 0ebc b0e4 09bc ab21 2cba
00000010: 8686 b13c d688 cbbc 6b7a bbbc 7b7b 2dbc
00000020: 2bc7 fe3b 209c a93b f065 67bc 9612 bfbc
00000030: 6696 583c c038 e9bb c8a4 803c b85a e13c
00000040: c0bc 65bb 16eb 1dbd 306b 94bc a3e9 c1bc
00000050: 7f4d 193d d081 3c3c 1b61 78bc bb60 1bbd
00000060: ab33 753a b630 a2bb 37ab 27bd 0b59 363c
00000070: 06d1 febc bb7a 15bc b8a1 003d cbee cb3c
00000080: 7054 233d 169c 26bd 705e 57bc 68c7 25bd
00000090: 5be8 af3c eb9e 9c3c 98f4 243d 0c63 0c3d
000000a0: 5c2d 1abd 83e5 e23c 809b 003c 2fc9 0cbd
000000b0: f019 283d 88e1 eebc b609 d5bb 8729 073d
000000c0: 73b9 c03c 9b06 27bc 5e21 fdbc 5011 b43c
000000d0: 5b43 babc 6bcb 1c3c b63a a43c 7b83 42bc
000000e0: 80ef d3bc 00fe 063c 8617 793c b353 123d
000000f0: ab7d 0b3b 9643 773c a097 35bc 4712 253d
00000100: 0060 eebb deeb b43c 3b54 9d3c 66d0 ccbc
00000110: 1005 1cbd abb9 7f3a 00eb 403a ffa5 143d
00000120: a636 cd3c e04c b23c f60c 74bc 1bef 253d
00000130: ab4f 403c 009b bb3a 0b51 883c 00a6 813a
00000140: 0bb2 c93c 56a4 123a 001e f23c 0807 f6bc
00000150: d8bb 12bd d7bc 1abd 928a 1a3d 4bda 66bc
00000160: 930b 953c 8e22 c73c d6ee 533c 0435 19bd
00000170: f09f 353c cbed d8bb 4810 dbbc fbb7 0e3d
00000180: 3a56 1fbd 00f0 0bb8 23f9 d53c bbf8 b53c
00000190: a387 9d3c 6051 fcbc 3098 18bc b0a3 6c3c
000001a0: d08c 113d d6cc 5d3c da30 06bd 935d f53c
000001b0: 18df d93c 56bd e139 20cb 7bbc c3a3 83bc
000001c0: 36cd 983c 409d c5bb 8088 14bb 4eef e13c
000001d0: 8050 6b3c 0398 d93c 0b5b 3abc c0c0 a8bc
000001e0: ae67 8ebc c0d2 c7bc 6b8b bb3b 035f ce3c
000001f0: d63a 233b 8ed5 863c 2b05 78bb 341f 00bd
00000200: 0021 ed3b 7bbf 7b3c 5041 be3c e6bc 4cbc
00000210: 4030 9f3c 007a 14ba 2be5 d4bb 4691 ec3c
00000220: d630 39bc 4329 e73c c073 71bb c846 c6bc
00000230: 0628 b53c 3852 ddbc e056 bf3b eef6 bbbc
00000240: ebfc 2a3c 96fd 993b c08b 683b 4b0c 2abd
00000250: 83d4 aa3c d66b 243b d8cd eebc 70f3 663c
00000260: 0771 0a3d 4b89 a4bc 80ca 9f3a 5a1f 0d3d
00000270: ab76 d23a 9e43 a6bc 006b f0ba 005c 34ba
00000280: b643 f2bc c81e cc3c 43df c2bc 4066 1fbd
00000290: ebe0 693b 8613 ba3c 642a 28bd 8037 47bb
000002a0: 3bc9 023d b6b0 34bc 4015 5f3b 8b87 013c
000002b0: 98f8 f3bc 5671 1ebd fb7d e43c 6b51 6ebb
000002c0: b6b4 d43b 7b77 e1bc cbc5 93bb a672 753c
000002d0: bebc 923c f39a 043d 8bb2 993b 1bba 153c
000002e0: 567d aebb afcc 07bd 3b2c 8dbc 9718 193d
000002f0: e828 ebbc 7022 eb3c 04a8 0dbd ab4c 9a3a
00000300: 0895 cebc be2c 163d 886d f23c ab3f 343b
00000310: 2b58 493b 03be 893c 7b62 6cbc 7b61 eabc
00000320: b3d8 27bd 9e7f d33c 0b09 bd3c 1ebd c23c
00000330: 43ca d6bc 5616 65ba 6b91 5fbc f412 1ebd
00000340: 6053 1cbc 48e5 e9bc 8b9e 153c e68e 11bc
00000350: 309a 58bc 9e9f 9fbc b338 a73c ccbd 0b3d
00000360: 9e93 0a3d 8ecd d53c 1bd1 8d3c 5bcb 02bd
00000370: 7632 a9bc e0c4 e0bc fb17 1d3c d669 91bb
00000380: 0461 233d 361a 973c 1b9d d53c 78b3 83bc
00000390: d6f7 a5bc 2e19 f8bc c68c c63c c0e0 48bc
000003a0: f683 1d3d 0025 a4bc 4e67 16bd d3c2 fdbc
000003b0: 8671 0ebd 56b6 44ba 7390 fb3c cfd5 0ebd
000003c0: 93bb 89bc 76aa 84bc 00c2 863c 006a ce3b
000003d0: 5319 f33c 6ef9 c93c abf9 de3c a66f 093d
000003e0: c833 07bd 2ed4 8b3c cbf0 a1bb 0e0c e63c
000003f0: be9e 213d 7666 f13b bbc8 e7bc 00a9 43bb
-0.002721727 -0.008689722 -0.00841634 -0.0006566296 0.021670591 -0.024845522 -0.022885522 -0.010588522
0.0077752075 0.0051760823 -0.014123425 -0.023324292 0.0132194515 -0.007117361 0.015703574 0.027509078
-0.003505513 -0.038554274 -0.018117517 -0.023670977 0.03742742 0.011505559 -0.0151598705 -0.037934046
0.00093537074 -0.0049496545 -0.040934768 0.011129628 -0.03110553 -0.0091234995 0.031404227 0.024894139
0.039875448 -0.0406762 -0.013145074 -0.04047337 0.0214731 0.019118747 0.040272325 0.034274146
-0.037640914 0.02769733 0.007849574 -0.03437155 0.04104036 -0.029160276 -0.006501402 0.032998588
0.02352593 -0.010194446 -0.0308997 0.021980911 -0.022737196 0.009569983 0.020047527 -0.011872168
-0.025871038 0.008239269 0.015203362 0.035724353 0.002128462 0.015091797 -0.0110835135 0.040300634
-0.0072746277 0.022085126 0.019205203 -0.025001716 -0.038090765 0.0009755145 0.00073592365 0.03629112
0.025050472 0.021765172 -0.014895668 0.040511232 0.011737744 0.0014313161 0.016640207 0.0009891391
0.02462103 0.0005593946 0.02955532 -0.03003265 -0.035823673 -0.037777748 0.037729807 -0.014090131
0.018193996 0.02430847 0.012935361 -0.037404075 0.011085495 -0.006620144 -0.026741162 0.034843426
-0.03890059 -3.33637e-05 0.026119774 0.02221333 0.019229716 -0.030800521 -0.009313628 0.014443323
0.03553468 0.013537606 -0.032761432 0.029951846 0.026595637 0.0004305641 -0.015368253 -0.016069299
0.01865254 -0.0060307086 -0.0022664368 0.02757993 0.014362454 0.026561743 -0.011374245 -0.020599723
-0.017383423 -0.024392486 0.005723407 0.02519179 0.0024906895 0.016459253 -0.0037844877 -0.031279758
0.0072366 0.015365477 0.023224503 -0.012496209 0.019432187 -0.00056639314 -0.0064970455 0.028877866
-0.011303147 0.028217917 -0.0036842674 -0.024203673 0.022113811 -0.027016744 0.0058392137 -0.022944894
0.010436277 0.0046994193 0.0035483688 -0.04151563 0.020853287 0.002508869 -0.029150888 0.014096126
0.033799198 -0.020084998 0.0012191087 0.034453727 0.0016057094 -0.020295914 -0.0018342435 -0.0006880164
-0.029573303 0.024917021 -0.0237881 -0.038915873 0.003568704 0.022714388 -0.04105605 -0.003039807
0.03193019 -0.011028459 0.0034039766 0.007905851 -0.029781625 -0.038682304 0.027892103 -0.0036364447
0.006491269 -0.027522793 -0.0045096627 0.014980948 0.017912265 0.032374334 0.0046904734 0.009138609
-0.005325 -0.033154186 -0.017233005 0.037376966 -0.028706029 0.028702945 -0.03458406 0.0011772116
-0.025217548 0.036663763 0.029593244 0.002750377 0.0030722718 0.016814237 -0.014427776 -0.028610935
-0.040978145 0.025817689 0.023075601 0.023771819 -0.026219493 -0.0008738985 -0.01364551 -0.038592294
-0.0095413625 -0.028551713 0.009132038 -0.008884167 -0.013220355 -0.019485291 0.020412778 0.03411655
0.033832185 0.026098993 0.017311623 -0.031932216 -0.020653944 -0.027437627 0.009588237 -0.0044376655
0.039887443 0.018445116 0.02607589 -0.016076788 -0.020259779 -0.030285444 0.024237048 -0.012260616
0.038455926 -0.020037174 -0.036719613 -0.030976688 -0.034776233 -0.0007503977 0.030708527 -0.034871873
-0.016813075 -0.016194563 0.016449928 0.0062992573 0.029675161 0.02465507 0.02721866 0.033553742
-0.033008367 0.017068949 -0.004942035 0.02808192 0.03945803 0.0073669506 -0.028293958 -0.002985537

fc1.bias f4 [120]
00000000: bebb cbbc a6a9 ab3c 4492 12bc acd7 293d
00000010: 3c7e fe3b c9e9 bb3c 7856 973c 8e2e 8e3b
00000020: 8995 e0bc bcbd 903c a3d4 e4bb 1c3a 033d
00000030: 8735 053d 0082 d7bc 9f6c 373c 7705 50bb
00000040: 8872 1abd 5ae8 523c 7b62 75bc bec6 e7bb
00000050: 0817 26bd 72ca 2c3d e12e 6abc 353e 82bc
00000060: e2e3 1b3a 00ce 893c d3ac ae3c 1ff7 a03c
00000070: 8408 ed3c 39e7 c13c 9207 aa3c a2e6 53bc
00000080: b1b9 64bc a3dc d7bc e324 05bd b233 39bd
00000090: a4e7 1abd d3e4 29bd 1416 ce3c b121 303d
000000a0: 1adc ac3a 2e26 d53c 918b 79bc ec2f 4bbc
000000b0: aad4 df3b 4ebb 6fbb ccf9 993c f2d0 c8bc
000000c0: d8ca b3bc 3402 3b3b 95a4 4b3d cd5d b83c
000000d0: 2dea f6bc 7f72 273d 3abd 443d 46b6 41bd
000000e0: 4c83 773c 10cc c73c 63a5 0c3d 9dc0 c03c
000000f0: 675c 01bd bc92 083c 9c32 6e3b 51cd 8c3b
00000100: be3e e83b debd d8bc f6c3 103d 9ddb 043d
00000110: 34e9 20bd 2151 9c3c 995b 47bc 8822 04ba
00000120: 2a15 9bba c71b 01bd 541f b93b b9cd 3abc
00000130: c7c9 0ebd ad18 28bb 4d3f 5f3d 5dab 20bc
00000140: 4b9e 2ebb 9dd6 c23c 7254 80bc 3378 16bd
00000150: 9387 13bd 3b75 c8bc a8d3 e7bc e3a5 29bd
00000160: f89a 3ebd da94 8a3b 60a6 253d 2b24 fe3c
00000170: e17d 07bd ca77 f63c 4137 0d3d eb5f b5bb
00000180: 54d3 32bd 6d51 b5ba 2991 18bd 12e5 553c
00000190: e444 443d 05a0 dcbc 7fe0 ddbc c45d 8cbb
000001a0: 6f56 b83b b2d8 8abc db01 54bd 86b9 edbb
000001b0: e2a1 ae3c f3b5 883d 94a8 21bc 7c13 38bd
000001c0: c393 c23c 9892 16bc afc5 f93c 12e3 0abd
000001d0: dab6 1c3b 9cbd 31bc 5706 bebc 378e 6d3c
-0.024869796 0.020954918 -0.008946005 0.041465446 0.007766513 0.022938626 0.018473849 0.004339046
-0.027415054 0.017668597 -0.006983356 0.03203784 0.03252175 -0.026307106 0.011195331 -0.0031741539
-0.03770688 0.01287278 -0.014977093 -0.0070732525 -0.040549308 0.042185254 -0.014293403 -0.015898803
0.0005946738 0.016821861 0.021322643 0.019649087 0.028934725 0.023669826 0.020755563 -0.012933405
-0.013960288 -0.026350325 -0.03250588 -0.045215316 -0.037818566 -0.04147799 0.025157012 0.04300088
0.0013188154 0.026019182 -0.015231029 -0.012401562 0.0068307715 -0.0036580148 0.01879587 -0.024513695
-0.02194731 0.0028535249 0.049717505 0.022505665 -0.03014096 0.040880676 0.048032023 -0.04729297
0.015106987 0.024389297 0.034337413 0.023529345 -0.031582262 0.008335765 0.0036346084 0.0042969366
0.0070875576 -0.026457723 0.035343133 0.032436002 -0.0392849 0.019081654 -0.012167835 -0.0005040546
-0.0011831869 -0.03152063 0.0056494866 -0.011401587 -0.0348604 -0.0025649474 0.054503728 -0.009806481
-0.0026644643 0.023783976 -0.015665267 -0.036735725 -0.036017966 -0.024469962 -0.028299168 -0.041417968
-0.04653451 0.0042291703 0.04044187 0.031023106 -0.03307903 0.030086417 0.034476522 -0.005535116
-0.04365857 -0.0013833471 -0.03724781 0.013055103 0.04791726 -0.026931772 -0.027084587 -0.0042836387
0.005625538 -0.016949032 -0.051759582 -0.007254782 0.021317426 0.06675329 -0.009866852 -0.044940457
0.023752099 -0.009190224 0.03048977 -0.033907957 0.00239127 -0.010848429 -0.023196382 0.014499239

fc2.weight f4 [84, 120]
00000000: 4441 2f3d a596 8cbd 7da1 3bbc 0601 61bd
00000010: 86ab 63bc f736 a23d 6851 063d 5315 02bd
00000020: fc5a 52bc 7c95 62bd c297 b93d f05a bcba
00000030: eff3 bcbc 0a74 8d3c 29a8 8b3d 023e 42bd
00000040: efa1 15bd 9ada 713d 97c8 aebd 630d d8bc
00000050: 2184 7bbd 7e67 abbd fcc0 6d3c 7c69 833d
00000060: a74b 563d e1b2 fe3c 047f 34bd 96f2 5fbd
00000070: 213c 87bc 7f2f 203d 4f30 21bd 196e a53d
00000080: 767b fcbc f5d1 823d b315 f6bc bb7b 873d
00000090: cccf 90bd 88fb db3c 68b1 a43d bcf3 a3bd
000000a0: 7c22 46bd 0cf6 e73c 3f89 56bd 5607 9e3d
000000b0: 34dd 54bd d56d 463d 122c a6bd 79ae b0bb
000000c0: 2746 253d 9a14 43bd 7dc6 6fbc d299 a3bd
000000d0: 4112 afbd c130 a6bd 31ea 473c 4200 2b3d
000000e0: 1212 8cbc e92a 273d 7f2f 8b3d f6c0 a03d
000000f0: 8fa5 babd 108d aa3c 4a8e 5d3d b5c1 603c
00000100: 257f 7fbd 42fd d93b 6d3a d1bb 3047 cb3c
00000110: 7c88 a53d 841c afbd fac5 903d 5373 b53c
00000120: c78d 4b3b e460 9bbc 31db 37bd 36ab f03c
00000130: 60c6 e13c 71c6 d63c 39e2 87bb c859 e2bc
00000140: eb9e 373c 634a aebd 57c1 bcbc 48de a0bd
00000150: 47d9 a63d 788d 88bd 4969 8a3d aa03 b6bd
00000160: e16f 483c 3beb f23c 2927 093c 7a5e 63bd
00000170: 7a30 9fbd faae 433d c2ca 103c cf2b 953d
00000180: 092a 48bd 928a 60bc db4c 1c3d 96de 32bd
00000190: d080 a8bd 6a63 693d 20bb b73d 743d 9e3d
000001a0: f364 efbc 40eb 11bd af4d 8bbd cd30 60bd
000001b0: 5df6 11bb c326 8b3d 8b4e 543d 047c 803c
000001c0: e8f1 a3bd 2587 633d c4e0 fcbc c2d4 77bc
000001d0: f068 69bd 8eb4 063d 5b26 a73d e4af 273c
000001e0: 1016 71bc bc34 413d fec6 2f3d e555 a8bd
000001f0: c1b1 0e3d 2334 933d 0df7 6abd 4940 7fba
00000200: 72ae 7a3d 3efe 153d 8d24 99bd 27d8 52bd
00000210: 1e75 263d eb0d 9fbd 1d47 4f3d 0a38 9c3d
00000220: 5e32 f3bc 063d 993c c506 4d3d 316c 0b3c
00000230: e103 b0bc 8531 1f3c 576f 9f3d 831a cabb
00000240: 4a15 95bd 1978 90bd 00a8 173c 57de bebc
00000250: 53ae 86bc 8f04 4f3d 81e2 febc 2649 b7bd
00000260: 9ebe 95bd 6c59 083d 5cd7 b43d 12cf 143d
00000270: b115 3d3d 0649 90bd ec28 d13c bd79 703b
00000280: e5b6 0dbd 7a2c 1dbd 3730 97bd 7dd1 363d
00000290: 4c00 babd cd5d 5fbb cbe6 853d e5fa 5c3d
000002a0: 6cf8 21bb 2258 02bd 79f8 0dbd 70d0 743c
000002b0: a212 9dbd 0a10 523c 895f 2dbd 8a15 983d
000002c0: 2dab abbd b35b 733d 9fea 13bd 0d29 6e3d
000002d0: 97d3 e13c 259f 72bd ef78 0b3d 9530 4b3d
000002e0: c18e 893d d6c4 9cbd 4d5f fbbc 963f f5bc
000002f0: d536 90bc 7d35 18bd a407 77bc 00f2 a3bd
00000300: be4e 30bd 81f8 e4bc 9d47 a13d 0d7f 233d
00000310: f2ca 353d 26ed 49bd 58b0 9d3d 1605 343d
00000320: 07a3 c6bc a7ed bebd f42b 9b3b a847 99bc
00000330: 9d37 833d f961 533d d759 0a3d f65a 583b
00000340: 3e48 55bd f9dd d6bc f189 d0bb 1657 103d
00000350: 7fb4 1f3d d24f 8bbc 7d8b ec3c 167b 7cbb
00000360: cdfd ed3c ac25 67bd c946 3f3c 2f05 b5bd
00000370: 7866 bb3c 2e22 463d 6e85 c33c c43c 94bd
00000380: 12a0 8d3d f59d b93d 15ea e33b 3e73 0cbc
00000390: e47c 6d3c 80e4 00bd e6ea 9ebd f0f8 75bc
000003a0: 520d 373d 44c4 ad3d f0d1 323d aa31 a03d
000003b0: 72f8 853d 2ecb 0a3c 6e85 acbd 4ad7 67bc
000003c0: 6c11 f23c 3d27 083d e802 0bbd bbe1 9a3d
000003d0: 366e 07bd ed9e 043c 4d47 9c3d 4377 27bd
000003e0: 84f8 aebd 898f 0f3e f52d 93bd e6d2 763c
000003f0: 5122 9e3c c5b5 963d b884 133c 6348 28bc
0.04278685 -0.06864671 -0.011452076 -0.054932617 -0.013895875 0.0792064 0.03279248 -0.031758618
-0.012839075 -0.05531834 0.09062149 -0.0014370363 -0.023065535 0.017267246 0.068191834 -0.047422417
-0.036531385 0.059046365 -0.08534353 -0.02637357 -0.061405305 -0.08369349 0.014511343 0.06416604
0.05231824 0.031091155 -0.044066444 -0.054674707 -0.016508164 0.039107796 -0.03935271 0.0807764
-0.03082059 0.063877024 -0.030039644 0.066153966 -0.07070884 0.026853338 0.0804165 -0.08005473
-0.04837273 0.028315566 -0.05237698 0.07716243 -0.05196877 0.048444588 -0.081138745 -0.0053918925
0.040350106 -0.04762707 -0.014634726 -0.07988323 -0.085484035 -0.08114768 0.012201832 0.041748293
-0.01709846 0.040812407 0.067961685 0.078493044 -0.09113609 0.020819217 0.054090776 0.013718058
-0.062377114 0.006652505 -0.0063851387 0.024814218 0.08082673 -0.08550361 0.07069011 0.022149717
0.0031059848 -0.0189671 -0.04488677 0.029378515 0.027560413 0.026217671 -0.004146841 -0.027630702
0.011207323 -0.08510282 -0.02304141 -0.07854897 0.08146911 -0.06667608 0.06758363 -0.088874176
0.012233705 0.029653182 0.008371153 -0.05551002 -0.07772918 0.047774293 0.008837404 0.072837465
-0.048868213 -0.013704913 0.038159233 -0.043669306 -0.08227694 0.056979574 0.08971238 0.07726565
-0.029222941 -0.035624743 -0.06801926 -0.05473404 -0.0022272088 0.067945026 0.051832717 0.015684135
-0.08005124 0.055548806 -0.030868895 -0.015126409 -0.05698484 0.032887034 0.081616126 0.010234807
-0.014714733 0.047169432 0.042914383 -0.08219508 0.034837488 0.07187679 -0.057364512 -0.0009737057
0.06120152 0.036619417 -0.07477675 -0.05147567 0.040639035 -0.077663265 0.05060493 0.07627876
-0.029687103 0.018705856 0.050055284 0.008509682 -0.021486225 0.009716396 0.07784908 -0.006167711
-0.07279451 -0.07054157 0.009256363 -0.02329938 -0.016440546 0.050541457 -0.031113865 -0.08949499
-0.07311748 0.033288404 0.08830139 0.03633029 0.046163265 -0.07045178 0.025532208 0.0036693655
-0.03459825 -0.038372494 -0.07382243 0.044633377 -0.09082088 -0.003408301 0.06538161 0.05395021
-0.0024714721 -0.03182233 -0.03466079 0.0149422735 -0.076695696 0.012821207 -0.042327438 0.07425983
-0.083822586 0.059413623 -0.036112424 0.058144618 0.027566714 -0.059233803 0.034050878 0.04960688
0.06716681 -0.07654731 -0.030685091 -0.029937547 -0.017604271 -0.037160385 -0.015077505 -0.08005142
-0.043043844 -0.027950527 0.07874987 0.039916087 0.044382997 -0.049298428 0.076996505 0.043950163
-0.02424766 -0.09322672 0.004735464 -0.018710926 0.06407092 0.051607106 0.033777084 0.0033013201
-0.05207085 -0.026228892 -0.0063641 0.0352393 0.038990494 -0.017005835 0.028875107 -0.0038525513
0.029051686 -0.05643241 0.011674591 -0.08838879 0.02287601 0.04837244 0.023867335 -0.072381526
0.069152966 0.09063331 0.006955395 -0.008572398 0.014495108 -0.031467915 -0.07759647 -0.015012965
0.044690438 0.084847 0.043657243 0.07821973 0.06541528 0.008471293 -0.08423887 -0.01415045
0.029549323 0.033240546 -0.03393832 0.07562586 -0.03306409 0.0080945315 0.07630787 -0.04088522
-0.08543494 0.14019598 -0.071865 0.015064931 0.019303473 0.073588885 0.009003811 -0.010271165

fc2.bias f4 [84]
00000000: c1a9 b4bd 57a3 63bd 4f92 ea3c b477 253c
00000010: 93b3 8c3c 495b a1bd c79f 7abd 1d22 c2bd
00000020: 0714 833d 77a4 483d 4c11 b8bd e752 0c3d
00000030: 12c9 b23d 9caa 7d3d cd51 323c 1bed 95bd
00000040: 70a1 89bd fa85 b13d a245 bf3d fb94 503d
00000050: 4589 a43d b252 41bd 96f7 72bd 3ab2 ab3d
00000060: 31c3 32bd 8752 52bd 94eb adbd 013b 7cbd
00000070: 13bc 5dbc fed4 afbd 7adf a13d 83af f43d
00000080: 30b3 8a3d 6a06 b5bd 80aa 5bbd e044 853d
00000090: ac04 4fbd cdc7 9ebd 865d 403d 99a0 0abd
000000a0: a83b 73bd 05ab 17bd 2e08 c3bd e18e bc3d
000000b0: a771 29bd 1e8d 763d 33ff 7c3d 0d2a 92bd
000000c0: 90b6 77bd f0bb 3f3d d20b 5e3c 11c0 34bb
000000d0: 6cbe 46bd 8e3a 29bd 5a32 cebb 16e0 e4bb
000000e0: 0d5b 833d 9d5c 853d f6f0 403d 5b76 1a3d
000000f0: 7ea9 9f3c 3d12 643d e330 3dbc dba7 d2bd
00000100: 3b14 5cba 4e52 e3bc b4f6 703c b075 be3d
00000110: 385e b13d 1a41 32bc 34da 2c3d 56e9 ea3c
00000120: 593c ccbd 91e8 cf3c 4363 d33b b978 e7bd
00000130: 533f 0ebd d95d 80bd 9dee a23d f593 f13c
00000140: c86c 7e3d 5e72 1a3b 5047 80bd fcb1 5c3c
-0.088214405 -0.055575695 0.028634218 0.01009934 0.017175471 -0.078787394 -0.06118753 -0.09479163
0.06400304 0.04898497 -0.08987674 0.03425875 0.08729757 0.061930284 0.010883761 -0.07320615
-0.06720245 0.08668132 0.09339453 0.05092333 0.080339946 -0.047198005 -0.059318148 0.083836034
-0.04364318 -0.051348235 -0.084921986 -0.061579708 -0.01353361 -0.08585547 0.07903953 0.11947539
0.067724586 -0.08839114 -0.0536294 0.065072775 -0.050541565 -0.07752953 0.04696419 -0.033844564
-0.059383065 -0.03702833 -0.095230445 0.092069395 -0.041368153 0.060193174 0.061766814 -0.07136927
-0.06047684 0.04681009 0.013552623 -0.00275803 -0.048521444 -0.041315608 -0.0062926235 -0.006984721
0.06413851 0.06511805 0.0471048 0.03771053 0.01949 0.055681456 -0.0115473 -0.10285922
-0.00083953486 -0.027749207 0.014707256 0.09299791 0.08660549 -0.010879779 0.042200282 0.028675716
-0.09972448 0.025379451 0.006451042 -0.11302323 -0.03472836 -0.062679 0.07955668 0.029489497
0.06211546 0.0023566703 -0.06263602 0.013470169

fc3.weight f4 [1297, 84]
00000000: 47cd 20bd 3edd 283d 090d ecbd 15f1 923d
00000010: 3066 f73c dacb 803d f9de d5bc 37b3 933d
00000020: a73a e33d 4c96 babd 625a 16bd 5402 803d
00000030: acef 47bd e9bc 49bd 2f0d 9c3c 3502 5b3d
00000040: 6588 debd e8d4 c43d 23ff 10bd d122 1bbc
00000050: 183a 823d 3a0d 8ebd 5cbe 893c 85d2 b3bc
00000060: 0639 c23d fa12 0d3d a5f3 773d 8a6b 03be
00000070: 1241 5c3d 4d7d 993d f786 a33c 8ed2 5c3d
00000080: 8aaf 8dbb b87b 50bd 4fd3 573d ccd3 963c
00000090: 2106 dd3d 6abb 0abc 1944 373d 71fa dc3d
000000a0: a4db 093d 80f8 ffbc cd49 d6bd 9baa ef3d
000000b0: 35a5 cabd c3e3 9a3d b82a 033e d88d 793d
000000c0: d205 93bd 52e7 31bd acc1 49bd 3e2c 32bd
000000d0: 0354 953c 4833 41bd 818b bd3b 8291 ecbc
000000e0: 7a9c 0f3d e8ba 7fbc ba09 96bd fbb8 ac3d
000000f0: 4c4b 32bd eaa3 50bd ea59 9f3d d30b b1bd
00000100: 1672 9d3c 4a0f d73d 142c 413d b3f3 b13d
00000110: be29 0d3d b623 34bd 2165 ab3c 5662 ec3c
00000120: 4d1d cdbd 5feb 353d 6601 993d 565f 0bbd
00000130: 40f6 8cbd c578 aebd 8d94 d7bd 22b3 9cbc
00000140: 4f8e 4abc d43f 393d d992 3a3d e3b0 fcbd
00000150: 9c91 bc3d efac 2dbd 65a9 02bd 5124 3f3d
00000160: 6e33 a63d fbab 153d d583 b53d 946f a2bb
00000170: 4d2c a63d ffd5 acbd 7f4d 38bd 692a d9bd
00000180: 0cac bfbd 3af5 a5bd 08f4 bc3d efac 08bd
00000190: 9638 b6bd 1050 e139 72ba d93c 3434 b73d
000001a0: 5b71 c5bd 4188 5bbd 5657 9ebd 6d7c 0d3d
000001b0: 8a97 45bd 5abd 4d3c fcf2 cfbd c5f1 d0bd
000001c0: f644 98bd 1e52 54bd b266 3cbd 9a84 c73d
000001d0: 9bab 673c 75f4 b63d 0c9b 883d 6836 cb3b
000001e0: 0fb4 fabc da01 da3d 0ff1 a6bc f0c2 2d3c
000001f0: 5bfd 7b3d 2eb4 34bc 5259 a7bd 7e32 1fbd
00000200: 26fb c6bb af25 73bd 8393 1f3d eebe 913d
00000210: c31a 6bbd 32f6 c43d 506e 95bd 907f abbd
00000220: 1ff1 a93d d987 81bb 021a b7bd fffc 273d
00000230: c67a c5bd 6041 d8bd c5e0 dd3b fb12 9b3c
00000240: 4fc8 9ebd 848e b13d 7d7d b43d cbe4 3b3d
00000250: f2b9 0d3d 6570 a83c f613 893d 3514 94bd
00000260: 0519 0c3e c865 763d 5551 7a3c 7abe dfbc
00000270: 1fe5 db3d 8bf0 88bd f5bf 3c3d 3316 0cbd
00000280: 24aa 893c 4e69 5e3d b103 a5bd 7b8f 02bd
00000290: bc78 e43c 361b 4dbd e495 9fbd 1a82 c0bd
000002a0: de9c 15bd 32e9 d0bd d563 1ebc 67f9 863d
000002b0: 09b6 133d 1e42 1ebc c10a 90bc 9b3a 413d
000002c0: 7564 073e 9125 573d 541e c9bd f54e 05bd
000002d0: d626 823c 1bc7 28bd daba 643d f618 d4bd
000002e0: e6e9 a3bc f308 18bd 05f3 56ba dbcd b23d
000002f0: ab05 bd3d 86e6 bfbd 58e7 ec3c 0181 77bd
00000300: fa77 da3d 56e9 daba 6c51 5fbd a324 92bd
00000310: 6c91 933c 83a2 b2bb a8e8 613d 2aba d13d
00000320: f96c c03d 8bb7 c3bd 53bc 283d c3f9 26bd
00000330: 60f5 a4bd 965e 57bb 09c8 8ebd b0a7 923d
00000340: 577c 9ebd 6168 063d 39dc 40bb af6d 21bd
00000350: 8313 e93c ec26 223d f354 f5b9 6001 573d
00000360: fe06 90bb b69c bcbd a3b5 8e39 7016 a73d
00000370: e162 dabd c289 1ebc 3938 d1bd e6ec d03d
00000380: e7e0 afbc 0390 e9bd 87d2 88bd e833 e33c
00000390: 7a1c 8f3d 4a31 e0bd 8beb 1d3d f2c3 02be
000003a0: 3edb debc 96a2 93bd 9c4c e73b 7c43 0dbc
000003b0: 9b20 4b3d da08 9f3d 6fa2 59bd f406 81bd
000003c0: f4b9 3f3d beb0 e6bd 7b7d 3d3d f8ec e3bd
000003d0: 94dd ac3b 5841 efbc c6ef 84bd 990a 6abd
000003e0: bd95 d13c dbf5 3dbd 82cc 853d 9db5 633c
000003f0: 5b51 84bd 851b 54bd c0d1 b3bd 7ec0 2fbd
-0.039258268 0.041226618 -0.11525924 0.07174889 0.030200094 0.062888816 -0.026107298 0.07211917
0.110951714 -0.09110698 -0.03670729 0.06250444 -0.048812553 -0.049252424 0.019049255 0.0534689
-0.10865859 0.09610921 -0.035399567 -0.00946875 0.06358737 -0.069361165 0.016814403 -0.02195097
0.094835326 0.034441926 0.060535092 -0.12833992 0.053772993 0.07494602 0.019961817 0.053911738
-0.0043239044 -0.050899237 0.052691754 0.01841154 0.107921846 -0.008467535 0.044742677 0.107899554
0.03365673 -0.031246424 -0.10463295 0.11702462 -0.09894792 0.07562973 0.12809265 0.06092629
-0.071788445 -0.043433495 -0.049256966 -0.043499224 0.018228536 -0.047168046 0.0057844524 -0.028877977
0.035061337 -0.015608527 -0.07326074 0.0843372 -0.04352884 -0.05093757 0.077808216 -0.086448334
0.01921944 0.10500963 0.047161177 0.0868906 0.034463637 -0.04397937 0.020922245 0.028855484
-0.10015354 0.04441392 0.0747097 -0.034026466 -0.06882906 -0.08519129 -0.10526381 -0.019128386
-0.012363031 0.045226887 0.0455502 -0.12338426 0.0920746 -0.04240125 -0.03189983 0.046665493
0.08115278 0.036540966 0.088630356 -0.004957149 0.081139185 -0.08439254 -0.04499578 -0.10603792
-0.09358987 -0.08103414 0.09226233 -0.033368047 -0.08897512 0.00042974995 0.026578162 0.08945504
-0.096407615 -0.05359674 -0.07731502 0.03454249 -0.048240222 0.012557352 -0.101537675 -0.10202364
-0.07435028 -0.051836126 -0.045996375 0.097420886 0.014140035 0.08933345 0.06670198 0.006201554
-0.030603437 0.106448844 -0.020378618 0.010605559 0.061520915 -0.011029286 -0.081713334 -0.038866512
-0.0060724197 -0.05936211 0.038959038 0.07116495 -0.05739857 0.096172705 -0.07296431 -0.0837394
0.08297943 -0.003952962 -0.089405075 0.04101276 -0.09642558 -0.10559344 0.0067711794 0.018929949
-0.077530496 0.08669761 0.088129975 0.04587249 0.03460116 0.020561406 0.0669326 -0.07230417
0.13681419 0.06015566 0.01527818 -0.027312506 0.10737061 -0.06686505 0.046081502 -0.03420086
0.016804762 0.054299645 -0.08057345 -0.031875115 0.027889602 -0.05007478 -0.07792261 -0.09399815
-0.036526553 -0.102007285 -0.0096673565 0.065905385 0.036062274 -0.009659318 -0.017583253 0.04717503
0.13221915 0.05252606 -0.09820238 -0.032546002 0.015887659 -0.041205507 0.055842258 -0.103563234
-0.020008992 -0.03711791 -0.0008199665 0.0873067 0.09229597 -0.09370141 0.028918907 -0.060425762
0.10667415 -0.001670162 -0.05452101 -0.07135894 0.018013678 -0.005451502 0.05515352 0.10240586
0.09395785 -0.095564924 0.041195225 -0.040765535 -0.08054614 -0.0032862774 -0.069717474 0.0716089
-0.0773856 0.032814387 -0.0029428138 -0.039411243 0.028451687 0.0395879 -0.00046793334 0.052491546
-0.004395365 -0.09209578 0.0002721968 0.081585765 -0.10663391 -0.009676399 -0.10215802 0.10201435
-0.021469546 -0.11404421 -0.0668078 0.027734712 0.06987853 -0.10946901 0.03855471 -0.1277006
-0.027204152 -0.07208745 0.007058693 -0.008622047 0.049591642 0.0776536 -0.053133424 -0.06300154
0.046808198 -0.1126418 0.046262246 -0.111291826 0.0052754376 -0.029205963 -0.06491046 -0.057139013
0.025584096 -0.046377044 0.065331474 0.01389828 -0.0646083 -0.051784057 -0.08780241 -0.042908184

fc3.bias f4 [1297]
00000000: f812 803d f53d 99bd d00c 4fbd 54ba a63d
00000010: f450 6cbd cc7d b43d f805 093c 9b9a 4b3c
00000020: 07fc 72bd 1220 6fbd b841 97bd 0ca6 363c
00000030: 3b41 833d fbfb 11bd 7ce9 96bd d632 d53d
00000040: dde2 55bc 4379 e13d 5bd8 22bd eb09 c1bd
00000050: 954b 9b3d f4ed 863d cc18 99ba 7a2f b7bd
00000060: 2b0f 44bd 3037 c9bc 5753 9c3d 0a90 ad3d
00000070: fec6 723d 6fbf 553d 551b 5dbd 0f77 58bd
00000080: 0bee 8cbc edfd 303a 97c7 85bd b4d1 293d
00000090: c6a0 3abd 2420 81bd eb63 863d 0da3 66bd
000000a0: 035c afbd 290a c43d 46ca a1bc ddd0 49bd
000000b0: aabf adbd 7380 85bd b110 863d 9558 9ebd
000000c0: 3d08 3ebb 01da 04bd 6183 123d 3c8a 6abd
000000d0: 161a e73d 65ac a63d 25b8 4cbd ec3d 1f3d
000000e0: 8cf1 cbbc 1867 e2bb 9fb4 0ebd 3560 b73d
000000f0: 5340 8abd 8c70 62bd 9a56 af3c e157 5d3d
00000100: 920c 8dba 69b3 02bd a871 3e3d 1dc5 d03d
00000110: 6672 aa3d c406 783d 3518 6cbd 50b4 9e3d
00000120: caaf 33bd 1f7f 06bd aebc aebd 2ed2 7f3d
00000130: e338 263c 7aa9 f5bc 2c5b 223d 7c9b 71bc
00000140: 06c4 30bd 2681 9fbd c36c 3abd db4d cf3d
00000150: feb3 42bd f863 473d 6141 853b c29b 6abd
00000160: de92 44bc 6e6c b639 84cb 13bd d91d 66bd
00000170: eec8 c53d f182 fdbb 4d40 2a3b 44fa 44bd
00000180: 0b64 03bb 0653 b3bd dcdc 5ebd b493 853d
00000190: 2fcf 96bd 4ff9 993d 5ede 60bb 508d 57bd
000001a0: 69f8 05bd 8a26 65bd bc45 c3bd 2f7c bd3d
000001b0: 41ce 1a3d 3a9c 393d a08a 0d3d df8c 1b3c
000001c0: a87e 1a3c c721 eabc 407d 87bd ffb4 943d
000001d0: bcd2 b53d 58c5 a3bb 08a9 8f3c cf4c 14bd
000001e0: 00c7 aebd 8967 953b 5209 8abd 3d2c d73d
000001f0: 1773 593c 4c99 d03d c210 a1bd ab44 223c
00000200: 529f bebd eaf8 6c3d 801a 3abc 5d26 a7bd
00000210: 898c a33c fd69 91bd 3e50 42bd 0a5f d23c
00000220: f1cd e23d 829d 9cbd cce5 cabd 5267 1f3d
00000230: b4b7 d63d b6f1 b938 dca2 a3bb 0972 43bd
00000240: 78a7 e23d 8b50 183d 9036 c5bd d220 943d
00000250: 5993 aa3d add4 1c3d 7d8c acbc fe79 053d
00000260: 4b74 bb3d c18e eabb 95ad 353d 1a98 593d
00000270: 0303 abbc e513 0abd 9f25 55bd 0c1e 363d
00000280: 35a2 9ebd ac48 bb3c 8e52 1f3d cd87 5abc
00000290: e2e4 d4bb 054e b0bd e024 bb3d 527f 8d3d
000002a0: 493d 713c 7175 8fbd 9d78 febb f3b7 31bd
000002b0: eb55 81bd 3e61 d43d a1a5 bcbd e8ed 033d
000002c0: 87a9 cebc ca9f a93d d311 b43d 5388 f9bc
000002d0: 658d a7bd 74d2 db3d 2f9d 103d 2f6b d43c
000002e0: e3aa e8bc a4af cf3c 17ad 8cbd 04f3 cd3d
000002f0: 7a0d 4dbd d6dc 403d 66ff 49ba d5d2 d23d
00000300: efc2 d1bd ebcb 68bd dbb7 cd39 4018 a33a
00000310: fb1e 7d3c 7a52 85bd 304e 403d cd76 dabc
00000320: f37b ef3d 8fbe 54bc a46f 0b3d a61c 10bd
00000330: 2f22 26bd f594 a83d 1c86 adbd 9da1 a1bd
00000340: 9fb7 0fbc 668b 073d 88b9 c43d d444 99bd
00000350: f688 edbc 5487 d43d bdb0 08bb 453f c2bd
00000360: ddbb 0b3b a13e 70bd b22d eb3c eec8 bdbd
00000370: ef4e 1c3d d979 45bd e782 d23c c773 a93d
00000380: 65be d03d cb20 bcbd e5f9 bc3d 434e a7bd
00000390: ceb9 b2bd 766a 303d 2c5f c03d 2817 f93d
000003a0: b8ae 023d 96ee 8139 5de2 b3bd 7536 3bbc
000003b0: 6e18 c1bd 52cb e53d d82f 173d aeb3 02bc
000003c0: 04c4 453d 8ea1 c6bd f63b aa3d 8821 873d
000003d0: 3dd9 13bd b6d0 563d d3d4 3c3d 4337 3a3d
000003e0: 2c79 1e3d 8f38 a23c de62 e4bc 27d1 c53d
000003f0: f83d d13c c02b 93bd 4cb7 523c 3b20 d53c
0.06253618 -0.074825205 -0.05054933 0.08141008 -0.05769439 0.08813056 0.0083632395 0.012426998
-0.059322383 -0.058380194 -0.07385582 0.011147987 0.06408926 -0.035640698 -0.07368752 0.10410087
-0.013054577 0.11009457 -0.039757114 -0.0942572 0.075827755 0.06588355 -0.0011680364 -0.08944602
-0.047866028 -0.024562448 0.07633083 0.08474739 0.059271805 0.05218452 -0.053981144 -0.052847918
-0.017203351 0.0006751705 -0.06532209 0.041459754 -0.04556348 -0.063049585 0.065620266 -0.05630784
-0.08562472 0.095722504 -0.019749772 -0.049271453 -0.08483823 -0.0651864 0.065461524 -0.077317394
-0.002899661 -0.032434467 0.035769824 -0.057260737 0.112842724 0.081383504 -0.0499803 0.038877413
-0.024895452 -0.0069092624 -0.034840222 0.08953897 -0.0675055 -0.055283114 0.0214036 0.054038886
-0.0010761193 -0.03190938 0.04649511 0.101938464 0.08322601 0.060553327 -0.057640273 0.07749236
-0.043868817 -0.032836076 -0.085320815 0.062456302 0.010145399 -0.02998804 0.03963773 -0.014746543
-0.043155693 -0.07788305 -0.04551388 0.101222716 -0.047534935 0.048679322 0.0040666317 -0.05727745
-0.0119979065 0.00034794532 -0.03608276 -0.05618081 0.09657465 -0.0077365567 0.0025978268 -0.048090234
-0.0020048644 -0.0875607 -0.054409847 0.06522313 -0.07363736 0.07518255 -0.0034312229 -0.052625
-0.032707606 -0.055944957 -0.09534785 0.09252202 0.037794355 0.045315005 0.03455603 0.0094940355
0.009429611 -0.02858056 -0.066156864 0.07261085 0.08878085 -0.0049978904 0.017536655 -0.036206063
-0.0853405 0.0045594615 -0.06740059 0.10506485 0.013272068 0.10185489 -0.078645244 0.009904067
-0.09307732 0.05785457 -0.011358857 -0.08161614 0.019964473 -0.07100294 -0.047439806 0.025680084
0.110744365 -0.0764723 -0.099071115 0.038916893 0.10484257 8.8665096e-05 -0.0049937796 -0.047716174
0.110670984 0.037186187 -0.096295476 0.072328225 0.083288856 0.03828876 -0.021063084 0.032587044
0.091530405 -0.007158131 0.044354994 0.05312357 -0.02087546 -0.03371038 -0.05203783 0.04446225
-0.07745782 0.022861801 0.03889709 -0.0133380415 -0.0064970115 -0.08608631 0.09137893 0.0690905
0.014724084 -0.07004822 -0.007765843 -0.04338832 -0.06315216 0.1037011 -0.09211279 0.032209307
-0.025227321 0.082824305 0.08792462 -0.030460512 -0.08181266 0.107335 0.035306152 0.025930015
-0.028401798 0.025352307 -0.06868952 0.10056117 -0.05006168 0.047085606 -0.0007705599 0.10294119
-0.10242259 -0.056835096 0.0003923763 0.001244314 0.015449281 -0.06509872 0.046949565 -0.026667977
0.11693563 -0.012984886 0.034042016 -0.03518357 -0.040559944 0.08231536 -0.08472845 -0.078921534
-0.008771806 0.033091925 0.096057 -0.07483831 -0.028995972 0.10377374 -0.0020857297 -0.09484724
0.0021321692 -0.058653478 0.028708313 -0.0926684 0.038161214 -0.048211906 0.025697185 0.08274036
0.10192565 -0.09185942 0.09227351 -0.08169224 -0.08726846 0.04307028 0.093931526 0.1216262
0.031904906 0.00024782558 -0.0878341 -0.011426558 -0.09428488 0.11220421 0.03691086 -0.007977409
0.04828264 -0.09698783 0.08312218 0.065981925 -0.036095846 0.052445136 0.046101402 0.045462858
0.038689777 0.01980236 -0.027879175 0.09659033 0.025542244 -0.07186079 0.012861084 0.026016345
