models/1296_pixels/12.pt (torch, 771783 bytes, 10 tensors)

conv1.weight f4 [6, 1, 5, 5]
00000000: 1d21 a2bd 55e4 c6bd b9ca b6be d9f8 df3d
00000010: 8258 02be 96b8 f63e cb0d 70be ba0c d73c
00000020: 944e c4be 21b8 7f3e 239d c7be d9e1 a1be
00000030: e4ea f2bd 99c1 68be 78fa b9be 4144 233e
00000040: 42d5 cc3e 2559 edbd b0ba 52be 7e63 be3e
00000050: 6002 b23d 6713 b1bd 5892 97bd b37a 813e
00000060: 6ba1 8bbe 6c16 a7be 49e1 713e cb04 5ebc
00000070: 966f b03d 2793 883e f7bf ff3d ccb2 debe
00000080: 3900 00bf c036 fabe c40f ca3e 1cf1 a63d
00000090: cf9c a7bd 6e11 ab3e 52ad c9be eac5 4dbe
000000a0: 152c 843e 7106 843e d194 dfbe a753 6ebe
000000b0: 3919 aabe 5d95 a3be 423c b4be 6a06 c9bb
000000c0: 9f3c 41bd 6a9a a1be 6e46 8fbd 799c 94bd
000000d0: d92e 523e f290 583e 4564 8d3d 39fa 85bc
000000e0: 0099 5d3d 509f 543e 4aaf 87bd 116f 6e3d
000000f0: 89bc 723e 146e 8f3c 4942 3a3e f08d d4bc
00000100: 78c5 1d3e 68bf 6e3e 16b7 3a3e ba99 e83c
00000110: 558e 3a3e 2438 683e cb83 133e ff2e 4c3e
00000120: b489 c4bc cd68 7a3e 4637 633e d7c8 a83d
00000130: bd88 2f3e b52d babe a35f babe bc21 613e
00000140: 0de6 33be 9178 33be f8ef d53e 3aff 89be
00000150: 7ae5 d83e a6fc d6bc 882b 6b3d 3753 eb3e
00000160: 3433 77be 4b33 0abd 2706 8abd 73ea a6be
00000170: abc8 19be f632 0fbe 6e54 7dbe 27bb 6cbe
00000180: 8eb7 6a3e 3772 88be e20f 8f3e 4354 7ebe
00000190: 4625 813e cfcb 983e da7b 0fbe db26 dcbd
000001a0: fc9a dc3c e443 44bd 20dc 50be 0f7d 40be
000001b0: 4d89 e1bd bebc ef3d c489 303e 6e38 5b3d
000001c0: 1a8a abbe fca0 613e 266c bdbe 0b6a b3be
000001d0: 202a 9cbe c4a6 c3be 3f31 7f3e 4b1c 5a3e
000001e0: c26f f83d 0e2e 8f3e 1367 923d 45b7 543e
000001f0: 4186 573e 0646 d2bc 82cf 493d 0d94 cf3d
00000200: a094 dc3d d72a 3d3e 85de 033d 390e 2d3e
00000210: b895 433d 3fb0 c23d 25a8 403e cd4e 553e
00000220: 9150 5e3d f9f6 db3c 697d 82bd ea01 e3bc
00000230: bad1 163e d4c6 2b3e 20d1 623e 83ea afbd
00000240: 1454 303e 743a 783e 2067 7b3e 7183 6d3d
00000250: 3035 2c3d 8143 18bd
-0.07916472 -0.0971152 -0.3570154 0.10936136 -0.12729076 0.48187703 -0.23442762 0.026251186
-0.383412 0.24972583 -0.38987073 -0.3161762 -0.11861208 -0.22730102 -0.36323905 0.15944006
0.40006453 -0.115892686 -0.20579028 0.37185282 0.08691859 -0.08646279 -0.0740096 0.25288925
-0.2727159 -0.32634294 0.23621096 -0.013550947 0.08615033 0.26674768 0.12487786 -0.43495786
-0.5000034 -0.48869896 0.39465153 0.08151457 -0.08184206 0.33411735 -0.39390045 -0.2009503
0.25814882 0.25786164 -0.43668225 -0.23274098 -0.33222368 -0.31949893 -0.35202223 -0.006134798
-0.047176953 -0.3156312 -0.06995855 -0.07256407 0.20525683 0.21149042 0.069038905 -0.016354667
0.05410099 0.20763898 -0.066252306 0.05821139 0.23704733 0.017508544 0.18189348 -0.025946587
0.1540736 0.23315203 0.18233904 0.028393615 0.18218358 0.22677666 0.14405744 0.19939803
-0.023991443 0.24454041 0.22189054 0.08241432 0.17142005 -0.36362997 -0.3640109 0.21985525
-0.17568226 -0.17526461 0.41784644 -0.26952535 0.42362577 -0.026243519 0.05741456 0.45961925
-0.24140626 -0.033740323 -0.06739455 -0.32600746 -0.15017955 -0.13984284 -0.24739239 -0.23118268
0.22921583 -0.2664964 0.27941805 -0.24836831 0.2522375 0.29842994 -0.1401209 -0.107495986
0.026929371 -0.047916308 -0.20396471 -0.18797706 -0.11012516 0.117059216 0.17240053 0.053520612
-0.335038 0.22034067 -0.36996573 -0.35041842 -0.3050089 -0.3821317 0.2492113 0.21299855
0.12130691 0.27964824 0.07148566 0.20773037 0.21047308 -0.025668155 0.04927016 0.1013566
0.107705355 0.18473373 0.032194633 0.16899957 0.047750205 0.095062725 0.18814142 0.20830841
0.054276053 0.026851164 -0.06371576 -0.027710874 0.14728442 0.16775066 0.22150087 -0.085896514
0.17219573 0.24241048 0.24551058 0.05798668 0.04204291 -0.03717375

conv1.bias f4 [6]
00000000: 456b 613f 1356 a63f bac7 44be 0b28 333f
00000010: 5994 203d 0dfb 36be
0.88054305 1.2995018 -0.19216815 0.69982976 0.039203975 -0.17869206

conv2.weight f4 [16, 6, 5, 5]
00000000: 3089 aa3c 88ad 283e 13fc 0a3d 9d42 223d
00000010: e24d b33d 4673 333e e110 d33b da82 173e
00000020: 7fa9 893c 8287 3e3e 514f 293e 8cfa 6e3d
00000030: 4dc2 0e3e 5dad a23d 8973 153e eb99 253e
00000040: 6dd0 5d3d 55dc 2f3e 3756 ca3c 9fdf 0d3e
00000050: 8a65 113e f444 1f3e 12c1 f53d a82b 2e3d
00000060: eaa8 0a3d aa7e 2f3e 2067 413e 039d 1a3e
00000070: 06a6 d83d 6f46 8c3d b437 9a3d b055 523d
00000080: b1dd 963d abe3 b73d f39a a23d a331 0c3e
00000090: 8231 413e 48ae 603e ec1f 163e 1015 203e
000000a0: ee53 4f3e f91b ce3d 191a 673d ed63 7a3d
000000b0: 5f52 6a3e ce28 ec3d 610b 433e c976 563e
000000c0: beeb 463e 3612 4c3e f615 b2bd 06eb b6bd
000000d0: c7fc 9dbc e7c0 4cbc e888 a5bd 1b7c c03c
000000e0: 4ea5 9c3d 2d66 8ebd ffa5 b8bd 008b 9c3d
000000f0: 20b5 e0bc c080 d53c da13 b53d 2059 103c
00000100: e1f4 833d 89de b93c 7add 1d3d d5c8 71bd
00000110: 9def ddbc 1f97 d9bc e922 88bd e132 573d
00000120: b895 87bd 054e 343d 8e8e 17bd 00dc 103c
00000130: a90c 2b3e 7de1 a2bb 31ab e53d 109f 143e
00000140: b6f6 013e 539b 1d3e 7671 143e df13 183e
00000150: bff6 fb3d 57a4 143e 0f86 3e3d 1a67 1d3e
00000160: 91da c93d 500e 993d 3099 2e3e 3d81 9c3d
00000170: 0923 203e 518d d23d 185f fd3d c0ed d03d
00000180: a5fb 293e 30ae 1a3e 418e 833d bd56 8a3d
00000190: 2c81 ce3d 64ae cc3d 9401 dc3d cdf0 b43d
000001a0: 185d 123e 0902 203e c982 40bc 797e 373d
000001b0: d3ea 4f3d bbbe ea3d ead6 823d ef80 23ba
000001c0: a147 fc3d b7f1 b23d eee5 e13d 98a0 01bc
000001d0: 049b 0f3d e7b1 013e 3c9a b63b 94f0 ac3d
000001e0: 60ac 93bc a4c9 183d 3a1a bc3d 1cb7 bf3d
000001f0: e42a 143c 5700 99bd 5223 123d ed1c a03c
00000200: 8431 833d 2073 aabd 8e5a 62bc 60b8 3dbd
00000210: 1db9 ce3d 28c4 b83c 4a52 893c fe2a 353c
00000220: 4d57 90bc 8463 223d 1799 b0bc db4b d13d
00000230: 58eb c93d 19fb 553d 04ec adbd f6d8 713a
00000240: 43bd 2dbc 3475 983d ed5a a5bd b0e2 0ebc
00000250: 35b6 4ebd 1103 913d e9dc 273d 8acf c33b
00000260: c3b6 eebc 8f88 b53d c9c6 ae3d 6630 b03d
00000270: d177 723d a75a 9f3c ca18 f8bc ad9e 103d
00000280: 6409 c9bb c0f6 e6bc eb91 8abd 2bb0 ef3c
00000290: e95c 613c 90d8 63bc 8ef5 9f3d 1d89 483d
000002a0: 4c69 09bd aa84 3fbb 1517 87bd 3ae5 04bd
000002b0: 1db1 70bd 4ab6 af3c 3865 733d e1a5 4abd
000002c0: f40a 283c 3b2d 26bd 3b78 483d c2bb 85bc
000002d0: 61d9 3dbb 2aa6 84bb 2c63 c3bc 3184 903c
000002e0: fa67 8abd 454a d93b 64d6 bcbc 2f64 433d
000002f0: bec2 c13d 397e 2e3b 360a e93c 4633 1fbd
00000300: 4271 afbb a8f2 3cbb ecbf 67bd ec6c a23d
00000310: d3cf 0b3b 2179 62bd 81e5 f2bc 6082 a83d
00000320: 1ca8 1c3c a480 8e3c 5e72 ab3c ea4a d2bb
00000330: 3099 79bd 009b 83bd 1786 a6bd 6216 13bd
00000340: 30bd 8bbd 6e3e 40bd 9fb8 91bd ab7b 36bc
00000350: f53a 0dbd 7e80 9e3d aa34 dabc 7321 4fbb
00000360: 2807 823d 8aa3 fb3c 6d14 0c3c 3417 883c
00000370: a3f1 d63c acde d63c 0883 84bc 38f0 263d
00000380: 7753 6f3d aa2c bb3d f3d6 453d 8c55 80bd
00000390: 9c86 043d 6469 9c3d 18ac 623d 8865 913d
000003a0: f9d2 24bd 3d1a 8bbd ca05 2d3d 5356 303c
000003b0: b10a f8bc c376 25bd 81ef 0f3d 3e14 febc
000003c0: 3390 513d eb18 a03d 5781 a53d 773c 85bd
000003d0: 9224 8abd 434b 973d 521d cb38 ff6b 0a3d
000003e0: 6ea8 86bd 29f0 4ebd b918 753d 83cd e23c
000003f0: 8314 5fbd 560c 413d 8cbd 4a3c d0da f2bc
0.02081737 0.16472447 0.033931803 0.03961431 0.08755089 0.17524442 0.006441221 0.1479601
0.016804455 0.1860638 0.16534163 0.05834441 0.13941307 0.07943223 0.14594854 0.16171996
0.05415385 0.17173894 0.024699314 0.13854836 0.1419889 0.15553647 0.11999716 0.042522103
0.033852495 0.17138162 0.18886995 0.15098958 0.105785415 0.06849372 0.07530156 0.05135125
0.07366503 0.08978971 0.079397105 0.1369081 0.18866542 0.21941483 0.14660615 0.15633035
0.2024686 0.10063929 0.056421373 0.061130453 0.22882985 0.115312204 0.1904731 0.2094375
0.19425866 0.19928822 -0.08695595 -0.08931546 -0.019285573 -0.012497163 -0.080827534 0.023496678
0.07648717 -0.06953082 -0.09016036 0.076437 -0.027430117 0.02606237 0.08841677 0.008810312
0.06443191 0.02268912 0.038541295 -0.05902942 -0.027091796 -0.026561318 -0.066472836 0.052538756
-0.066203535 0.044019718 -0.037001185 0.008841515 0.16704048 -0.004970728 0.11214293 0.14513803
0.12691769 0.15391283 0.14496407 0.1485133 0.123029225 0.14515816 0.046514567 0.15371361
0.09856141 0.07473433 0.17050624 0.07641838 0.15638365 0.1028086 0.12371653 0.10201597
0.16599901 0.1510551 0.06423617 0.06754825 0.10083231 0.099942 0.107424885 0.088349916
0.14293325 0.15625776 -0.011749932 0.044798348 0.050761055 0.1146216 0.06388648 -0.0006237169
0.1231835 0.0873751 0.11030184 -0.007911824 0.035059944 0.1266552 0.0055725854 0.08444324
-0.01802653 0.037301674 0.0918469 0.09361097 0.009043429 -0.07470768 0.035678215 0.019545043
0.06405929 -0.083227396 -0.013815535 -0.04631841 0.10093901 0.022554472 0.016762871 0.011057613
-0.017619753 0.039645687 -0.021557374 0.102195464 0.098593414 0.05224142 -0.08492282 0.000922575
-0.010604206 0.0744423 -0.08073983 -0.008721039 -0.050466735 0.07080663 0.04098216 0.0059756683
-0.029139882 0.08863937 0.08534009 0.08602981 0.059196297 0.019452406 -0.030285258 0.035307575
-0.0061351527 -0.028193831 -0.06766113 0.029258808 0.013755062 -0.013906613 0.07810508 0.048958886
-0.033547685 -0.002922336 -0.065961994 -0.03244517 -0.05876266 0.021449227 0.0594227 -0.0494746
0.010256518 -0.04057048 0.048942786 -0.016324881 -0.002896868 -0.0040481286 -0.023851 0.017641159
-0.06758113 0.006631168 -0.023051448 0.047702964 0.09460972 0.0026625528 0.028447252 -0.038867258
-0.0053540776 -0.0028831158 -0.056579515 0.079309314 0.002133359 -0.0552913 -0.029650452 0.08227992
0.009561565 0.017395325 0.020928558 -0.006417622 -0.060937107 -0.06426048 -0.08131044 -0.035910018
-0.06823194 -0.046934538 -0.07115292 -0.011137883 -0.034480054 0.07739352 -0.02663644 -0.003160563
0.06349021 0.03071763 0.008549792 0.016612627 0.026238268 0.026229225 -0.016175762 0.040756434
0.058429208 0.09139378 0.048300695 -0.06266317 0.032354936 0.07637289 0.055339903 0.07099444
-0.04024026 -0.06792114 0.04224185 0.010762769 -0.030278536 -0.040396463 0.035140518 -0.031015512
0.05116291 0.07817253 0.0808131 -0.065056734 -0.067452565 0.07387402 9.685256e-05 0.0337944
-0.06575094 -0.050522003 0.05983803 0.027685886 -0.05446292 0.047130905 0.012374293 -0.029645354

conv2.bias f4 [16]
00000000: a88e 113e c834 bbbc c20c b83d a7c5 0eba
00000010: 7fcf 1cbe 14e2 db3d 01af 86bd 3cd5 a33d
00000020: 9854 0bbd 3310 5a3d 7cd8 9c3c 5099 bf3d
00000030: 6623 563c 4050 b5bd 9155 50bd e8ac 1dbd
0.14214575 -0.022852316 0.08986808 -0.00054463226 -0.15313528 0.1073648 -0.06576348 0.079996556
-0.03401622 0.053238105 0.019146197 0.09355414 0.013069963 -0.08853197 -0.050862852 -0.038494974

fc1.weight f4 [120, 576]
00000000: 005f 32bb 565f 0ebc b0e4 09bc ab21 2cba
00000010: 8686 b13c d688 cbbc 6b7a bbbc 7b7b 2dbc
00000020: 2bc7 fe3b 209c a93b f065 67bc 9612 bfbc
00000030: 6696 583c c038 e9bb c8a4 803c b85a e13c
00000040: c0bc 65bb 16eb 1dbd 306b 94bc a3e9 c1bc
00000050: 7f4d 193d d081 3c3c 1b61 78bc bb60 1bbd
00000060: ab33 753a b630 a2bb 37ab 27bd 0b59 363c
00000070: 06d1 febc bb7a 15bc b8a1 003d cbee cb3c
00000080: 7054 233d 169c 26bd 705e 57bc 68c7 25bd
00000090: 5be8 af3c eb9e 9c3c 98f4 243d 0c63 0c3d
000000a0: 5c2d 1abd 83e5 e23c 809b 003c 2fc9 0cbd
000000b0: f019 283d 88e1 eebc b609 d5bb 8729 073d
000000c0: 73b9 c03c 9b06 27bc 5e21 fdbc 5011 b43c
000000d0: 5b43 babc 6bcb 1c3c b63a a43c 7b83 42bc
000000e0: 80ef d3bc 00fe 063c 8617 793c b353 123d
000000f0: ab7d 0b3b 9643 773c a097 35bc 4712 253d
00000100: 0060 eebb deeb b43c 3b54 9d3c 66d0 ccbc
00000110: 1005 1cbd abb9 7f3a 00eb 403a ffa5 143d
00000120: a636 cd3c e04c b23c f60c 74bc 1bef 253d
00000130: ab4f 403c 009b bb3a 0b51 883c 00a6 813a
00000140: 0bb2 c93c 56a4 123a 001e f23c 0807 f6bc
00000150: d8bb 12bd d7bc 1abd 928a 1a3d 4bda 66bc
00000160: 930b 953c 8e22 c73c d6ee 533c 0435 19bd
00000170: f09f 353c cbed d8bb 4810 dbbc fbb7 0e3d
00000180: 3a56 1fbd 00f0 0bb8 23f9 d53c bbf8 b53c
00000190: a387 9d3c 6051 fcbc 3098 18bc b0a3 6c3c
000001a0: d08c 113d d6cc 5d3c da30 06bd 935d f53c
000001b0: 18df d93c 56bd e139 20cb 7bbc c3a3 83bc
000001c0: 36cd 983c 409d c5bb 8088 14bb 4eef e13c
000001d0: 8050 6b3c 0398 d93c 0b5b 3abc c0c0 a8bc
000001e0: ae67 8ebc c0d2 c7bc 6b8b bb3b 035f ce3c
000001f0: d63a 233b 8ed5 863c 2b05 78bb 341f 00bd
00000200: 0021 ed3b 7bbf 7b3c 5041 be3c e6bc 4cbc
00000210: 4030 9f3c 007a 14ba 2be5 d4bb 4691 ec3c
00000220: d630 39bc 4329 e73c c073 71bb c846 c6bc
00000230: 0628 b53c 3852 ddbc e056 bf3b eef6 bbbc
00000240: ebfc 2a3c 96fd 993b c08b 683b 4b0c 2abd
00000250: 83d4 aa3c d66b 243b d8cd eebc 70f3 663c
00000260: 0771 0a3d 4b89 a4bc 80ca 9f3a 5a1f 0d3d
00000270: ab76 d23a 9e43 a6bc 006b f0ba 005c 34ba
00000280: b643 f2bc c81e cc3c 43df c2bc 4066 1fbd
00000290: ebe0 693b 8613 ba3c 642a 28bd 8037 47bb
000002a0: 3bc9 023d b6b0 34bc 4015 5f3b 8b87 013c
000002b0: 98f8 f3bc 5671 1ebd fb7d e43c 6b51 6ebb
000002c0: b6b4 d43b 7b77 e1bc cbc5 93bb a672 753c
000002d0: bebc 923c f39a 043d 8bb2 993b 1bba 153c
000002e0: 567d aebb afcc 07bd 3b2c 8dbc 9718 193d
000002f0: e828 ebbc 7022 eb3c 04a8 0dbd ab4c 9a3a
00000300: 0895 cebc be2c 163d 886d f23c ab3f 343b
00000310: 2b58 493b 03be 893c 7b62 6cbc 7b61 eabc
00000320: b3d8 27bd 9e7f d33c 0b09 bd3c 1ebd c23c
00000330: 43ca d6bc 5616 65ba 6b91 5fbc f412 1ebd
00000340: 6053 1cbc 48e5 e9bc 8b9e 153c e68e 11bc
00000350: 309a 58bc 9e9f 9fbc b338 a73c ccbd 0b3d
00000360: 9e93 0a3d 8ecd d53c 1bd1 8d3c 5bcb 02bd
00000370: 7632 a9bc e0c4 e0bc fb17 1d3c d669 91bb
00000380: 0461 233d 361a 973c 1b9d d53c 78b3 83bc
00000390: d6f7 a5bc 2e19 f8bc c68c c63c c0e0 48bc
000003a0: f683 1d3d 0025 a4bc 4e67 16bd d3c2 fdbc
000003b0: 8671 0ebd 56b6 44ba 7390 fb3c cfd5 0ebd
000003c0: 93bb 89bc 76aa 84bc 00c2 863c 006a ce3b
000003d0: 5319 f33c 6ef9 c93c abf9 de3c a66f 093d
000003e0: c833 07bd 2ed4 8b3c cbf0 a1bb 0e0c e63c
000003f0: be9e 213d 7666 f13b bbc8 e7bc 00a9 43bb
-0.002721727 -0.008689722 -0.00841634 -0.0006566296 0.021670591 -0.024845522 -0.022885522 -0.010588522
0.0077752075 0.0051760823 -0.014123425 -0.023324292 0.0132194515 -0.007117361 0.015703574 0.027509078
-0.003505513 -0.038554274 -0.018117517 -0.023670977 0.03742742 0.011505559 -0.0151598705 -0.037934046
0.00093537074 -0.0049496545 -0.040934768 0.011129628 -0.03110553 -0.0091234995 0.031404227 0.024894139
0.039875448 -0.0406762 -0.013145074 -0.04047337 0.0214731 0.019118747 0.040272325 0.034274146
-0.037640914 0.02769733 0.007849574 -0.03437155 0.04104036 -0.029160276 -0.006501402 0.032998588
0.02352593 -0.010194446 -0.0308997 0.021980911 -0.022737196 0.009569983 0.020047527 -0.011872168
-0.025871038 0.008239269 0.015203362 0.035724353 0.002128462 0.015091797 -0.0110835135 0.040300634
-0.0072746277 0.022085126 0.019205203 -0.025001716 -0.038090765 0.0009755145 0.00073592365 0.03629112
0.025050472 0.021765172 -0.014895668 0.040511232 0.011737744 0.0014313161 0.016640207 0.0009891391
0.02462103 0.0005593946 0.02955532 -0.03003265 -0.035823673 -0.037777748 0.037729807 -0.014090131
0.018193996 0.02430847 0.012935361 -0.037404075 0.011085495 -0.006620144 -0.026741162 0.034843426
-0.03890059 -3.33637e-05 0.026119774 0.02221333 0.019229716 -0.030800521 -0.009313628 0.014443323
0.03553468 0.013537606 -0.032761432 0.029951846 0.026595637 0.0004305641 -0.015368253 -0.016069299
0.01865254 -0.0060307086 -0.0022664368 0.02757993 0.014362454 0.026561743 -0.011374245 -0.020599723
-0.017383423 -0.024392486 0.005723407 0.02519179 0.0024906895 0.016459253 -0.0037844877 -0.031279758
0.0072366 0.015365477 0.023224503 -0.012496209 0.019432187 -0.00056639314 -0.0064970455 0.028877866
-0.011303147 0.028217917 -0.0036842674 -0.024203673 0.022113811 -0.027016744 0.0058392137 -0.022944894
0.010436277 0.0046994193 0.0035483688 -0.04151563 0.020853287 0.002508869 -0.029150888 0.014096126
0.033799198 -0.020084998 0.0012191087 0.034453727 0.0016057094 -0.020295914 -0.0018342435 -0.0006880164
-0.029573303 0.024917021 -0.0237881 -0.038915873 0.003568704 0.022714388 -0.04105605 -0.003039807
0.03193019 -0.011028459 0.0034039766 0.007905851 -0.029781625 -0.038682304 0.027892103 -0.0036364447
0.006491269 -0.027522793 -0.0045096627 0.014980948 0.017912265 0.032374334 0.0046904734 0.009138609
-0.005325 -0.033154186 -0.017233005 0.037376966 -0.028706029 0.028702945 -0.03458406 0.0011772116
-0.025217548 0.036663763 0.029593244 0.002750377 0.0030722718 0.016814237 -0.014427776 -0.028610935
-0.040978145 0.025817689 0.023075601 0.023771819 -0.026219493 -0.0008738985 -0.01364551 -0.038592294
-0.0095413625 -0.028551713 0.009132038 -0.008884167 -0.013220355 -0.019485291 0.020412778 0.03411655
0.033832185 0.026098993 0.017311623 -0.031932216 -0.020653944 -0.027437627 0.009588237 -0.0044376655
0.039887443 0.018445116 0.02607589 -0.016076788 -0.020259779 -0.030285444 0.024237048 -0.012260616
0.038455926 -0.020037174 -0.036719613 -0.030976688 -0.034776233 -0.0007503977 0.030708527 -0.034871873
-0.016813075 -0.016194563 0.016449928 0.0062992573 0.029675161 0.02465507 0.02721866 0.033553742
-0.033008367 0.017068949 -0.004942035 0.02808192 0.03945803 0.0073669506 -0.028293958 -0.002985537

fc1.bias f4 [120]
00000000: bebb cbbc a153 a73c 69d3 13bc 4ef8 253d
00000010: 576a f73b 5f6b be3c 5bfc 8e3c 4729 7d3b
00000020: 2b9b e0bc c3da 813c d9f5 e4bb dfc6 fe3c
00000030: cddd 053d 0082 d7bc 2729 3f3c 7705 50bb
00000040: 8872 1abd 7285 513c 7b62 75bc c063 d1bb
00000050: 5447 27bd c340 2c3d 6ad3 6ebc fb30 89bc
00000060: d509 923a 2f40 8a3c dbf4 aa3c 5fdb a03c
00000070: 78c4 f03c 39e7 c13c 3bff a93c 408c 47bc
00000080: f604 61bc 7b9f d7bc e324 05bd 8801 3abd
00000090: d7ef 1cbd 44f8 29bd 1416 ce3c 7004 2e3d
000000a0: 8e20 8c3a 0919 d53c dba7 81bc ec2f 4bbc
000000b0: f6e0 f13b 4071 81bb 55d2 903c 4aaa c7bc
000000c0: d8ca b3bc 0d3b 1f3b ddde 4b3d 331a b93c
000000d0: 8210 f7bc ed46 273d 5fea 433d 0775 45bd
000000e0: 744b 7f3c 6c12 c83c 4b7c 0f3d 9dc0 c03c
000000f0: 8960 01bd 4fc3 083c def6 643b 2013 883b
00000100: 6d85 e63b debd d8bc 2520 0b3d 9ddb 043d
00000110: 34e9 20bd 7e33 9e3c 147f 51bc c82a 1cba
00000120: b9dd d0ba 3346 01bd 541f b93b b9cd 3abc
00000130: 420d 10bd ca12 1abb 7788 613d a184 2bbc
00000140: c903 34bb f87f c23c 3ff0 88bc 2c17 16bd
00000150: d3ed 13bd 7096 c8bc a8d3 e7bc 2f58 29bd
00000160: 2a03 40bd da94 8a3b b575 253d 239d fe3c
00000170: e17d 07bd 3eb1 f43c 4137 0d3d 80a7 b4bb
00000180: 1dad 38bd 6d51 b5ba 204a 1dbd 0682 483c
00000190: d77c 463d e071 e7bc 002b debc 59d5 8abb
000001a0: ab06 b83b b2d8 8abc 9c26 5dbd 86b9 edbb
000001b0: e2a1 ae3c 46f4 8a3d 950d 32bc 5b5e 3cbd
000001c0: 0f46 c53c 7673 15bc afc5 f93c 47bf 0bbd
000001d0: 23f7 1d3b 5885 4fbc 5706 bebc 044c 633c
-0.024869796 0.02042562 -0.009022572 0.040520005 0.0075505185 0.023244558 0.017454317 0.003862934
-0.02741774 0.015851384 -0.006987315 0.031100689 0.03268223 -0.026307106 0.011667526 -0.0031741539
-0.03770688 0.0127881635 -0.014977093 -0.006390065 -0.04083951 0.04205395 -0.014576772 -0.016746989
0.0011141846 0.016876308 0.02086871 0.019635854 0.029390559 0.023669826 0.020751586 -0.012179434
-0.013734093 -0.026321163 -0.03250588 -0.045411617 -0.038314667 -0.04149653 0.025157012 0.0424847
0.0010690854 0.026012914 -0.01582711 -0.012401562 0.0073815538 -0.003950268 0.01767842 -0.024373192
-0.02194731 0.0024296672 0.049773086 0.0225955 -0.030159239 0.040839124 0.047830936 -0.04820731
0.015581954 0.024422847 0.035030644 0.023529345 -0.031586204 0.008347346 0.0034937183 0.0041526705
0.0070349486 -0.026457723 0.033966202 0.032436002 -0.0392849 0.019311663 -0.012786645 -0.00059573026
-0.0015935219 -0.031561088 0.0056494866 -0.011401587 -0.035168894 -0.0023509734 0.055061784 -0.010468633
-0.0027468076 0.02374266 -0.01671612 -0.036643192 -0.03611548 -0.024485797 -0.028299168 -0.041343864
-0.046878017 0.0042291703 0.040395457 0.031080788 -0.03307903 0.029869672 0.034476522 -0.0055131316
-0.04508697 -0.0013833471 -0.03840077 0.012238031 0.0484589 -0.028252542 -0.027120113 -0.004236859
0.0056160293 -0.016949032 -0.0539919 -0.007254782 0.021317426 0.06784873 -0.010867496 -0.045988422
0.024081258 -0.009121766 0.03048977 -0.034117963 0.0024103604 -0.012666069 -0.023196382 0.013873104

fc2.weight f4 [84, 120]
00000000: 4441 2f3d a596 8cbd 7da1 3bbc 0601 61bd
00000010: 86ab 63bc f736 a23d 6851 063d 5315 02bd
00000020: fc5a 52bc 7c95 62bd c297 b93d f05a bcba
00000030: eff3 bcbc 0a74 8d3c 29a8 8b3d 023e 42bd
00000040: efa1 15bd 9ada 713d 97c8 aebd 630d d8bc
00000050: 2184 7bbd 7e67 abbd fcc0 6d3c 7c69 833d
00000060: a74b 563d e1b2 fe3c 047f 34bd 96f2 5fbd
00000070: 213c 87bc 7f2f 203d 4f30 21bd 196e a53d
00000080: 767b fcbc f5d1 823d b315 f6bc bb7b 873d
00000090: cccf 90bd 88fb db3c 68b1 a43d bcf3 a3bd
000000a0: 7c22 46bd 0cf6 e73c 3f89 56bd 5607 9e3d
000000b0: 34dd 54bd d56d 463d 122c a6bd 79ae b0bb
000000c0: 2746 253d 9a14 43bd 7dc6 6fbc d299 a3bd
000000d0: 4112 afbd c130 a6bd 31ea 473c 4200 2b3d
000000e0: 1212 8cbc e92a 273d 7f2f 8b3d f6c0 a03d
000000f0: 8fa5 babd 108d aa3c 4a8e 5d3d b5c1 603c
00000100: 257f 7fbd 42fd d93b 6d3a d1bb 3047 cb3c
00000110: 7c88 a53d 841c afbd fac5 903d 5373 b53c
00000120: c78d 4b3b e460 9bbc 31db 37bd 36ab f03c
00000130: 60c6 e13c 71c6 d63c 39e2 87bb c859 e2bc
00000140: eb9e 373c 634a aebd 57c1 bcbc 48de a0bd
00000150: 47d9 a63d 788d 88bd 4969 8a3d aa03 b6bd
00000160: e16f 483c 3beb f23c 2927 093c 7a5e 63bd
00000170: 7a30 9fbd faae 433d c2ca 103c cf2b 953d
00000180: 092a 48bd 928a 60bc db4c 1c3d 96de 32bd
00000190: d080 a8bd 6a63 693d 20bb b73d 743d 9e3d
000001a0: f364 efbc 40eb 11bd af4d 8bbd cd30 60bd
000001b0: 5df6 11bb c326 8b3d 8b4e 543d 047c 803c
000001c0: e8f1 a3bd 2587 633d c4e0 fcbc c2d4 77bc
000001d0: f068 69bd 8eb4 063d 5b26 a73d e4af 273c
000001e0: 1016 71bc bc34 413d fec6 2f3d e555 a8bd
000001f0: c1b1 0e3d 2334 933d 0df7 6abd 4940 7fba
00000200: 72ae 7a3d 3efe 153d 8d24 99bd 27d8 52bd
00000210: 1e75 263d eb0d 9fbd 1d47 4f3d 0a38 9c3d
00000220: 5e32 f3bc 063d 993c c506 4d3d 316c 0b3c
00000230: e103 b0bc 8531 1f3c 576f 9f3d 831a cabb
00000240: 4a15 95bd 1978 90bd 00a8 173c 57de bebc
00000250: 53ae 86bc 8f04 4f3d 81e2 febc 2649 b7bd
00000260: 9ebe 95bd 6c59 083d 5cd7 b43d 12cf 143d
00000270: b115 3d3d 0649 90bd ec28 d13c bd79 703b
00000280: e5b6 0dbd 7a2c 1dbd 3730 97bd 7dd1 363d
00000290: 4c00 babd cd5d 5fbb cbe6 853d e5fa 5c3d
000002a0: 6cf8 21bb 2258 02bd 79f8 0dbd 70d0 743c
000002b0: a212 9dbd 0a10 523c 895f 2dbd 8a15 983d
000002c0: 2dab abbd b35b 733d 9fea 13bd 0d29 6e3d
000002d0: 97d3 e13c 259f 72bd ef78 0b3d 9530 4b3d
000002e0: c18e 893d d6c4 9cbd 4d5f fbbc 963f f5bc
000002f0: d536 90bc 7d35 18bd a407 77bc 00f2 a3bd
00000300: be4e 30bd 81f8 e4bc 9d47 a13d 0d7f 233d
00000310: f2ca 353d 26ed 49bd 58b0 9d3d 1605 343d
00000320: 07a3 c6bc a7ed bebd f42b 9b3b a847 99bc
00000330: 9d37 833d f961 533d d759 0a3d f65a 583b
00000340: 3e48 55bd f9dd d6bc f189 d0bb 1657 103d
00000350: 7fb4 1f3d d24f 8bbc 7d8b ec3c 167b 7cbb
00000360: cdfd ed3c ac25 67bd c946 3f3c 2f05 b5bd
00000370: 7866 bb3c 2e22 463d 6e85 c33c c43c 94bd
00000380: 12a0 8d3d f59d b93d 15ea e33b 3e73 0cbc
00000390: e47c 6d3c 80e4 00bd e6ea 9ebd f0f8 75bc
000003a0: 520d 373d 44c4 ad3d f0d1 323d aa31 a03d
000003b0: 72f8 853d 2ecb 0a3c 6e85 acbd 4ad7 67bc
000003c0: 6c11 f23c b8d2 143d 8670 e3bc 1e99 a33d
000003d0: f3f3 0cbd 0c09 033c 692d a23d 1d24 13bd
000003e0: 300d abbd 61cb 163e 3dae 95bd f76e b13c
000003f0: ac59 aa3c c5b5 963d a192 fa3b 6348 28bc
0.04278685 -0.06864671 -0.011452076 -0.054932617 -0.013895875 0.0792064 0.03279248 -0.031758618
-0.012839075 -0.05531834 0.09062149 -0.0014370363 -0.023065535 0.017267246 0.068191834 -0.047422417
-0.036531385 0.059046365 -0.08534353 -0.02637357 -0.061405305 -0.08369349 0.014511343 0.06416604
0.05231824 0.031091155 -0.044066444 -0.054674707 -0.016508164 0.039107796 -0.03935271 0.0807764
-0.03082059 0.063877024 -0.030039644 0.066153966 -0.07070884 0.026853338 0.0804165 -0.08005473
-0.04837273 0.028315566 -0.05237698 0.07716243 -0.05196877 0.048444588 -0.081138745 -0.0053918925
0.040350106 -0.04762707 -0.014634726 -0.07988323 -0.085484035 -0.08114768 0.012201832 0.041748293
-0.01709846 0.040812407 0.067961685 0.078493044 -0.09113609 0.020819217 0.054090776 0.013718058
-0.062377114 0.006652505 -0.0063851387 0.024814218 0.08082673 -0.08550361 0.07069011 0.022149717
0.0031059848 -0.0189671 -0.04488677 0.029378515 0.027560413 0.026217671 -0.004146841 -0.027630702
0.011207323 -0.08510282 -0.02304141 -0.07854897 0.08146911 -0.06667608 0.06758363 -0.088874176
0.012233705 0.029653182 0.008371153 -0.05551002 -0.07772918 0.047774293 0.008837404 0.072837465
-0.048868213 -0.013704913 0.038159233 -0.043669306 -0.08227694 0.056979574 0.08971238 0.07726565
-0.029222941 -0.035624743 -0.06801926 -0.05473404 -0.0022272088 0.067945026 0.051832717 0.015684135
-0.08005124 0.055548806 -0.030868895 -0.015126409 -0.05698484 0.032887034 0.081616126 0.010234807
-0.014714733 0.047169432 0.042914383 -0.08219508 0.034837488 0.07187679 -0.057364512 -0.0009737057
0.06120152 0.036619417 -0.07477675 -0.05147567 0.040639035 -0.077663265 0.05060493 0.07627876
-0.029687103 0.018705856 0.050055284 0.008509682 -0.021486225 0.009716396 0.07784908 -0.006167711
-0.07279451 -0.07054157 0.009256363 -0.02329938 -0.016440546 0.050541457 -0.031113865 -0.08949499
-0.07311748 0.033288404 0.08830139 0.03633029 0.046163265 -0.07045178 0.025532208 0.0036693655
-0.03459825 -0.038372494 -0.07382243 0.044633377 -0.09082088 -0.003408301 0.06538161 0.05395021
-0.0024714721 -0.03182233 -0.03466079 0.0149422735 -0.076695696 0.012821207 -0.042327438 0.07425983
-0.083822586 0.059413623 -0.036112424 0.058144618 0.027566714 -0.059233803 0.034050878 0.04960688
0.06716681 -0.07654731 -0.030685091 -0.029937547 -0.017604271 -0.037160385 -0.015077505 -0.08005142
-0.043043844 -0.027950527 0.07874987 0.039916087 0.044382997 -0.049298428 0.076996505 0.043950163
-0.02424766 -0.09322672 0.004735464 -0.018710926 0.06407092 0.051607106 0.033777084 0.0033013201
-0.05207085 -0.026228892 -0.0063641 0.0352393 0.038990494 -0.017005835 0.028875107 -0.0038525513
0.029051686 -0.05643241 0.011674591 -0.08838879 0.02287601 0.04837244 0.023867335 -0.072381526
0.069152966 0.09063331 0.006955395 -0.008572398 0.014495108 -0.031467915 -0.07759647 -0.015012965
0.044690438 0.084847 0.043657243 0.07821973 0.06541528 0.008471293 -0.08423887 -0.01415045
0.029549323 0.03633377 -0.027763616 0.07988189 -0.034412336 0.007997762 0.079188175 -0.035923112
-0.08352125 0.1472602 -0.07308624 0.021659357 0.020794712 0.073588885 0.007646874 -0.010271165

fc2.bias f4 [84]
00000000: c1a9 b4bd 57a3 63bd 8183 ea3c 87b9 293c
00000010: 93a5 913c 495b a1bd adb4 7abd cc4b c2bd
00000020: bb65 843d a581 463d 4c11 b8bd e752 0c3d
00000030: dec5 b23d 7276 7c3d 37d5 313c a581 96bd
00000040: 5ac6 8bbd ab80 b13d 15c5 bf3d bc5d 4f3d
00000050: 4589 a43d f96e 41bd 20b2 72bd 673c ac3d
00000060: 31c3 32bd c7a6 51bd 9db9 aebd b298 7dbd
00000070: a4f7 64bc 1180 b0bd dad2 a03d f103 f33d
00000080: e4c1 8a3d 9e83 b5bd 866a 5dbd c4ad 833d
00000090: df26 4fbd a3a8 9fbd ba6a 3f3d 063b 09bd
000000a0: 69df 71bd 93f0 19bd 8620 c3bd 9ed8 bb3d
000000b0: a771 29bd 6da5 773d d408 803d 173c 92bd
000000c0: 2896 7abd cf39 3f3d d20b 5e3c f5b9 39bb
000000d0: d9da 45bd 1298 29bd 8c45 ccbb 16e0 e4bb
000000e0: 8bd9 823d 0a45 853d f6f0 403d 85bf 193d
000000f0: af9e 9e3c 3f9f 623d 320b 2ebc c04f d2bd
00000100: b44c beba 9f07 e1bc b4f6 703c dd6f be3d
00000110: 4833 b13d cf76 3abc 6fb5 2c3d 04ed e93c
00000120: 5d3b ccbd 7eaf cf3c 828b c43b 6022 e8bd
00000130: bd4b 0ebd d95d 80bd 9dee a23d e698 ef3c
00000140: 0909 793d fb44 183b ebc1 80bd cfc8 593c
-0.088214405 -0.055575695 0.02862716 0.010359175 0.017779147 -0.078787394 -0.061207462 -0.09487113
0.06464716 0.048463482 -0.08987674 0.03425875 0.087291464 0.061636396 0.010854057 -0.073489465
-0.06824942 0.086671196 0.09363762 0.0506265 0.080339946 -0.047224972 -0.059251904 0.08409958
-0.04364318 -0.051184442 -0.08531497 -0.0619132 -0.013975058 -0.08618177 0.07852717 0.11865986
0.06775263 -0.088629946 -0.054056667 0.064296275 -0.05057418 -0.07795837 0.04673264 -0.033503555
-0.05905095 -0.037582945 -0.09527688 0.09172176 -0.041368153 0.060460497 0.06251684 -0.071403675
-0.061178356 0.04668599 0.013552623 -0.0028339599 -0.048304413 -0.04140479 -0.0062338766 -0.006984721
0.06389149 0.06507309 0.0471048 0.037536163 0.019362776 0.05532765 -0.010622786 -0.10269117
-0.0014518709 -0.027469454 0.014707256 0.0929868 0.08652359 -0.011380865 0.042165216 0.0285554
-0.0997226 0.025352236 0.005998076 -0.113346815 -0.0347402 -0.062679 0.07955668 0.029247712
0.060799632 0.0023234475 -0.06286987 0.013292505

fc3.weight f4 [1297, 84]
00000000: 47cd 20bd 3edd 283d 7d41 ecbd 11a6 953d
00000010: cfab ea3c dacb 803d f9de d5bc 8eb2 933d
00000020: ba18 003e 3fd8 c8bd 625a 16bd 5402 803d
00000030: acef 47bd 16b1 2ebd 2f0d 9c3c 06fe 5a3d
00000040: d854 02be e8d4 c43d 10b6 2fbd 8c33 1bbc
00000050: 183a 823d 3a0d 8ebd 8170 6d3c d03e a1bc
00000060: 0639 c23d 0bce 173d 2396 5e3d 8c8d 09be
00000070: 6032 5c3d c379 993d 214b 503c 7159 4b3d
00000080: 0ede 2abb 3980 50bd 06cb 573d fbe4 373c
00000090: 2106 dd3d 97cf 0abc c943 373d 9737 fa3d
000000a0: 382c 2d3d a104 00bd 024c d6bd 0029 d33d
000000b0: 35a5 cabd f561 993d aeed 043e 09ab 793d
000000c0: 83e4 abbd 46ef 31bd acc1 49bd 1ff0 06bd
000000d0: fe53 953c 6ab0 3bbd 6b78 bd3b 8291 ecbc
000000e0: df9a 0f3d d4df 7fbc ba09 96bd 2ae9 a13d
000000f0: 504e 32bd f3ad 50bd 461d a93d 3c8f b7bd
00000100: 045f 9d3c 6a40 f13d 142c 413d 13a4 9f3d
00000110: 9505 163d 6629 34bd 2165 ab3c 6950 ec3c
00000120: 4d1d cdbd dc1d 1b3d 8cfb 983d f061 0bbd
00000130: 40f6 8cbd c578 aebd 8d94 d7bd 6bef b7bc
00000140: 3a1f 04bd 353a 393d 598d 3a3d feb1 fcbd
00000150: 9c91 bc3d efac 2dbd 0ee5 02bd 1e0d 4d3d
00000160: 54c5 af3d fbab 153d d583 b53d 4476 a2bb
00000170: 86f7 c33d ba98 b6bd 7f4d 38bd 692a d9bd
00000180: 0cac bfbd 6c93 8ebd 08f4 bc3d 7dad 08bd
00000190: e0e1 d6bd 1050 e139 1bd5 a83c 2934 b73d
000001a0: 5b71 c5bd 4188 5bbd 70e3 a1bd 6dce 293d
000001b0: 8a97 45bd 04a4 7a3c 1a02 d8bd 3751 dabd
000001c0: f846 98bd f853 54bd 64c5 2ebd 3a12 d03d
000001d0: bc5a a73c 71f4 b63d 6f9a 883d df1c 573b
000001e0: 0fb4 fabc bf01 da3d 16f1 a6bc 8f06 e83c
000001f0: 6ce3 963d a1be 34bc 5e59 a7bd 0915 4abd
00000200: 26fb c6bb e6dd 74bd 0e28 3c3d c1ca 913d
00000210: 1e19 8abd a1f5 c43d 506e 95bd e523 92bd
00000220: 1ff1 a93d cf2e 32bb 021a b7bd fffc 273d
00000230: c67a c5bd 1f42 d8bd c5e0 dd3b a267 923c
00000240: 4fc8 9ebd 808d b13d f628 c83d eff9 333d
00000250: bdb6 0d3d ff63 1b3d f613 893d 5b81 a1bd
00000260: f593 173e 7664 763d 5551 7a3c ffc3 dfbc
00000270: 1fe5 db3d 1d08 92bd 5fbc 3c3d 6216 0cbd
00000280: 24aa 893c 4e69 5e3d b103 a5bd 59aa 0cbd
00000290: 6773 a13c a015 4dbd 2996 9fbd 1c82 c0bd
000002a0: de9c 15bd 32e9 d0bd f09e 1fbc 7a7b 8d3d
000002b0: 0d6f 1b3d 1e42 1ebc c10a 90bc 9b3a 413d
000002c0: b333 1a3e e24e 373d 541e c9bd f54e 05bd
000002d0: d626 823c a2db f4bc daba 643d f618 d4bd
000002e0: 6533 31bd f308 18bd 664b 28bc dbcd b23d
000002f0: ab05 bd3d 86e6 bfbd eff6 d53c 006b 5bbd
00000300: fa77 da3d 1f6e c03a dda7 77bd 307d a1bd
00000310: 6c91 933c 83a2 b2bb 5950 5b3d 43ca d13d
00000320: 1576 cb3d 8bb7 c3bd 53bc 283d 25bf 3ebd
00000330: 60f5 a4bd 965e 57bb 09c8 8ebd c336 b93d
00000340: 2b5c 7cbd 6168 063d 39dc 40bb c14c 5bbd
00000350: 8313 e93c af8d 1f3d 9e60 b23b bf04 573d
00000360: 02b3 a2bc b69c bcbd a3b5 8e39 c2cc c33d
00000370: e162 dabd e6df 0dbc 3938 d1bd e6ec d03d
00000380: e7e0 afbc 0390 e9bd 87d2 88bd cf5e bc3c
00000390: 7a1c 8f3d 4a31 e0bd 3c6f 453d 28b7 05be
000003a0: 3edb debc a470 55bd 9c4c e73b 23e6 a1bc
000003b0: 4ee7 713d da08 9f3d 6fa2 59bd f406 81bd
000003c0: f4b9 3f3d 6144 f6bd 7b7d 3d3d f8ec e3bd
000003d0: 94dd ac3b 5841 efbc c6ef 84bd dd5e 79bd
000003e0: 5301 fb3b 9ed7 3dbd 40cc 853d 9db5 633c
000003f0: 5b51 84bd 851b 54bd f60e b4bd 7278 1cbd
-0.039258268 0.041226618 -0.115359284 0.07307065 0.028646378 0.062888816 -0.026107298 0.07211791
0.12509432 -0.09806871 -0.03670729 0.06250444 -0.048812553 -0.04264935 0.019049255 0.053464912
-0.12727678 0.09610921 -0.042898238 -0.009472739 0.06358737 -0.069361165 0.014492155 -0.019683272
0.094835326 0.037061732 0.0543424 -0.13432902 0.05375898 0.07493927 0.012713225 0.049645845
-0.0026072296 -0.050903533 0.052683853 0.011224027 0.107921846 -0.008472345 0.04474238 0.12217634
0.0422785 -0.031254414 -0.10463716 0.103105545 -0.09894792 0.07489387 0.12981293 0.060954127
-0.083931945 -0.04344108 -0.049256966 -0.03294384 0.018228527 -0.04582254 0.005782177 -0.028877977
0.035059806 -0.01561733 -0.07326074 0.07905801 -0.043531716 -0.05094714 0.082575366 -0.08962867
0.019210346 0.11779864 0.047161177 0.077949665 0.036626417 -0.043984793 0.020922245 0.028846936
-0.10015354 0.037870273 0.07469854 -0.034028947 -0.06882906 -0.08519129 -0.10526381 -0.02245303
-0.032256342 0.045221526 0.045544956 -0.12338637 0.0920746 -0.04240125 -0.031956725 0.050061338
0.08582559 0.036540966 0.088630356 -0.004957946 0.09568696 -0.08915849 -0.04499578 -0.10603792
-0.09358987 -0.06961712 0.09226233 -0.033368576 -0.10492301 0.00042974995 0.02060943 0.08945496
-0.096407615 -0.05359674 -0.079047084 0.04145663 -0.048240222 0.015297893 -0.10547276 -0.10660022
-0.07435411 -0.05183789 -0.042668715 0.101597264 0.020429008 0.08933342 0.06670081 0.0032823605
-0.030603437 0.10644864 -0.02037863 0.02832344 0.07367596 -0.011031778 -0.08171342 -0.049336467
-0.0060724197 -0.05978193 0.045936637 0.0711875 -0.06743072 0.096171625 -0.07296431 -0.071357526
0.08297943 -0.0027188545 -0.089405075 0.04101276 -0.09642558 -0.105594866 0.0067711794 0.017871682
-0.077530496 0.08669567 0.09773438 0.043939527 0.0345981 0.03793716 0.0669326 -0.07886001
0.14802535 0.0601544 0.01527818 -0.027315138 0.10737061 -0.07130454 0.046078082 -0.034201033
0.016804762 0.054299645 -0.08057345 -0.034342144 0.019708348 -0.05006945 -0.07792313 -0.093998164
-0.036526553 -0.102007285 -0.0097424835 0.06908317 0.037947703 -0.009659318 -0.017583253 0.04717503
0.15058784 0.044752963 -0.09820238 -0.032546002 0.015887659 -0.029889885 0.055842258 -0.103563234
-0.043261904 -0.03711791 -0.010271883 0.0873067 0.09229597 -0.09370141 0.026118724 -0.05356884
0.10667415 0.0014681256 -0.06046282 -0.07885206 0.018013678 -0.005451502 0.053543422 0.102436565
0.09934632 -0.095564924 0.041195225 -0.04656901 -0.08054614 -0.0032862774 -0.069717474 0.09043648
-0.061611336 0.032814387 -0.0029428138 -0.053539995 0.028451687 0.03895348 0.0054436466 0.05249476
-0.019860748 -0.09209578 0.0002721968 0.09560539 -0.10663391 -0.008659339 -0.10215802 0.10201435
-0.021469546 -0.11404421 -0.0668078 0.022994427 0.06987853 -0.10946901 0.048201784 -0.1305815
-0.027204152 -0.052109376 0.007058693 -0.019763058 0.05905848 0.0776536 -0.053133424 -0.06300154
0.046808198 -0.12024761 0.046262246 -0.111291826 0.0052754376 -0.029205963 -0.06491046 -0.060881484
0.00766007 -0.046348207 0.06533098 0.01389828 -0.0646083 -0.051784057 -0.08791916 -0.038200803

fc3.bias f4 [1297]
00000000: 6363 813d ea18 97bd d75b 4bbd 557f a83d
00000010: aee1 68bd a4c3 b53d 41ee 123c 28b6 583c
00000020: f9ad 70bd 43ed 6dbd c640 96bd a788 393c
00000030: 628c 843d 25be 11bd 893a 96bd eada d53d
00000040: ad33 50bc 87ae e23d 9cf4 21bd 70ac c0bd
00000050: 3d15 9c3d 56d0 863d 0d32 97ba ae07 b7bd
00000060: a6b1 44bd 6111 cabc 7b81 9c3d f6ec ad3d
00000070: 3d7b 723d 1df8 543d 1250 5dbd 1a1c 58bd
00000080: 56c0 8abc d5e6 373a 342b 86bd ba62 2a3d
00000090: afb8 3abd cf1f 81bd 9bfc 853d 1f96 66bd
000000a0: ddfc aebd 5b0c c43d 4a60 a2bc a552 4abd
000000b0: aadf adbd 6fc2 85bd 5fd1 853d a118 9fbd
000000c0: 2765 39bb 2030 06bd ac37 123d fc4b 6cbd
000000d0: 140c e63d aea2 a63d 911c 4dbd 6413 203d
000000e0: e227 ccbc 67fb e1bb 163f 0ebd 8676 b63d
000000f0: 30fd 8abd 501e 63bd e20e ad3c ad15 5c3d
00000100: 9e3b a2ba 068b 02bd 5f35 3e3d d575 d03d
00000110: 68c3 a93d 3d48 773d 6a76 6dbd 8d5d 9e3d
00000120: 3650 34bd 967f 07bd c665 afbd 598d 7f3d
00000130: 4a02 233c 1de3 f5bc 1c20 213d b332 76bc
00000140: e839 32bd b977 9fbd e73a 3bbd 0d05 cf3d
00000150: d477 43bd 2149 463d c21d 7b3b 11a3 6cbd
00000160: c819 48bc 9a79 9e39 b127 15bd d35e 67bd
00000170: 4df0 c43d acb4 01bc 2f39 1f3b cbde 45bd
00000180: d30d 18bb 7126 b3bd 5c5b 60bd b814 853d
00000190: 3479 97bd 7bc4 993d dfcf 68bb 5977 57bd
000001a0: 5316 06bd 415a 66bd 8030 c3bd 4553 bd3d
000001b0: 2942 1b3d 7553 393d 2420 0d3d 30e9 143c
000001c0: a122 193c 301b ebbc 6e94 87bd 9f7c 943d
000001d0: b24e b53d 49d3 a5bb 7839 903c 9c66 14bd
000001e0: 09a7 afbd dfcb 913b 5a42 8abd 0095 d63d
000001f0: 1940 563c 5c3f d03d dfc5 a0bd 2f57 223c
00000200: a58f bebd 7587 6d3d 06ce 39bc 33e8 a6bd
00000210: 3aad a33c f956 91bd 63ce 42bd 186d d23c
00000220: 3117 e33d 45ec 9cbd c0e3 cabd d01c 203d
00000230: 3cb8 d63d 4753 9f38 d3e9 9fbb be00 43bd
00000240: d57b e23d fd00 183d 37e3 c4bd c833 943d
00000250: 7d8d aa3d 27f7 1c3d 0ef0 adbc a084 053d
00000260: af47 bb3d e223 edbb fbd2 353d 66fb 593d
00000270: 1011 aabc 9944 0abd ee70 54bd 415b 363d
00000280: 0ddd 9ebd 1ef1 bc3c 128d 1f3d 0271 57bc
00000290: c44b d3bb c57d b0bd 2fe6 ba3d e3a1 8d3d
000002a0: 966a 713c 8539 8fbd 1c16 f9bb 63f0 31bd
000002b0: 170d 81bd 015f d43d 617a bcbd ee89 043d
000002c0: 9271 cdbc 72a5 a93d 33a4 b43d 09af f8bc
000002d0: 754c a7bd c7f3 db3d 3921 113d 835f d53c
000002e0: 1d42 e5bc da14 d03c d398 8cbd 61e1 cd3d
000002f0: 785e 4bbd 0f46 413d d2b2 20ba 3030 d33d
00000300: 67ad d1bd b1b7 68bd 6189 ed39 a3b3 b43a
00000310: da11 7e3c 5c53 85bd 4e4a 403d 2f34 d9bc
00000320: dc84 ef3d ac78 52bc d782 0b3d 3d40 10bd
00000330: 1b58 26bd de9d a83d 0822 adbd 9811 a1bd
00000340: cc1f 0cbc fb8c 073d 290a c53d 2793 99bd
00000350: 4a76 edbc f483 d43d 37c4 09bb 7733 c2bd
00000360: 24ec 143b 825c 6fbd 2ada eb3c 20ab bdbd
00000370: 27ba 1c3d c1bf 44bd 4b3f d23c a4cd a93d
00000380: 4558 d13d b912 bcbd 09e9 bc3d 9def a6bd
00000390: c6ca b2bd fb9a 313d 16f7 bf3d 8a4b f93d
000003a0: a4da 033d a8fb d739 5294 b3bd 91b3 35bc
000003b0: 738e c0bd 9a15 e63d 584f 183d 954c 00bc
000003c0: 3bd5 463d 1745 c6bd 4767 aa3d c8f4 863d
000003d0: 21c5 14bd 1765 563d 510b 3d3d 5089 3a3d
000003e0: 100b 1e3d 7e83 a13c 0815 e6bc c4ac c53d
000003f0: 00f0 d23c 7f74 92bd 8f46 563c 24c6 d73c
0.06317785 -0.07377799 -0.049648132 0.08227412 -0.05685585 0.08875206 0.008967937 0.013227023
-0.058759663 -0.0580876 -0.07336573 0.011324084 0.064720884 -0.035581727 -0.073353834 0.10442145
-0.012707633 0.11068445 -0.03953992 -0.0940789 0.076212384 0.06582706 -0.0011535302 -0.08937012
-0.04802098 -0.02466649 0.07641884 0.08492462 0.05919956 0.05199443 -0.05403144 -0.052761175
-0.016937416 0.00070152926 -0.06551209 0.04159806 -0.045586284 -0.06304895 0.06542321 -0.05629551
-0.085443236 0.09572669 -0.019821305 -0.049395222 -0.08489926 -0.06531226 0.06534075 -0.077683695
-0.0028289051 -0.03276074 0.035697624 -0.05768965 0.112327725 0.081364974 -0.05007607 0.039080992
-0.024921361 -0.0068964246 -0.034728132 0.08909325 -0.06786573 -0.05544883 0.02112526 0.05373161
-0.0012377386 -0.031870864 0.046437617 0.10178725 0.08289224 0.060371626 -0.057974257 0.07732687
-0.044021808 -0.03308066 -0.085643336 0.06239066 0.009949276 -0.030015523 0.039337263 -0.015026736
-0.043512255 -0.07786507 -0.04571047 0.10108385 -0.0477217 0.048409585 0.0038317298 -0.0577727
-0.012213178 0.0003022671 -0.036414806 -0.056486916 0.09616146 -0.007916611 0.0024295559 -0.048308175
-0.00232016 -0.087475665 -0.054774627 0.064980924 -0.073961645 0.07508179 -0.0035524291 -0.052604053
-0.032736134 -0.056238417 -0.09530735 0.09244398 0.037904892 0.045245606 0.03445448 0.009088799
0.009346635 -0.028699487 -0.066201076 0.07250332 0.088529006 -0.0050605875 0.017605528 -0.03623067
-0.08576781 0.004449352 -0.06750937 0.10477638 0.0130768055 0.10168335 -0.07850241 0.0099084815
-0.09304742 0.05799051 -0.011340624 -0.08149757 0.019980062 -0.07096667 -0.047560107 0.025686786
0.11088408 -0.07662252 -0.09906721 0.039089978 0.10484359 7.5972224e-05 -0.004880169 -0.04760813
0.11058775 0.037110317 -0.0961365 0.07236439 0.08327768 0.03832164 -0.021232631 0.032597184
0.09144532 -0.0072369436 0.04439066 0.053218268 -0.02076009 -0.033756826 -0.05186551 0.04452062
-0.07757006 0.023064192 0.038952895 -0.013149502 -0.006448241 -0.08617739 0.09125935 0.06915643
0.014734885 -0.06993393 -0.0076015126 -0.04344214 -0.06301325 0.10369683 -0.092030294 0.032358103
-0.025078569 0.08283509 0.08820381 -0.0303569 -0.0816888 0.10739856 0.035432074 0.02604652
-0.027985627 0.025400568 -0.068650864 0.10052753 -0.04965064 0.047185954 -0.0006130162 0.103119254
-0.10238152 -0.056815807 0.00045306518 0.0013786446 0.015507186 -0.0651004 0.046945862 -0.02651414
0.11695263 -0.012846153 0.034060325 -0.035217512 -0.040611368 0.08233236 -0.084537566 -0.07864684
-0.008552503 0.033093434 0.096210785 -0.0749877 -0.028987069 0.103767306 -0.0021021494 -0.094824724
0.0022723759 -0.05843783 0.028790552 -0.09261155 0.038263466 -0.048034433 0.025664946 0.08291176
0.10221914 -0.091832586 0.092241354 -0.08151171 -0.08730082 0.04336069 0.093733 0.12172611
0.032190934 0.00041195494 -0.08768524 -0.011090175 -0.0940217 0.11234589 0.037185043 -0.007830759
0.048543196 -0.096811466 0.0832048 0.06589657 -0.03632081 0.0523425 0.04615337 0.045541108
0.03858477 0.01971602 -0.0280862 0.09652093 0.025749207 -0.07151126 0.013078346 0.026339598
