models/1296_pixels/13.pt (torch, 771783 bytes, 10 tensors)

conv1.weight f4 [6, 1, 5, 5]
000000 e6 27 ad bd 16 ff ea bd 1c 42 ce be 40 5a dd 3d
       -0.08454876 -0.11474435 -0.40284812 0.108082294
000010 52 cc 0d be f5 a4 03 3f d3 b9 89 be 73 da c2 3c
       -0.13847473 0.5142358 -0.26899585 0.023785805
000020 ee 9a d9 be ec 13 84 3e ab 7a dd be b9 77 b7 be
       -0.42501014 0.2579645 -0.4325765 -0.3583353
000030 74 7e 0b be 0d 63 88 be a1 05 cd be 4a f9 20 3e
       -0.13622457 -0.2663807 -0.40043357 0.15720096
000040 7a fa d9 3e 61 c7 06 be 6b c5 69 be aa ec ca 3e
       0.4257391 -0.13161995 -0.22829215 0.39633685
000050 13 bb b0 3d f4 05 c2 bd a0 bb b2 bd 70 4c 86 3e
       0.086294316 -0.09473792 -0.08727193 0.26230192
000060 c0 58 9a be 8b d1 b7 be 0d 9a 6d 3e ea 75 20 bd
       -0.30145836 -0.35902056 0.23203297 -0.03917495
000070 b4 25 8f 3d 7d 17 8a 3e f7 fd da 3d e9 c5 ee be
       0.06989613 0.26971045 0.10692971 -0.46635368
000080 1c 10 0a bf df b0 06 bf a3 4c ca 3e 3a 64 94 3d
       -0.5393083 -0.52613634 0.39511594 0.07245679
000090 e7 73 c7 bd 6a 3e ac 3e 06 8c dd be 0d d0 64 be
       -0.097389035 0.33641368 -0.43270892 -0.2234499
0000a0 4c 99 7c 3e 5f 8b 82 3e 1a e1 ed be 0c 11 84 be
       0.24667853 0.25496957 -0.464608 -0.25794256
0000b0 56 e0 bc be c0 c0 b2 be 9a 76 c7 be b2 4a d4 bc
       -0.36889905 -0.34912682 -0.38957673 -0.025914524
0000c0 9d fb 98 bd ec 2b b0 be e4 c7 8d bd e9 2e 85 bd
       -0.074698664 -0.3440851 -0.06922892 -0.06503088
0000d0 fd 4b 4c 3e ef 22 57 3e 38 c2 90 3d 8a cc 25 bc
       0.19950862 0.2100942 0.07068294 -0.010119567
0000e0 5e ad 75 3d 8c 78 53 3e 88 59 5b bd f5 6c 7f 3d
       0.05997979 0.20651454 -0.05355218 0.06235977
0000f0 02 6d 6c 3e c0 19 8e 3c 91 10 3a 3e 92 6b 39 bc
       0.23088458 0.017346263 0.18170382 -0.011317151
000100 a2 98 1d 3e f3 c3 67 3e 21 04 3f 3e b4 83 18 3d
       0.15390256 0.22633342 0.18653919 0.037234977
000110 81 20 40 3e ce d9 59 3e 7b 22 0e 3e 69 36 49 3e
       0.187624 0.21274492 0.13880341 0.19649662
000120 01 dd b2 bc b1 28 6e 3e 0c e8 5a 3e 53 24 af 3d
       -0.021833898 0.2325771 0.21377581 0.0855185
000130 35 38 35 3e d7 a0 c9 be c5 ce c9 be 89 e7 70 3e
       0.17697223 -0.39380524 -0.39415565 0.23525824
000140 09 ec 4c be 4f b9 4a be 02 e0 e8 3e b3 2b 9b be
       -0.20011915 -0.19797252 0.45483404 -0.30306777
000150 ae 5d ea 3e 76 00 0f bd 6c 1c 76 3d c7 74 fe 3e
       0.45774597 -0.03491255 0.0600857 0.4969847
000160 f7 f2 8a be cf 85 20 bd f0 0e a6 bd 10 02 b1 be
       -0.27138492 -0.03919011 -0.08108318 -0.34571886
000170 3c c1 31 be c6 01 29 be 1d 2b 8d be 70 69 88 be
       -0.1735887 -0.16504583 -0.27571955 -0.26642942
000180 5d 62 7a 3e 6a ab 98 be da fa 99 3e fc 9f 8c be
       0.24451585 -0.2981828 0.30074197 -0.27465808
000190 56 19 90 3e 18 05 ac 3e 78 be 21 be a1 9d ec bd
       0.2814433 0.33597636 -0.15795314 -0.11553503
0001a0 13 b3 f2 3c 4a 64 50 bd 93 0b 65 be cf 4e 51 be
       0.029626405 -0.050876893 -0.22367696 -0.2044022
0001b0 64 b1 f6 bd 66 2b 09 3e fb f9 46 3e e9 2c 98 3d
       -0.12045553 0.13395461 0.19431297 0.07430441
0001c0 39 68 c3 be a6 6e 85 3e aa 27 da be d8 94 c8 be
       -0.38165453 0.2606098 -0.42608386 -0.3917606
0001d0 e4 c9 b1 be 60 27 db be 82 ab 8b 3e 71 4b 6f 3e
       -0.34724343 -0.42803478 0.27279288 0.23368622
0001e0 bb 84 0a 3e 0b 09 a1 3e 96 6e 95 3d 1d 6c 68 3e
       0.13527195 0.31452212 0.07296483 0.22697492
0001f0 05 69 69 3e 14 ab ce bc 04 62 5d 3d 8e c2 d0 3d
       0.22793968 -0.02522806 0.054048553 0.10193358
000200 c2 32 e7 3d d0 a0 39 3e 69 3c 0f 3d 11 fa 32 3e
       0.11288978 0.18127751 0.03496972 0.17478205
000210 87 39 5f 3d 8b 85 ce 3d dc 09 3c 3e 20 d3 4b 3e
       0.05449822 0.10084065 0.18363136 0.19904757
000220 3d f9 77 3d b6 1d ee 3c 68 05 67 bd 88 92 bc bc
       0.060540427 0.029066902 -0.05640164 -0.02301909
000230 97 49 1a 3e 0b 62 2f 3e 78 5c 5f 3e 9f 6b 9e bd
       0.15067135 0.17127244 0.21812618 -0.07735371
000240 4b 13 29 3e d0 27 72 3e 2c a1 73 3e a7 24 6f 3d
       0.16511266 0.23648 0.23791951 0.058384564
000250 90 5c 32 3d 7c 36 1d bd
       0.043545306 -0.03838204

conv1.bias f4 [6]
000000 0d 33 72 3f 24 6e b6 3f 4f 92 74 be d3 4e 3e 3f
       0.9460915 1.4252362 -0.23883937 0.74339026
000010 ef 02 84 3a 96 d9 56 be
       0.0010071675 -0.2098144

conv2.weight f4 [16, 6, 5, 5]
000000 5b 32 c3 3c f9 43 2c 3e c7 88 0e 3d 3c 1c 2b 3d
       0.023827722 0.16822805 0.03479841 0.041774973
000010 37 a0 ba 3d b3 e6 36 3e 53 73 be 3b 04 4f 19 3e
       0.0911259 0.17861442 0.0058120876 0.14971548
000020 74 9a 8c 3c 74 a0 41 3e 3c bd 2a 3e 9e 58 68 3d
       0.017163493 0.18908864 0.1667375 0.056725137
000030 ff 75 0e 3e 2b 84 a3 3d 44 53 17 3e 36 a1 26 3e
       0.139122 0.079841934 0.14777857 0.16272435
000040 79 06 59 3d 41 0e 31 3e 08 ad c5 3c 2c 5c 10 3e
       0.05298469 0.17290594 0.02413036 0.14097661
000050 48 d1 13 3e 0e 56 22 3e dc bc f8 3d 1f 10 32 3d
       0.14435303 0.1585314 0.12145397 0.043472406
000060 47 9f 16 3d 1f 64 35 3e 71 b6 46 3e fd 21 1e 3e
       0.036772992 0.17713974 0.19405533 0.15442653
000070 4c 34 e0 3d eb 4b 97 3d fe 4f a1 3d a6 b4 56 3d
       0.10947475 0.07387527 0.078765854 0.052418374
000080 51 f7 9a 3d 96 1b be 3d 38 a3 aa 3d 85 87 0f 3e
       0.07566703 0.09282605 0.08331913 0.1401654
000090 78 54 43 3e 52 e8 63 3e 02 b1 18 3e 21 b3 23 3e
       0.19075191 0.22256592 0.14911273 0.15986301
0000a0 91 1f 55 3e 11 2a d3 3d e3 bd 70 3d 4d 59 80 3d
       0.20812823 0.10310758 0.05877484 0.06267033
0000b0 f9 f9 6f 3e 42 93 f7 3d 17 d4 48 3e 77 0f 5c 3e
       0.23435201 0.12088634 0.19612156 0.21490274
0000c0 d8 ae 4b 3e 1e 72 52 3e 54 6f b9 bd 6e ea bd bd
       0.19890916 0.20551345 -0.09054437 -0.092732295
0000d0 30 ba 9b bc 97 11 70 bc 0f 74 ad bd 12 25 b4 3c
       -0.01900968 -0.014652631 -0.08469402 0.021990333
0000e0 a9 c9 9c 3d 4f de 8c bd c7 44 bd bd ae f2 99 3d
       0.07655651 -0.068783395 -0.09241634 0.075169906
0000f0 c4 df e9 bc 8e 38 de 3c 87 0d b9 3d c0 bc 07 3c
       -0.028549083 0.027126577 0.09035783 0.008284748
000100 2a 12 83 3d 7f 8d ae 3c f7 e8 1a 3d 7d f3 7c bd
       0.06399949 0.021307705 0.03781983 -0.061755646
000110 41 cd e6 bc 61 e7 ec bc c3 bc 8f bd 29 05 4c 3d
       -0.028174045 -0.028918924 -0.07018425 0.04980961
000120 ae 53 8e bd 00 bd 32 3d e4 55 26 bd 38 31 49 3c
       -0.069495544 0.043637276 -0.040609255 0.012279801
000130 4f d5 30 3e 5e 19 68 bb db a7 ec 3d 58 04 1a 3e
       0.17268871 -0.003541551 0.115554534 0.1504072
000140 84 9a 05 3e eb c3 20 3e 82 3d 16 3e 0a 97 1b 3e
       0.13047224 0.15699737 0.14671901 0.15194336
000150 ba 49 01 3e 1d 41 18 3e 29 b8 42 3d 4d e6 1e 3e
       0.1262578 0.14868589 0.04753891 0.1551754
000160 e0 dd cd 3d 36 2f 9d 3d f7 29 34 3e 8e 79 a0 3d
       0.10052085 0.076750204 0.17594133 0.07835685
000170 98 0f 24 3e d3 6a d7 3d 94 e1 03 3e 1e c2 da 3d
       0.16021574 0.10518422 0.1287902 0.10681556
000180 b3 d8 2e 3e be 42 20 3e e7 db 88 3d af 54 94 3d
       0.17074852 0.1565046 0.06682568 0.072427146
000190 5d 22 dc 3d 83 a5 da 3d 59 88 e7 3d 09 c8 c0 3d
       0.10748742 0.106761 0.11305303 0.09413154
0001a0 41 88 1a 3e e4 c8 28 3e 65 5c fb bb f4 e9 49 3d
       0.15091039 0.16482884 -0.0076709264 0.04929538
0001b0 b8 31 62 3d 21 3d f6 3d d9 90 90 3d 65 3e 0f 3b
       0.055223197 0.12023378 0.070588775 0.0021857258
0001c0 3d 5f 03 3e bb f1 bb 3d 4f 6f ed 3d 1d 77 4e bb
       0.128293 0.09176966 0.11593496 -0.0031504103
0001d0 fc 32 20 3d ed 9a 08 3e 5e 8e 14 3c ca c0 b8 3d
       0.039111122 0.1334035 0.009067146 0.090211466
0001e0 03 a2 40 bc 87 90 34 3d 86 cc c8 3d 71 b9 cb 3d
       -0.011757377 0.044083145 0.09804635 0.099474795
0001f0 c8 69 81 3c 50 92 a1 bd a8 9f 05 3d b8 a7 9c 3c
       0.01579751 -0.07889235 0.032622963 0.019122943
000200 8e 30 80 3d 69 f5 b0 bd ad 55 87 bc 2f 45 43 bd
       0.06259261 -0.08640558 -0.016520346 -0.0476734
000210 b8 57 d1 3d aa 42 a7 3c 8f de 76 3c b0 9e 24 3c
       0.10221809 0.02041753 0.015067711 0.0100476
000220 18 2b 90 bc 51 58 26 3d e7 49 b7 bc 48 d7 d2 3d
       -0.017598674 0.04061157 -0.022374107 0.10294968
000230 24 96 c9 3d 09 53 53 3d 3c 7b b1 bd 0c 16 62 b9
       0.0984309 0.05159286 -0.08666083 -0.00021561253
000240 46 be 39 bc f0 ba 92 3d 56 f0 ab bd 49 36 31 bc
       -0.011336869 0.07164562 -0.0839545 -0.010816165
000250 8a 97 52 bd cf 9d 8d 3d 5e d0 29 3d 30 0a d4 3b
       -0.05141405 0.06914865 0.04145848 0.006470941
000260 f8 eb ed bc 5f c1 b7 3d 26 02 b1 3d b5 1b b2 3d
       -0.029043183 0.089724295 0.08642988 0.08696691
000270 4e b3 74 3d 29 98 a2 3c b3 33 f3 bc d6 46 12 3d
       0.05974131 0.019847946 -0.029687738 0.035712086
000280 b1 bc b6 bb 52 54 e4 bc b1 d7 8a bd f5 58 f5 3c
       -0.005576693 -0.027872238 -0.06779421 0.029949645
000290 2b 7a 70 3c 64 fc 62 bc 1a 14 a1 3d 90 c1 4a 3d
       0.014677565 -0.01385412 0.07865162 0.049501
0002a0 65 55 08 bd 48 ad 13 bb ae 0d 87 bd dd 91 04 bd
       -0.033284564 -0.0022533704 -0.06594406 -0.03236567
0002b0 34 6a 71 bd ea f6 b5 3c 01 17 78 3d 59 e8 51 bd
       -0.058939174 0.022212464 0.060568813 -0.051246975
0002c0 01 21 12 3c 7e 7e 2d bd d2 a2 45 3d 76 a7 90 bc
       0.008919002 -0.04235696 0.04825098 -0.017657977
0002d0 2c 73 84 bb c8 b1 b1 bb 58 ef d0 bc de 03 83 3c
       -0.00404205 -0.0054228045 -0.025504753 0.015993055
0002e0 56 df 8d bd a8 53 98 3b 7f bd cc bc a4 21 3c 3d
       -0.069273636 0.0046486445 -0.024992703 0.04593052
0002f0 1a 8b bf 3d 4f b6 9f 3a 3d f0 d7 3c 88 06 27 bd
       0.093527034 0.001218507 0.026359672 -0.040777713
000300 01 39 e3 bb 90 2a 9c bb f9 09 70 bd 4b f6 9e 3d
       -0.0069342856 -0.004765816 -0.05860326 0.077618204
000310 d3 fc 11 b9 eb 17 6c bd 6d f6 00 bd f0 61 a6 3d
       -0.00013922462 -0.057639997 -0.03148501 0.08124149
000320 14 63 16 3c 50 2c 8c 3c b3 49 a9 3c cc 89 ed bb
       0.0091788955 0.017110974 0.020665025 -0.0072490927
000330 fe f8 7d bd cf 3f 85 bd 33 f9 a7 bd 6c 2a 15 bd
       -0.062005036 -0.06506311 -0.08201828 -0.03641741
000340 41 27 8d bd 00 4e 44 bd e8 1d 92 bd d0 b5 34 bc
       -0.06892253 -0.04792595 -0.071346104 -0.011029676
000350 ba 19 0f bd c5 34 9e 3d 3c 17 de bc 13 43 51 bb
       -0.034936644 0.07724909 -0.027110688 -0.0031930848
000360 0c ad 82 3d 8e 57 fe 3c 38 e5 0b 3c c5 c2 85 3c
       0.06380662 0.031047609 0.008538537 0.016328225
000370 65 19 d9 3c 42 a0 db 3c b5 70 83 bc 1d 1f 28 3d
       0.026501367 0.026809815 -0.016044954 0.041045297
000380 81 4b 6f 3d dd ae be 3d 5b 76 4d 3d 99 ec 7c bd
       0.058421616 0.09310696 0.0501617 -0.061749075
000390 50 af 0b 3d 23 8f 9f 3d a5 81 67 3d b2 df 94 3d
       0.034102738 0.07790973 0.056520123 0.07269229
0003a0 8c 1a 21 bd 44 01 89 bd dc 2b 33 3d bc 9f 3f 3c
       -0.039331958 -0.066896945 0.043743 0.0116957985
0003b0 3f 4c f1 bc 82 81 20 bd d6 04 18 3d 51 4c f2 bc
       -0.029455302 -0.03918601 0.037113987 -0.029577406
0003c0 d2 d5 56 3d 09 a6 a2 3d f4 f0 a8 3d 87 80 83 bd
       0.05245001 0.07941825 0.08249083 -0.06420999
0003d0 a3 b6 87 bd 54 8e 9a 3d ad 65 68 3a d6 8f 10 3d
       -0.06626632 0.07546678 0.00088652485 0.035293423
0003e0 cf e0 83 bd 17 ab 49 bd 43 b3 82 3d 9c b0 fe 3c
       -0.06439363 -0.04923543 0.06381848 0.031090073
0003f0 f8 13 52 bd 25 d7 50 3d 92 ea 81 3c d4 98 d7 bc
       -0.051288575 0.050986428 0.015858922 -0.026317991

conv2.bias f4 [16]
000000 fe 28 0f 3e 3a e6 d7 bc fd 45 b4 3d a7 c5 0e ba
       0.13980481 -0.026354898 0.08802412 -0.00054463226
000010 4d 20 31 be b5 62 e5 3d 3f ab 86 bd 0e 1a 9a 3d
       -0.17297478 0.112004675 -0.06575631 0.07524501
000020 39 d5 22 bd 77 fb 58 3d 1c ee a6 3c f4 28 b8 3d
       -0.039754126 0.05297419 0.020377211 0.08992186
000030 95 59 b9 3b df a0 d4 bd fd 92 47 bd 2e 64 01 bd
       0.005656431 -0.10382246 -0.048724163 -0.03158968

fc1.weight f4 [120, 576]
000000 5c 5e 32 bb fc 5e 0e bc c2 e4 09 bc ac 2e 2c ba
       -0.0027216887 -0.008689638 -0.0084163565 -0.0006568234
000010 f9 87 b1 3c f6 86 cb bc 26 7a bb bc fe 7c 2d bc
       0.021671282 -0.024844628 -0.022885393 -0.0105888825
000020 e8 c1 fe 3b 0a 9a a9 3b 34 64 67 bc eb 11 bf bc
       0.0077745803 0.0051758336 -0.014123011 -0.023323974
000030 77 96 58 3c 5f 3c e9 bb 96 a3 80 3c cc 59 e1 3c
       0.013219467 -0.0071177925 0.015703004 0.027508639
000040 e5 bd 65 bb 56 ea 1d bd e7 6b 94 bc 64 ea c1 bc
       -0.0035055813 -0.03855356 -0.018117858 -0.023671336
000050 3a 4d 19 3d 84 81 3c 3c 92 61 78 bc 83 60 1b bd
       0.037427165 0.011505488 -0.015159981 -0.037933838
000060 65 14 75 3a e7 33 a2 bb 5a ab 27 bd 65 58 36 3c
       0.00093490473 -0.004950035 -0.040934898 0.011129473
000070 2f d1 fe bc 69 7a 15 bc fd a1 00 3d 64 ee cb 3c
       -0.031105606 -0.009123423 0.031404484 0.024893947
000080 6c 54 23 3d 26 9c 26 bd 89 5e 57 bc 4d c7 25 bd
       0.039875433 -0.04067626 -0.0131450975 -0.04047327
000090 43 e8 af 3c 3b 9f 9c 3c a1 f4 24 3d f0 62 0c 3d
       0.021473056 0.019118896 0.04027236 0.03427404
0000a0 4a 2d 1a bd 0b e5 e2 3c 01 9c 00 3c 65 c9 0c bd
       -0.037640847 0.027697107 0.007849694 -0.034371752
0000b0 7f 19 28 3d cc e1 ee bc 50 0a d5 bb 70 29 07 3d
       0.04103994 -0.029160403 -0.0065014735 0.032998502
0000c0 24 b9 c0 3c 17 08 27 bc 13 22 fd bc 04 11 b4 3c
       0.023525782 -0.0101948 -0.030900037 0.02198077
0000d0 65 43 ba bc 24 cb 1c 3c c1 3a a4 3c dd 83 42 bc
       -0.022737214 0.009569917 0.020047547 -0.011872259
0000e0 c3 ef d3 bc e2 fd 06 3c 78 16 79 3c c3 53 12 3d
       -0.025871163 0.008239241 0.015203111 0.035724413
0000f0 d1 77 0b 3b 9e 42 77 3c c1 97 35 bc 42 12 25 3d
       0.0021281133 0.015091566 -0.011083544 0.040300615
000100 0d 60 ee bb 3b ec b4 3c 1e 54 9d 3c 8f d0 cc bc
       -0.0072746337 0.0220853 0.01920515 -0.025001792
000110 f0 04 1c bd ac ba 7f 3a 4f ee 40 3a 15 a6 14 3d
       -0.038090646 0.00097552943 0.00073597295 0.0362912
000120 c4 36 cd 3c cf 4c b2 3c e5 0d 74 bc f5 ee 25 3d
       0.025050528 0.02176514 -0.014895891 0.04051109
000130 8d 51 40 3c 8d 9e bb 3a 3a 51 88 3c 2c 9e 81 3a
       0.011738193 0.001431422 0.016640294 0.0009889058
000140 03 b1 c9 3c 82 97 12 3a 0d 1e f2 3c d1 06 f6 bc
       0.024620539 0.00055920344 0.029555345 -0.030032547
000150 f1 bb 12 bd ee bc 1a bd 6b 8a 1a 3d 6f da 66 bc
       -0.035823766 -0.037777834 0.037729662 -0.014090165
000160 88 0b 95 3c 4c 23 c7 3c 56 ee 53 3c 3f 35 19 bd
       0.018193975 0.024308823 0.012935242 -0.037404295
000170 ed 9e 35 3c ef ed d8 bb 69 10 db bc 13 b8 0e 3d
       0.011085254 -0.006620161 -0.026741223 0.034843516
000180 38 56 1f bd 2c d1 0c b8 0a f9 d5 3c a4 f8 b5 3c
       -0.038900584 -3.3573408e-05 0.026119728 0.022213288
000190 65 87 9d 3c 64 51 fc bc 9d 97 18 bc 37 a4 6c 3c
       0.0192296 -0.030800529 -0.009313491 0.014443449
0001a0 ea 8c 11 3d dc cc 5d 3c cc 30 06 bd d6 5d f5 3c
       0.035534777 0.013537612 -0.03276138 0.029951971
0001b0 18 df d9 3c 56 bd e1 39 20 cb 7b bc c3 a3 83 bc
       0.026595637 0.0004305641 -0.015368253 -0.016069299
0001c0 36 cd 98 3c 40 9d c5 bb 80 88 14 bb 4e ef e1 3c
       0.01865254 -0.0060307086 -0.0022664368 0.02757993
0001d0 80 50 6b 3c 03 98 d9 3c 0b 5b 3a bc c0 c0 a8 bc
       0.014362454 0.026561743 -0.011374245 -0.020599723
0001e0 ae 67 8e bc c0 d2 c7 bc 6b 8b bb 3b 03 5f ce 3c
       -0.017383423 -0.024392486 0.005723407 0.02519179
0001f0 d6 3a 23 3b 8e d5 86 3c 2b 05 78 bb 34 1f 00 bd
       0.0024906895 0.016459253 -0.0037844877 -0.031279758
000200 00 21 ed 3b 7b bf 7b 3c 50 41 be 3c e6 bc 4c bc
       0.0072366 0.015365477 0.023224503 -0.012496209
000210 40 30 9f 3c 00 7a 14 ba 2b e5 d4 bb 46 91 ec 3c
       0.019432187 -0.00056639314 -0.0064970455 0.028877866
000220 d6 30 39 bc 43 29 e7 3c c0 73 71 bb c8 46 c6 bc
       -0.011303147 0.028217917 -0.0036842674 -0.024203673
000230 06 28 b5 3c 38 52 dd bc e0 56 bf 3b ee f6 bb bc
       0.022113811 -0.027016744 0.0058392137 -0.022944894
000240 43 97 28 3c 5f 37 95 3b 7b f2 5e 3b 19 a5 2a bd
       0.01028997 0.00455372 0.0034019041 -0.041661356
000250 3a a3 a9 3c e1 ce 1a 3b 63 ff ef bc 6f 8f 64 3c
       0.020707715 0.0023621845 -0.029296583 0.013950213
000260 3d d6 09 3d 8c bc a5 bc dd 8c 8c 3a 4d 85 0c 3d
       0.03365158 -0.020231508 0.0010723133 0.034306813
000270 92 63 bf 3a 4e 77 a7 bc 66 db 01 bb b7 c2 5a ba
       0.0014601818 -0.020442631 -0.001981461 -0.0008345055
000280 78 75 f3 bc 59 ee ca 3c 4f 12 c4 bc 9b ff 1f bd
       -0.0297191 0.024771856 -0.023934511 -0.039062124
000290 14 4c 60 3b bf e2 b8 3c ce c3 28 bd 40 c6 50 bb
       0.0034225034 0.022569058 -0.04120236 -0.0031856447
0002a0 0d 30 02 3d e7 15 37 bc aa 87 55 3b f8 4a fe 3b
       0.031784106 -0.0111746555 0.0032582083 0.007760402
0002b0 3a 2a f5 bc c1 09 1f bd 26 4c e3 3c 59 e2 77 bb
       -0.029927362 -0.03882766 0.027746271 -0.0037824123
0002c0 5c f6 cf 3b b6 a6 e2 bc d3 88 98 bb df 11 73 3c
       0.006346507 -0.027667385 -0.0046549826 0.014835804
0002d0 b4 bc 92 3c f1 9a 04 3d 38 b2 99 3b 5a ba 15 3c
       0.017912246 0.032374326 0.004690435 0.009138668
0002e0 2d 7c ae bb 68 cc 07 bd 30 2c 8d bc 7f 18 19 3d
       -0.0053248615 -0.03315392 -0.017232984 0.037376877
0002f0 51 29 eb bc 26 22 eb 3c 05 a8 0d bd d9 50 9a 3a
       -0.028706225 0.028702807 -0.034584064 0.0011773362
000300 08 95 ce bc a1 2c 16 3d 38 6d f2 3c 1a 3d 34 3b
       -0.025217548 0.036663655 0.029593095 0.002750224
000310 98 57 49 3b 02 be 89 3c bd 62 6c bc 95 61 ea bc
       0.0030722376 0.016814236 -0.014427838 -0.028610984
000320 c7 d8 27 bd 7f 7f d3 3c 0b 09 bd 3c 21 bd c2 3c
       -0.04097822 0.02581763 0.023075601 0.023771824
000330 87 ca d6 bc b1 1f 65 ba 7c 91 5f bc 05 13 1e bd
       -0.02621962 -0.0008740379 -0.013645526 -0.038592357
000340 60 53 1c bc 48 e5 e9 bc 5f 9e 15 3c 0e 90 11 bc
       -0.0095413625 -0.028551713 0.009131997 -0.008884443
000350 4e 9a 58 bc 9a 9f 9f bc b3 38 a7 3c c8 bd 0b 3d
       -0.013220383 -0.019485284 0.020412778 0.034116536
000360 9e 93 0a 3d 8e cd d5 3c 1b d1 8d 3c 5b cb 02 bd
       0.033832185 0.026098993 0.017311623 -0.031932216
000370 76 32 a9 bc e0 c4 e0 bc fb 17 1d 3c d6 69 91 bb
       -0.020653944 -0.027437627 0.009588237 -0.0044376655
000380 04 61 23 3d 36 1a 97 3c 1b 9d d5 3c 78 b3 83 bc
       0.039887443 0.018445116 0.02607589 -0.016076788
000390 d6 f7 a5 bc 2e 19 f8 bc c6 8c c6 3c c0 e0 48 bc
       -0.020259779 -0.030285444 0.024237048 -0.012260616
0003a0 f6 83 1d 3d 00 25 a4 bc 4e 67 16 bd d3 c2 fd bc
       0.038455926 -0.020037174 -0.036719613 -0.030976688
0003b0 86 71 0e bd 56 b6 44 ba 73 90 fb 3c cf d5 0e bd
       -0.034776233 -0.0007503977 0.030708527 -0.034871873
0003c0 93 bb 89 bc 76 aa 84 bc 00 c2 86 3c 00 6a ce 3b
       -0.016813075 -0.016194563 0.016449928 0.0062992573
0003d0 53 19 f3 3c 6e f9 c9 3c ab f9 de 3c a6 6f 09 3d
       0.029675161 0.02465507 0.02721866 0.033553742
0003e0 c8 33 07 bd 2e d4 8b 3c cb f0 a1 bb 0e 0c e6 3c
       -0.033008367 0.017068949 -0.004942035 0.02808192
0003f0 d5 9e 21 3d 46 66 f1 3b 15 c9 e7 bc ac a6 43 bb
       0.039458115 0.0073669283 -0.028294126 -0.0029853983

fc1.bias f4 [120]
000000 b4 d5 cb bc 7b 93 a1 3c 40 34 16 bc 3a f4 21 3d
       -0.024882175 0.019723644 -0.009167731 0.039539553
000010 5b d4 f5 3b 21 c8 c1 3c e4 22 87 3c 0a 01 5a 3b
       0.0075021214 0.023655 0.01649613 0.003326478
000020 4e ef e0 bc 5d 11 6b 3c 07 3c e2 bb 76 9d f7 3c
       -0.02745786 0.014347401 -0.0069041285 0.03022645
000030 c2 fe 06 3d 00 82 d7 bc 55 88 46 3c 77 05 50 bb
       0.0329578 -0.026307106 0.012117465 -0.0031741539
000040 88 72 1a bd f4 d3 4e 3c 7b 62 75 bc 48 a6 b9 bb
       -0.03770688 0.012623776 -0.014977093 -0.005665574
000050 27 20 28 bd c3 1d 2b 3d a3 9e 73 bc fe ff 8f bc
       -0.041046288 0.04177643 -0.014869365 -0.017578121
000060 1b 36 c5 3a c4 2d 89 3c 41 52 a7 3c 26 d6 a0 3c
       0.0015046032 0.016745456 0.020424964 0.019633364
000070 d0 c5 f3 3c 39 e7 c1 3c 40 f3 a9 3c e2 5e 3d bc
       0.02975741 0.023669826 0.020745873 -0.011558266
000080 05 05 5a bc db ab d6 bc e3 24 05 bd 99 68 3a bd
       -0.013306861 -0.026204994 -0.03250588 -0.04550991
000090 1d a8 1e bd 20 fa 29 bd 14 16 ce 3c ca a4 2b 3d
       -0.038734544 -0.041498303 0.025157012 0.041905202
0000a0 9a 59 87 3a 27 10 d5 3c d4 e8 85 bc ec 2f 4b bc
       0.0010326386 0.026008679 -0.016346373 -0.012401562
0000b0 5a 3a 01 3c 07 56 87 bb ba bc 87 3c 0c 64 c6 bc
       0.007887447 -0.0041301283 0.016569484 -0.024217628
0000c0 d8 ca b3 bc d3 f9 09 3b f1 e6 4b 3d 0f 0c ba 3c
       -0.02194731 0.0021053448 0.04978079 0.022710828
0000d0 1a 47 f7 bc ec 87 26 3d 1a b5 42 3d 4b 8f 49 bd
       -0.030185271 0.04065697 0.047535993 -0.04920892
0000e0 44 e1 82 3c 7b 94 c8 3c c2 44 11 3d 9d c0 c0 3c
       0.015976556 0.024484864 0.035465963 0.023529345
0000f0 02 61 01 bd 64 28 09 3c 8c 99 61 3b 59 ec 83 3b
       -0.031586654 0.008371446 0.0034423796 0.0040259776
000100 3e 90 e5 3b de bd d8 bc 20 6b 05 3d 9d db 04 3d
       0.0070057204 -0.026457723 0.032572865 0.032436002
000110 34 e9 20 bd b1 79 a1 3c 18 ec 58 bc 96 07 17 ba
       -0.0392849 0.019711347 -0.013239883 -0.0005761323
000120 be 03 05 bb 16 6f 01 bd 54 1f b9 3b b9 cd 3a bc
       -0.002029642 -0.03160008 0.0056494866 -0.011401587
000130 3a a2 10 bd cb 49 ec ba 1d dc 62 3d d3 e1 32 bc
       -0.03531096 -0.0018027363 0.055385698 -0.0109180985
000140 1c b6 30 bb 7e 88 c2 3c fb 42 90 bc 4f 71 15 bd
       -0.0026964014 0.023746725 -0.017610064 -0.036485013
000150 8d 14 14 bd 55 af c8 bc a8 d3 e7 bc d7 1e 28 bd
       -0.03615241 -0.024497667 -0.028299168 -0.041045036
000160 ae 60 41 bd da 94 8a 3b 45 0f 25 3d fd 21 fe 3c
       -0.04721134 0.0042291703 0.040297765 0.031022066
000170 e1 7d 07 bd 78 0f f4 3c 41 37 0d 3d b8 78 af bb
       -0.03307903 0.029792532 0.034476522 -0.005354967
000180 fe 63 3e bd 6d 51 b5 ba 9f f3 21 bd 81 cb 39 3c
       -0.04648208 -0.0013833471 -0.039538976 0.011340023
000190 0b 7e 48 3d 64 01 f1 bc 82 ef dd bc 73 c8 87 bb
       0.04894833 -0.029419608 -0.027091745 -0.0041437685
0001a0 08 01 b8 3b b2 d8 8a bc d7 aa 64 bd 86 b9 ed bb
       0.0056153573 -0.016949032 -0.055826988 -0.007254782
0001b0 e2 a1 ae 3c 79 ea 8c 3d 21 54 40 bc 35 96 40 bd
       0.021317426 0.068806596 -0.011738808 -0.04701825
0001c0 ef 4c c7 3c dc bb 13 bc af c5 f9 3c ac e3 0b bd
       0.024328677 -0.009016957 0.03048977 -0.03415267
0001d0 90 01 1d 3b 9d ea 69 bc 57 06 be bc 88 8c 59 3c
       0.002395723 -0.014277128 -0.023196382 0.013278134

fc2.weight f4 [84, 120]
000000 44 41 2f 3d 3d f5 8d bd 7d a1 3b bc 1c 7f 64 bd
       0.04278685 -0.06931541 -0.011452076 -0.055785283
000010 86 ab 63 bc f7 36 a2 3d 86 e2 05 3d bd 98 04 bd
       -0.013895875 0.0792064 0.032686733 -0.032372225
000020 fc 5a 52 bc cd af 62 bd c2 97 b9 3d 45 0a cb ba
       -0.012839075 -0.055343438 0.09062149 -0.0015490731
000030 ef f3 bc bc 0a 74 8d 3c 25 b9 8a 3d 02 3e 42 bd
       -0.023065535 0.017267246 0.06773595 -0.047422417
000040 ef a1 15 bd 20 d7 6d 3d 97 c8 ae bd 87 0c dd bc
       -0.036531385 0.058066487 -0.08534353 -0.026983513
000050 21 84 7b bd 03 ae ab bd 69 36 62 3c 09 0c 83 3d
       -0.061405305 -0.083827995 0.013806918 0.0639878
000060 47 d2 51 3d cd 54 f9 3c 6c 9f 36 bd 96 f2 5f bd
       0.051225927 0.030435944 -0.04458563 -0.054674707
000070 03 3e 8a bc 7f 2f 20 3d 4f 30 21 bd d9 80 a4 3d
       -0.016875273 0.039107796 -0.03935271 0.08032388
000080 76 7b fc bc f5 d1 82 3d b3 15 f6 bc bb 7b 87 3d
       -0.03082059 0.063877024 -0.030039644 0.066153966
000090 cc cf 90 bd 88 fb db 3c 68 b1 a4 3d 25 e8 a4 bd
       -0.07070884 0.026853338 0.0804165 -0.080520906
0000a0 7c 22 46 bd 0c f6 e7 3c 3f 89 56 bd 56 07 9e 3d
       -0.04837273 0.028315566 -0.05237698 0.07716243
0000b0 c2 58 58 bd d5 6d 46 3d 5e 6b a6 bd 89 25 b7 bb
       -0.05281902 0.048444588 -0.081259474 -0.0055891913
0000c0 27 46 25 3d 9a 14 43 bd 66 c3 82 bc d2 99 a3 bd
       0.040350106 -0.04762707 -0.015962314 -0.07988323
0000d0 41 12 af bd d0 20 a9 bd 2a ae 33 3c ac 46 29 3d
       -0.085484035 -0.082582116 0.010966817 0.041327164
0000e0 23 70 92 bc e9 2a 27 3d 1d ae 87 3d f6 c0 a0 3d
       -0.017875737 0.040812407 0.06625006 0.078493044
0000f0 8f a5 ba bd 10 8d aa 3c 4a 8e 5d 3d 1e e5 4f 3c
       -0.09113609 0.020819217 0.054090776 0.012688903
000100 dc 3a 80 bd 42 fd d9 3b 61 71 d4 bb 30 47 cb 3c
       -0.062612265 0.006652505 -0.0064832424 0.024814218
000110 7c 88 a5 3d 84 1c af bd ba 52 90 3d 53 73 b5 3c
       0.08082673 -0.08550361 0.07047029 0.022149717
000120 c8 98 47 3b e4 60 9b bc 31 db 37 bd 36 ab f0 3c
       0.0030456055 -0.0189671 -0.04488677 0.029378515
000130 60 c6 e1 3c 71 c6 d6 3c ff 5f 9c bb c8 59 e2 bc
       0.027560413 0.026217671 -0.004772186 -0.027630702
000140 eb 9e 37 3c 63 4a ae bd ca cc bc bc 36 41 a1 bd
       0.011207323 -0.08510282 -0.02304687 -0.07873766
000150 47 d9 a6 3d 78 8d 88 bd 49 69 8a 3d aa 03 b6 bd
       0.08146911 -0.06667608 0.06758363 -0.088874176
000160 2c 18 44 3c 3b eb f2 3c 29 27 09 3c 7a 5e 63 bd
       0.011968654 0.029653182 0.008371153 -0.05551002
000170 7a 30 9f bd fa ae 43 3d c2 ca 10 3c cf 2b 95 3d
       -0.07772918 0.047774293 0.008837404 0.072837465
000180 d7 e1 4a bd 92 8a 60 bc a4 8f 1b 3d 54 da 34 bd
       -0.049531784 -0.013704913 0.037978783 -0.044153526
000190 93 d7 a8 bd 3a 40 69 3d 20 bb b7 3d 74 3d 9e 3d
       -0.082442425 0.056946017 0.08971238 0.07726565
0001a0 f3 64 ef bc 40 eb 11 bd 53 51 8b bd cd 30 60 bd
       -0.029222941 -0.035624743 -0.06802621 -0.05473404
0001b0 5d f6 11 bb 6f 20 88 3d a0 29 54 3d 1d 5b 80 3c
       -0.0022272088 0.06646811 0.05179751 0.015668446
0001c0 65 1c a4 bd 25 87 63 3d c4 e0 fc bc c2 d4 77 bc
       -0.08013228 0.055548806 -0.030868895 -0.015126409
0001d0 f0 68 69 bd 9b 3c 06 3d 5b 26 a7 3d 3e 31 23 3c
       -0.05698484 0.03277264 0.081616126 0.009960471
0001e0 10 16 71 bc 92 de 40 3d 0c 76 2f 3d 33 98 a8 bd
       -0.014714733 0.04708726 0.042837188 -0.08232155
0001f0 c0 75 0e 3d 23 34 93 3d 08 5e 6b bd 44 31 8b ba
       0.034780264 0.07187679 -0.057462722 -0.0010619541
000200 7e a3 7a 3d b7 32 15 3d 8d 24 99 bd 01 3b 53 bd
       0.061191075 0.03642532 -0.07477675 -0.051569942
000210 1e 75 26 3d eb 0d 9f bd 1d 47 4f 3d 0a 38 9c 3d
       0.040639035 -0.077663265 0.05060493 0.07627876
000220 5e 32 f3 bc 20 cb 98 3c c5 06 4d 3d 31 6c 0b 3c
       -0.029687103 0.018651545 0.050055284 0.008509682
000230 e9 8e b0 bc bc 97 1e 3c 19 59 9f 3d 36 21 ce bb
       -0.02155252 0.009679731 0.07780666 -0.00629058
000240 4a 15 95 bd 34 95 90 bd f3 c4 16 3c 57 de be bc
       -0.07279451 -0.07059708 0.00920223 -0.02329938
000250 53 ae 86 bc 8f 04 4f 3d 81 e2 fe bc 26 49 b7 bd
       -0.016440546 0.050541457 -0.031113865 -0.08949499
000260 9e be 95 bd 6c 59 08 3d 5c d7 b4 3d 3e 6c 14 3d
       -0.07311748 0.033288404 0.08830139 0.03623604
000270 49 95 3c 3d 06 49 90 bd ec 28 d1 3c 62 83 6b 3b
       0.046040807 -0.07045178 0.025532208 0.0035936465
000280 ab f7 0d bd 7a 2c 1d bd 04 74 97 bd 7d d1 36 3d
       -0.034660023 -0.038372494 -0.07395175 0.044633377
000290 4c 00 ba bd 20 4c 63 bb 09 b8 85 3d e5 fa 5c 3d
       -0.09082088 -0.0034682825 0.065292425 0.05395021
0002a0 6c f8 21 bb e5 9f 02 bd 7f 13 0e bd 70 d0 74 3c
       -0.0024714721 -0.03189077 -0.03468656 0.0149422735
0002b0 a2 12 9d bd 49 e8 51 3c f4 96 2d bd 0b db 97 3d
       -0.076695696 0.012811729 -0.04238029 0.07414826
0002c0 45 ab ab bd b3 5b 73 3d 9f ea 13 bd 0d 29 6e 3d
       -0.083822764 0.059413623 -0.036112424 0.058144618
0002d0 97 d3 e1 3c 64 d3 72 bd 40 3f 0b 3d 97 e6 4a 3d
       0.027566714 -0.05928363 0.033995867 0.049536314
0002e0 c1 8e 89 3d d6 c4 9c bd 58 8b fc bc 96 3f f5 bc
       0.06716681 -0.07654731 -0.030828163 -0.029937547
0002f0 d5 36 90 bc 7d 35 18 bd 61 8f 77 bc e2 07 a4 bd
       -0.017604271 -0.037160385 -0.015109868 -0.08009316
000300 be 4e 30 bd 81 f8 e4 bc 9d 47 a1 3d 0d 7f 23 3d
       -0.043043844 -0.027950527 0.07874987 0.039916087
000310 80 8f 35 3d 26 ed 49 bd 58 b0 9d 3d bb 76 33 3d
       0.044326305 -0.049298428 0.076996505 0.043814402
000320 eb df c6 bc fd ed be bd 9f ec 97 3b a8 47 99 bc
       -0.024276694 -0.093227364 0.0046363617 -0.018710926
000330 92 26 83 3d f9 61 53 3d d7 59 0a 3d f6 5a 58 3b
       0.06403841 0.051607106 0.033777084 0.0033013201
000340 68 68 55 bd f9 dd d6 bc 51 2d d1 bb 16 57 10 3d
       -0.052101523 -0.026228892 -0.006383576 0.0352393
000350 7f b4 1f 3d 22 b8 8b bc 7d 8b ec 3c 16 7b 7c bb
       0.038990494 -0.017055575 0.028875107 -0.0038525513
000360 af 19 ed 3c ac 25 67 bd 57 61 3d 3c 31 2d b5 bd
       0.028942911 -0.05643241 0.011558852 -0.0884651
000370 78 66 bb 3c 84 8c 45 3d 25 20 c3 3c c4 3c 94 bd
       0.02287601 0.04822971 0.023819039 -0.072381526
000380 12 a0 8d 3d f5 9d b9 3d c0 9e dc 3b 3e 73 0c bc
       0.069152966 0.09063331 0.0067327917 -0.008572398
000390 e4 7c 6d 3c 80 e4 00 bd 38 2a 9f bd 56 32 77 bc
       0.014495108 -0.031467915 -0.077717245 -0.015087685
0003a0 52 0d 37 3d 44 c4 ad 3d f0 d1 32 3d aa 31 a0 3d
       0.044690438 0.084847 0.043657243 0.07821973
0003b0 72 f8 85 3d 2e 3a 08 3c 6e 85 ac bd be b9 68 bc
       0.06541528 0.008314652 -0.08423887 -0.014204441
0003c0 b0 11 f2 3c e4 a4 05 3d 94 9e b1 bc 79 2c 99 3d
       0.02954945 0.032627955 -0.021682061 0.074791856
0003d0 4b 25 cb bc b1 62 45 3c 67 ea a2 3d 82 f8 19 bd
       -0.024798056 0.012047456 0.07954865 -0.03759051
0003e0 51 87 a3 bd eb 61 15 3e 6a b7 96 bd 9e 9c ba 3c
       -0.07984794 0.14588134 -0.07359202 0.022779759
0003f0 30 ab d2 3c c5 b5 96 3d 0a 3f 30 3c 63 48 28 bc
       0.025716394 0.073588885 0.010757217 -0.010271165

fc2.bias f4 [84]
000000 8c bf b4 bd bd ab 63 bd 9e 33 e8 3c be 7a 2f 3c
       -0.08825597 -0.055583704 0.028344925 0.010710416
000010 c5 d5 93 3c 49 5b a1 bd 55 d3 7a bd 40 02 c3 bd
       0.01804627 -0.078787394 -0.0612367 -0.095219135
000020 e4 32 85 3d 04 73 44 3d cf 19 b8 bd e7 52 0c 3d
       0.06503847 0.04796125 -0.089892976 0.03425875
000030 e2 ba b2 3d 90 30 7b 3d 37 d5 31 3c ef 24 97 bd
       0.08727051 0.06132561 0.010854057 -0.073800914
000040 b2 fc 8d bd ab 80 b1 3d b1 03 c0 3d 58 2c 4f 3d
       -0.069329634 0.086671196 0.09375704 0.0505794
000050 45 89 a4 3d 98 9d 41 bd a5 42 72 bd c8 9a ab 3d
       0.080339946 -0.047269434 -0.05914559 0.083791316
000060 31 c3 32 bd 88 23 51 bd 8f e5 ae bd 20 cf 7f bd
       -0.04364318 -0.051059276 -0.085398786 -0.06245339
000070 7a 86 68 bc 05 3b b1 bd c1 2b 9f 3d 13 11 f1 3d
       -0.014192218 -0.08653835 0.07772017 0.11770835
000080 13 d2 8a 3d f5 30 b6 bd 9a e4 5d bd fd 8a 82 3d
       0.0677835 -0.088960566 -0.05417309 0.06374166
000090 df 26 4f bd 17 48 a0 bd 8f e8 3e 3d 71 86 08 bd
       -0.05057418 -0.0782625 0.046608504 -0.03333134
0000a0 7b dd 70 bd a6 57 1c bd f7 ee c2 bd d0 a0 bb 3d
       -0.05880497 -0.038169526 -0.09518235 0.09161532
0000b0 a7 71 29 bd 63 2e 78 3d e0 58 81 3d 85 34 92 bd
       -0.041368153 0.060591113 0.0631578 -0.071389236
0000c0 ed c6 7c bd b5 40 3f 3d d2 0b 5e 3c cd 28 33 bb
       -0.061713148 0.04669257 0.013552623 -0.0027337552
0000d0 bc cd 45 bd 35 13 29 bd c4 48 d1 bb 16 e0 e4 bb
       -0.048291907 -0.041278083 -0.006386848 -0.006984721
0000e0 e9 67 82 3d ed 29 85 3d f6 f0 40 3d 1b 6f 18 3d
       0.063674755 0.06502137 0.0471048 0.037215333
0000f0 f6 e8 9c 3c 15 3d 62 3d b2 fc 24 bc 3a 10 d2 bd
       0.019154053 0.055234034 -0.010070013 -0.10257001
000100 ec 69 f5 ba b8 e7 dd bc b4 f6 70 3c 35 85 be 3d
       -0.0018723584 -0.027088031 0.014707256 0.09302751
000110 5a 77 b1 3d e6 a8 3c bc 59 88 2c 3d c1 41 ea 3c
       0.08665343 -0.011514878 0.04212222 0.028595807
000120 5d 3b cc bd 55 eb cc 3c 20 de b8 3b e6 68 e8 bd
       -0.0997226 0.025014559 0.0056417137 -0.11348133
000130 bd 4b 0e bd d9 5d 80 bd 9d ee a2 3d 8a 00 ed 3c
       -0.0347402 -0.062679 0.07955668 0.028930921
000140 e7 a2 74 3d 17 7e 15 3b 07 1e 81 bd 0a b0 55 3c
       0.05972567 0.002281075 -0.063045554 0.013042459

fc3.weight f4 [1297, 84]
000000 d2 cd 20 bd 3e dd 28 3d 09 44 ec bd 4b dc 97 3d
       -0.039258786 0.041226618 -0.11536414 0.074150644
000010 df 06 cc 3c da cb 80 3d f9 de d5 bc 7a b2 93 3d
       0.02490562 0.062888816 -0.026107298 0.07211776
000020 b3 bf 0f 3e 83 33 d8 bd 62 5a 16 bd 54 02 80 3d
       0.14037971 -0.105567 -0.03670729 0.06250444
000030 54 f0 47 bd cd b0 17 bd 2f 0d 9c 3c 05 fc 5a 3d
       -0.04881318 -0.037033845 0.019049255 0.053463
000040 77 a8 13 be e8 d4 c4 3d a2 62 42 bd d3 3c 1b bc
       -0.14419733 0.09610921 -0.047457345 -0.009474951
000050 18 3a 82 3d 3a 0d 8e bd 10 c4 61 3c 70 eb 8a bc
       0.06358737 -0.069361165 0.013779655 -0.016957968
000060 06 39 c2 3d 3b 04 25 3d 3c 8c 44 3d 10 cc 0c be
       0.094835326 0.040287238 0.0479853 -0.13749719
000070 ee 29 5c 3d 46 78 99 3d 44 fa 65 3b fa da 2c 3d
       0.053750925 0.074936435 0.0035091797 0.04220102
000080 5d 39 f6 ba b7 82 50 bd f4 c5 57 3d 41 3a 5e 3b
       -0.0018785406 -0.05090591 0.052679017 0.0033909234
000090 21 06 dd 3d d9 dc 0a bc b5 43 37 3d 78 20 0b 3e
       0.107921846 -0.008475506 0.044742305 0.13586605
0000a0 d6 03 53 3d 65 09 00 bd 14 4d d6 bd 23 a8 b9 3d
       0.05151733 -0.03125896 -0.1046392 0.09065273
0000b0 35 a5 ca bd d7 19 99 3d ea c0 05 3e 0a 70 7a 3d
       -0.09894792 0.07475632 0.13061872 0.061142005
0000c0 b5 ea c2 bd 66 f4 31 bd ac c1 49 bd 46 03 b4 bc
       -0.09517423 -0.043445967 -0.049256966 -0.021974217
0000d0 fe 53 95 3c d4 67 31 bd 67 6f bd 3b 82 91 ec bc
       0.018228527 -0.04331191 0.0057811025 -0.028877977
0000e0 c8 9a 0f 3d 0d f5 7f bc ba 09 96 bd 11 fc 96 3d
       0.03505972 -0.0156223895 -0.07326074 0.073722966
0000f0 78 4f 32 bd 91 b3 50 bd c6 ff ad 3d 49 ad b8 bd
       -0.04353282 -0.050952498 0.084960505 -0.090174265
000100 0a 56 9d 3c 24 7d 05 3e 14 2c 41 3d 4a 97 95 3d
       0.019206066 0.13036019 0.047161177 0.07304247
000110 b4 09 0f 3d 3a 2c 34 bd 21 65 ab 3c ff 44 ec 3c
       0.034921363 -0.04398749 0.020922245 0.028841494
000120 4d 1d cd bd da d7 10 3d cb f7 98 3d 60 63 0b bd
       -0.10015354 0.035362102 0.07469138 -0.03403032
000130 40 f6 8c bd c5 78 ae bd 8d 94 d7 bd 5e 47 cb bc
       -0.06882906 -0.08519129 -0.10526381 -0.024814304
000140 66 70 5d bd dd 3f 39 3d 5e 8c 3a 3d 72 b2 fc bd
       -0.05406227 0.04522692 0.04554402 -0.12338723
000150 77 91 bc 3d ef ac 2d bd e0 e8 02 bd cf 76 48 3d
       0.09207433 -0.04240125 -0.03196037 0.04894143
000160 58 4e a7 3d fb ab 15 3d d5 83 b5 3d fa 7d a2 bb
       0.0816924 0.036540966 0.088630356 -0.004958865
000170 3b 93 e1 3d 84 20 c7 bd 7f 4d 38 bd 69 2a d9 bd
       0.1101441 -0.09722999 -0.04499578 -0.10603792
000180 3d ad bf bd 49 48 85 bd 08 f4 bc 3d 83 ae 08 bd
       -0.093592145 -0.06507928 0.09226233 -0.033369552
000190 86 aa f8 bd 10 50 e1 39 13 65 84 3c 14 34 b7 3d
       -0.121419 0.00042974995 0.016161477 0.0894548
0001a0 5b 71 c5 bd 41 88 5b bd 7d 14 a3 bd 20 9f 2f 3d
       -0.096407615 -0.05359674 -0.07962892 0.042876363
0001b0 8a 97 45 bd f7 3a 97 3c 49 63 e3 bd a8 13 e0 bd
       -0.048240222 0.018460734 -0.111029215 -0.10941249
0001c0 e1 49 98 bd 88 56 54 bd 3c f6 60 bd 62 de ba 3d
       -0.07435966 -0.051840335 -0.054922327 0.091244474
0001d0 65 56 98 3c 4d f4 b6 3d 15 99 88 3d 6c d6 99 bb
       0.018595884 0.089333154 0.06669823 -0.0046947505
0001e0 0f b4 fa bc 50 01 da 3d 61 f1 a6 bc d1 b2 24 3d
       -0.030603437 0.106447816 -0.02037877 0.040209595
0001f0 b3 9b a6 3d fc cb 34 bc c1 59 a7 bd 45 dd 79 bd
       0.08135166 -0.011034962 -0.08171416 -0.061002035
000200 26 fb c6 bb dd 31 75 bd bb f1 38 3d e8 02 92 3d
       -0.0060724197 -0.059862006 0.045152407 0.071294606
000210 38 aa a1 bd 4c f4 c4 3d 50 6e 95 bd 0a 2c 7a bd
       -0.07893795 0.096169084 -0.07296431 -0.061077155
000220 1f f1 a9 3d 78 24 ed b9 03 1a b7 bd ff fc 27 3d
       0.08297943 -0.00045231334 -0.08940508 0.04101276
000230 c6 7a c5 bd 91 43 d8 bd c5 e0 dd 3b c2 76 54 3c
       -0.09642558 -0.10559762 0.0067711794 0.012967767
000240 54 c8 9e bd d3 8b b1 3d 6d 83 cb 3d 2b 8b 32 3d
       -0.07753053 0.086692475 0.09937177 0.043589752
000250 82 b3 0d 3d cd 61 44 3d f6 13 89 3d f1 74 aa bd
       0.03459502 0.047944833 0.0669326 -0.08323086
000260 20 f8 11 3e d0 62 76 3d 55 51 7a 3c f0 cb df bc
       0.14254808 0.06015283 0.01527818 -0.027318925
000270 1f e5 db 3d 26 17 96 bd 08 b7 3c 3d f2 16 0c bd
       0.10737061 -0.07328634 0.04607299 -0.03420157
000280 24 aa 89 3c 4e 69 5e 3d b1 03 a5 bd 19 99 14 bd
       0.016804762 0.054299645 -0.08057345 -0.036278818
000290 2c da 6f bb 4d 07 4d bd 2a 96 9f bd 2f 82 c0 bd
       -0.0036598546 -0.05005579 -0.077923134 -0.093998305
0002a0 03 9d 15 bd 32 e9 d0 bd 87 ab 1f bc 51 41 94 3d
       -0.03652669 -0.102007285 -0.009745485 0.072390206
0002b0 67 8c 26 3d 1e 42 1e bc c1 0a 90 bc 9b 3a 41 3d
       0.04066124 -0.009659318 -0.017583253 0.04717503
0002c0 12 57 31 3e 5e cb 0f 3d 54 1e c9 bd f5 4e 05 bd
       0.17318371 0.035106055 -0.09820238 -0.032546002
0002d0 49 25 82 3c 0c 76 9c bc da ba 64 3d f6 18 d4 bd
       0.01588692 -0.019099258 0.055842258 -0.103563234
0002e0 e8 91 83 bd f3 08 18 bd c9 54 87 bc db cd b2 3d
       -0.06424314 -0.03711791 -0.01651992 0.0873067
0002f0 ab 05 bd 3d 86 e6 bf bd 30 20 ce 3c 2a ae 3b bd
       0.09229597 -0.09370141 0.025161833 -0.045820393
000300 fa 77 da 3d 75 63 a3 3b dd 84 88 bd 93 3d aa bd
       0.10667415 0.0049862214 -0.06665967 -0.083125256
000310 6c 91 93 3c 83 a2 b2 bb 12 f8 50 3d 14 b5 cf 3d
       0.018013678 -0.005451502 0.05101783 0.1014196
000320 2c 53 d6 3d 8b b7 c3 bd 53 bc 28 3d 67 d9 58 bd
       0.104650825 -0.095564924 0.041195225 -0.052941706
000330 60 f5 a4 bd 97 5e 57 bb 09 c8 8e bd 49 e3 e6 3d
       -0.08054614 -0.0032862776 -0.069717474 0.1127382
000340 f3 03 3a bd 61 68 06 3d 39 dc 40 bb 36 d1 8b bd
       -0.045413923 0.032814387 -0.0029428138 -0.06827013
000350 83 13 e9 3c c1 12 1f 3d be de 3d 3c a0 dc 57 3d
       0.028451687 0.038836244 0.01158875 0.05270064
000360 1c 6d 0c bd b6 9c bc bd a3 b5 8e 39 e2 f7 e3 3d
       -0.034283742 -0.09209578 0.0002721968 0.11131264
000370 e1 62 da bd af aa b7 bb 39 38 d1 bd e6 ec d0 3d
       -0.10663391 -0.005605064 -0.10215802 0.10201435
000380 e7 e0 af bc 03 90 e9 bd 87 d2 88 bd 31 5c 9d 3c
       -0.021469546 -0.11404421 -0.0668078 0.019209
000390 7a 1c 8f 3d 4a 31 e0 bd 68 51 6c 3d 49 3b 06 be
       0.06987853 -0.10946901 0.057694823 -0.13108553
0003a0 3e db de bc 7e 91 fb bc 9c 4c e7 3b d3 cf d8 bc
       -0.027204152 -0.030709025 0.007058693 -0.026466286
0003b0 b8 c5 88 3d da 08 9f 3d 6f a2 59 bd f4 06 81 bd
       0.06678337 0.0776536 -0.053133424 -0.06300154
0003c0 f4 b9 3f 3d d3 9f fc bd 7b 7d 3d 3d f8 ec e3 bd
       0.046808198 -0.123351716 0.046262246 -0.111291826
0003d0 94 dd ac 3b 58 41 ef bc c6 ef 84 bd 8b cc 82 bd
       0.0052754376 -0.029205963 -0.06491046 -0.0638667
0003e0 04 7f 44 bc 2c cc 3d bd 40 cc 85 3d 9d b5 63 3c
       -0.0119931735 -0.04633729 0.06533098 0.01389828
0003f0 ab 50 84 bd 85 1b 54 bd b8 10 b4 bd 62 34 21 bd
       -0.06460699 -0.051784057 -0.08792251 -0.039356597

fc3.bias f4 [1297]
000000 52 8a 82 3d 77 22 96 bd 5a 3f 48 bd 07 03 a9 3d
       0.06374039 -0.073307924 -0.04888854 0.082525305
000010 23 ce 66 bd ed 37 b7 3d 36 0a 16 3c 48 e1 5d 3c
       -0.05634893 0.08946214 0.009157708 0.013542481
000020 1f dc 6f bd 74 5a 6d bd 11 03 96 bd 2b 24 3a 3c
       -0.058559533 -0.05794759 -0.073248036 0.011361162
000030 ff a5 84 3d eb ae 10 bd 5c 1d 96 bd 54 db d5 3d
       0.06476974 -0.035323065 -0.073298186 0.10442224
000040 57 f1 4e bc 93 3c e2 3d 8e a8 22 bd ce 37 c0 bd
       -0.012630782 0.1104671 -0.039711528 -0.09385644
000050 8d 4a 9c 3d a8 fe 86 3d 15 45 95 ba cc 1b b7 bd
       0.07631407 0.065915406 -0.0011388386 -0.08940849
000060 d4 15 46 bd b1 c5 ca bc 9f 4a 9c 3d 68 a7 ad 3d
       -0.04836066 -0.02475247 0.0763142 0.08479196
000070 7d 87 72 3d 4f a7 53 3d 29 8e 5d bd 7b 2e 59 bd
       0.059211243 0.05167323 -0.054090653 -0.053022843
000080 1e 82 8e bc f8 3e 15 3a 74 b2 86 bd cb d6 29 3d
       -0.01739603 0.0005693282 -0.06577006 0.04146461
000090 e4 23 3b bd c8 d7 81 bd cc d1 85 3d 2c 1f 68 bd
       -0.045688525 -0.06339985 0.06534156 -0.056670353
0000a0 59 58 af bd 6e ad c3 3d ca 08 a5 bc 2f 3d 4b bd
       -0.08561773 0.095545635 -0.020145793 -0.049618896
0000b0 52 17 ae bd 9f ee 85 bd 1f 72 85 3d c8 6e 9f bd
       -0.08500542 -0.06539654 0.065159075 -0.07784802
0000c0 5b 29 3e bb 2d 2f 07 bd e6 2b 11 3d 1a 96 6c bd
       -0.002901635 -0.033003975 0.035442255 -0.057760336
0000d0 4a 5a e5 3d ec 42 a6 3d ed 30 4e bd 59 56 1f 3d
       0.11198862 0.08118233 -0.050339628 0.038900707
0000e0 fa dc cc bc 7b d1 eb bb ab c5 0e bd 70 55 b6 3d
       -0.025007714 -0.007196603 -0.03485648 0.08903015
0000f0 1e 6c 8b bd 98 6e 63 bd a8 dd ab 3c 6e b0 5b 3d
       -0.06807731 -0.055525392 0.020979717 0.053635053
000100 92 82 af ba e6 5a 03 bd b0 85 3e 3d 01 20 d0 3d
       -0.0013390353 -0.03206911 0.046514213 0.10162354
000110 b4 4d a9 3d 13 aa 75 3d 9d 16 6f bd 67 2b 9e 3d
       0.08266774 0.05997665 -0.058371175 0.07723122
000120 b8 1b 35 bd ca dc 07 bd 89 7b af bd 09 6f 7e 3d
       -0.044215888 -0.033169545 -0.08568484 0.06211761
000130 5b d0 20 3c e7 eb f5 bc 6b 0e 21 3d 61 58 78 bc
       0.009815301 -0.030019714 0.03932039 -0.01515779
000140 70 d8 32 bd de 9d 9f bd f9 fd 3a bd 90 16 cf 3d
       -0.043663442 -0.07793783 -0.045652363 0.10111725
000150 15 97 43 bd 4d 5e 45 3d 2a c7 78 3b 6e b7 6c bd
       -0.047751505 0.048185635 0.0037960508 -0.05779212
000160 e4 28 49 bc 53 66 ba 39 26 ec 15 bd ee ce 66 bd
       -0.0122778155 0.00035552922 -0.03660216 -0.056349687
000170 92 a7 c4 3d 14 ea 05 bc 65 d2 15 3b f5 15 47 bd
       0.09602274 -0.008173484 0.0022861 -0.048604924
000180 c7 2c 1c bb 20 39 b3 bd b3 18 61 bd 8c 27 85 3d
       -0.00238304 -0.0875113 -0.054955196 0.065016836
000190 a6 a5 97 bd bf 4c 99 3d 1b 6e 80 bb c9 7d 58 bd
       -0.07404642 0.07485341 -0.0039193756 -0.052854333
0001a0 d3 2d 06 bd a5 b7 66 bd 13 c0 c3 bd 78 3b bd 3d
       -0.032758545 -0.05632748 -0.095581196 0.092398584
0001b0 99 3b 1a 3d a9 18 39 3d 58 7c 0d 3d 66 cc 13 3c
       0.037654493 0.045189533 0.03454241 0.0090209
0001c0 20 3c 18 3c 6f cc ea bc 53 2a 88 bd aa eb 93 3d
       0.009291679 -0.028661935 -0.06648698 0.07222684
0001d0 07 76 b5 3d f5 d8 a5 bb 2f e9 8f 3c e6 cd 13 bd
       0.088604026 -0.0050612637 0.017567245 -0.036085032
0001e0 98 cd af bd 9f 49 98 3b 4c 83 8a bd ec a6 d6 3d
       -0.08584136 0.004647448 -0.06763324 0.104810566
0001f0 15 7c 53 3c 3a 31 d0 3d 2c f1 a0 bd 61 e7 20 3c
       0.012908001 0.10165639 -0.078585 0.00982079
000200 6a cf be bd 4f bd 6d 3d 54 a3 3c bc ad cb a6 bd
       -0.09316905 0.058041867 -0.01151355 -0.08144317
000210 b1 19 a4 3c 04 4c 91 bd 47 d6 42 bd af 84 d4 3c
       0.020031782 -0.07094577 -0.047567632 0.025942175
000220 59 71 e3 3d 44 ae 9c bd 88 32 cb bd f2 f3 20 3d
       0.11105604 -0.07650426 -0.099217474 0.039295144
000230 0b f6 d6 3d 59 bb ef 38 83 55 a1 bb 6d c6 42 bd
       0.10496148 0.00011431304 -0.004923524 -0.047552515
000240 23 94 e2 3d 09 6e 19 3d 3b 03 c5 bd 23 6f 94 3d
       0.11063411 0.037458453 -0.09619757 0.0724776
000250 e7 29 aa 3d 67 75 1e 3d 39 ab ac bc 49 d2 06 3d
       0.083087735 0.038686182 -0.02107774 0.032915387
000260 a2 3a bb 3d 60 d0 e8 bb 47 20 36 3d 76 45 59 3d
       0.09142043 -0.0071049184 0.044464376 0.05304476
000270 43 97 a7 bc ae e1 09 bd a3 69 54 bd 45 33 36 3d
       -0.02045787 -0.03366249 -0.051858556 0.04448249
000280 4f 01 9f bd 53 8f bd 3c 65 38 21 3d b1 8c 57 bc
       -0.077639215 0.023139631 0.039360423 -0.013156102
000290 49 5f cb bb ae 7b b0 bd 0b 26 bb 3d b3 85 8d 3d
       -0.0062064272 -0.0861734 0.091381155 0.06910267
0002a0 9c ce 70 3c f8 3e 8f bd 7a 58 f7 bb 1e 02 31 bd
       0.014697697 -0.06994432 -0.007548389 -0.04321491
0002b0 e5 ce 80 bd 93 8c d4 3d d4 69 bc bd cf 04 04 3d
       -0.06289462 0.10378375 -0.091998726 0.03223115
0002c0 7c 28 cc bc e2 58 aa 3d f3 ee b4 3d e6 2f f8 bc
       -0.024921648 0.08317734 0.088346384 -0.030296277
0002d0 fe 07 a7 bd d8 85 dc 3d 76 8e 11 3d b2 cc d5 3c
       -0.08155821 0.10767716 0.035536252 0.026098583
0002e0 8b 67 e5 bc c1 68 d1 3c 8d b8 8c bd d7 2c ce 3d
       -0.028003475 0.025562646 -0.06871138 0.10067146
0002f0 fe 05 4c bd d1 cd 41 3d 43 a5 eb b9 78 00 d3 3d
       -0.049810402 0.047315422 -0.00044945822 0.10302824
000300 ca df d0 bd 28 ff 67 bd b1 85 0e 3a 85 a2 be 3a
       -0.101989344 -0.05663982 0.00054367917 0.0014544284
000310 ea 5e 7f 3c 9d eb 84 bd f5 8d 41 3d 16 de d7 bc
       0.015586594 -0.06490252 0.04725452 -0.026351016
000320 d0 c8 ef 3d 87 9b 51 bc 5e 86 0c 3d 81 8d 0e bd
       0.11708224 -0.012793428 0.03430783 -0.034802917
000330 61 3d 25 bd 01 95 a8 3d f9 34 ad bd 5a e0 a0 bd
       -0.04034174 0.08231545 -0.08457369 -0.07855292
000340 17 6f 0c bc 9f 16 08 3d 54 62 c5 3d 27 3a 99 bd
       -0.008571408 0.0332247 0.09637895 -0.07481795
000350 7e 7d ed bc cd 38 d4 3d a2 d1 f7 ba fb ec c1 bd
       -0.028990503 0.103623964 -0.001890708 -0.094690286
000360 07 1b 2a 3b 21 3b 6f bd 95 4c eb 3c f7 83 bd bd
       0.002595605 -0.058406 0.02872304 -0.09253686
000370 ae ab 1d 3d 9c d3 44 bd cb 31 d5 3c 26 46 a9 3d
       0.038493805 -0.04805337 0.02602472 0.08265333
000380 c8 ee d1 3d 3c f7 ba bd b7 df bc 3d 85 34 a6 bd
       0.10250622 -0.091291875 0.09222358 -0.08115486
000390 b6 7c b2 bd 7c de 32 3d 18 e3 bf 3d 9b a1 f9 3d
       -0.08715193 0.04366921 0.093694866 0.12189027
0003a0 d1 a7 04 3d e8 45 1a 3a af dc b2 bd 3b 2e 34 bc
       0.032386605 0.00058850506 -0.08733498 -0.01099735
0003b0 8d 67 c0 bd 47 d4 e5 3d 5e 56 19 3d 5d 4c f6 bb
       -0.09394751 0.11222129 0.03743588 -0.0075164274
0003c0 00 02 47 3d 15 27 c6 bd 70 db aa 3d 3f 35 87 3d
       0.04858589 -0.09675423 0.08342636 0.06601953
0003d0 db 0f 14 bd 06 fd 56 3d 1b 19 3e 3d cc 45 3b 3d
       -0.036147933 0.052487396 0.04641066 0.04572086
0003e0 1c 99 1f 3d 6f 78 a5 3c e5 d2 e4 bc 9a 44 c6 3d
       0.038964376 0.020199029 -0.027932594 0.096810535
0003f0 aa 27 d4 3c 60 9c 92 bd 4e 8c 57 3c 74 c0 d7 3c
       0.02589782 -0.071587324 0.01315601 0.026336886
