models/1296_pixels/14.pt (torch, 771783 bytes, 10 tensors)

conv1.weight f4 [6, 1, 5, 5]
00000000: 5a22 b8bd f17e 0bbe bf54 e1be 87d3 dd3d
00000010: d9f0 1ebe c985 0a3f fbbe 96be 9903 ac3c
00000020: 40ac eabe f5bf 853e 35dc eebe 54cc c5be
00000030: ab4d 1dbe a784 97be 8213 dbbe 8c83 1e3e
00000040: e80d e53e b4c2 17be 73f5 7ebe 9c9e d43e
00000050: f35f b23d 759d dcbd 7221 cdbd 19d6 883e
00000060: dea4 a3be be9e c4be 392d 623e 7e16 7abd
00000070: 6920 743d 83db 8a3e 9e07 b93d 3300 fbbe
00000080: 93cf 12bf 915c 0ebf 2246 c53e 27bb 8a3d
00000090: 461f dbbd ff82 aa3e ce3b edbe 8baa 71be
000000a0: d010 703e 8518 7f3e d4cb f6be c4d2 8ebe
000000b0: 6c60 cdbe efab bdbe 978e d6be 9f23 2abd
000000c0: 63f9 cebd c802 babe 0162 8dbd 22ff 6ebd
000000d0: 358a 453e c9ae 593e 0a60 8c3d 73a4 7bbb
000000e0: 10a3 873d 6ff8 543e b978 22bd 34db 853d
000000f0: 5b45 6b3e f9eb ab3c 8eaa 363e 9b6e 953b
00000100: fdce 1e3e 0368 623e 3a05 453e a735 493d
00000110: 7fd5 433e bc87 4f3e 35fd 083e 8772 463e
00000120: 15c8 93bc 5407 6a3e 3479 523e 45d5 be3d
00000130: 1d6f 403e 1ae9 d3be 4cfa d3be 8a46 843e
00000140: 0bb7 5dbe ec09 58be a8e4 fe3e 276a acbe
00000150: 3f65 fe3e 7a83 22bd 2ab5 893d b18e 093f
00000160: 04fd 97be 1979 24bd 9dc5 b5bd bc1b bcbe
00000170: b372 40be 52d8 39be 5c54 99be bce3 96be
00000180: 3c71 873e d526 a8be 4ba9 a63e f0a9 98be
00000190: 8326 9f3e 6f39 c03e 2c3f 38be 27fc ffbd
000001a0: 40a9 013d 5ff9 5bbd f930 7ebe b21b 66be
000001b0: 7373 0bbe f289 193e a8c0 5b3e 66d1 bf3d
000001c0: 0db3 e0be 0f28 9b3e e7ab fdbe cc2b e2be
000001d0: c3fb cbbe 35b1 f6be 6a81 993e ce28 813e
000001e0: e50e 183e 3c7e b33e 369e 8b3d 175b 763e
000001f0: db52 783e 2e2c cfbc dc6c 6b3d 7102 d23d
00000200: 7323 f83d 1464 353e bcfb 243d 15a2 373e
00000210: 083a 6f3d 3680 dd3d 57fb 373e 03a2 4a3e
00000220: 6e87 883d f68e 063d 6484 41bd 6fcf 89bc
00000230: 25d3 1c3e 2721 353e 6e58 5c3e 15be 89bd
00000240: 07b7 1e3e 80ff 6a3e ea30 6d3e b676 7b3d
00000250: 6a51 373d 0dba 1dbd
-0.08990927 -0.13622643 -0.4400997 0.10831361 -0.15521564 0.5411039 -0.29442582 0.02099781
-0.4583454 0.26123014 -0.4665238 -0.38632452 -0.15361659 -0.29593393 -0.4278832 0.15479869
0.44737172 -0.14820367 -0.24898319 0.4152726 0.08709707 -0.1077222 -0.10016145 0.26725844
-0.3196172 -0.3840236 0.22087564 -0.061056606 0.05960122 0.271206 0.09034656 -0.4902359
-0.57347983 -0.55609995 0.3853007 0.06773978 -0.10699324 0.33303067 -0.4633469 -0.23600213
0.23443913 0.24911697 -0.48202384 -0.27895176 -0.40112627 -0.37045237 -0.41905662 -0.041537877
-0.101061605 -0.36330247 -0.069034584 -0.058348782 0.19291003 0.21258081 0.068542555 -0.003839758
0.066228986 0.20797895 -0.03966591 0.0653595 0.22975676 0.020986544 0.17838499 0.0045603043
0.15508647 0.2210999 0.19240275 0.049123432 0.19124411 0.20266622 0.13377841 0.19379626
-0.018039742 0.22854358 0.20554048 0.09318022 0.18792386 -0.4138878 -0.414019 0.25835067
-0.21651857 -0.21097535 0.49783826 -0.33674738 0.4968662 -0.039676167 0.067240074 0.53733355
-0.29685223 -0.04015455 -0.08875582 -0.3673991 -0.18793754 -0.18148926 -0.29947174 -0.29470623
0.26453578 -0.32842126 0.32551035 -0.29817152 0.3108407 0.37543818 -0.17992848 -0.12499266
0.03165555 -0.053704616 -0.24823369 -0.22471502 -0.13618259 0.14994028 0.21460211 0.093661115
-0.43886605 0.30304 -0.49545214 -0.4417404 -0.39840516 -0.48182073 0.29981548 0.25226444
0.14849432 0.35057247 0.06817286 0.24058186 0.24250357 -0.025289621 0.057476863 0.10254372
0.121161364 0.17713958 0.040279135 0.17932923 0.058404952 0.1081547 0.17966972 0.19788365
0.06666456 0.032851182 -0.0472454 -0.016822545 0.1531492 0.17688428 0.21518108 -0.067257084
0.15499507 0.22949028 0.2316319 0.06139251 0.044755377 -0.03850751

conv1.bias f4 [6]
00000000: 3561 7b3f eff3 c43f 7d05 8abe f5b7 423f
00000010: 9e0c 93ba c250 79be
0.981952 1.5386943 -0.26957312 0.76061946 -0.001121897 -0.24347213

conv2.weight f4 [16, 6, 5, 5]
00000000: b858 de3c 4828 303e aa4d 133d 4609 363d
00000010: d47a c33d dd28 3b3e 3306 b33b fe44 1a3e
00000020: 208a 8e3c 1252 453e a913 2c3e ce16 623d
00000030: c441 0e3e 2af2 a43d 266a 193e c7cd 283e
00000040: 64eb 543d b18d 313e e935 c23c 823d 133e
00000050: 0909 163e b43e 253e a25a fb3d 011d 373d
00000060: f091 223d 5f9a 383e d924 493e 0e77 1e3e
00000070: aefa e23d 893a 9c3d 84a2 a23d 605b 503d
00000080: fedf 973d c652 bd3d 64d8 ab3d 76ed 0f3e
00000090: d144 423e dd89 633e 9543 183e 6579 243e
000000a0: 55ce 573e eb08 d23d a9b2 6b3d 6765 7d3d
000000b0: 541d 723e 9f07 fe3d 196b 4b3e 1ce3 5d3e
000000c0: 579d 4d3e 4a72 553e 8bcd c1bd 795c c5bd
000000d0: c378 99bc 1dcd 8abc d45c b6bd 6840 a53c
000000e0: 9a16 9c3d aa6a 8abd ad56 c2bd 0530 963d
000000f0: 334b f6bc 9cf0 e63c c550 bd3d 49b2 033c
00000100: 97c7 813d ee95 a03c 4308 183d 60dc 83bd
00000110: 93de f0bc b528 01bd 9e3e 98bd dab2 3e3d
00000120: 1b9d 95bd d810 2c3d 648c 36bd f885 5f3c
00000130: 7ae7 343e b3f3 8fbb 94fe ef3d 5810 1e3e
00000140: d8ec 073e 6ef3 213e 4a24 153e baf9 1c3e
00000150: 820d 033e cc13 1a3e 94f9 3b3d e87b 1d3e
00000160: 90a8 cd3d 1475 9d3d 841e 383e 06b6 a03d
00000170: 511a 263e 23d0 d73d a76d 073e 847d e23d
00000180: 7780 313e c4cf 233e 78c9 8b3d 0b90 9b3d
00000190: 73d7 e63d 0d57 e33d 27ff ef3d 1eb3 c73d
000001a0: e37f 203e 062e 303e 8f59 afbb 9377 523d
000001b0: a674 6b3d 8857 fd3d efd9 9a3d 3e31 1a3b
000001c0: 22fd 053e b8d2 be3d 5f46 f53d 0cf1 22b8
000001d0: 158e 2a3d 22d4 0c3e df13 283c ccd8 c13d
000001e0: ed55 00bc 9189 463d 84f7 d03d 4cc6 d63d
000001f0: 9e8c a43c d1e7 aabd f79e ee3c 46f3 953c
00000200: e366 7b3d 2560 b7bd 2e79 9fbc e0f7 48bd
00000210: 64f4 d43d 0e61 963c e723 5a3c 94ce 093c
00000220: 7af6 8fbc d88d 2c3d eead bcbc fe7c d33d
00000230: 55a2 c83d d2b4 503d ce62 b4bd 5212 8bba
00000240: b6f1 4abc 17cd 8c3d 8cd7 b2bd cb6c 5bbc
00000250: 9e81 59bd c5da 893d 148e 2a3d 319e d53b
00000260: df08 efbc e1c6 b93d 2997 b33d 519e b23d
00000270: e577 753d 7ddf a63c 029b f0bc 817c 153d
00000280: 58fc b9bb ec12 e0bc eebd 8abd 8b0c fc3c
00000290: b4d2 7f3c 3849 66bc c817 a23d 4df1 4c3d
000002a0: c425 06bd fe9f 00bb a9ff 86bd 9781 05bd
000002b0: e05f 72bd 9cd2 b93c d6d2 7b3d b115 5ebd
000002c0: 77e7 cb3b 4517 38bd c7eb 3d3d 440b 9fbc
000002d0: a508 d7bb 56a2 02bc 2873 e6bc edcc 593c
000002e0: 7526 93bd b615 d63a 188a e0bc 3b45 333d
000002f0: 5a23 bc3d ffc6 4dba 3e79 c03c 3b53 34bd
00000300: 2ca2 1abc 5475 f6bb 8825 7bbd e0ab 993d
00000310: 3c47 63bb 8236 7abd 7ff2 0cbd 869b a13d
00000320: b461 1a3c 7951 8f3c 8ee1 a83c f7ec 00bc
00000330: e8dd 80bd 7da4 85bd 9539 a9bd 0735 17bd
00000340: 6a2f 8fbd 82e7 48bd ad11 92bd a7c8 35bc
00000350: 4f04 12bd 2b53 9d3d 770e e2bc 45f9 5bbb
00000360: 1380 833d 4a2f 003d 13c8 0b3c d5cd 823c
00000370: ef7d db3c 13cb df3c dd86 80bc fe49 2a3d
00000380: 7fce 6f3d bd27 c23d 0b38 523d 5802 78bd
00000390: bd0a 113d 06bb a33d cc66 6c3d b998 993d
000003a0: 8ce8 1bbd c7d1 87bd f3ff 3d3d ddb9 513c
000003b0: 2fa6 edbc 002a 1cbd 7e55 213d e9af e5bc
000003c0: b752 5b3d 541e a53d d7d6 ac3d 11f5 81bd
000003d0: dca8 84bd d85f 9d3d 503e ad3a a58e 163d
000003e0: e422 81bd 86cb 43bd 5835 8b3d 547d 0f3d
000003f0: 4ff2 43bd 1611 623d ac77 9e3c 74a7 bcbc
0.027141914 0.17202866 0.035962738 0.044442438 0.09544912 0.18277307 0.0054633855 0.15065381
0.017399848 0.19269589 0.16804375 0.05519753 0.13892275 0.08054002 0.14981899 0.16484748
0.0519823 0.17339207 0.023707347 0.14378932 0.14651884 0.161372 0.12273146 0.044705395
0.039689958 0.18027638 0.19642963 0.15475103 0.110829696 0.07628352 0.07941154 0.050868392
0.0741577 0.092443034 0.083908826 0.14055428 0.18971564 0.2222056 0.1486953 0.16061933
0.21074803 0.10255607 0.05754343 0.061864283 0.23644 0.12403797 0.19865073 0.21668667
0.20079552 0.20844379 -0.09463032 -0.096367784 -0.018734341 -0.016943509 -0.08904424 0.020172313
0.076214984 -0.06758626 -0.09489188 0.07333378 -0.030065155 0.028190903 0.09243921 0.008038112
0.06336897 0.019602742 0.037117254 -0.064385176 -0.029403007 -0.031532962 -0.07433818 0.046557285
-0.07305356 0.04200825 -0.04456748 0.0136427805 0.17666426 -0.004393065 0.11718479 0.15435922
0.13273942 0.15815517 0.14564624 0.15329638 0.12798122 0.15046614 0.045892313 0.15379298
0.10041916 0.076883465 0.17980391 0.07847218 0.16220976 0.10537746 0.13225423 0.110590965
0.17334162 0.15997225 0.068255365 0.075958334 0.112715624 0.11100588 0.11718588 0.09750961
0.15673785 0.17205057 -0.0053512524 0.051383566 0.05748429 0.12370211 0.07561099 0.0023527886
0.13084844 0.09317535 0.11976313 -3.8848302e-05 0.041639406 0.13752797 0.010258644 0.09465179
-0.007832986 0.048471037 0.1020346 0.10487041 0.020086583 -0.08344997 0.029128535 0.018304478
0.061377417 -0.08953885 -0.019466963 -0.049064517 0.10398176 0.018356826 0.013314224 0.0084110685
-0.017573584 0.04212746 -0.023032155 0.10326575 0.097965874 0.050953694 -0.08807908 -0.0010610318
-0.01238673 0.06875055 -0.087325186 -0.0133926375 -0.05310213 0.0673118 0.041639403 0.006519102
-0.029179035 0.09071136 0.08769066 0.08721603 0.059928793 0.02037024 -0.029370788 0.03649569
-0.0056758337 -0.027352773 -0.067745075 0.0307677 0.0156142 -0.014055543 0.07914692 0.05003481
-0.03275086 -0.0019626613 -0.06591732 -0.03259429 -0.059173465 0.022683434 0.061480366 -0.054219905
0.006222661 -0.044944067 0.046367433 -0.019414552 -0.00656231 -0.007973274 -0.028131083 0.013293487
-0.071850695 0.0016333375 -0.027409598 0.043767195 0.0918643 -0.0007849782 0.023495313 -0.044024687
-0.009438079 -0.007521311 -0.06131509 0.07503486 -0.003467991 -0.06108714 -0.03441095 0.07890992
0.009422708 0.017494904 0.020615365 -0.007868997 -0.06292325 -0.06525514 -0.08262936 -0.036915805
-0.069914654 -0.049048908 -0.07132278 -0.0110952025 -0.03564864 0.07681879 -0.027594788 -0.0033565324
0.064209126 0.0312951 0.008531588 0.015967289 0.026793448 0.027318513 -0.015689308 0.04157447
0.05854654 0.09480236 0.051322978 -0.06054911 0.03541063 0.07994656 0.057715222 0.07499833
-0.03806357 -0.06631809 0.04638667 0.012800661 -0.029009907 -0.03812599 0.039388172 -0.028037982
0.05354568 0.08062425 0.08439415 -0.06345571 -0.0647752 0.07684296 0.0013217423 0.03675713
-0.06305483 -0.047801517 0.06797284 0.03503163 -0.047838505 0.055192076 0.019344173 -0.023029067

conv2.bias f4 [16]
00000000: d26b 093e ad9d f7bc 8df8 ad3d a7c5 0eba
00000010: 67a3 44be 7c9b e83d 213f 86bd dca7 8e3d
00000020: 2027 3bbd 142b 4f3d 3f48 c63c bcd2 ae3d
00000030: 45e8 72b9 db42 f2bd 7f50 48bd 2ef9 cdbc
0.13420036 -0.030226553 0.08494673 -0.00054463226 -0.19202958 0.11357781 -0.0655501 0.069656104
-0.04569161 0.050578192 0.024204371 0.08536288 -0.00023165446 -0.11829158 -0.048904892 -0.025143232

fc1.weight f4 [120, 576]
00000000: 705b 32bb 9960 0ebc 42e7 09bc 8753 2cba
00000010: 7389 b13c 0887 cbbc 657a bbbc f57e 2dbc
00000020: ddbc fe3b 5995 a93b 5163 67bc ed10 bfbc
00000030: 3a96 583c 8c3d e9bb 0aa2 803c 4d58 e13c
00000040: 4acd 65bb e2ea 1dbd e76b 94bc 22ea c1bc
00000050: 164d 193d 8680 3c3c 0763 78bc 7660 1bbd
00000060: 9d04 753a f332 a2bb 48ab 27bd cc57 363c
00000070: 3bd1 febc d67a 15bc 00a2 003d dfee cb3c
00000080: 8b54 233d 109c 26bd 5f5f 57bc c3c7 25bd
00000090: f3e8 af3c 5a9f 9c3c e9f4 243d 4263 0c3d
000000a0: 142d 1abd 9de5 e23c 909c 003c 68c9 0cbd
000000b0: 9519 283d 76e1 eebc 2f09 d5bb cb29 073d
000000c0: f9b8 c03c 4c08 27bc 8822 fdbc 8610 b43c
000000d0: b843 babc abcb 1c3c e13a a43c 0b83 42bc
000000e0: 89ef d3bc defe 063c 5916 793c 1054 123d
000000f0: 6e7a 0b3b 1344 773c a595 35bc af12 253d
00000100: 115d eebb 36ec b43c e354 9d3c 33d0 ccbc
00000110: 9404 1cbd c5c3 7f3a 3f0a 413a 8fa6 143d
00000120: 3b37 cd3c 834c b23c 930e 74bc 08ef 253d
00000130: 1551 403c 1e9e bb3a c650 883c 4e97 813a
00000140: e3b0 c93c 9e90 123a a51d f23c 6c07 f6bc
00000150: fbbb 12bd f6bc 1abd 0e8a 1a3d 70db 66bc
00000160: 5a0b 953c 1123 c73c 81ee 533c 2635 19bd
00000170: 819e 353c 09ef d8bb 0e10 dbbc 21b8 0e3d
00000180: 0e56 1fbd 40ba 0cb8 2ef9 d53c b0f8 b53c
00000190: a787 9d3c 5f51 fcbc d696 18bc 92a4 6c3c
000001a0: 528d 113d 17cd 5d3c ce30 06bd f25c f53c
000001b0: 18df d93c 56bd e139 20cb 7bbc c3a3 83bc
000001c0: 36cd 983c 409d c5bb 8088 14bb 4eef e13c
000001d0: 8050 6b3c 0398 d93c 0b5b 3abc c0c0 a8bc
000001e0: ae67 8ebc c0d2 c7bc 6b8b bb3b 035f ce3c
000001f0: d63a 233b 8ed5 863c 2b05 78bb 341f 00bd
00000200: 0021 ed3b 7bbf 7b3c 5041 be3c e6bc 4cbc
00000210: 4030 9f3c 007a 14ba 2be5 d4bb 4691 ec3c
00000220: d630 39bc 4329 e73c c073 71bb c846 c6bc
00000230: 0628 b53c 3852 ddbc e056 bf3b eef6 bbbc
00000240: b1e7 253c 14d6 8f3b 262b 543b 5052 2bbd
00000250: 2149 a83c 10ff 0f3b bb58 f1bc c8dc 613c
00000260: 0329 093d 7c18 a7bc ef81 6d3a 90d7 0b3d
00000270: 34ba a93a dfd0 a8bc 0cb6 0cbb 1335 83ba
00000280: d5d3 f4bc 6a8f c93c 176d c5bc e3ab 20bd
00000290: 5f91 553b 328a b73c 4d71 29bd 5d9d 5bbb
000002a0: 5583 013d 88c5 39bc fed8 4a3b 9ff4 f83b
000002b0: c281 f6bc adb5 1fbd 4af2 e13c 324f 81bb
000002c0: 5898 ca3b b9fc e3bc 25e0 9dbb 8e61 703c
000002d0: 5abc 923c a89a 043d cfac 993b b0b8 153c
000002e0: ad7c aebb 3dcc 07bd 3a2c 8dbc 6518 193d
000002f0: 842a ebbc 5c21 eb3c e4a7 0dbd 3b56 9a3a
00000300: 1295 cebc 6d2c 163d 766c f23c 1536 343b
00000310: f550 493b e6bd 893c 9362 6cbc 9f61 eabc
00000320: ebd8 27bd 2f7f d33c b208 bd3c 17bd c23c
00000330: 73ca d6bc a91d 65ba cc91 5fbc 0a13 1ebd
00000340: 7553 1cbc 5ae5 e9bc e69c 153c 0091 11bc
00000350: 0d9a 58bc cc9f 9fbc 8138 a73c 8fbd 0b3d
00000360: 9e93 0a3d 8ecd d53c 1bd1 8d3c 5bcb 02bd
00000370: 7632 a9bc e0c4 e0bc fb17 1d3c d669 91bb
00000380: 0461 233d 361a 973c 1b9d d53c 78b3 83bc
00000390: d6f7 a5bc 2e19 f8bc c68c c63c c0e0 48bc
000003a0: f683 1d3d 0025 a4bc 4e67 16bd d3c2 fdbc
000003b0: 8671 0ebd 56b6 44ba 7390 fb3c cfd5 0ebd
000003c0: 93bb 89bc 76aa 84bc 00c2 863c 006a ce3b
000003d0: 5319 f33c 6ef9 c93c abf9 de3c a66f 093d
000003e0: c833 07bd 2ed4 8b3c cbf0 a1bb 0e0c e63c
000003f0: 769f 213d 2c66 f13b 75c9 e7bc 86a4 43bb
-0.0027215146 -0.008690023 -0.008416953 -0.0006573726 0.021671986 -0.024844661 -0.02288551 -0.010589351
0.007773979 0.0051752743 -0.0141228 -0.0233235 0.013219411 -0.0071179327 0.015702266 0.027507925
-0.0035064989 -0.03855408 -0.018117858 -0.023671214 0.03742703 0.011505252 -0.015160329 -0.03793379
0.0009346696 -0.0049499213 -0.04093483 0.011129331 -0.031105628 -0.009123525 0.031404495 0.024894176
0.03987555 -0.040676177 -0.013145297 -0.04047371 0.021473384 0.019118953 0.040272627 0.034274347
-0.037640646 0.027697379 0.007849827 -0.034371763 0.041040022 -0.029160243 -0.006501339 0.03299884
0.023525702 -0.010194849 -0.030900255 0.021980535 -0.022737369 0.009570043 0.020047607 -0.011872063
-0.025871055 0.008239476 0.015203082 0.0357247 0.002128269 0.015091914 -0.011083041 0.04030102
-0.007274278 0.02208529 0.019205516 -0.02500162 -0.038090304 0.000975665 0.00073638925 0.036291655
0.02505075 0.021765 -0.014896053 0.04051116 0.011738081 0.001431409 0.016640078 0.0009887011
0.024620479 0.00055910076 0.029555151 -0.030032836 -0.035823803 -0.037777863 0.037729315 -0.014090404
0.01819389 0.024308713 0.012935282 -0.037404202 0.011085154 -0.006620292 -0.026741054 0.034843568
-0.038900428 -3.355206e-05 0.026119795 0.02221331 0.019229723 -0.03080052 -0.009313306 0.0144435335
0.035535164 0.013537667 -0.032761388 0.029951546 0.026595637 0.0004305641 -0.015368253 -0.016069299
0.01865254 -0.0060307086 -0.0022664368 0.02757993 0.014362454 0.026561743 -0.011374245 -0.020599723
-0.017383423 -0.024392486 0.005723407 0.02519179 0.0024906895 0.016459253 -0.0037844877 -0.031279758
0.0072366 0.015365477 0.023224503 -0.012496209 0.019432187 -0.00056639314 -0.0064970455 0.028877866
-0.011303147 0.028217917 -0.0036842674 -0.024203673 0.022113811 -0.027016744 0.0058392137 -0.022944894
0.01012604 0.004389534 0.0032374351 -0.041826546 0.020542683 0.0021972097 -0.029461255 0.0137855485
0.033486377 -0.020397417 0.0009060194 0.034141123 0.001294917 -0.02060741 -0.0021470813 -0.0010010324
-0.029886166 0.024604518 -0.02409987 -0.039226424 0.0032587869 0.022404764 -0.041367818 -0.0033510544
0.03161939 -0.011338599 0.0030952091 0.0075975205 -0.03009117 -0.03899162 0.027581353 -0.0039462084
0.0061827116 -0.027830468 -0.00481798 0.014671696 0.017912079 0.032374054 0.00468979 0.009138271
-0.005324921 -0.03315376 -0.017233003 0.03737678 -0.028706796 0.02870243 -0.03458394 0.0011774966
-0.025217567 0.03666346 0.029592734 0.0027498056 0.003071842 0.016814183 -0.014427799 -0.028611002
-0.040978353 0.025817482 0.023075435 0.023771806 -0.026219582 -0.00087400764 -0.0136456005 -0.038592376
-0.009541382 -0.028551746 0.009131646 -0.008884668 -0.013220322 -0.019485377 0.020412685 0.034116324
0.033832185 0.026098993 0.017311623 -0.031932216 -0.020653944 -0.027437627 0.009588237 -0.0044376655
0.039887443 0.018445116 0.02607589 -0.016076788 -0.020259779 -0.030285444 0.024237048 -0.012260616
0.038455926 -0.020037174 -0.036719613 -0.030976688 -0.034776233 -0.0007503977 0.030708527 -0.034871873
-0.016813075 -0.016194563 0.016449928 0.0062992573 0.029675161 0.02465507 0.02721866 0.033553742
-0.033008367 0.017068949 -0.004942035 0.02808192 0.039458714 0.007366916 -0.028294304 -0.0029852702

fc1.bias f4 [120]
00000000: acf8 cbbc 3523 9b3c a979 18bc e159 1d3d
00000010: 7451 f63b 852d c73c 757a 7f3c 280f 333b
00000020: 0001 e1bc e32a 573c b8cb ddbb a716 f23c
00000030: 630b 083d 0082 d7bc 6793 4d3c 7705 50bb
00000040: 8872 1abd 9352 4b3c 7b62 75bc eb26 9fbb
00000050: 480e 29bd 22d9 293d 4a54 79bc 6fe5 96bc
00000060: 4df9 f03a 25a6 873c 2948 a33c 68f8 a03c
00000070: 81a0 f73c 39e7 c13c 5fe6 a93c fd0b 32bc
00000080: 47d7 51bc deae d5bc 46d2 04bd 11c7 3abd
00000090: 8540 20bd ff12 2abd 1416 ce3c 894d 293d
000000a0: 0a97 823a 2710 d53c 8b04 89bc ec2f 4bbc
000000b0: 4d72 083c fc86 8ebb f62c 803c fe8c c5bc
000000c0: d8ca b3bc d71c f23a 4105 4b3d a23c bb3c
000000d0: 1787 f7bc fea1 253d ef06 413d 82ba 4dbd
000000e0: 961f 853c d383 c93c bb72 123d 9dc0 c03c
000000f0: 2262 01bd 2cbf 093c 43c9 5f3b efec 763b
00000100: 60e4 e63b debd d8bc 2b45 003d 9ddb 043d
00000110: 34e9 20bd d884 a53c fb10 63bc 6b8f 09ba
00000120: 69be 05bb 5192 01bd 541f b93b b9cd 3abc
00000130: 4462 11bd 09c4 96ba 8edf 643d 0065 38bc
00000140: 7683 33bb 2713 c23c 6cd8 96bc 5f1f 15bd
00000150: db0a 14bd c3ac c8bc 808c e7bc bb56 27bd
00000160: 85d3 42bd da94 8a3b b532 243d c416 fe3c
00000170: e17d 07bd c1c5 f23c 4137 0d3d 59f1 a7bb
00000180: e8d2 43bd 6d51 b5ba 737e 25bd 3237 2b3c
00000190: 67b0 4a3d cd9f f8bc afa4 dcbc e49a 85bb
000001a0: 9a2b b83b b2d8 8abc baf4 6abd 86b9 edbb
000001b0: e2a1 ae3c 77ac 8e3d 6068 4fbc d815 44bd
000001c0: 7a57 ca3c 3f73 11bc afc5 f93c 23e0 0bbd
000001d0: 93b7 1c3b 12c4 7ebc 5706 bebc 9003 503c
-0.02489885 0.018937686 -0.00930635 0.038415793 0.007517034 0.024313698 0.015593161 0.0027322266
-0.027466297 0.013132784 -0.00676867 0.029551817 0.033213984 -0.026307106 0.0125473505 -0.0031741539
-0.03770688 0.012409824 -0.014977093 -0.0048569343 -0.041273385 0.04146684 -0.01521785 -0.01841995
0.0018384844 0.016558716 0.01993187 0.0196497 0.030227901 0.023669826 0.020739732 -0.010867116
-0.012807674 -0.02608436 -0.032427095 -0.0456 -0.03912403 -0.041522022 0.025157012 0.04133371
0.0009963226 0.026008679 -0.0167258 -0.012401562 0.008328033 -0.0043495875 0.015646439 -0.024115082
-0.02194731 0.001847173 0.049565557 0.02285606 -0.030215783 0.04043769 0.047125753 -0.050226696
0.016250413 0.024598991 0.035753947 0.023529345 -0.031587727 0.008407395 0.003414706 0.0037677845
0.0070462674 -0.026457723 0.031315964 0.032436002 -0.0392849 0.020204946 -0.013859029 -0.0005247506
-0.0020407683 -0.03163368 0.0056494866 -0.011401587 -0.035494104 -0.0011502515 0.05587726 -0.011254549
-0.002739159 0.023690773 -0.018413745 -0.03640687 -0.036143165 -0.024496442 -0.028265238 -0.040854197
-0.047565002 0.0042291703 0.04008742 0.031016715 -0.03307903 0.029635312 0.034476522 -0.0051252064
-0.047808558 -0.0013833471 -0.040403794 0.010450171 0.049484637 -0.030349636 -0.026933996 -0.0040773023
0.005620432 -0.016949032 -0.057362296 -0.007254782 0.021317426 0.06966489 -0.012659162 -0.047872394
0.024699915 -0.0088775745 0.03048977 -0.0341493 0.002391313 -0.0155496765 -0.023196382 0.012696162

fc2.weight f4 [84, 120]
00000000: 4441 2f3d 6e7d 8ebd 7da1 3bbc 07be 65bd
00000010: 86ab 63bc f736 a23d 1fd2 053d 7f6e 05bd
00000020: fc5a 52bc 0cbe 62bd c297 b93d 82a4 cbba
00000030: eff3 bcbc 0a74 8d3c 8245 8a3d 023e 42bd
00000040: efa1 15bd 73fd 6b3d 97c8 aebd ece2 dfbc
00000050: 2184 7bbd b9cd abbd 30ec 5c3c f7eb 823d
00000060: 9cb3 4f3d 41c1 f63c c393 37bd 96f2 5fbd
00000070: a508 8cbc 7f2f 203d f42f 21bd 0c28 a43d
00000080: 767b fcbc f5d1 823d b315 f6bc bb7b 873d
00000090: cccf 90bd 88fb db3c 68b1 a43d c747 a5bd
000000a0: 7c22 46bd 0cf6 e73c 3f89 56bd 5607 9e3d
000000b0: a80f 5abd d56d 463d 9f6d a6bd c96b babb
000000c0: 2746 253d 9a14 43bd d6b9 87bc d299 a3bd
000000d0: 4112 afbd 6177 aabd bfc0 2a3c 2799 283d
000000e0: e160 95bc e92a 273d 761d 863d f6c0 a03d
000000f0: 8fa5 babd 108d aa3c 4a8e 5d3d 35c4 483c
00000100: 3d77 80bd 42fd d93b c5b8 d4bb 3047 cb3c
00000110: 7c88 a53d 841c afbd 6f1b 903d 5373 b53c
00000120: c898 473b 8761 9bbc 31db 37bd 36ab f03c
00000130: 60c6 e13c 71c6 d63c f369 a4bb c859 e2bc
00000140: eb9e 373c 634a aebd d3e5 bcbc cd7b a1bd
00000150: 47d9 a63d 788d 88bd 4969 8a3d aa03 b6bd
00000160: 829b 423c 3beb f23c 2927 093c 7a5e 63bd
00000170: 7a30 9fbd faae 433d c2ca 103c cf2b 953d
00000180: c0ca 4bbd 928a 60bc fa5a 1b3d a875 35bd
00000190: d70f a9bd 4f3b 693d 20bb b73d 743d 9e3d
000001a0: f364 efbc 40eb 11bd fd54 8bbd cd30 60bd
000001b0: 5df6 11bb 53a8 863d a029 543d 234d 803c
000001c0: 6b3a a4bd 2587 633d c4e0 fcbc c2d4 77bc
000001d0: f068 69bd d148 063d 5b26 a73d e631 223c
000001e0: 1016 71bc d5e2 3f3d 7b25 2e3d 9472 a9bd
000001f0: 6478 0d3d 2334 933d 6bbe 6cbd 2af5 abba
00000200: 596f 7a3d ab2e 123d 8d24 99bd 2fee 54bd
00000210: 1e75 263d eb0d 9fbd 1d47 4f3d 0a38 9c3d
00000220: 5e32 f3bc 502a 973c c506 4d3d 316c 0b3c
00000230: c4e9 b2bc e61e 1d3c 2ef9 9e3d 89d2 dbbb
00000240: 4a15 95bd 8cf9 90bd a6d9 133c 57de bebc
00000250: 53ae 86bc 8f04 4f3d 81e2 febc 2649 b7bd
00000260: 9ebe 95bd 6c59 083d 5cd7 b43d 23f7 123d
00000270: 276e 3a3d 0649 90bd ec28 d13c b84d 5c3b
00000280: 6a17 0fbd 7a2c 1dbd 6fa2 98bd 7dd1 363d
00000290: 4c00 babd 3ce0 71bb b712 853d e5fa 5c3d
000002a0: 6cf8 21bb f318 04bd ad25 0ebd 70d0 743c
000002b0: a212 9dbd 6f00 523c 5350 2ebd 0716 973d
000002c0: 45ab abbd b35b 733d 9fea 13bd 0d29 6e3d
000002d0: 97d3 e13c c38b 73bd 2b3c 0a3d d7e1 493d
000002e0: c18e 893d d6c4 9cbd 2076 00bd 963f f5bc
000002f0: d536 90bc 7d35 18bd 015e 79bc 5774 a4bd
00000300: be4e 30bd 81f8 e4bc 9d47 a13d 0d7f 233d
00000310: 17a9 343d 26ed 49bd 58b0 9d3d 4211 313d
00000320: b1dd c7bc ddfc bebd 8851 8c3b a847 99bc
00000330: 9bc7 823d f961 533d d759 0a3d f65a 583b
00000340: bb07 56bd f9dd d6bc 794b d3bb 1657 103d
00000350: 7fb4 1f3d 1a67 8dbc 7d8b ec3c 167b 7cbb
00000360: edd5 e93c ac25 67bd 016b 363c f7ca b5bd
00000370: 7866 bb3c 7144 433d 573c c13c c43c 94bd
00000380: 12a0 8d3d f59d b93d 271a c13b 3e73 0cbc
00000390: e47c 6d3c 80e4 00bd 70f3 9fbd 63a5 7bbc
000003a0: 520d 373d 44c4 ad3d f0d1 323d aa31 a03d
000003b0: 72f8 853d 4d1d fd3b 6e85 acbd 0e8a 6bbc
000003c0: f211 f23c 6d0b 053d 5734 97bc 85c7 983d
000003d0: 64b8 afbc 0522 3f3c 814d a03d a25a 11bd
000003e0: c57d 9ebd a411 133e 5028 9abd 3e63 c63c
000003f0: 0189 f33c c5b5 963d 9513 583c 6348 28bc
0.04278685 -0.069575176 -0.011452076 -0.056089427 -0.013895875 0.0792064 0.03267109 -0.03257608
-0.012839075 -0.055357024 0.09062149 -0.0015536698 -0.023065535 0.017267246 0.06751539 -0.047422417
-0.036531385 0.057614755 -0.08534353 -0.027329884 -0.061405305 -0.08388848 0.013484046 0.06392663
0.0507084 0.030121448 -0.04481865 -0.054674707 -0.017093966 0.039107796 -0.039352372 0.08015451
-0.03082059 0.063877024 -0.030039644 0.066153966 -0.07070884 0.026853338 0.0804165 -0.08070331
-0.04837273 0.028315566 -0.05237698 0.07716243 -0.053237587 0.048444588 -0.08126377 -0.0056891185
0.040350106 -0.04762707 -0.016568106 -0.07988323 -0.085484035 -0.08323551 0.010421931 0.041161682
-0.018234672 0.040812407 0.06548588 0.078493044 -0.09113609 0.020819217 0.054090776 0.012253811
-0.06272743 0.006652505 -0.006491753 0.024814218 0.08082673 -0.08550361 0.070364825 0.022149717
0.0030456055 -0.018967403 -0.04488677 0.029378515 0.027560413 0.026217671 -0.005017513 -0.027630702
0.011207323 -0.08510282 -0.023058807 -0.07884941 0.08146911 -0.06667608 0.06758363 -0.088874176
0.011877896 0.029653182 0.008371153 -0.05551002 -0.07772918 0.047774293 0.008837404 0.072837465
-0.049753904 -0.013704913 0.03792856 -0.04430166 -0.08254974 0.056941327 0.08971238 0.07726565
-0.029222941 -0.035624743 -0.068033196 -0.05473404 -0.0022272088 0.06575074 0.05179751 0.015661782
-0.08018955 0.055548806 -0.030868895 -0.015126409 -0.05698484 0.032784287 0.081616126 0.009899592
-0.014714733 0.046847183 0.042516213 -0.08273807 0.03453864 0.07187679 -0.057798784 -0.0013119329
0.061141346 0.035689037 -0.07477675 -0.051984962 0.040639035 -0.077663265 0.05060493 0.07627876
-0.029687103 0.018452793 0.050055284 0.008509682 -0.021839984 0.009589886 0.07762371 -0.0067084474
-0.07279451 -0.07078847 0.009024059 -0.02329938 -0.016440546 0.050541457 -0.031113865 -0.08949499
-0.07311748 0.033288404 0.08830139 0.03588022 0.045515206 -0.07045178 0.025532208 0.003361566
-0.03493444 -0.038372494 -0.07452857 0.044633377 -0.09082088 -0.0036907336 0.0649771 0.05395021
-0.0024714721 -0.032250356 -0.0347039 0.0149422735 -0.076695696 0.012817486 -0.042557072 0.07377248
-0.083822764 0.059413623 -0.036112424 0.058144618 0.027566714 -0.05945946 0.033748787 0.049287643
0.06716681 -0.07654731 -0.031362653 -0.029937547 -0.017604271 -0.037160385 -0.015220166 -0.080300026
-0.043043844 -0.027950527 0.07874987 0.039916087 0.04410657 -0.049298428 0.076996505 0.04322935
-0.024397703 -0.093255736 0.00428218 -0.018710926 0.06385728 0.051607106 0.033777084 0.0033013201
-0.052253466 -0.026228892 -0.006448206 0.0352393 0.038990494 -0.017261077 0.028875107 -0.0038525513
0.02854439 -0.05643241 0.01113391 -0.08876603 0.02287601 0.047672693 0.023588343 -0.072381526
0.069152966 0.09063331 0.00589301 -0.008572398 0.014495108 -0.031467915 -0.07810104 -0.0153592555
0.044690438 0.084847 0.043657243 0.07821973 0.06541528 0.00772444 -0.08423887 -0.0143761765
0.029549573 0.0324816 -0.018457575 0.0745993 -0.021450229 0.011665826 0.07827283 -0.035486825
-0.077388324 0.14362198 -0.0752722 0.024217244 0.029728414 0.073588885 0.0131882625 -0.010271165

fc2.bias f4 [84]
00000000: bec9 b4bd 6dcb 63bd 03be e53c 7f96 323c
00000010: f25c 943c 495b a1bd fdd0 7abd b769 c3bd
00000020: 16da 853d 9237 433d 2b30 b8bd e752 0c3d
00000030: d0a8 b23d 1ba8 7a3d 7ab4 313c d256 98bd
00000040: c5cf 90bd ab80 b13d 539f c03d 859b 4e3d
00000050: 4589 a43d 69a4 41bd c9c7 71bd 86b0 ab3d
00000060: 31c3 32bd fa44 50bd 8f48 afbd d161 80bd
00000070: c5f5 6dbc f588 b2bd 62d6 9d3d fe45 ef3d
00000080: 9f9c 8a3d 3b35 b6bd 4381 5ebd f8e1 803d
00000090: df26 4fbd c554 a0bd 6515 3f3d 635a 07bd
000000a0: 5b9b 6fbd 8ac1 1ebd 4baa c2bd 90a2 bb3d
000000b0: a771 29bd ee88 793d 6617 823d f912 92bd
000000c0: 2ce9 7dbd 40c5 3e3d d20b 5e3c 9ea6 2dbb
000000d0: fb6a 45bd 5013 29bd b987 d7bb 16e0 e4bb
000000e0: c05d 823d 3dc0 853d f6f0 403d ce7b 163d
000000f0: 436b 9d3c 2a3f 613d 726e 1bbc d000 d2bd
00000100: b3ed 1bbb 8d8d dabc b4f6 703c b037 bf3d
00000110: 4ad6 b03d d0b3 44bc 857f 2c3d 421b ea3c
00000120: 5d3b ccbd 8f79 cb3c afc1 b63b e777 e8bd
00000130: bd4b 0ebd d95d 80bd 9dee a23d f230 eb3c
00000140: ec86 6e3d 09d9 133b 00f4 81bd 5d50 513c
-0.08827542 -0.055613924 0.028044706 0.010900139 0.018110726 -0.078787394 -0.061234463 -0.09541648
0.06535737 0.047660418 -0.08993562 0.03425875 0.08723605 0.061195474 0.010846252 -0.07438435
-0.07070879 0.086671196 0.09405389 0.050441284 0.080339946 -0.047275934 -0.05902842 0.083832785
-0.04364318 -0.05084703 -0.08558761 -0.06268657 -0.014523928 -0.08717529 0.07706906 0.11683272
0.06768154 -0.08896872 -0.054322492 0.062931 -0.05057418 -0.078286685 0.046651263 -0.033045184
-0.058497768 -0.038758792 -0.09505137 0.09161866 -0.041368153 0.060921602 0.06352119 -0.07132525
-0.06198995 0.04657483 0.013552623 -0.0026497017 -0.048197728 -0.041278183 -0.0065774587 -0.006984721
0.06365538 0.06530807 0.0471048 0.036739163 0.019216185 0.05499188 -0.009486781 -0.10254061
-0.0023792803 -0.026678825 0.014707256 0.093367934 0.086346224 -0.012005761 0.0421138 0.02857745
-0.0997226 0.024838237 0.005577288 -0.113509946 -0.0347402 -0.062679 0.07955668 0.028709862
0.05823414 0.0022559783 -0.063453674 0.012775508

fc3.weight f4 [1297, 84]
00000000: 8898 20bd 3edd 283d 0944 ecbd 833c 973d
00000010: d1c4 aa3c dacb 803d f9de d5bc 7ab2 933d
00000020: 369c 203e 1526 e5bd 625a 16bd 5402 803d
00000030: 96f3 47bd 66fa 0bbd 260d 9c3c bcfb 5a3d
00000040: b3b2 21be e8d4 c43d 5d90 4bbd 7b41 1bbc
00000050: 183a 823d 3a0d 8ebd 9059 603c 7f2d 64bc
00000060: 0639 c23d e375 363d 3470 2e3d 834d 0ebe
00000070: a925 5c3d 2d78 993d c00a 04bc 8e3d 003d
00000080: b848 c3bb 4483 50bd 7bc3 573d f85f 94bb
00000090: 2106 dd3d 4ae4 0abc af43 373d 2be3 163e
000000a0: 714c 793d 740b 00bd 474d d6bd e26f a53d
000000b0: 35a5 cabd cf13 993d 7162 043e ec85 7d3d
000000c0: db28 dabd 1cf7 31bd acc1 49bd 6ad1 37bc
000000d0: fe53 953c c4f6 1ebd fc6b bd3b 8291 ecbc
000000e0: c89a 0f3d b5ff 7fbc ba09 96bd 1880 8b3d
000000f0: a14f 32bd 38b6 50bd 0d44 af3d 10c5 b8bd
00000100: fd50 9d3c f7f9 0e3e 142c 413d e06e 903d
00000110: 87a7 e83c 972c 34bd 2165 ab3c f73e ec3c
00000120: 4d1d cdbd 2bf6 0d3d 2ff6 983d ab63 0bbd
00000130: 40f6 8cbd c578 aebd 8d94 d7bd 9cf2 d2bc
00000140: a234 9ebd fb43 393d 568c 3a3d 76b2 fcbd
00000150: b88e bc3d efac 2dbd 6ce9 02bd 4e82 4c3d
00000160: d585 a23d fbab 153d d583 b53d f184 a2bb
00000170: dd77 003e 89cb d2bd 7f4d 38bd 692a d9bd
00000180: 6cb0 bfbd 5f82 76bd 05f4 bc3d 4baf 08bd
00000190: 32ce 08be 1050 e139 003f 683c ff33 b73d
000001a0: 5b71 c5bd 4188 5bbd 3434 a3bd ee65 403d
000001b0: 8a97 45bd d3d6 b23c 77be ecbd d988 e2bd
000001c0: a74c 98bd 8d58 54bd d50c 7bbd 40fb ae3d
000001d0: e32b 9c3c 23f4 b63d c697 883d ed76 40bc
000001e0: 0fb4 fabc bd00 da3d 0ef2 a6bc 1f57 5e3d
000001f0: 206a b83d 3cd8 34bc 695a a7bd 8e9e 8dbd
00000200: 26fb c6bb 9939 75bd c94a 453d 8e0e 933d
00000210: 0d31 b6bd d7f2 c43d 506e 95bd 77c8 4fbd
00000220: 1ff1 a93d 05fe 2e3b 031a b7bd fffc 273d
00000230: c67a c5bd f944 d8bd c5e0 dd3b 41ec 113c
00000240: 58c8 9ebd 648a b13d 8c13 d23d f46d 323d
00000250: 03b0 0d3d dc01 753d f613 893d 9990 aebd
00000260: df84 103e c261 763d 5551 7a3c 2ad4 dfbc
00000270: 1fe5 db3d 6425 97bd a1b1 3c3d c817 0cbd
00000280: 24aa 893c 4e69 5e3d b103 a5bd d4c9 17bd
00000290: c2d6 a9bc 1d01 4dbd 2a96 9fbd 5082 c0bd
000002a0: a88e 15bd 32e9 d0bd a1ab 1fbc c4b0 903d
000002b0: c8c7 113d 1e42 1ebc c10a 90bc 9b3a 413d
000002c0: 2b96 433e 8a55 dc3c 541e c9bd f54e 05bd
000002d0: ca16 823c 3f6a 75bc c3ba 643d f618 d4bd
000002e0: 7219 a7bd f308 18bd fd23 a3bc dbcd b23d
000002f0: ab05 bd3d 86e6 bfbd 7e17 cd3c d47a 2bbd
00000300: fa77 da3d a7bb 143c 66c9 94bd 6b9f aebd
00000310: 6c91 933c 83a2 b2bb 77a4 1d3d f9a6 b83d
00000320: 9a01 d03d 8bb7 c3bd 53bc 283d 4031 80bd
00000330: 60f5 a4bd 975e 57bb 09c8 8ebd e74b 033e
00000340: 87a2 11bd 6168 063d 39dc 40bb 7347 a3bd
00000350: 8313 e93c 4b07 1f3d f6dc 4c3c 3230 5a3d
00000360: 5e6a 45bd b69c bcbd a3b5 8e39 4c4d f93d
00000370: e162 dabd d017 bbba 3938 d1bd e6ec d03d
00000380: e7e0 afbc 0390 e9bd 87d2 88bd be5a 553c
00000390: 7a1c 8f3d 4a31 e0bd bfc4 6f3d 1547 06be
000003a0: 3edb debc 3d5a 96bc 9c4c e73b 38f8 f5bc
000003b0: 1eb8 763d da08 9f3d 6fa2 59bd f406 81bd
000003c0: f4b9 3f3d 2a9b febd 7b7d 3d3d f8ec e3bd
000003d0: 94dd ac3b 5841 efbc c6ef 84bd 4434 85bd
000003e0: df14 1fbd 7aca 3dbd 40cc 853d 9db5 633c
000003f0: 774f 84bd 851b 54bd b810 b4bd 9948 22bd
-0.039207965 0.041226618 -0.11536414 0.073845886 0.020845803 0.062888816 -0.026107298 0.07211776
0.1568459 -0.11188904 -0.03670729 0.06250444 -0.048816286 -0.034174345 0.019049238 0.05346273
-0.15790825 0.09610921 -0.049698222 -0.009476061 0.06358737 -0.069361165 0.013693228 -0.013926863
0.094835326 0.04454602 0.042587474 -0.13896756 0.053746853 0.07493625 -0.008059204 0.031308703
-0.0059595965 -0.050906435 0.05267666 -0.004528042 0.107921846 -0.00847728 0.044742282 0.14735095
0.060863916 -0.031260923 -0.10463958 0.080779806 -0.09894792 0.07474481 0.12928177 0.061895296
-0.10652324 -0.043448552 -0.049256966 -0.011219362 0.018228527 -0.038809553 0.005780695 -0.028877977
0.03505972 -0.01562493 -0.07326074 0.06811541 -0.04353297 -0.050955027 0.085579015 -0.09021962
0.019203657 0.13962542 0.047161177 0.07052398 0.028400196 -0.043987837 0.020922245 0.028838618
-0.10015354 0.034658592 0.07468831 -0.034030598 -0.06882906 -0.08519129 -0.10526381 -0.02575045
-0.07724883 0.045230847 0.04554399 -0.12338726 0.09206909 -0.04240125 -0.03196089 0.049928956
0.07935683 0.036540966 0.088630356 -0.0049596955 0.12545724 -0.102927275 -0.04499578 -0.10603792
-0.09359822 -0.060182925 0.092262305 -0.033370297 -0.13359907 0.00042974995 0.014175177 0.08945464
-0.096407615 -0.05359674 -0.07968941 0.046972208 -0.048240222 0.021830952 -0.11559766 -0.11061258
-0.07436495 -0.05184226 -0.061291534 0.08544016 0.019063896 0.08933284 0.066695735 -0.011747104
-0.030603437 0.10644672 -0.020379093 0.054282304 0.09004617 -0.011037882 -0.08171541 -0.069150075
-0.0060724197 -0.059869383 0.048167024 0.071805105 -0.088960744 0.096166305 -0.07296431 -0.050728288
0.08297943 0.00267017 -0.08940508 0.04101276 -0.09642558 -0.105600305 0.0067711794 0.008906425
-0.07753056 0.08668974 0.102576345 0.04356189 0.034591686 0.059816226 0.0669326 -0.085236736
0.14113186 0.060151823 0.01527818 -0.027322847 0.10737061 -0.073801786 0.046067838 -0.034202367
0.016804762 0.054299645 -0.08057345 -0.037057713 -0.020732287 -0.05004989 -0.077923134 -0.09399855
-0.036513 -0.102007285 -0.009745509 0.07064965 0.035590917 -0.009659318 -0.017583253 0.04717503
0.19100253 0.026896257 -0.09820238 -0.032546002 0.015880007 -0.014978944 0.055842172 -0.103563234
-0.0815915 -0.03711791 -0.019914621 0.0873067 0.09229597 -0.09370141 0.025035616 -0.041865185
0.10667415 0.009077943 -0.07264976 -0.085265 0.018013678 -0.005451502 0.038486924 0.090162225
0.101565555 -0.095564924 0.041195225 -0.06259394 -0.08054614 -0.0032862776 -0.069717474 0.12821923
-0.03555539 0.032814387 -0.0029428138 -0.07972612 0.028451687 0.038825314 0.012503853 0.05326862
-0.048197143 -0.09209578 0.0002721968 0.12172946 -0.10663391 -0.0014274064 -0.10215802 0.10201435
-0.021469546 -0.11404421 -0.0668078 0.013022123 0.06987853 -0.10946901 0.05853724 -0.13113053
-0.027204152 -0.018353576 0.007058693 -0.030025586 0.06023418 0.0776536 -0.053133424 -0.06300154
0.046808198 -0.12431939 0.046262246 -0.111291826 0.0052754376 -0.029205963 -0.06491046 -0.065041095
-0.038838264 -0.046335675 0.06533098 0.01389828 -0.06460469 -0.051784057 -0.08792251 -0.039620016

fc3.bias f4 [1297]
00000000: 7b56 833d f451 95bd 4012 47bd 89ae a93d
00000010: 19ec 65bd 65ad b73d 4532 183c 895f 603c
00000020: efe3 6ebd 729e 6bbd f1e1 95bd fc12 3c3c
00000030: 8fab 843d de6c 11bd 8325 96bd 49b8 d53d
00000040: 3edf 52bc c7b1 e23d 220a 23bd c0bd c0bd
00000050: 992b 9c3d 37d1 863d 9f41 a6ba 6316 b7bd
00000060: 0c5e 46bd ac35 cdbc e020 9c3d 108b ad3d
00000070: 2c7a 723d d4f8 523d fde3 5ebd 6081 5abd
00000080: 7d1e 8fbc ecfa 063a b226 87bd 3d2a 2a3d
00000090: 1b92 3bbd 500d 82bd 41e5 843d 255b 68bd
000000a0: bf90 afbd 216c c33d 79f5 a5bc 2843 4cbd
000000b0: 356d aebd 8942 86bd 8ef6 843d 10b6 9fbd
000000c0: 9f45 3dbb 2876 07bd 8745 103d fb5b 6dbd
000000d0: 88e3 e43d 8ad7 a53d f40f 4fbd 2e30 1e3d
000000e0: 5c67 cebc 7380 ebbb 344e 0ebd fa86 b53d
000000f0: 6bba 8bbd 8afd 63bd dd7f a83c d46d 5a3d
00000100: 8af8 ceba 5636 04bd 3339 3d3d 0a04 d03d
00000110: eb1f a93d 033a 753d a87c 6fbd 3c20 9e3d
00000120: 7178 35bd 9440 08bd c86e afbd 7781 7e3d
00000130: 00d2 1a3c ad95 f5bc b516 213d 90ac 79bc
00000140: 7d91 33bd 1de2 9fbd 3bee 3bbd 0bd0 ce3d
00000150: eccb 43bd 0085 453d ba16 803b 5b44 6ebd
00000160: 7192 48bc fafe 9039 68d6 15bd 3c98 66bd
00000170: cc20 c43d 6740 08bc 4ea6 0f3b 88a2 46bd
00000180: ae0f 26bb 7b03 b3bd 258c 60bd 7911 853d
00000190: 6aa8 97bd cf71 993d 767d 7ebb 6152 59bd
000001a0: 3fef 05bd fb77 66bd 4f2e c3bd 14e0 bd3d
000001b0: 2bd7 193d 940a 3a3d 5d9d 0c3d 5e4c 143c
000001c0: a4a6 173c 53b1 eabc e48f 88bd 7bb1 933d
000001d0: d393 b53d 77a0 a4bb 3c3e 903c 83bb 13bd
000001e0: 6dcd afbd 3066 963b 4a1f 8abd 309b d63d
000001f0: 090e 563c f76d d03d 20cb a0bd ffd8 203c
00000200: 7a27 bfbd c5d8 6d3d a89b 3cbc 5d39 a6bd
00000210: acf5 a53c 4874 91bd 4bd8 42bd 2329 d63c
00000220: cf6c e33d baf8 9cbd 3e1c cbbd 997f 213d
00000230: f34f d73d 6f0a 0039 22b1 9ebb 0b15 43bd
00000240: 5088 e23d 4660 1a3d 50ca c4bd 628f 943d
00000250: 31de a93d 011f 1f3d dbd1 acbc 73f8 063d
00000260: 0e9b bb3d eb15 e0bb 1315 363d b93f 5a3d
00000270: 0fcf a8bc 3fcc 09bd 2d61 54bd d900 373d
00000280: 5bba 9ebd c4d5 bd3c 09bb 203d 02fe 56bc
00000290: 4738 c3bb f73f b0bd 0f61 bb3d a812 8e3d
000002a0: f26e 733c 7712 8fbd 2d4d f1bb 5bbd 30bd
000002b0: c295 80bd e8ac d43d 69d8 bbbd 8a50 043d
000002c0: 58a1 cabc bc40 aa3d 7670 b43d 0481 f5bc
000002d0: 5ff8 a6bd 586d dc3d dec5 113d 6977 d73c
000002e0: c024 e5bc 451b d13c 7639 8cbd 6945 ce3d
000002f0: 52ad 4abd 7aa4 423d 6d37 edb9 969e d33d
00000300: ed2a d1bd 65d8 67bd 2302 ef39 a71c e13a
00000310: 27bd 803c 3331 85bd bcd7 423d 46f5 d6bc
00000320: 2c15 f03d 4884 53bc 5e81 0c3d 2558 0ebd
00000330: f398 24bd 7eed a83d 9807 adbd 78d1 a0bd
00000340: 04d8 08bc 9068 083d f466 c53d 4e6a 99bd
00000350: 9325 edbc e9c9 d43d 03af ecba f189 c1bd
00000360: f8f4 373b b876 6ebd 04ec ed3c 974a bdbd
00000370: 363f 1e3d a6af 43bd 1eee d33c 51e5 a93d
00000380: 9e78 d23d ce17 bbbd baff bc3d 0b3f a6bd
00000390: 49f5 b1bd b91e 323d 307c bf3d eec4 f93d
000003a0: 6446 053d 5c6a 053a c8eb b2bd 714e 34bc
000003b0: ecd3 bfbd 92fe e53d a0c0 1a3d 5786 f4bb
000003c0: 2ea4 473d 1313 c6bd bdf0 aa3d e894 873d
000003d0: 0b04 14bd e69f 573d 74b8 3e3d b1f1 3b3d
000003e0: ad2a 1f3d e12d a63c f1c0 e4bc 64d3 c63d
000003f0: b1c5 d43c 2cc0 92bd a523 5b3c 1802 da3c
0.06412979 -0.07291022 -0.04860139 0.08285243 -0.056133363 0.08968619 0.009289329 0.013694652
-0.058322843 -0.057524152 -0.073184855 0.011479136 0.06478035 -0.035504214 -0.073313735 0.1043554
-0.012870608 0.110690646 -0.039804585 -0.09411192 0.07625503 0.06582873 -0.0012684352 -0.08939817
-0.048429534 -0.025050007 0.07623458 0.0847379 0.059198543 0.051506832 -0.054416645 -0.053346038
-0.017470593 0.00051490846 -0.065991774 0.041544188 -0.045793634 -0.063501954 0.06489039 -0.056727547
-0.0857253 0.09542108 -0.020258652 -0.049868733 -0.08516923 -0.06555659 0.06492339 -0.077983975
-0.0028880609 -0.033071667 0.035222556 -0.057949048 0.11176211 0.080977514 -0.050552323 0.038620166
-0.02519577 -0.007186943 -0.03474255 0.08863635 -0.06822666 -0.055661716 0.020568782 0.053327397
-0.0015790623 -0.03227838 0.046197128 0.101570204 0.08258041 0.059869777 -0.05846849 0.07720992
-0.044304315 -0.03326471 -0.08566052 0.062135186 0.009449482 -0.029978598 0.039328296 -0.015238896
-0.04383992 -0.078067996 -0.04588149 0.10098275 -0.047801897 0.04822254 0.003908959 -0.058170658
-0.012241946 0.00027655793 -0.036581427 -0.056297526 0.09576568 -0.008316136 0.0021919194 -0.048494846
-0.0025338936 -0.08740898 -0.054821152 0.06497473 -0.07405169 0.074924104 -0.0038832105 -0.05305708
-0.032698866 -0.056266766 -0.09530317 0.09271255 0.037558716 0.045420244 0.03432976 0.0090514105
0.009256039 -0.028649008 -0.0666807 0.07211586 0.08866086 -0.0050240117 0.0176078 -0.036067497
-0.08584104 0.0045898184 -0.06744249 0.104788184 0.01306487 0.10177224 -0.07851243 0.009817361
-0.093337014 0.058068056 -0.011511721 -0.0811641 0.020258747 -0.07102257 -0.047569554 0.026142662
0.11104738 -0.07664628 -0.09917496 0.039428327 0.10513296 0.00012210918 -0.004842893 -0.04762749
0.11061156 0.03768947 -0.096089005 0.072539106 0.08294333 0.038847927 -0.02109616 0.032951783
0.09160434 -0.0068385503 0.04445369 0.053283427 -0.020606546 -0.03364205 -0.051850487 0.044678543
-0.07750388 0.02317322 0.03924087 -0.013122084 -0.0059576365 -0.0860595 0.09149372 0.06937152
0.014857994 -0.06985944 -0.0073639364 -0.043149333 -0.06278564 0.10384542 -0.09172136 0.03230337
-0.024735138 0.08313128 0.08810513 -0.029968746 -0.08152842 0.10763043 0.03558909 0.026302056
-0.027971625 0.025525698 -0.06846897 0.10071833 -0.049481697 0.04752014 -0.00045245458 0.10332982
-0.102132656 -0.056602854 0.00045587224 0.0017174677 0.015715195 -0.06503525 0.04756902 -0.026240002
0.11722788 -0.012909956 0.03430306 -0.03475203 -0.040184926 0.08248423 -0.08448714 -0.07852453
-0.008352283 0.033302844 0.096387774 -0.07490979 -0.02894858 0.10390074 -0.0018057529 -0.09450138
0.0028069597 -0.058218688 0.029043205 -0.092427425 0.0386345 -0.047774933 0.025870379 0.08295692
0.10276912 -0.091354 0.092284635 -0.08117493 -0.086893626 0.04348633 0.09349859 0.121957645
0.032537833 0.0005089396 -0.08736378 -0.01100503 -0.09366593 0.11230196 0.037781358 -0.0074623036
0.04874056 -0.09671607 0.083466984 0.066201985 -0.03613667 0.052642725 0.046562627 0.04588479
0.03885906 0.020285549 -0.027924033 0.09708288 0.025973173 -0.0716556 0.013375198 0.026612327
