models/1296_pixels/15.pt (torch, 771783 bytes, 10 tensors)

conv1.weight f4 [6, 1, 5, 5]
-0.08405959 -0.14475165 -0.46141905 0.11775412 -0.15706997 0.57589287 -0.3136182 0.029517375
-0.47596064 0.27465546 -0.4824738 -0.4034357 -0.15893444 -0.31262726 -0.4414038 0.16155854
0.4795132 -0.15321423 -0.26126662 0.44573748 0.09835477 -0.10738323 -0.101556994 0.2827362
-0.33038297 -0.3987999 0.21678846 -0.0778954 0.049971625 0.27492675 0.07470141 -0.503902
-0.592003 -0.57698184 0.37964755 0.06667513 -0.11234702 0.33388454 -0.48353493 -0.2426633
0.22214612 0.24801962 -0.49051195 -0.2958384 -0.42575657 -0.3850578 -0.4404102 -0.05097892
-0.12196805 -0.37595373 -0.075137064 -0.057604577 0.17765091 0.20476575 0.05916986 -0.0032023957
0.06779677 0.20177688 -0.029364228 0.06324666 0.21748535 0.02231326 0.16667894 0.016052296
0.14272214 0.2062293 0.18879342 0.05821537 0.18680492 0.18915 0.12186284 0.18244044
-0.018891303 0.2160533 0.1888077 0.105607636 0.20347728 -0.43718368 -0.43662792 0.2845253
-0.22246043 -0.2135489 0.5436146 -0.3606163 0.5387563 -0.041993372 0.07736517 0.57977104
-0.31295493 -0.03785693 -0.0922163 -0.39107507 -0.1928097 -0.1901696 -0.31519935 -0.31521952
0.2862598 -0.35232806 0.3523294 -0.31406695 0.3442007 0.41582045 -0.19628108 -0.12697981
0.036921423 -0.05305356 -0.2671069 -0.2392908 -0.14811318 0.16887666 0.23606709 0.11626102
-0.4977789 0.3456685 -0.5614248 -0.48649678 -0.45323873 -0.5306384 0.3351065 0.27828553
0.16566561 0.38903487 0.06819441 0.25720972 0.26468652 -0.02792982 0.053659234 0.0952996
0.12195477 0.16455504 0.041265965 0.17512159 0.05793945 0.10743102 0.16815065 0.18708523
0.068282 0.03277718 -0.043187 -0.015225384 0.14997795 0.1770814 0.20526841 -0.061453503
0.1333854 0.21596602 0.2232381 0.05931916 0.040023107 -0.04204624
00000000: 6f27 acbd c739 14be 1e3f ecbe 1229 f13d
00000010: f3d6 20be b76d 133f 9192 a0be 6cce f13c
00000020: 1db1 f3be a49f 8c3e ce06 f7be 208f cebe
00000030: b6bf 22be ae10 a0be aeff e1be 9a6f 253e
00000040: c182 f53e 31e4 1cbe bdc4 85be b437 e43e
00000050: 3a6e c93d bdeb dbbd 1dfd cfbd cdc2 903e
00000060: f527 a9be 802f ccbe cbfd 5d3e a087 9fbd
00000070: 0caf 4c3d 33c3 8c3e 0efd 983d b9ff 00bf
00000080: 828d 17bf 15b5 13bf 2a61 c23e f88c 883d
00000090: 3216 e6bd eaf2 aa3e e491 f7be ba7c 78be
000000a0: 467a 633e dbf8 7d3e 6224 fbbe 2178 97be
000000b0: c4fc d9be 4c26 c5be 727d e1be 46cf 50bd
000000c0: 63ca f9bd 027d c0be 76e1 99bd c7f2 6bbd
000000d0: 1fea 353e 1dae 513e 185c 723d 49df 51bb
000000e0: 08d9 8a3d 999e 4e3e 408d f0bc 7787 813d
000000f0: 7bb4 5e3e 4cca b63c e2ad 2a3e 1b80 833c
00000100: c125 123e c62d 533e 1053 413e 3d73 6e3d
00000110: ca49 3f3e 8ab0 413e 3a93 f93d abd1 3a3e
00000120: efc1 9abc 143d 5d3e ce56 413e d148 d83d
00000130: 595c 503e 8ad6 dfbe b28d dfbe 4dad 913e
00000140: abcc 63be 90ac 5abe 542a 0b3f b3a2 b8be
00000150: efeb 093f 3e01 2cbd a171 9e3d e06b 143f
00000160: a13b a0be de0f 1bbd e6db bcbd fe3a c8be
00000170: e86f 45be d2bb 42be cf61 a1be 7464 a1be
00000180: a590 923e 5864 b4be 8564 b43e 62cd a0be
00000190: 133b b03e 6be6 d43e e8fd 48be ff06 02be
000001a0: eb3a 173d b14e 59bd 3cc2 88be a608 75be
000001b0: fbaa 17be 01ee 2c3e 92bb 713e 421a ee3d
000001c0: e0dc febe 76fb b03e 89b9 0fbf 1b16 f9be
000001d0: e80e e8be ebd7 07bf 1493 ab3e 717b 8e3e
000001e0: 3fa4 293e 942f c73e 83a9 8b3d feb0 833e
000001f0: fe84 873e 14cd e4bc c9c9 5b3d 702c c33d
00000200: 6cc3 f93d 1e81 283e 8006 293d 1353 333e
00000210: eb51 6d3d cb04 dc3d af2f 2c3e 4593 3f3e
00000220: 6fd7 8b3d 5d41 063d dae4 30bd e473 79bc
00000230: d293 193e d454 353e e231 523e abb6 7bbd
00000240: 2f96 083e 3226 5d3e 8798 643e a6f8 723d
00000250: 45ef 233d ae38 2cbd

conv1.bias f4 [6]
1.015804 1.6459655 -0.3333017 0.7642743 -0.0071642078 -0.29915494
00000000: de05 823f ffae d23f 85a6 aabe 7ba7 433f
00000010: bbc1 eabb d62a 99be

conv2.weight f4 [16, 6, 5, 5]
0.032123115 0.17666784 0.03817829 0.04764879 0.10077246 0.1881605 0.006112891 0.15271668
0.018701047 0.19698495 0.17111813 0.05416709 0.13941202 0.08186413 0.1529273 0.16807717
0.05248329 0.17472589 0.023881959 0.14728706 0.15068793 0.16509986 0.12469482 0.046735696
0.043536898 0.18217462 0.19626473 0.15318637 0.11024044 0.0769901 0.07854213 0.047388885
0.07075562 0.090689704 0.082794964 0.13953249 0.18676347 0.22005832 0.14604159 0.16041246
0.2120205 0.100281335 0.054684848 0.058963683 0.23675746 0.1253757 0.1994869 0.21686697
0.20038185 0.21046863 -0.09587704 -0.096709386 -0.015397518 -0.016070234 -0.090091154 0.02107851
0.07930785 -0.0631069 -0.09398194 0.074949265 -0.02859289 0.032395437 0.097659215 0.010762977
0.06593692 0.020711346 0.039501153 -0.06353567 -0.0268445 -0.03132543 -0.07574886 0.046657205
-0.07344925 0.043712225 -0.04591796 0.015738107 0.18089491 -0.005006514 0.1184373 0.1578532
0.13465738 0.15928686 0.14442615 0.15401919 0.1287456 0.15308538 0.04540481 0.15249878
0.0994806 0.07701982 0.18367913 0.07768599 0.16405341 0.10517656 0.13512161 0.11491848
0.1759727 0.1630365 0.06954438 0.08002323 0.11618989 0.112767145 0.11857572 0.09887028
0.16098149 0.17855097 -0.005359835 0.052159816 0.058941785 0.12575702 0.079041645 0.0011008531
0.13267663 0.09281072 0.120940566 0.0021549552 0.042057607 0.14069524 0.009159052 0.09756559
-0.0055177086 0.051740102 0.10341399 0.107739665 0.022571832 -0.08574646 0.028171971 0.020602847
0.062483113 -0.09037623 -0.020323437 -0.047656488 0.1079526 0.019030679 0.014348596 0.009128824
-0.0150063075 0.04623992 -0.020896154 0.10656373 0.09970063 0.05265817 -0.0867618 0.0012459451
-0.0107750865 0.0677913 -0.08814428 -0.012980067 -0.051800266 0.06776016 0.04184986 0.0072689895
-0.02895171 0.09236707 0.089261696 0.08777049 0.060344264 0.020519411 -0.029007047 0.03772752
-0.0052197063 -0.027001368 -0.067761995 0.03134661 0.01647407 -0.013948107 0.07951812 0.050136805
-0.032540746 -0.0017592805 -0.065914646 -0.032540075 -0.059976026 0.023077365 0.062042844 -0.058024358
0.0036234967 -0.04816553 0.04413334 -0.021673923 -0.009926841 -0.011133168 -0.031420894 0.010314514
-0.07476727 -0.0017346664 -0.03082085 0.04088452 0.08890222 -0.004081024 0.020005563 -0.0478301
-0.012684671 -0.01093922 -0.06513451 0.07136278 -0.0077988054 -0.06551622 -0.037909646 0.07568153
0.00949848 0.017765788 0.020558793 -0.008530899 -0.064132325 -0.065332204 -0.08306547 -0.037017602
-0.07062513 -0.049774908 -0.07132493 -0.010848992 -0.03574668 0.07689632 -0.02751457 -0.0029290465
0.0647753 0.03186634 0.008840723 0.016212203 0.027407851 0.0282249 -0.015078206 0.042208757
0.058982875 0.096670225 0.052782316 -0.059341267 0.037364084 0.08225296 0.059094485 0.07715731
-0.03725626 -0.06553098 0.04828343 0.013868875 -0.028541692 -0.037449155 0.041103374 -0.026888592
0.054766275 0.08151217 0.086072594 -0.062680066 -0.06345393 0.07845908 0.001785945 0.038105898
-0.061827913 -0.04632466 0.0714602 0.038516603 -0.045168303 0.058451373 0.022301216 -0.020199588
00000000: 8793 033d 6ae8 343e d760 1c3d 612b 433d
00000010: cb61 ce3d 25ad 403e a54e c83b c361 1c3e
00000020: f032 993c 6cb6 493e 9739 2f3e 50de 5d3d
00000030: 06c2 0e3e 62a8 a73d f998 1c3e 6c1c 2c3e
00000040: b8f8 563d 58eb 323e 19a4 c33c 6bd2 163e
00000050: f04d 1a3e f00f 293e ff5f ff3d ee6d 3f3d
00000060: bf53 323d fc8b 3a3e 9ff9 483e e3dc 1c3e
00000070: bdc5 e13d fcac 9d3d b2da a03d d91a 423d
00000080: 53e8 903d 86bb b93d 6890 a93d 9be1 0e3e
00000090: ec3e 3f3e f856 613e ed8b 153e 2a43 243e
000000a0: e71b 593e 4d60 cd3d 38fd 5f3d e783 713d
000000b0: 8c70 723e 7d62 003e 4b46 4c3e 6012 5e3e
000000c0: e630 4d3e 1785 573e 2e5b c4bd 920f c6bd
000000d0: df45 7cbc b9a5 83bc b681 b8bd d7ac ac3c
000000e0: 276c a23d 313e 81bd 9a79 c0bd 007f 993d
000000f0: a33b eabc 14b1 043d 8e01 c83d 3357 303c
00000100: f009 873d d7aa a93c f6cb 213d fd1e 82bd
00000110: ffe8 dbbc 184f 00bd 3822 9bbd a01b 3f3d
00000120: 8f6c 96bd 970b 333d 7914 3cbd 34ed 803c
00000130: 843c 393e af0d a4bb 418f f23d 45a4 213e
00000140: a0e3 093e 181c 233e 73e4 133e 35b7 1d3e
00000150: e3d5 033e 6ac2 1c3e 65fa 393d a428 1c3e
00000160: 7cbc cb3d 91bc 9d3d 6216 3c3e d519 9f3d
00000170: 9efd 273e cf66 d73d 525d 0a3e 615a eb3d
00000180: 3032 343e 0af3 263e 496d 8e3d 38e3 a33d
00000190: f7f4 ed3d 76f2 e63d d4d7 f23d 807c ca3d
000001a0: 55d8 243e 11d6 363e 8ea1 afbb 88a5 553d
000001b0: f16c 713d 73c6 003e 96e0 a13d 804a 903a
000001c0: 62dc 073e 8c13 be3d b0af f73d 263a 0d3b
000001d0: 9944 2c3d 6a12 103e d90f 163c 78d0 c73d
000001e0: e5cd b4bb 6eed 533d b7ca d33d 9da6 dc3d
000001f0: 90e8 b83c d79b afbd e8c8 e63c 4dc7 a83c
00000200: 4bee 7f3d 2c17 b9bd 567d a6bc 7333 43bd
00000210: 4116 dd3d 3ae6 9b3c 6016 6b3c 1091 153c
00000220: 04dd 75bc 1266 3d3d 692e abbc 163e da3d
00000230: d82f cc3d 18b0 573d 2cb0 b1bd fb4e a33a
00000240: fd89 30bc 2ad6 8a3d fd84 b4bd 59aa 54bc
00000250: 842c 54bd d7c5 8a3d c26a 2b3d b430 ee3b
00000260: 232c edbc f22a bd3d d6ce b63d 04c1 b33d
00000270: 8c2b 773d 5318 a83c 30a0 edbc 2c88 1a3d
00000280: 120a abbb f931 ddbc cdc6 8abd 4e65 003d
00000290: a1f4 863c 9a86 64bc 65da a23d 405c 4d3d
000002a0: 7249 05bd a897 e6ba 42fe 86bd be48 05bd
000002b0: 6ca9 75bd be0c bd3c a320 7e3d f3aa 6dbd
000002c0: 3078 6d3b 3849 45bd 29c5 343d 838d b1bc
000002d0: 30a4 22bc e467 36bc 32b3 00bd 35fe 283c
000002e0: 951f 99bd bf5d e3ba 027c fcbc 8776 273d
000002f0: 5e12 b63d 1cba 85bb b5e2 a33c 7fe9 43bd
00000300: 5ed3 4fbc 6a3a 33bc 3e65 85bd a626 923d
00000310: 1f8d ffbb 5e2d 86bd 2547 1bbd ebfe 9a3d
00000320: 839f 1b3c 8f89 913c ea6a a83c 2fc5 0bbc
00000330: cf57 83bd e4cc 85bd 3b1e aabd c59f 17bd
00000340: e8a3 90bd c6e0 4bbd ce12 92bd f8bf 31bc
00000350: 1c6b 12bd d17b 9d3d 3c66 e1bc 3ff5 3fbb
00000360: eaa8 843d 4886 023d aed8 103c 74cf 843c
00000370: 6e86 e03c e837 e73c 940a 77bc 17e3 2c3d
00000380: 0798 713d 0afb c53d 4532 583d d40f 73bd
00000390: 150b 193d 3d74 a83d 0f0d 723d a704 9e3d
000003a0: 059a 18bd 1b35 86bd d9c4 453d 473a 633c
000003b0: 44d0 e9bc 4964 19bd 035c 283d 7745 dcbc
000003c0: 9a52 603d daef a63d d446 b03d 685e 80bd
000003d0: 22f4 81bd 27af a03d 5f16 ea3a ee14 1c3d
000003e0: 443f 7dbd edbe 3dbd ba59 923d 96c3 1d3d
000003f0: 6602 39bd b56a 6f3d 0ab1 b63c 9b79 a5bc

conv2.bias f4 [16]
0.12901203 -0.03387391 0.08208341 -0.00054463226 -0.20943515 0.114417106 -0.06573707 0.064565994
-0.051200166 0.048380617 0.027165024 0.080870815 -0.004154471 -0.12868062 -0.050171096 -0.019450542
00000000: bb1b 043e 5ebf 0abd 591b a83d a7c5 0eba
00000010: 2b76 56be 8453 ea3d 28a1 86bd 2d3b 843d
00000020: 44b7 51bd c12a 463d 2f89 de3c 999f a53d
00000030: 3b22 88bb dac4 03be 3580 4dbd be56 9fbc

fc1.weight f4 [120, 576]
-0.0027219544 -0.008689307 -0.00841609 -0.0006580198 0.021670893 -0.024846809 -0.022886401 -0.010589574
0.007774131 0.0051747733 -0.014122781 -0.023323685 0.013219461 -0.007117793 0.015702652 0.02750819
-0.0035061245 -0.038553987 -0.018118307 -0.023671148 0.037427224 0.011505355 -0.015160499 -0.037934273
0.00093370356 -0.0049510114 -0.040935587 0.011128366 -0.031105531 -0.009124206 0.031402905 0.024892086
0.03987353 -0.040677045 -0.013145757 -0.040473975 0.021472912 0.019118652 0.040272355 0.034273427
-0.03764197 0.02769559 0.0078492435 -0.034372207 0.041039743 -0.02916051 -0.0065014362 0.032998223
0.02352568 -0.0101950215 -0.030900093 0.02198065 -0.02273742 0.009569799 0.020047309 -0.011872004
-0.02587093 0.008239385 0.015202765 0.03572437 0.0021277051 0.015091456 -0.01108351 0.040300477
-0.0072748214 0.022084525 0.019204732 -0.025001703 -0.03809085 0.000975128 0.00073630887 0.036291525
0.025049962 0.021764865 -0.0148958545 0.040510453 0.011737561 0.0014307676 0.016639926 0.0009887426
0.024620745 0.0005590023 0.029555283 -0.030032795 -0.03582375 -0.037777655 0.037729587 -0.0140902
0.018193819 0.02430829 0.012934967 -0.037404224 0.011085121 -0.006620359 -0.026740938 0.03484319
-0.038901426 -3.4269753e-05 0.026118936 0.02221223 0.019229457 -0.030800806 -0.0093143 0.014442676
0.035534218 0.013537184 -0.03276181 0.029951274 0.026595637 0.0004305641 -0.015368253 -0.016069299
0.01865254 -0.0060307086 -0.0022664368 0.02757993 0.014362454 0.026561743 -0.011374245 -0.020599723
-0.017383423 -0.024392486 0.005723407 0.02519179 0.0024906895 0.016459253 -0.0037844877 -0.031279758
0.0072366 0.015365477 0.023224503 -0.012496209 0.019432187 -0.00056639314 -0.0064970455 0.028877866
-0.011303147 0.028217917 -0.0036842674 -0.024203673 0.022113811 -0.027016744 0.0058392137 -0.022944894
0.009987486 0.0042521125 0.00309947 -0.041965708 0.020402392 0.0020549889 -0.029599415 0.0136468755
0.033348586 -0.020536564 0.00076847436 0.034002453 0.0011584187 -0.02074325 -0.002282312 -0.0011376416
-0.030022452 0.024467433 -0.024237366 -0.039362606 0.00312287 0.022268312 -0.04150467 -0.0034885178
0.03148115 -0.011477163 0.0029573485 0.0074587483 -0.030228604 -0.03912923 0.027442819 -0.004085584
0.0060427072 -0.027968967 -0.004955209 0.01453422 0.017911889 0.032374304 0.0046898033 0.009138146
-0.005325074 -0.03315371 -0.017233003 0.037376758 -0.02870672 0.028702388 -0.034583937 0.0011775055
-0.025217567 0.03666346 0.02959274 0.0027497807 0.0030718385 0.01681434 -0.01442786 -0.02861093
-0.04097829 0.025817486 0.02307539 0.023771843 -0.026219785 -0.00087400555 -0.0136456415 -0.03859238
-0.009541276 -0.028551636 0.009131492 -0.008884941 -0.013220354 -0.019485403 0.02041272 0.034116328
0.033832185 0.026098993 0.017311623 -0.031932216 -0.020653944 -0.027437627 0.009588237 -0.0044376655
0.039887443 0.018445116 0.02607589 -0.016076788 -0.020259779 -0.030285444 0.024237048 -0.012260616
0.038455926 -0.020037174 -0.036719613 -0.030976688 -0.034776233 -0.0007503977 0.030708527 -0.034871873
-0.016813075 -0.016194563 0.016449928 0.0062992573 0.029675161 0.02465507 0.02721866 0.033553742
-0.033008367 0.017068949 -0.004942035 0.02808192 0.03945852 0.007367201 -0.028293815 -0.0029856504
00000000: d162 32bb 985d 0ebc a4e3 09bc f67e 2cba
00000010: 2887 b13c 898b cbbc 437c bbbc e57f 2dbc
00000020: 23be fe3b 2591 a93b 3d63 67bc 5011 bfbc
00000030: 7096 583c 603c e9bb d9a2 803c db58 e13c
00000040: 02c7 65bb c9ea 1dbd d86c 94bc ffe9 c1bc
00000050: 4a4d 193d f580 3c3c be63 78bc f860 1bbd
00000060: c9c3 743a 183c a2bb 13ac 27bd c053 363c
00000070: 07d1 febc b27d 15bc 55a0 003d 7dea cb3c
00000080: 6d52 233d f99c 26bd 4d61 57bc 0ac8 25bd
00000090: f6e7 af3c b89e 9c3c a0f4 243d 4b62 0c3d
000000a0: 772e 1abd dde1 e23c 1d9a 003c dfc9 0cbd
000000b0: 4a19 283d 06e2 eebc 000a d5bb 2529 073d
000000c0: edb8 c03c 0509 27bc 3122 fdbc c410 b43c
000000d0: d343 babc a5ca 1c3c 413a a43c cb82 42bc
000000e0: 46ef d3bc 7cfe 063c 0515 793c b853 123d
000000f0: f870 0b3b 2742 773c 9c97 35bc 1d12 253d
00000100: a061 eebb 9bea b43c 3e53 9d3c 5fd0 ccbc
00000110: 2705 1cbd bb9f 7f3a da04 413a 6ca6 143d
00000120: 9435 cd3c 3b4c b23c be0d 74bc 4aee 253d
00000130: e64e 403c 9888 bb3a 7450 883c b298 813a
00000140: 72b1 c93c 028a 123a ec1d f23c 5607 f6bc
00000150: edbb 12bd bebc 1abd 578a 1a3d 95da 66bc
00000160: 340b 953c 2e22 c73c 2fed 533c 2c35 19bd
00000170: 5e9e 353c 99ef d8bb d00f dbbc bcb7 0e3d
00000180: 1a57 1fbd debc 0fb8 61f7 d53c 6cf6 b53c
00000190: 1887 9d3c f951 fcbc 019b 18bc f9a0 6c3c
000001a0: 548c 113d 11cb 5d3c 3f31 06bd 605c f53c
000001b0: 18df d93c 56bd e139 20cb 7bbc c3a3 83bc
000001c0: 36cd 983c 409d c5bb 8088 14bb 4eef e13c
000001d0: 8050 6b3c 0398 d93c 0b5b 3abc c0c0 a8bc
000001e0: ae67 8ebc c0d2 c7bc 6b8b bb3b 035f ce3c
000001f0: d63a 233b 8ed5 863c 2b05 78bb 341f 00bd
00000200: 0021 ed3b 7bbf 7b3c 5041 be3c e6bc 4cbc
00000210: 4030 9f3c 007a 14ba 2be5 d4bb 4691 ec3c
00000220: d630 39bc 4329 e73c c073 71bb c846 c6bc
00000230: 0628 b53c 3852 ddbc e056 bf3b eef6 bbbc
00000240: 8da2 233c 4e55 8b3b 7a20 4b3b 3ce4 2bbd
00000250: eb22 a73c feac 063b 797a f2bc 2597 5f3c
00000260: 8798 083d 4c3c a8bc 7173 493a 2846 0b3d
00000270: 15d6 973a c0ed a9bc d792 15bb eb1c 95ba
00000280: a5f1 f5bc ed6f c83c 718d c6bc af3a 21bd
00000290: 11a9 4c3b 096c b63c cd00 2abd 9e9f 64bb
000002a0: 61f2 003d b60a 3cbc 13d0 413b 8468 f43b
000002b0: faa1 f7bc f945 20bd c3cf e03c 5de0 85bb
000002c0: e701 c63b 2d1f e5bc 4e5f a2bb f020 6e3c
000002d0: f4bb 923c eb9a 043d ecac 993b 2ab8 153c
000002e0: f57d aebb 2fcc 07bd 3a2c 8dbc 5f18 193d
000002f0: 5b2a ebbc 4521 eb3c e3a7 0dbd 8756 9a3a
00000300: 1295 cebc 6d2c 163d 796c f23c aa35 343b
00000310: e650 493b 3abe 893c d562 6cbc 7861 eabc
00000320: dad8 27bd 317f d33c 9a08 bd3c 2bbd c23c
00000330: e0ca d6bc 851d 65ba f891 5fbc 0b13 1ebd
00000340: 0353 1cbc 1fe5 e9bc 419c 153c 2592 11bc
00000350: 2f9a 58bc da9f 9fbc 9438 a73c 90bd 0b3d
00000360: 9e93 0a3d 8ecd d53c 1bd1 8d3c 5bcb 02bd
00000370: 7632 a9bc e0c4 e0bc fb17 1d3c d669 91bb
00000380: 0461 233d 361a 973c 1b9d d53c 78b3 83bc
00000390: d6f7 a5bc 2e19 f8bc c68c c63c c0e0 48bc
000003a0: f683 1d3d 0025 a4bc 4e67 16bd d3c2 fdbc
000003b0: 8671 0ebd 56b6 44ba 7390 fb3c cfd5 0ebd
000003c0: 93bb 89bc 76aa 84bc 00c2 863c 006a ce3b
000003d0: 5319 f33c 6ef9 c93c abf9 de3c a66f 093d
000003e0: c833 07bd 2ed4 8b3c cbf0 a1bb 0e0c e63c
000003f0: 429f 213d 9068 f13b 6ec8 e7bc e7aa 43bb

fc1.bias f4 [120]
-0.02491327 0.018412346 -0.009429614 0.037549697 0.007550084 0.024901116 0.01490475 0.0022664052
-0.027390633 0.012250132 -0.006675875 0.028986428 0.0334893 -0.026307106 0.012962964 -0.0031741539
-0.03770688 0.012093048 -0.014977093 -0.004117688 -0.041464347 0.041217655 -0.015535963 -0.019051103
0.0020955142 0.016326722 0.019511452 0.01964122 0.030590398 0.023669826 0.020731483 -0.010120914
-0.012222441 -0.02604212 -0.03222794 -0.04572345 -0.03954744 -0.041550588 0.025157012 0.040896025
0.0008642603 0.026008679 -0.017175617 -0.012401562 0.008730001 -0.0046392838 0.014952047 -0.02403041
-0.02194731 0.0016219377 0.049494028 0.023094349 -0.030253494 0.040064417 0.046780378 -0.051109854
0.016469784 0.024695568 0.03604152 0.023529345 -0.03158097 0.008352493 0.0033470627 0.0034859753
0.0070490437 -0.026457723 0.03033897 0.032436002 -0.0392849 0.020529535 -0.014285597 -0.0005370916
-0.002057555 -0.03165046 0.0056494866 -0.011401587 -0.035654493 -0.0005560601 0.056389928 -0.011695778
-0.0027569719 0.023717942 -0.019099813 -0.036290426 -0.03616214 -0.024493093 -0.02811905 -0.040694896
-0.047962956 0.0042291703 0.039973274 0.031011976 -0.03307903 0.029527018 0.034476522 -0.004847212
-0.048930645 -0.0013833471 -0.041041482 0.009684366 0.050003905 -0.031109948 -0.02690963 -0.0039323736
0.0056036306 -0.016949032 -0.058561098 -0.007254782 0.021317426 0.0703534 -0.013095813 -0.04858181
0.025098613 -0.008709618 0.03048977 -0.03412532 0.0023876897 -0.016518863 -0.023196382 0.012232661
00000000: ea16 ccbc 7dd5 963c ab7e 1abc b6cd 193d
00000010: b266 f73b 6dfd cb3c 0d33 743c f887 143b
00000020: 5262 e0bc c7b4 483c 4cc1 dabb f274 ed3c
00000030: 142c 093d 0082 d7bc 9d62 543c 7705 50bb
00000040: 8872 1abd eb21 463c 7b62 75bc aced 86bb
00000050: 85d6 29bd d8d3 283d 8d8a 7ebc 0f11 9cbc
00000060: e554 093b 9ebf 853c 7bd6 9f3c a0e6 a03c
00000070: b798 fa3c 39e7 c13c 12d5 a93c 31d2 25bc
00000080: a240 48bc 4956 d5bc 7201 04bd 8348 3bbd
00000090: 7ffc 21bd f330 2abd 1416 ce3c 9782 273d
000000a0: 878f 623a 2710 d53c e1b3 8cbc ec2f 4bbc
000000b0: 4708 0f3c 2205 98bb 6ef9 743c 6cdb c4bc
000000c0: d8ca b3bc 3397 d43a 40ba 4a3d 5c30 bd3c
000000d0: 2dd6 f7bc 961a 243d c89c 3f3d 9158 51bd
000000e0: a4eb 863c 5c4e ca3c 46a0 133d 9dc0 c03c
000000f0: 0c5b 01bd e5d8 083c 655a 5b3b f674 643b
00000100: aafb e63b debd d8bc 6e89 f83c 9ddb 043d
00000110: 34e9 20bd 8e2d a83c 230e 6abc 9bcb 0cba
00000120: 0bd8 06bb eaa3 01bd 541f b93b b9cd 3abc
00000130: 720a 12bd 90c4 11ba 20f9 663d a69f 3fbc
00000140: 50ae 34bb 214c c23c 3677 9cbc 45a5 14bd
00000150: c11e 14bd bda5 c8bc ec59 e6bc b1af 26bd
00000160: ce74 44bd da94 8a3b 04bb 233d d40c fe3c
00000170: e17d 07bd a5e2 f13c 4137 0d3d 5dd5 9ebb
00000180: 806b 48bd 6d51 b5ba 1d1b 28bd 2dab 1e3c
00000190: e5d0 4c3d 4ada febc 9671 dcbc 24db 80bb
000001a0: a99e b73b b2d8 8abc c3dd 6fbd 86b9 edbb
000001b0: e2a1 ae3c 7215 903d d28f 56bc b8fd 46bd
000001c0: 9b9b cd3c c9b2 0ebc afc5 f93c fec6 0bbd
000001d0: c97a 1c3b 9152 87bc 5706 bebc 806b 483c

fc2.weight f4 [84, 120]
0.04278685 -0.070016816 -0.011452076 -0.056607127 -0.013895875 0.0792064 0.03266031 -0.032953
-0.012839075 -0.055360034 0.09062149 -0.0015561453 -0.023065535 0.017267246 0.06705492 -0.047422417
-0.036531385 0.056792837 -0.08534353 -0.02807868 -0.061405305 -0.084010355 0.012877086 0.06388976
0.049656343 0.029526446 -0.04530826 -0.054674707 -0.017553447 0.039107796 -0.03935253 0.07980383
-0.03082059 0.063877024 -0.030039644 0.066153966 -0.07070884 0.026853338 0.0804165 -0.08100693
-0.04837273 0.028315566 -0.05237698 0.07716243 -0.05410602 0.048444588 -0.081277095 -0.0058917156
0.040350106 -0.04762707 -0.017739683 -0.07988323 -0.085484035 -0.08445832 0.0093922 0.040917404
-0.018931082 0.040812407 0.06401416 0.078493044 -0.09113609 0.020819217 0.054090776 0.011404936
-0.06299121 0.006652505 -0.006520665 0.024814218 0.08082673 -0.08550361 0.0701651 0.022149717
0.0030456055 -0.018967574 -0.04488677 0.029378515 0.027560413 0.026217671 -0.0055458033 -0.027630702
0.011207323 -0.08510282 -0.023066225 -0.07907449 0.08146911 -0.06667608 0.06758363 -0.088874176
0.011712742 0.029653182 0.008371153 -0.05551002 -0.07772918 0.047774293 0.008837404 0.072837465
-0.050110057 -0.013704913 0.03790741 -0.044524085 -0.08277794 0.056932997 0.08971238 0.07726565
-0.029222941 -0.035624743 -0.06804677 -0.05473404 -0.0022272088 0.06425812 0.05179751 0.015628124
-0.080327265 0.055548806 -0.030868895 -0.015126409 -0.05698484 0.0327684 0.081616126 0.009787954
-0.014714733 0.046706915 0.04230348 -0.083045706 0.034394946 0.07187679 -0.058050822 -0.0015134177
0.06112703 0.035139795 -0.07477675 -0.052272692 0.040639035 -0.077663265 0.05060493 0.07627876
-0.029687103 0.01829394 0.050055284 0.008509682 -0.022052208 0.009534535 0.07748215 -0.0070173778
-0.07279451 -0.07092841 0.008894106 -0.02329938 -0.016440546 0.050541457 -0.031113865 -0.08949499
-0.07311748 0.033288404 0.08830139 0.03563419 0.045133192 -0.07045178 0.025532208 0.003192685
-0.03511004 -0.038372494 -0.074950375 0.044633377 -0.09082088 -0.0038379668 0.06473825 0.05395021
-0.0024714721 -0.0325104 -0.034724794 0.0149422735 -0.076695696 0.012817486 -0.042702746 0.07349436
-0.083822764 0.059413623 -0.036112424 0.058144618 0.027566714 -0.059584517 0.033576082 0.0490835
0.06716681 -0.07654731 -0.0317605 -0.029937547 -0.017604271 -0.037160385 -0.015294432 -0.08044687
-0.043043844 -0.027950527 0.07874987 0.039916087 0.0439419 -0.049298428 0.076996505 0.042782072
-0.024462475 -0.0932589 0.0040251072 -0.018710926 0.063750155 0.051607106 0.033777084 0.0033013201
-0.052370347 -0.026228892 -0.006493065 0.0352393 0.038990494 -0.017428089 0.028875107 -0.0038525513
0.02824015 -0.05643241 0.010823921 -0.088956036 0.02287601 0.047259867 0.023433885 -0.072381526
0.069152966 0.09063331 0.005278824 -0.008572398 0.014495108 -0.031467915 -0.078340754 -0.0155508155
0.044690438 0.084847 0.043657243 0.07821973 0.06541528 0.007290029 -0.08423887 -0.014498723
0.029548952 0.03083608 -0.016707316 0.0662099 -0.012815585 0.020097883 0.07219996 -0.03862563
-0.07470258 0.13221233 -0.075456455 0.020445941 0.037362862 0.073588885 0.014046113 -0.010271165
00000000: 4441 2f3d fa64 8fbd 7da1 3bbc e0dc 67bd
00000010: 86ab 63bc f736 a23d d1c6 053d baf9 06bd
00000020: fc5a 52bc 34c1 62bd c297 b93d 92f7 cbba
00000030: eff3 bcbc 0a74 8d3c 1754 893d 023e 42bd
00000040: efa1 15bd 9b9f 683d 97c8 aebd 4305 e6bc
00000050: 2184 7bbd 9f0d acbd 6afa 523c a2d8 823d
00000060: 7364 4b3d 72e1 f13c 2795 39bd 96f2 5fbd
00000070: 3fcc 8fbc 7f2f 203d 1e30 21bd 3170 a33d
00000080: 767b fcbc f5d1 823d b315 f6bc bb7b 873d
00000090: cccf 90bd 88fb db3c 68b1 a43d f6e6 a5bd
000000a0: 7c22 46bd 0cf6 e73c 3f89 56bd 5607 9e3d
000000b0: 469e 5dbd d56d 463d 9b74 a6bd 4b0f c1bb
000000c0: 2746 253d 9a14 43bd d052 91bc d299 a3bd
000000d0: 4112 afbd 7cf8 acbd bee1 193c 0299 273d
000000e0: 5b15 9bbc e92a 273d db19 833d f6c0 a03d
000000f0: 8fa5 babd 108d aa3c 4a8e 5d3d c5db 3a3c
00000100: 8901 81bd 42fd d93b 4dab d5bb 3047 cb3c
00000110: 7c88 a53d 841c afbd b8b2 8f3d 5373 b53c
00000120: c898 473b e361 9bbc 31db 37bd 36ab f03c
00000130: 60c6 e13c 71c6 d63c 92b9 b5bb c859 e2bc
00000140: eb9e 373c 634a aebd 61f5 bcbc cef1 a1bd
00000150: 47d9 a63d 788d 88bd 4969 8a3d aa03 b6bd
00000160: cde6 3f3c 3beb f23c 2927 093c 7a5e 63bd
00000170: 7a30 9fbd faae 433d c2ca 103c cf2b 953d
00000180: 3440 4dbd 928a 60bc cd44 1b3d e35e 36bd
00000190: 7b87 a9bd 9332 693d 20bb b73d 743d 9e3d
000001a0: f364 efbc 40eb 11bd 1b5c 8bbd cd30 60bd
000001b0: 5df6 11bb c399 833d a029 543d 8d06 803c
000001c0: 9f82 a4bd 2587 633d c4e0 fcbc c2d4 77bc
000001d0: f068 69bd 2838 063d 5b26 a73d a85d 203c
000001e0: 1016 71bc c04f 3f3d 6a46 2d3d de13 aabd
000001f0: b7e1 0c3d 2334 933d b3c6 6dbd df5d c6ba
00000200: 5660 7a3d bfee 0f3d 8d24 99bd e41b 56bd
00000210: 1e75 263d eb0d 9fbd 1d47 4f3d 0a38 9c3d
00000220: 5e32 f3bc 2cdd 953c c506 4d3d 316c 0b3c
00000230: d5a6 b4bc bd36 1c3c f6ae 9e3d 08f2 e5bb
00000240: 4a15 95bd ea42 91bd 96b8 113c 57de bebc
00000250: 53ae 86bc 8f04 4f3d 81e2 febc 2649 b7bd
00000260: 9ebe 95bd 6c59 083d 5cd7 b43d 28f5 113d
00000270: 95dd 383d 0649 90bd ec28 d13c 5e3c 513b
00000280: 8ccf 0fbd 7a2c 1dbd 957f 99bd 7dd1 363d
00000290: 4c00 babd 6686 7bbb 7d95 843d e5fa 5c3d
000002a0: 6cf8 21bb a029 05bd 963b 0ebd 70d0 743c
000002b0: a212 9dbd 6f00 523c 13e9 2ebd 3684 963d
000002c0: 45ab abbd b35b 733d 9fea 13bd 0d29 6e3d
000002d0: 97d3 e13c e50e 74bd 1387 093d c80b 493d
000002e0: c18e 893d d6c4 9cbd 4c17 02bd 963f f5bc
000002f0: d536 90bc 7d35 18bd 7f95 7abc 54c1 a4bd
00000300: be4e 30bd 81f8 e4bc 9d47 a13d 0d7f 233d
00000310: 6cfc 333d 26ed 49bd 58b0 9d3d 413c 2f3d
00000320: 8765 c8bc 86fe bebd 0ce5 833b a847 99bc
00000330: 718f 823d f961 533d d759 0a3d f65a 583b
00000340: 4a82 56bd f9dd d6bc c7c3 d4bb 1657 103d
00000350: 7fb4 1f3d 5ac5 8ebc 7d8b ec3c 167b 7cbb
00000360: e357 e73c ac25 67bd d156 313c 952e b6bd
00000370: 7866 bb3c 9093 413d 6bf8 bf3c c43c 94bd
00000380: 12a0 8d3d f59d b93d fcf9 ac3b 3e73 0cbc
00000390: e47c 6d3c 80e4 00bd 1e71 a0bd d9c8 7ebc
000003a0: 520d 373d 44c4 ad3d f0d1 323d aa31 a03d
000003b0: 72f8 853d 32e1 ee3b 6e85 acbd 0d8c 6dbc
000003c0: a510 f23c f29b fc3c c8dd 88bc 0e99 873d
000003d0: 76f8 51bc 51a4 a43c 93dd 933d e935 1ebd
000003e0: abfd 98bd ab62 073e ea88 9abd 3f7e a73c
000003f0: cd09 193d c5b5 963d ab21 663c 6348 28bc

fc2.bias f4 [84]
-0.0883108 -0.05563603 0.027577277 0.010974164 0.018097153 -0.078787394 -0.06125063 -0.0957587
0.065719806 0.047464095 -0.08999487 0.03425875 0.08723605 0.06100449 0.0108409105 -0.07485563
-0.07174516 0.086671196 0.09407824 0.05027977 0.08036426 -0.047275934 -0.058724944 0.08380583
-0.04364318 -0.05059945 -0.08574537 -0.06302353 -0.014872881 -0.08765212 0.07600582 0.1159865
0.06732811 -0.089228585 -0.054647636 0.062277276 -0.05057418 -0.078502044 0.046663135 -0.032730386
-0.058484845 -0.039421264 -0.094855934 0.091690935 -0.041368153 0.061014604 0.063767426 -0.071152546
-0.06230923 0.046130702 0.013552623 -0.0025011105 -0.04820434 -0.04119791 -0.006727688 -0.006984721
0.06372985 0.06526968 0.0471048 0.03652376 0.019007318 0.054671165 -0.009122133 -0.102347724
-0.0029633737 -0.026382089 0.014707256 0.09336246 0.08596865 -0.012147158 0.042080574 0.028361538
-0.0997226 0.024476355 0.005349966 -0.113849126 -0.034763597 -0.062679 0.07955668 0.02845153
0.05728912 0.002235712 -0.06375429 0.01239957
00000000: 4bdc b4bd 9be2 63bd bee9 e13c fbcc 333c
00000010: 7b40 943c 495b a1bd f1e1 7abd 231d c4bd
00000020: 1b98 863d b669 423d 3b4f b8bd e752 0c3d
00000030: d0a8 b23d d8df 793d 139e 313c e94d 99bd
00000040: 20ef 92bd ab80 b13d 18ac c03d 29f2 4d3d
00000050: 0496 a43d 69a4 41bd 9189 70bd 64a2 ab3d
00000060: 31c3 32bd 5e41 4fbd 459b afbd 7b12 81bd
00000070: 62ad 73bc f482 b3bd f0a8 9b3d 558a ed3d
00000080: 52e3 893d 7abd b6bd 33d6 5fbd 7516 7f3d
00000090: df26 4fbd aec5 a0bd d821 3f3d 4c10 06bd
000000a0: ce8d 6fbd 3178 21bd d443 c2bd 75c8 bb3d
000000b0: a771 29bd 73ea 793d 7f98 823d 6db8 91bd
000000c0: f737 7fbd 8cf3 3c3d d20b 5e3c ace9 23bb
000000d0: ea71 45bd 24bf 28bd f073 dcbb 16e0 e4bb
000000e0: cc84 823d 1cac 853d f6f0 403d f099 153d
000000f0: 3cb5 9b3c dfee 5f3d 0075 15bc af9b d1bd
00000100: 2935 42bb 401f d8bc b4f6 703c d134 bf3d
00000110: 5510 b03d e004 47bc ae5c 2c3d 7556 e83c
00000120: 5d3b ccbd a382 c83c c54e af3b bb29 e9bd
00000130: 4664 0ebd d95d 80bd 9dee a23d 2f13 e93c
00000140: ffa7 6a3d 0685 123b 9c91 82bd 9127 4b3c

fc3.weight f4 [1297, 84]
-0.03919827 0.041226618 -0.11536414 0.06906284 0.011158399 0.062888816 -0.026107298 0.07211776
0.16684316 -0.115331225 -0.03670729 0.06250444 -0.048816286 -0.039386824 0.019036144 0.053462718
-0.16822109 0.09610921 -0.050570335 -0.009476719 0.063824944 -0.069361165 0.013636147 -0.016547726
0.094835326 0.04828223 0.03753748 -0.13944894 0.05374457 0.07493625 -0.024860485 0.014838887
-0.016363002 -0.050906494 0.05267571 -0.011868057 0.107921846 -0.008478474 0.044742282 0.1486981
0.061411936 -0.03126157 -0.10463963 0.072661236 -0.09894792 0.07474473 0.12301814 0.06334095
-0.11568418 -0.04344971 -0.049256966 -0.007768216 0.018228527 -0.03580878 0.005780507 -0.028877977
0.03505972 -0.015626458 -0.07326074 0.06240637 -0.04353299 -0.050955925 0.078378275 -0.09022112
0.019201912 0.13708836 0.047161177 0.06973293 0.012365461 -0.04398786 0.020922245 0.0288368
-0.10015354 0.034577973 0.074687354 -0.03403065 -0.06882906 -0.08519129 -0.10526381 -0.025998674
-0.10056665 0.0452306 0.04554399 -0.12338726 0.092062265 -0.04240125 -0.03196103 0.04688205
0.07247344 0.036540966 0.088630356 -0.0049602175 0.14467667 -0.10766971 -0.04499578 -0.10603792
-0.09359822 -0.05742357 0.09255727 -0.03337051 -0.14874923 0.00042974995 0.012836933 0.08945462
-0.096180774 -0.05359674 -0.079755664 0.050873216 -0.048240222 0.027031867 -0.122204006 -0.11134627
-0.0743679 -0.051842947 -0.075214915 0.07131753 0.015025475 0.089332804 0.06669487 -0.021559352
-0.030603437 0.10644623 -0.020379268 0.06829602 0.09806788 -0.01103985 -0.08171598 -0.07961709
-0.0060724197 -0.059869573 0.047197293 0.07372723 -0.10160756 0.096165136 -0.07296431 -0.03918438
0.08297943 0.008123423 -0.08940508 0.04101276 -0.09642558 -0.10560123 0.0067711794 0.0034514572
-0.07753057 0.0866889 0.10136397 0.043559857 0.03458914 0.07052533 0.0669326 -0.08641644
0.1329286 0.060151607 0.01527818 -0.027325725 0.10737061 -0.07388957 0.046064135 -0.034202754
0.016804762 0.054299645 -0.08057345 -0.037509598 -0.04786117 -0.050043568 -0.077923134 -0.09399864
-0.036491044 -0.102007285 -0.009745509 0.07098715 0.031566203 -0.009659318 -0.017583253 0.04717503
0.213266 0.021838233 -0.09820238 -0.032546002 0.015880007 -0.011902209 0.05588792 -0.103563234
-0.0960721 -0.03711791 -0.021565631 0.0873067 0.09242467 -0.09370141 0.024913736 -0.037314065
0.10667415 0.01436824 -0.079220034 -0.08625746 0.018013678 -0.005451502 0.027208602 0.07893722
0.09874614 -0.095564924 0.041195225 -0.07244132 -0.08054614 -0.0032862776 -0.069717474 0.14447115
-0.024503924 0.032814387 -0.0029428138 -0.09065757 0.028451687 0.03882501 0.0140326815 0.055041574
-0.060356688 -0.09209578 0.0002721968 0.13441505 -0.10663391 0.0035405776 -0.10215802 0.10201435
-0.021469546 -0.11404421 -0.0668078 0.0074190903 0.06987853 -0.10946901 0.060177773 -0.13113222
-0.027204152 -0.0041594924 0.007058693 -0.03143419 0.054719694 0.0776536 -0.053133424 -0.06300154
0.046808198 -0.12444671 0.046262246 -0.111291826 0.0052754376 -0.029205963 -0.06491046 -0.065338634
-0.06536009 -0.046335764 0.06533098 0.01389828 -0.06455572 -0.051784057 -0.08792251 -0.041848607
00000000: 5d8e 20bd 3edd 283d 0944 ecbd d170 8d3d
00000010: b8d1 363c dacb 803d f9de d5bc 7ab2 933d
00000020: efd8 2a3e c732 ecbd 625a 16bd 5402 803d
00000030: 96f3 47bd 1454 21bd b0f1 9b3c b9fb 5a3d
00000040: 2642 2cbe e8d4 c43d d722 4fbd 3e44 1bbc
00000050: a7b6 823d 3a0d 8ebd 256a 5f3c 198f 87bc
00000060: 0639 c23d 96c3 453d e7c0 193d b4cb 0ebe
00000070: 4423 5c3d 2d78 993d 37a8 cbbc ce1e 733c
00000080: b40b 86bc 5483 50bd 7cc2 573d 3d72 42bc
00000090: 2106 dd3d 4ce9 0abc af43 373d 5144 183e
000000a0: 158b 7b3d 220c 00bd 4d4d d6bd 6acf 943d
000000b0: 35a5 cabd c413 993d eff0 fb3d e6b8 813d
000000c0: d4eb ecbd 53f8 31bd acc1 49bd 858c febb
000000d0: fe53 953c 3aac 12bd 686a bd3b 8291 ecbc
000000e0: c89a 0f3d 0f03 80bc ba09 96bd d29d 7f3d
000000f0: a64f 32bd 29b7 50bd ca84 a03d dac5 b8bd
00000100: 544d 9d3c e460 0c3e 142c 413d 23d0 8e3d
00000110: 8198 4a3c 9d2c 34bd 2165 ab3c 273b ec3c
00000120: 4d1d cdbd a2a1 0d3d aff5 983d b963 0bbd
00000130: 40f6 8cbd c578 aebd 8d94 d7bd 2cfb d4bc
00000140: e3f5 cdbd b943 393d 568c 3a3d 76b2 fcbd
00000150: 248b bc3d efac 2dbd 92e9 02bd 6407 403d
00000160: f46c 943d fbab 153d d583 b53d 5289 a2bb
00000170: 1f26 143e f081 dcbd 7f4d 38bd 692a d9bd
00000180: 6cb0 bfbd fa34 6bbd aa8e bd3d 84af 08bd
00000190: b851 18be 1050 e139 0052 523c fc33 b73d
000001a0: 6dfa c4bd 4188 5bbd f056 a3bd 6f60 503d
000001b0: 8a97 45bd ef71 dd3c 1846 fabd 8309 e4bd
000001c0: 334e 98bd 4559 54bd 470a 9abd ed0e 923d
000001d0: 692d 763c 1ef4 b63d 5297 883d 3d9d b0bc
000001e0: 0fb4 fabc 7b00 da3d 6cf2 a6bc c9de 8b3d
000001f0: d0d7 c83d 7de0 34bc b55a a7bd 490e a3bd
00000200: 26fb c6bb cc39 75bd f351 413d 4dfe 963d
00000210: a017 d0bd 3af2 c43d 506e 95bd cd7f 20bd
00000220: 1ff1 a93d 1b18 053c 031a b7bd fffc 273d
00000230: c67a c5bd 7545 d8bd c5e0 dd3b d831 623b
00000240: 59c8 9ebd f389 b13d ea97 cf3d d26b 323d
00000250: 58ad 0d3d 966f 903d f613 893d 1afb b0bd
00000260: 6f1e 083e 8861 763d 5551 7a3c 33da dfbc
00000270: 1fe5 db3d 6a53 97bd bfad 3c3d 3018 0cbd
00000280: 24aa 893c 4e69 5e3d b103 a5bd aaa3 19bd
00000290: 130a 44bd 7cfa 4cbd 2a96 9fbd 5c82 c0bd
000002a0: a277 15bd 32e9 d0bd a1ab 1fbc b661 913d
000002b0: 904b 013d 1e42 1ebc c10a 90bc 9b3a 413d
000002c0: 6762 5a3e 18e6 b23c 541e c9bd f54e 05bd
000002d0: ca16 823c 7c01 43bc bbea 643d f618 d4bd
000002e0: 73c1 c4bd f308 18bd 68aa b0bc dbcd b23d
000002f0: 2549 bd3d 86e6 bfbd e417 cc3c a2d6 18bd
00000300: fa77 da3d c468 6b3c 1d3e a2bd c0a7 b0bd
00000310: 6c91 933c 83a2 b2bb 93e4 de3c d6a9 a13d
00000320: 6b3b ca3d 8bb7 c3bd 53bc 283d 1d5c 94bd
00000330: 60f5 a4bd 975e 57bb 09c8 8ebd 3ff0 133e
00000340: 74bc c8bc 6168 063d 39dc 40bb adaa b9bd
00000350: 8313 e93c f906 1f3d 55e9 653c 4673 613d
00000360: 9338 77bd b69c bcbd a3b5 8e39 19a4 093e
00000370: e162 dabd 0909 683b 3938 d1bd e6ec d03d
00000380: e7e0 afbc 0390 e9bd 87d2 88bd d71b f33b
00000390: 7a1c 8f3d 4a31 e0bd f87c 763d 8647 06be
000003a0: 3edb debc 5a4c 88bb 9c4c e73b 23c1 00bd
000003b0: c221 603d da08 9f3d 6fa2 59bd f406 81bd
000003c0: f4b9 3f3d ebdd febd 7b7d 3d3d f8ec e3bd
000003d0: 94dd ac3b 5841 efbc c6ef 84bd 43d0 85bd
000003e0: 83db 85bd 92ca 3dbd 40cc 853d 9db5 633c
000003f0: ca35 84bd 851b 54bd b810 b4bd 7269 2bbd

fc3.bias f4 [1297]
0.064156115 -0.07258601 -0.048309974 0.083019234 -0.056069925 0.08973172 0.009155468 0.013561885
-0.057959728 -0.057730094 -0.07326769 0.011291495 0.06482552 -0.035552286 -0.07319618 0.10420661
-0.012941816 0.1105706 -0.03974469 -0.094219044 0.076245 0.06560545 -0.0014600285 -0.08963889
-0.048711788 -0.025171816 0.075955786 0.08455253 0.05894836 0.051223084 -0.054531027 -0.053773455
-0.017738588 0.00054257363 -0.06618859 0.041297328 -0.045818064 -0.06357491 0.06489059 -0.056963798
-0.08572104 0.09530991 -0.020267893 -0.04989216 -0.08539514 -0.06559827 0.064768046 -0.07807467
-0.0028238713 -0.03355873 0.035208125 -0.057925493 0.11150197 0.08079996 -0.050783217 0.038580075
-0.025188707 -0.0073672393 -0.035150837 0.08835096 -0.06818613 -0.055712253 0.020578213 0.053272676
-0.0014797299 -0.03225384 0.046103124 0.10135392 0.08251777 0.059780687 -0.058420952 0.07752764
-0.044418912 -0.03329753 -0.08560241 0.062233433 0.009504121 -0.029962543 0.03931823 -0.015314325
-0.043857593 -0.078256086 -0.045772966 0.10099281 -0.0477109 0.048084598 0.00396759 -0.05820236
-0.012074178 0.0001315213 -0.03660951 -0.05626006 0.09574697 -0.008442831 0.0021814117 -0.04846977
-0.002535335 -0.08754036 -0.054965302 0.064726345 -0.07412584 0.074772365 -0.0039807716 -0.053034164
-0.032791086 -0.056218687 -0.09540176 0.09243823 0.037714843 0.04535854 0.03435781 0.009011252
0.009427904 -0.028600205 -0.06655897 0.07223477 0.08872466 -0.0051894253 0.017657228 -0.036023702
-0.08601316 0.004595513 -0.067424156 0.10462818 0.01291259 0.101799995 -0.07846659 0.009776231
-0.09343923 0.058136392 -0.011626997 -0.08105128 0.020427518 -0.07118848 -0.047457144 0.026138062
0.11138915 -0.07660711 -0.09945913 0.03950962 0.10503078 3.5461173e-05 -0.0050361548 -0.047458854
0.110612646 0.037710343 -0.09603126 0.072526924 0.08308273 0.038988236 -0.020914672 0.03312256
0.09153125 -0.0066601206 0.04447181 0.053376637 -0.020565731 -0.033582196 -0.05161729 0.044880718
-0.077489555 0.023780799 0.039165847 -0.013083562 -0.0057645813 -0.08595866 0.091370694 0.06940977
0.014735475 -0.069760144 -0.0071696234 -0.043007314 -0.062472302 0.1036764 -0.0918207 0.03238854
-0.024669576 0.083308175 0.088403225 -0.029954784 -0.08131919 0.10756316 0.035611592 0.026437502
-0.027802017 0.025442768 -0.06824528 0.10086569 -0.049218684 0.047586676 -0.0002793101 0.10327409
-0.10187901 -0.056436274 0.0006271958 0.0017575604 0.01595505 -0.06501094 0.047497686 -0.026091235
0.117360786 -0.012823627 0.03444642 -0.03468584 -0.040247984 0.08252399 -0.084392205 -0.07838096
-0.008270544 0.03353244 0.09641927 -0.07467023 -0.028975243 0.103662185 -0.0018965328 -0.09443739
0.0030302093 -0.058109667 0.029128607 -0.09258659 0.038911164 -0.04777905 0.025894757 0.08282231
0.10302376 -0.09103066 0.092336774 -0.08094137 -0.08686394 0.043719802 0.09355391 0.122246265
0.032623958 0.0008004174 -0.087240115 -0.010861144 -0.09347577 0.112380706 0.037445094 -0.0072969953
0.048887625 -0.09642113 0.08368131 0.06641991 -0.035928387 0.052563913 0.04661881 0.046156965
0.039086137 0.020354357 -0.027873695 0.09703693 0.02609238 -0.07158592 0.013540761 0.026621656
00000000: 4864 833d f9a7 94bd aee0 45bd fd05 aa3d
00000010: 94a9 65bd 44c5 b73d d100 163c ab32 5e3c
00000020: 2e67 6dbd 6476 6cbd 5f0d 96bd f6ff 383c
00000030: 3ec3 843d 469f 11bd e1e7 95bd 466a d53d
00000040: e909 54bc d772 e23d 54cb 22bd eaf5 c0bd
00000050: 5726 9c3d 265c 863d 6d5e bfba 9894 b7bd
00000060: 0386 47bd 2035 cebc b58e 9b3d e029 ad3d
00000070: d673 713d 4ccf 513d ed5b 5fbd 8e41 5cbd
00000080: 8450 91bc 803b 0e3a e28d 87bd 6327 293d
00000090: b9ab 3bbd 9033 82bd 5ce5 843d df52 69bd
000000a0: 838e afbd d831 c33d da08 a6bc b95b 4cbd
000000b0: a6e3 aebd 6358 86bd 1ca5 843d 9de5 9fbd
000000c0: b310 39bb e174 09bd 6536 103d 4843 6dbd
000000d0: 255b e43d 737a a53d 1002 50bd 2406 1e3d
000000e0: 8c58 cebc e268 f1bb 53fa 0fbd 59f1 b43d
000000f0: 2ba5 8bbd 8832 64bd a493 a83c 7334 5a3d
00000100: 7ff3 c1ba 9a1c 04bd a1d6 3c3d a592 cf3d
00000110: 14ff a83d 98dc 743d cf4a 6fbd d0c6 9e3d
00000120: 9bf0 35bd fe62 08bd 5150 afbd 7ce8 7e3d
00000130: 2cb7 1b3c 0274 f5bc 270c 213d efe8 7abc
00000140: 05a4 33bd ba44 a0bd 6f7c 3bbd 52d5 ce3d
00000150: 816c 43bd 5bf4 443d 8f02 823b 9965 6ebd
00000160: c6d2 45bc fbe8 0939 dbf3 15bd f370 66bd
00000170: fd16 c43d cd53 0abc 04f6 0e3b 3d88 46bd
00000180: dd27 26bb 5c48 b3bd 4c23 61bd 3f8f 843d
00000190: 4acf 97bd 4122 993d 2271 82bb 5a3a 59bd
000001a0: f24f 06bd 9145 66bd ff61 c3bd 4150 bd3d
000001b0: e17a 1a3d e0c9 393d c6ba 0c3d eea3 133c
000001c0: 7f77 1a3c fa4a eabc 1250 88bd d3ef 933d
000001d0: 46b5 b53d 0e0c aabb e4a5 903c 978d 13bd
000001e0: ab27 b0bd f595 963b ad15 8abd 4d47 d63d
000001f0: 548f 533c 847c d03d 17b3 a0bd 7c2c 203c
00000200: 115d bfbd 6d20 6e3d 297f 3ebc 37fe a5bd
00000210: 9c57 a73c 44cb 91bd 6c62 42bd 7d1f d63c
00000220: ff1f e43d 30e4 9cbd 3ab1 cbbd d7d4 213d
00000230: 611a d73d 25bc 1438 5406 a5bb 3764 42bd
00000240: e288 e23d 2976 1a3d 0aac c4bd ff88 943d
00000250: 4727 aa3d 21b2 1f3d 3f55 abbc 85ab 073d
00000260: bc74 bb3d 243d dabb 1328 363d 76a1 5a3d
00000270: 7779 a8bc 7c8d 09bd a76c 53bd d8d4 373d
00000280: d8b2 9ebd f3cf c23c 5e6c 203d 705c 56bc
00000290: d0e4 bcbb 180b b0bd 8f20 bb3d b626 8e3d
000002a0: 106d 713c 68de 8ebd 29ef eabb 7028 30bd
000002b0: f5e2 7fbd 4b54 d43d 7e0c bcbd d9a9 043d
000002c0: da17 cabc 7a9d aa3d c00c b53d bc63 f5bc
000002d0: ad8a a6bd 134a dc3d 76dd 113d 7693 d83c
000002e0: 0ec1 e3bc 5a6d d03c 2ec4 8bbd ac92 ce3d
000002f0: 8899 49bd 3fea 423d 5e70 92b9 5e81 d33d
00000300: f1a5 d0bd b929 67bd 666a 243a f15d e63a
00000310: 2ab4 823c 7524 85bd ef8c 423d 49bd d5bc
00000320: da5a f03d 311a 52bc b017 0d3d bd12 0ebd
00000330: 12db 24bd 5602 a93d d2d5 acbd 3286 a0bd
00000340: 2d81 07bc 5059 093d 7777 c53d b5ec 98bd
00000350: 7d5d edbc d74c d43d 1595 f8ba 6468 c1bd
00000360: 7a96 463b 6704 6ebd 1e9f ee3c 0a9e bdbd
00000370: 5061 1f3d f7b3 43bd 3e21 d43c be9e a93d
00000380: 1ffe d23d 486e babd 101b bd3d 97c4 a5bd
00000390: b9e5 b1bd 8913 333d 3199 bf3d 405c fa3d
000003a0: b3a0 053d 1ad3 513a f2aa b2bd f1f2 31bc
000003b0: 3970 bfbd db27 e63d 0760 193d a21b efbb
000003c0: 643e 483d 7178 c5bd 1b61 ab3d 2907 883d
000003d0: a529 13bd 424d 573d 5ef3 3e3d 160f 3d3d
000003e0: c918 203d 2ebe a63c 6057 e4bc 4cbb c63d
000003f0: b0bf d53c a49b 92bd 11da 5d3c a915 da3c
