models/1296_pixels/16.pt (torch, 771783 bytes, 10 tensors)

conv1.weight f4 [6, 1, 5, 5]
00000000: 6bac a3bd 59f5 22be 284e f8be e5dc f43d
00000010: c4a5 27be 0115 1a3f 4a1e aabe 037e f33c
00000020: 1eea fcbe 2e2c 8e3e b13a 00bf 995f d7be
00000030: ea88 2abe 761d abbe fc28 eabe d0f5 243e
00000040: a4e7 003f f122 26be 37f8 8cbe 29cc ee3e
00000050: 7a76 d13d 9e8c dfbd bfbf d6bd 2142 943e
00000060: 8433 afbe 8ede d3be e6dc 4b3e d3e2 c8bd
00000070: 3dee 0b3d 518e 8b3e f1e7 593d a25d 04bf
00000080: bee4 1bbf b258 18bf 7369 b93e e36d 7d3d
00000090: a87b f1bd 873f a43e fd20 00bf 221e 81be
000000a0: bc12 503e 7b06 6e3e b398 ffbe b2ca a1be
000000b0: 0be0 e7be 35fa cabe e384 eabe 92dc 86bd
000000c0: 0026 16be a096 c7be 77bb 8ebd 928f 36bd
000000d0: 9ae9 2f3e f83f 533e e728 753d 2655 a93b
000000e0: 8776 9d3d 737d 4f3e 0f88 25bc 5ea6 913d
000000f0: 4723 5d3e 1af3 ff3c 1d97 2a3e 0781 153d
00000100: 8771 113e 5359 4d3e 3540 473e ddbf 9a3d
00000110: 252c 433e 91d9 3a3e 6e17 f53d 30a5 393e
00000120: 1c38 1cbc 8f4f 593e ac28 383e 3936 f13d
00000130: 1acb 583e c585 f0be 8d4c f0be 86a7 9b3e
00000140: a0fd 69be a177 5abe 5ea8 143f b447 c4be
00000150: 100a 123f cca8 4dbd 624b a73d 6d21 1d3f
00000160: d5f6 a8be 44fb 1cbd de7b d3bd 25cc d3be
00000170: 2fa0 4fbe d279 4fbe 8133 a8be cc41 abbe
00000180: e467 983e fd54 bebe 6ec2 bc3e c967 a8be
00000190: c745 c33e ad60 eb3e 0861 56be 4ac0 fbbd
000001a0: fc71 3c3d 06cd 3abd a326 8fbe 3a9d 80be
000001b0: f5db 1fbe 81c2 433e ddc8 853e 1111 103e
000001c0: 6189 0dbf 0872 c93e be67 20bf 1b9e 07bf
000001d0: 6b61 01bf b6f5 12bf ab81 c13e 6f6a 9d3e
000001e0: 0ee6 3d3e 5d7b dc3e ecde 953d 6bb2 8b3e
000001f0: e3cc 933e 98e5 b8bc 1bed 6d3d 7ad1 c43d
00000200: 3727 053e beb8 243e f178 463d 510c 383e
00000210: b3fa 883d 4a13 ea3d 6067 293e fa1d 3f3e
00000220: 507a 9d3d 8f82 243d bcdc 03bd 36e2 cfbb
00000230: fd1c 1e3e b3b9 3d3e b759 523e 33e1 49bd
00000240: 455a f63d 7415 583e 76b0 643e 0c01 833d
00000250: daee 2d3d fc19 1fbd
-0.079918705 -0.15913905 -0.48497128 0.11956195 -0.16371828 0.601883 -0.33226234 0.029723173
-0.49397367 0.2776808 -0.50089556 -0.42065123 -0.16653791 -0.33420914 -0.45734394 0.16109395
0.50353456 -0.16224267 -0.27533123 0.46640137 0.10227676 -0.109154925 -0.104857914 0.28956702
-0.3421899 -0.41380733 0.19908485 -0.09808888 0.03416275 0.27257016 0.053199712 -0.5170537
-0.6089591 -0.5951034 0.36213264 0.061872374 -0.11791164 0.32079718 -0.50050336 -0.25218302
0.20319647 0.2324466 -0.49921188 -0.31599957 -0.4528812 -0.39644018 -0.4580451 -0.06585039
-0.14662933 -0.38982105 -0.0696935 -0.044570513 0.17178956 0.20629871 0.05985346 0.005167621
0.07688623 0.20262699 -0.01010324 0.0711181 0.21595488 0.03124385 0.16659208 0.036500003
0.14203463 0.20053606 0.19458087 0.07556126 0.19059809 0.18247057 0.119673595 0.1812942
-0.009534862 0.21221755 0.17984265 0.1177792 0.21171227 -0.46977058 -0.46933404 0.30401248
-0.22850657 -0.21334697 0.5806941 -0.38335955 0.57046604 -0.050209805 0.08168675 0.6137913
-0.33000818 -0.038325563 -0.1032636 -0.41366687 -0.20275949 -0.20261315 -0.32851794 -0.33448637
0.29766762 -0.37174216 0.36867088 -0.32891682 0.38139173 0.45972195 -0.20935452 -0.122925356
0.04600714 -0.04560568 -0.27959165 -0.25119954 -0.1561125 0.19117166 0.2612981 0.1406901
-0.5528775 0.3934481 -0.626583 -0.52975625 -0.50539273 -0.57406175 0.3779424 0.30745265
0.1854479 0.4306287 0.073179096 0.2728456 0.28867254 -0.022570416 0.05808745 0.09610267
0.1300324 0.16086099 0.048455182 0.17973448 0.06688442 0.1142946 0.1654334 0.18663779
0.07689345 0.040163573 -0.03219293 -0.006344105 0.15440746 0.1852787 0.20542036 -0.049287032
0.12028936 0.21101934 0.2233294 0.06396684 0.042464115 -0.03884314

conv1.bias f4 [6]
00000000: edb4 833f 3490 db3f c3b2 ccbe 7220 403f
00000010: 9109 a53a cf8b b4be
1.0289589 1.7153382 -0.39980134 0.7504951 0.0012591352 -0.35262915

conv2.weight f4 [16, 6, 5, 5]
00000000: 7c3a 0e3d 308a 373e 0194 1d3d 213b 4a3d
00000010: b5c0 d53d 5c28 433e 8ffc 883b 77ea 1b3e
00000020: 77af 8e3c edd4 4c3e 48d7 2f3e d13e 533d
00000030: 7d64 0d3e b2f3 a43d b2a1 1d3e fde0 2c3e
00000040: e7de 4a3d c560 313e 98f4 b73c 55b1 183e
00000050: 135b 1c3e cc1f 2a3e 3fdc ff3d 75b0 3f3d
00000060: 4dbb 3c3d 0736 393e 38cd 453e 7cd6 183e
00000070: f77f da3d 9571 9a3d e44f 993d 7193 2a3d
00000080: 0db0 853d 3204 b03d 502e a43d 5af1 0a3e
00000090: 8c13 393e 4e6b 5b3e 3fc8 0f3e 7c83 203e
000000a0: 6922 573e cf38 c23d d891 493d de30 5f3d
000000b0: 0f8e 703e d135 fe3d 6233 4a3e f8bd 5a3e
000000c0: ec47 4a3e 11ca 563e 8727 cabd 47d3 c9bd
000000d0: 2c4d 61bc a9f4 89bc 2695 bfbd 0e74 a43c
000000e0: 94b3 a43d c813 79bd e2cf c1bd 1cb5 973d
000000f0: 2454 e9bc 42be 0f3d 502e cf3d af34 3f3c
00000100: d438 873d cf09 a73c b40d 263d 3d8c 82bd
00000110: 1a50 d9bc 3c5a 08bd 4a39 a2bd 8063 373d
00000120: b765 9abd cade 2e3d 661a 4bbd 4706 863c
00000130: 53d6 3b3e 2611 e1bb 517e f33d 8637 253e
00000140: 12f9 0a3e 638e 223e caad 113e 5d7c 1d3e
00000150: 31dd 033e e5e0 1c3e 4a17 323d 159d 193e
00000160: d57a c93d 94d0 9c3d 08d3 3e3e 37bd 9b3d
00000170: 0f76 283e e04f d63d 5920 0d3e 3f5e f33d
00000180: 15a0 353e d4c3 283e 2656 903d 50c9 aa3d
00000190: e505 f13d ed5b e73d 6082 f33d b1b3 c63d
000001a0: 2547 263e eeb9 3a3e a08e 05bc 2826 523d
000001b0: 73b0 6a3d d4b9 003e 746e a53d 2e4e 11bb
000001c0: fe09 083e 9ed9 b73d 635d f83d cde5 ff3a
000001d0: e8a5 213d 03f2 103e 2176 993b a533 c93d
000001e0: 4301 9dbb ef2b 563d f00d d33d 3528 de3d
000001f0: f9b2 bd3c 9a73 b7bd 489c d53c 6b9f ab3c
00000200: ebc1 7d3d 0974 bebd 46d6 b9bc 94f6 42bd
00000210: f30b e23d 39aa 973c e0b3 613c a206 0c3c
00000220: 172f 5dbc 8683 493d d741 a5bc 0e4d dc3d
00000230: 0d83 cc3d b3e0 593d ac1e b1bd c644 c93a
00000240: d803 38bc a175 853d 08c1 b8bd 14a7 63bc
00000250: 3e42 56bd 839a 873d de5e 303d 2394 013c
00000260: 5fe4 e8bc 9511 c13d 6e22 bb3d b467 b53d
00000270: c304 7b3d e87f ac3c 2e13 e9bc a670 203d
00000280: 9b36 92bb be23 dcbc 6d6b 8abd 41c0 023d
00000290: 02c8 8c3c 711f 5bbc 92a3 a43d 70d8 4f3d
000002a0: d806 04bd 48b5 8dba b203 87bd 6338 05bd
000002b0: 824e 76bd 23fe c53c 2a63 813d f680 7cbd
000002c0: 77d2 5f3a f2d5 51bd 6c12 2d3d 715f c0bc
000002d0: ebc4 52bc 9bb1 66bc baa2 0cbd 9651 f03b
000002e0: b603 9fbd fbd2 a3bb af05 0cbd 08e6 1b3d
000002f0: 4799 b03d 3e16 eabb b9a0 873c d588 52bd
00000300: a496 82bc 0a75 66bc cdb6 8cbd b022 8b3d
00000310: c39f 3abc a0a7 8ebd d028 29bd e469 943d
00000320: 5f27 1d3c 1a50 943c a33f a83c 5024 14bc
00000330: 7b75 85bd 9c9f 85bd db56 aabd 4c90 17bd
00000340: 44d5 91bd 3f14 4ebd 6cc9 91bd baff 2abc
00000350: c5db 12bd eebf 9d3d 58a2 e1bc 14de 2bbb
00000360: 360b 863d 76b3 043d 0d65 153c c0b3 853c
00000370: 14aa e63c 1da4 ed3c 9250 6cbc a504 303d
00000380: 814a 733d 0c92 cb3d 5669 613d 02f5 6cbd
00000390: 67f3 223d 77e2 ad3d 35e0 7a3d 466c a33d
000003a0: b453 15bd e789 83bd d6c9 4d3d 5c63 773c
000003b0: 86b5 e2bc e102 16bd 5481 303d e09f ccbc
000003c0: c799 683d a764 a93d 19e0 b33d 8380 7bbd
000003d0: 313f 7dbd 5ab4 a43d 7d4d 0d3b 8d5e 223d
000003e0: a08c 78bd ee1b 36bd 5281 9a3d c42d 2c3d
000003f0: 03bf 2dbd f713 7e3d f470 ce3c ed5e 8ebc
0.034723744 0.17923808 0.038471226 0.049372796 0.104371466 0.19058365 0.004180498 0.1522616
0.017417653 0.200031 0.17171967 0.05157358 0.13807864 0.08054294 0.15393713 0.16882701
0.049528982 0.17322071 0.022455499 0.14911397 0.15269117 0.16613692 0.124931805 0.046799142
0.04607706 0.18087016 0.19316566 0.1492557 0.106689386 0.07541195 0.07485941 0.041644517
0.0652772 0.0859455 0.08016646 0.13568631 0.18073863 0.21427652 0.14041232 0.15675157
0.2100922 0.09483492 0.049211353 0.054489963 0.23491691 0.124126084 0.19746163 0.2136153
0.19753999 0.2097552 -0.098708205 -0.09854751 -0.013751309 -0.016840296 -0.0935462 0.02007487
0.08042064 -0.06080988 -0.094634786 0.07407591 -0.028482504 0.035093553 0.10116255 0.011670276
0.06602636 0.02039042 0.040540412 -0.063744046 -0.026527453 -0.03328918 -0.07921083 0.044772625
-0.07538932 0.042692937 -0.049585722 0.016360415 0.18343477 -0.0068684993 0.11889327 0.16134462
0.13571575 0.15874629 0.14226452 0.15379472 0.12877347 0.15320165 0.04347924 0.15001328
0.098378815 0.076569706 0.1863519 0.07604449 0.16451286 0.10464454 0.13781871 0.118832104
0.17736848 0.16480953 0.070476815 0.083391786 0.117687024 0.1129683 0.118901014 0.09702242
0.16238077 0.18234989 -0.00815168 0.05130592 0.05729718 0.12570888 0.08077708 -0.0022171843
0.13285062 0.08977054 0.12127187 0.0019523442 0.03946486 0.1415482 0.0046832715 0.098243035
-0.00479141 0.052287992 0.10305393 0.10847513 0.02315663 -0.08957596 0.026075497 0.02095004
0.061952513 -0.09299476 -0.022685181 -0.047598436 0.110374354 0.018513786 0.013775796 0.008546503
-0.013499997 0.049197696 -0.020172996 0.107568845 0.099859335 0.053192805 -0.08648428 0.0015355579
-0.011231385 0.065165766 -0.09021193 -0.013894815 -0.052309267 0.06621268 0.043059222 0.007908854
-0.028429208 0.09427182 0.09137426 0.088576704 0.061283838 0.021057084 -0.028451528 0.03916993
-0.004462076 -0.026872512 -0.06758771 0.03192163 0.017185215 -0.013374195 0.08039011 0.05074352
-0.03223309 -0.0010811472 -0.06592502 -0.032524478 -0.060133465 0.024169033 0.06317742 -0.061646424
0.00085381366 -0.051229425 0.042253897 -0.02348301 -0.012864332 -0.01408043 -0.034334876 0.0073339446
-0.0776438 -0.004999516 -0.034185108 0.03806117 0.08622985 -0.0071437648 0.01655613 -0.051400024
-0.015940972 -0.01406599 -0.06870804 0.067937255 -0.011390629 -0.06965566 -0.041298687 0.072467595
0.009591906 0.018104602 0.020538157 -0.009041861 -0.06516548 -0.06524584 -0.083173476 -0.037002847
-0.07120755 -0.050312277 -0.07118496 -0.0104369465 -0.03585412 0.07702623 -0.027543232 -0.0026224898
0.06545107 0.03239771 0.009118331 0.016321063 0.028157271 0.02900892 -0.014423506 0.04297318
0.059397224 0.099399656 0.055032097 -0.057850845 0.039782908 0.0849046 0.061248977 0.07979636
-0.03645678 -0.06422787 0.050241314 0.015099373 -0.027674448 -0.03662384 0.043092087 -0.024978578
0.05678728 0.08271151 0.087829776 -0.061401855 -0.061827842 0.08042212 0.002156108 0.039640952
-0.060680985 -0.04446023 0.07544197 0.042035833 -0.04241849 0.06203076 0.025200345 -0.017379249

conv2.bias f4 [16]
00000000: 9d99 fa3d ec05 17bd 26ef a13d a7c5 0eba
00000010: 8326 61be 7c99 e33d 186a 86bd 7689 753d
00000020: 949c 60bd d24f 383d 67b7 fb3c 2e00 9d3d
00000030: 8c70 d3bb 97d4 09be 3bc1 4bbd d1ca 82bc
0.12236331 -0.036870882 0.07906942 -0.00054463226 -0.21987347 0.11113259 -0.065632045 0.059945546
-0.054836825 0.044997998 0.030727101 0.0766605 -0.0064526256 -0.13460003 -0.049744826 -0.015965851

fc1.weight f4 [120, 576]
00000000: fd7b 32bb 887a 0ebc a723 0abc da24 2fba
00000010: 5c7d b13c 557c cbbc 8378 bbbc 9283 2dbc
00000020: c49b fe3b d464 a93b 5660 67bc 9f00 bfbc
00000030: 1c8e 583c 5717 e9bb 29a7 803c 3d5b e13c
00000040: d0a1 65bb 3ce1 1dbd e969 94bc d7e5 c1bc
00000050: 0e54 193d 538a 3c3c c56c 78bc 1563 1bbd
00000060: 4592 743a 6422 a2bb 1eae 27bd 734d 363c
00000070: fcd6 febc 8f99 15bc 82a4 003d 3de8 cb3c
00000080: 1b4d 233d d59c 26bd e965 57bc 48c9 25bd
00000090: 2dea af3c 2a9e 9c3c 3ff1 243d dd5f 0c3d
000000a0: cf2e 1abd dae7 e23c 81a9 003c 24ca 0cbd
000000b0: a619 283d 09df eebc 6a07 d5bb eb28 073d
000000c0: dfba c03c 5afc 26bc 891e fdbc f218 b43c
000000d0: 2e39 babc f5da 1c3c 383a a43c b479 42bc
000000e0: b1eb d3bc 4f06 073c 5c20 793c 3e56 123d
000000f0: e69f 0b3b 0848 773c 538d 35bc 1313 253d
00000100: 325c eebb 8aea b43c 125a 9d3c 7ccc ccbc
00000110: 3004 1cbd 56ad 7f3a 2641 413a 9ea7 143d
00000120: 8934 cd3c cb4a b23c 3f17 74bc 0aea 253d
00000130: ff4c 403c b826 bc3a ff4e 883c 159c 813a
00000140: 9eb0 c93c e9bf 123a 9b25 f23c 14fb f5bc
00000150: debc 12bd f6ba 1abd 368c 1a3d 6ad2 66bc
00000160: 160d 953c ed25 c73c 15f4 533c 6133 19bd
00000170: 46ac 353c b7e8 d8bb ef0f dbbc 6ab5 0e3d
00000180: ec56 1fbd 9911 0db8 cff6 d53c edf1 b53c
00000190: 5e84 9d3c 0152 fcbc b687 18bc 24a6 6c3c
000001a0: 4e8b 113d 3dbb 5d3c cc32 06bd 3a5c f53c
000001b0: 18df d93c 56bd e139 20cb 7bbc c3a3 83bc
000001c0: 36cd 983c 409d c5bb 8088 14bb 4eef e13c
000001d0: 8050 6b3c 0398 d93c 0b5b 3abc c0c0 a8bc
000001e0: ae67 8ebc c0d2 c7bc 6b8b bb3b 035f ce3c
000001f0: d63a 233b 8ed5 863c 2b05 78bb 341f 00bd
00000200: 0021 ed3b 7bbf 7b3c 5041 be3c e6bc 4cbc
00000210: 4030 9f3c 007a 14ba 2be5 d4bb 4691 ec3c
00000220: d630 39bc 4329 e73c c073 71bb c846 c6bc
00000230: 0628 b53c 3852 ddbc e056 bf3b eef6 bbbc
00000240: fba6 263c 362c 913b 0bf0 553b 8e37 2bbd
00000250: 3491 a83c b025 133b befb f0bc 6d87 623c
00000260: c24b 093d b4d4 a6bc 9551 793a ca0e 0c3d
00000270: 84ce ae3a e375 a8bc a10f 0abb 9d3e 7bba
00000280: a66c f4bc c802 ca3c 651b c5bc 857e 20bd
00000290: f4a6 583b b6eb b73c 8a44 29bd 47fd 58bb
000002a0: 4cb1 013d 7311 39bc dba9 4d3b 2552 fa3b
000002b0: d02b f6bc ad8d 1fbd 405a e23c f094 7fbb
000002c0: 02cc cb3b 47ae e3bc 1b8c 9cbb 291f 713c
000002d0: f4bb 923c ee9a 043d 80ab 993b f9b7 153c
000002e0: 0a7c aebb d8cb 07bd 3a2c 8dbc 5f18 193d
000002f0: 5b2a ebbc 4521 eb3c e3a7 0dbd 8756 9a3a
00000300: 1295 cebc 6d2c 163d 796c f23c aa35 343b
00000310: e650 493b 3abe 893c d562 6cbc 7861 eabc
00000320: dad8 27bd 317f d33c 9a08 bd3c 2bbd c23c
00000330: e0ca d6bc 851d 65ba f891 5fbc 0b13 1ebd
00000340: 0353 1cbc 1fe5 e9bc 099d 153c b091 11bc
00000350: 2f9a 58bc da9f 9fbc 9438 a73c 90bd 0b3d
00000360: 9e93 0a3d 8ecd d53c 1bd1 8d3c 5bcb 02bd
00000370: 7632 a9bc e0c4 e0bc fb17 1d3c d669 91bb
00000380: 0461 233d 361a 973c 1b9d d53c 78b3 83bc
00000390: d6f7 a5bc 2e19 f8bc c68c c63c c0e0 48bc
000003a0: f683 1d3d 0025 a4bc 4e67 16bd d3c2 fdbc
000003b0: 8671 0ebd 56b6 44ba 7390 fb3c cfd5 0ebd
000003c0: 93bb 89bc 76aa 84bc 00c2 863c 006a ce3b
000003d0: 5319 f33c 6ef9 c93c abf9 de3c a66f 093d
000003e0: c833 07bd 2ed4 8b3c cbf0 a1bb 0e0c e63c
000003f0: 0d9f 213d b358 f13b 48d4 e7bc 06d9 43bb
-0.0027234547 -0.008696206 -0.008431352 -0.00066812115 0.021666221 -0.02483956 -0.022884613 -0.010590451
0.0077700336 0.0051694904 -0.014122089 -0.023315726 0.013217475 -0.007113378 0.015704708 0.027509326
-0.0035039075 -0.03854488 -0.018116908 -0.023669166 0.037433676 0.011507588 -0.015162651 -0.03793629
0.0009329657 -0.0049479473 -0.040937535 0.011126864 -0.031108372 -0.0091308495 0.031406887 0.024891013
0.039868455 -0.04067691 -0.013146856 -0.04047516 0.021473968 0.019118387 0.040269133 0.03427111
-0.037642296 0.027698446 0.007852913 -0.034372464 0.041040085 -0.029159086 -0.006501128 0.032998007
0.023526607 -0.010192001 -0.03089835 0.021984551 -0.022732344 0.009573688 0.020047292 -0.011869837
-0.025869222 0.00824125 0.015205469 0.03572678 0.0021305024 0.015092857 -0.011081058 0.040301394
-0.007274174 0.022084493 0.019207988 -0.02499985 -0.03808993 0.0009753307 0.00073720736 0.036292665
0.025049465 0.02176418 -0.01489812 0.0405064 0.011737107 0.0014354801 0.01663923 0.0009888435
0.02462035 0.0005598055 0.029558947 -0.03002695 -0.03582465 -0.037775956 0.03773137 -0.014088253
0.018194716 0.024310077 0.012936612 -0.037402514 0.0110884365 -0.0066195386 -0.026740996 0.03484098
-0.038901255 -3.363341e-05 0.026118664 0.022210086 0.019228157 -0.030800821 -0.0093097 0.014443908
0.035533242 0.013533411 -0.032763287 0.029951204 0.026595637 0.0004305641 -0.015368253 -0.016069299
0.01865254 -0.0060307086 -0.0022664368 0.02757993 0.014362454 0.026561743 -0.011374245 -0.020599723
-0.017383423 -0.024392486 0.005723407 0.02519179 0.0024906895 0.016459253 -0.0037844877 -0.031279758
0.0072366 0.015365477 0.023224503 -0.012496209 0.019432187 -0.00056639314 -0.0064970455 0.028877866
-0.011303147 0.028217917 -0.0036842674 -0.024203673 0.022113811 -0.027016744 0.0058392137 -0.022944894
0.010171647 0.004430319 0.0032644297 -0.041801028 0.02057705 0.0022452883 -0.029416915 0.013826233
0.033519514 -0.020365097 0.0009510753 0.03419379 0.0013336693 -0.020564025 -0.0021066444 -0.000958422
-0.029836964 0.02465953 -0.024060914 -0.03918316 0.0033058496 0.022451263 -0.04132513 -0.003310995
0.031663224 -0.011295664 0.003138176 0.007639187 -0.030050188 -0.038953472 0.027630925 -0.0038998686
0.006219388 -0.027793063 -0.004777444 0.014716902 0.017911889 0.032374315 0.004689634 0.009138101
-0.005324845 -0.033153385 -0.017233003 0.037376758 -0.02870672 0.028702388 -0.034583937 0.0011775055
-0.025217567 0.03666346 0.02959274 0.0027497807 0.0030718385 0.01681434 -0.01442786 -0.02861093
-0.04097829 0.025817486 0.02307539 0.023771843 -0.026219785 -0.00087400555 -0.0136456415 -0.03859238
-0.009541276 -0.028551636 0.009131678 -0.008884832 -0.013220354 -0.019485403 0.02041272 0.034116328
0.033832185 0.026098993 0.017311623 -0.031932216 -0.020653944 -0.027437627 0.009588237 -0.0044376655
0.039887443 0.018445116 0.02607589 -0.016076788 -0.020259779 -0.030285444 0.024237048 -0.012260616
0.038455926 -0.020037174 -0.036719613 -0.030976688 -0.034776233 -0.0007503977 0.030708527 -0.034871873
-0.016813075 -0.016194563 0.016449928 0.0062992573 0.029675161 0.02465507 0.02721866 0.033553742
-0.033008367 0.017068949 -0.004942035 0.02808192 0.039458323 0.00736531 -0.028299466 -0.0029883995

fc1.bias f4 [120]
00000000: 61e2 cbbc 15be 933c 3de3 1bbc 1e3c 173d
00000010: d67e f53b 00c7 d03c 79d7 6d3c 5c6b ef3a
00000020: 6b74 e1bc df56 413c e04a d7bb e244 ea3c
00000030: df2f 0a3d 0082 d7bc 2abd 593c 7705 50bb
00000040: 8872 1abd b064 403c 7b62 75bc 005f 60bb
00000050: f460 2abd 7c00 283d 0974 81bc 9159 9ebc
00000060: c095 013b 2498 833c 9ae5 9b3c 76fa a03c
00000070: c2ea fc3c 39e7 c13c 8ecd a93c 170e 1bbc
00000080: b6da 3fbc 5c57 d4bc a6be 03bd 8843 3cbd
00000090: 2c7a 23bd 0e3d 2abd 1416 ce3c f6d2 253d
000000a0: 1271 483a 2710 d53c 50c8 8fbc ec2f 4bbc
000000b0: ee92 103c a423 9fbb e746 6d3c 6523 c4bc
000000c0: d8ca b3bc 24f0 b43a 1981 493d 7908 bf3c
000000d0: c720 f8bc 1c1f 223d 6429 3e3d 7729 54bd
000000e0: ff0c 883c ccd8 ca3c caeb 123d 9dc0 c03c
000000f0: 0d6d 01bd d652 083c a3eb 583b 4879 4d3b
00000100: 448d e63b debd d8bc 00b4 f33c 9ddb 043d
00000110: 34e9 20bd 7775 aa3c ae26 6fbc e221 13ba
00000120: 5abd 07bb a5b8 01bd 541f b93b b9cd 3abc
00000130: b48a 12bd 7d2c d838 3c98 683d 6337 45bc
00000140: 2bdb 38bb d65c c13c c923 9fbc 3c42 14bd
00000150: 3a3e 14bd 12a3 c8bc 9e7f e5bc 1921 26bd
00000160: b951 45bd da94 8a3b 8a04 233d 505d fe3c
00000170: e17d 07bd 6849 f13c 4137 0d3d da8b 98bb
00000180: a3c8 4bbd 6d51 b5ba 05ba 29bd 248b 143c
00000190: 299c 4e3d c7be 00bd 2187 dcbc ceee 79bb
000001a0: 0ba1 b73b b2d8 8abc 8009 72bd 86b9 edbb
000001b0: e2a1 ae3c 0af4 903d bf2c 5cbc 11b6 48bd
000001c0: 630e d03c da5a 0cbc afc5 f93c 1cca 0bbd
000001d0: ec64 1c3b cc17 8cbc 5706 bebc 4e99 433c
-0.02488822 0.018034974 -0.009514627 0.036922567 0.0074919267 0.025485516 0.014516705 0.0018266249
-0.027521333 0.011800497 -0.006570205 0.028597299 0.03373706 -0.026307106 0.013289729 -0.0031741539
-0.03770688 0.011742756 -0.014977093 -0.0034236312 -0.041596368 0.041016087 -0.0158024 -0.019329818
0.0019773096 0.016063757 0.019030381 0.01965068 0.03087366 0.023669826 0.020727899 -0.0094638085
-0.01170986 -0.025920562 -0.03216424 -0.04596284 -0.039911434 -0.041562133 0.025157012 0.04048439
0.00076462433 0.026008679 -0.017551571 -0.012401562 0.008824093 -0.0048565436 0.0144822365 -0.023942659
-0.02194731 0.0013804478 0.049195383 0.02331947 -0.030289067 0.03958045 0.046426192 -0.051797356
0.01660776 0.02476158 0.035869397 0.023529345 -0.03159814 0.008320531 0.0033099435 0.0031352807
0.007035883 -0.026457723 0.029748917 0.032436002 -0.0392849 0.020807965 -0.014596624 -0.0005612654
-0.0020712228 -0.03167023 0.0056494866 -0.011401587 -0.03577681 0.00010307969 0.056785807 -0.012037131
-0.0028206806 0.023603838 -0.019426243 -0.03619598 -0.036192156 -0.02449182 -0.028014954 -0.040558908
-0.04817364 0.0042291703 0.03979925 0.031050354 -0.03307903 0.029453948 0.034476522 -0.0046553435
-0.04975189 -0.0013833471 -0.041437168 0.009066377 0.050441895 -0.03143194 -0.026919903 -0.0038136723
0.0056039146 -0.016949032 -0.05909109 -0.007254782 0.021317426 0.07077797 -0.013438403 -0.049001757
0.025397485 -0.008566583 0.03048977 -0.034128293 0.0023863865 -0.017101191 -0.023196382 0.011938406

fc2.weight f4 [84, 120]
00000000: 4441 2f3d 89d2 90bd 7da1 3bbc 4d2b 6bbd
00000010: 86ab 63bc f736 a23d 9c5d 043d 463c 09bd
00000020: fc5a 52bc 4ee2 63bd c297 b93d 941b daba
00000030: eff3 bcbc 0a74 8d3c 3022 883d 023e 42bd
00000040: efa1 15bd 97ff 623d 97c8 aebd 2338 ecbc
00000050: 2184 7bbd 9c7f acbd 4818 433c db7e 823d
00000060: fa70 453d c033 e93c c1e8 3cbd 96f2 5fbd
00000070: 3d8a 94bc 7f2f 203d 6b30 21bd 4d90 a33d
00000080: 767b fcbc f5d1 823d b315 f6bc bb7b 873d
00000090: cccf 90bd 88fb db3c 68b1 a43d ecdc a6bd
000000a0: 7c22 46bd 0cf6 e73c 3f89 56bd 5607 9e3d
000000b0: f252 62bd d56d 463d 5e02 a7bd eb28 c9bb
000000c0: 2746 253d 9a14 43bd 41df 9fbc d299 a3bd
000000d0: 4112 afbd 4d83 b0bd 3348 fb3b b97e 253d
000000e0: b0d5 a2bc e92a 273d a46f 7e3d f6c0 a03d
000000f0: 8fa5 babd 108d aa3c 4a8e 5d3d 124b 233c
00000100: 55bd 81bd 42fd d93b 9374 e0bb 3047 cb3c
00000110: 7c88 a53d 841c afbd 39c5 8e3d 5373 b53c
00000120: c898 473b 5563 9bbc 31db 37bd 36ab f03c
00000130: 60c6 e13c 71c6 d63c 7110 c6bb c859 e2bc
00000140: eb9e 373c 634a aebd e7ae bebc 5a76 a2bd
00000150: 47d9 a63d 788d 88bd 4969 8a3d aa03 b6bd
00000160: 1f1a 3b3c 3beb f23c 2927 093c 7a5e 63bd
00000170: 7a30 9fbd faae 433d c2ca 103c cf2b 953d
00000180: 2b6b 4fbd 928a 60bc e6aa 1a3d 5f39 38bd
00000190: 7c97 a9bd 1cb6 683d 20bb b73d 743d 9e3d
000001a0: f364 efbc 40eb 11bd 6013 8cbd cd30 60bd
000001b0: 5df6 11bb 128a 7f3d a029 543d 7044 7b3c
000001c0: 6ab4 a4bd 2587 633d c4e0 fcbc c2d4 77bc
000001d0: f068 69bd bb80 043d 5b26 a73d a6e2 1c3c
000001e0: 1016 71bc c04f 3f3d 6a46 2d3d de13 aabd
000001f0: b7e1 0c3d 2334 933d b3c6 6dbd df5d c6ba
00000200: 5660 7a3d bfee 0f3d 8d24 99bd e41b 56bd
00000210: 1e75 263d eb0d 9fbd 1d47 4f3d 0a38 9c3d
00000220: 5e32 f3bc 2cdd 953c c506 4d3d 316c 0b3c
00000230: d5a6 b4bc bd36 1c3c f6ae 9e3d 08f2 e5bb
00000240: 4a15 95bd ea42 91bd 96b8 113c 57de bebc
00000250: 53ae 86bc 8f04 4f3d 81e2 febc 2649 b7bd
00000260: 9ebe 95bd 6c59 083d 5cd7 b43d 28f5 113d
00000270: 95dd 383d 0649 90bd ec28 d13c 5e3c 513b
00000280: 8ccf 0fbd 7a2c 1dbd 957f 99bd 7dd1 363d
00000290: 4c00 babd 6686 7bbb 7d95 843d e5fa 5c3d
000002a0: 6cf8 21bb a029 05bd 963b 0ebd 70d0 743c
000002b0: a212 9dbd 6f00 523c 13e9 2ebd 3684 963d
000002c0: 45ab abbd b35b 733d 9fea 13bd 0d29 6e3d
000002d0: 97d3 e13c e50e 74bd 1387 093d c80b 493d
000002e0: c18e 893d d6c4 9cbd 4c17 02bd 963f f5bc
000002f0: d536 90bc 7d35 18bd 7f95 7abc 54c1 a4bd
00000300: be4e 30bd 81f8 e4bc 9d47 a13d 0d7f 233d
00000310: 6cfc 333d 26ed 49bd 58b0 9d3d 413c 2f3d
00000320: 8765 c8bc 86fe bebd 0ce5 833b a847 99bc
00000330: 718f 823d f961 533d d759 0a3d f65a 583b
00000340: 4a82 56bd f9dd d6bc c7c3 d4bb 1657 103d
00000350: 7fb4 1f3d 5ac5 8ebc 7d8b ec3c 167b 7cbb
00000360: e357 e73c ac25 67bd d156 313c 952e b6bd
00000370: 7866 bb3c 9093 413d 6bf8 bf3c c43c 94bd
00000380: 12a0 8d3d f59d b93d fcf9 ac3b 3e73 0cbc
00000390: e47c 6d3c 80e4 00bd 1e71 a0bd d9c8 7ebc
000003a0: 520d 373d 44c4 ad3d f0d1 323d aa31 a03d
000003b0: 72f8 853d 32e1 ee3b 6e85 acbd 0d8c 6dbc
000003c0: 48e4 f13c baa6 043d 4a77 8abc f271 763d
000003d0: 5a2d 0cbc d9d9 e13c 89ee 8c3d a375 2abd
000003e0: 4a87 94bd 114d f83d a821 9dbd 80e5 863c
000003f0: 029c 323d c5b5 963d ef73 6c3c 6348 28bc
0.04278685 -0.070714064 -0.011452076 -0.05741434 -0.013895875 0.0792064 0.032315835 -0.033504747
-0.012839075 -0.055635743 0.09062149 -0.0016640299 -0.023065535 0.017267246 0.06647146 -0.047422417
-0.036531385 0.05541953 -0.08534353 -0.028835362 -0.061405305 -0.08422777 0.011907645 0.06371852
0.048203446 0.02846706 -0.04612041 -0.054674707 -0.018132323 0.039107796 -0.039352816 0.079865076
-0.03082059 0.063877024 -0.030039644 0.066153966 -0.07070884 0.026853338 0.0804165 -0.08147606
-0.04837273 0.028315566 -0.05237698 0.07716243 -0.055254884 0.048444588 -0.081547484 -0.006138911
0.040350106 -0.04762707 -0.019515635 -0.07988323 -0.085484035 -0.08618794 0.007668519 0.040404055
-0.019877285 0.040812407 0.062118188 0.078493044 -0.09113609 0.020819217 0.054090776 0.009966629
-0.0633494 0.006652505 -0.006849834 0.024814218 0.08082673 -0.08550361 0.06971211 0.022149717
0.0030456055 -0.018968264 -0.04488677 0.029378515 0.027560413 0.026217671 -0.0060444404 -0.027630702
0.011207323 -0.08510282 -0.02327676 -0.0793273 0.08146911 -0.06667608 0.06758363 -0.088874176
0.011419802 0.029653182 0.008371153 -0.05551002 -0.07772918 0.047774293 0.008837404 0.072837465
-0.050639313 -0.013704913 0.037760638 -0.04497659 -0.082808465 0.056814298 0.08971238 0.07726565
-0.029222941 -0.035624743 -0.06839633 -0.05473404 -0.0022272088 0.062387533 0.05179751 0.015336141
-0.08042224 0.055548806 -0.030868895 -0.015126409 -0.05698484 0.03234933 0.081616126 0.009575522
-0.014714733 0.046706915 0.04230348 -0.083045706 0.034394946 0.07187679 -0.058050822 -0.0015134177
0.06112703 0.035139795 -0.07477675 -0.052272692 0.040639035 -0.077663265 0.05060493 0.07627876
-0.029687103 0.01829394 0.050055284 0.008509682 -0.022052208 0.009534535 0.07748215 -0.0070173778
-0.07279451 -0.07092841 0.008894106 -0.02329938 -0.016440546 0.050541457 -0.031113865 -0.08949499
-0.07311748 0.033288404 0.08830139 0.03563419 0.045133192 -0.07045178 0.025532208 0.003192685
-0.03511004 -0.038372494 -0.074950375 0.044633377 -0.09082088 -0.0038379668 0.06473825 0.05395021
-0.0024714721 -0.0325104 -0.034724794 0.0149422735 -0.076695696 0.012817486 -0.042702746 0.07349436
-0.083822764 0.059413623 -0.036112424 0.058144618 0.027566714 -0.059584517 0.033576082 0.0490835
0.06716681 -0.07654731 -0.0317605 -0.029937547 -0.017604271 -0.037160385 -0.015294432 -0.08044687
-0.043043844 -0.027950527 0.07874987 0.039916087 0.0439419 -0.049298428 0.076996505 0.042782072
-0.024462475 -0.0932589 0.0040251072 -0.018710926 0.063750155 0.051607106 0.033777084 0.0033013201
-0.052370347 -0.026228892 -0.006493065 0.0352393 0.038990494 -0.017428089 0.028875107 -0.0038525513
0.02824015 -0.05643241 0.010823921 -0.088956036 0.02287601 0.047259867 0.023433885 -0.072381526
0.069152966 0.09063331 0.005278824 -0.008572398 0.014495108 -0.031467915 -0.078340754 -0.0155508155
0.044690438 0.084847 0.043657243 0.07821973 0.06541528 0.007290029 -0.08423887 -0.014498723
0.029527798 0.032385565 -0.016902585 0.06016726 -0.0085557345 0.027569698 0.068814345 -0.041616093
-0.07252367 0.12124074 -0.07672435 0.016466856 0.043605812 0.073588885 0.014431938 -0.010271165

fc2.bias f4 [84]
00000000: 3aed b4bd 9be2 63bd 411d e03c b6eb 333c
00000010: 5fe6 913c 495b a1bd 84e8 7abd ed6e c4bd
00000020: 54f7 863d ae68 423d f769 b8bd e752 0c3d
00000030: d0a8 b23d 5d89 783d 8bf9 303c 4086 9abd
00000040: 4b67 94bd ab80 b13d 7e31 c13d 33e7 4d3d
00000050: cf5f a43d 8ca9 41bd c65d 70bd d305 ab3d
00000060: 31c3 32bd 8ce9 4ebd 535d afbd 6379 81bd
00000070: d963 77bc 4ac8 b4bd 1cd2 993d 60c5 eb3d
00000080: 1845 893d e561 b7bd a00e 61bd 5e1a 7e3d
00000090: df26 4fbd cb9a a0bd 22ff 3e3d f878 05bd
000000a0: ba8b 6ebd 4818 25bd 26a5 c1bd ac0e bc3d
000000b0: a771 29bd ca0a 7b3d b8f9 823d d98a 91bd
000000c0: 8af1 7fbd a773 3c3d 7bdc 5d3c 4388 2abb
000000d0: d8ac 45bd bb82 28bd 6e55 ddbb 16e0 e4bb
000000e0: 47de 823d c0b0 853d f6f0 403d c013 153d
000000f0: 0f07 9c3c 53ea 5e3d e7f7 14bc f1db d0bd
00000100: 5ed1 5dbb ee82 d6bc b4f6 703c ab8a bf3d
00000110: a283 ae3d 6c95 4fbc f25f 2c3d c0c4 e73c
00000120: 5d3b ccbd f97e c93c e854 a03b db44 e9bd
00000130: 9666 0ebd d95d 80bd 9dee a23d 249b e83c
00000140: 3b44 663d 1f8e 103b 298b 83bd db68 453c
-0.0883431 -0.05563603 0.0273577 0.010981491 0.017810045 -0.078787394 -0.0612569 -0.0959147
0.06590143 0.04746311 -0.09004586 0.03425875 0.08723605 0.060677875 0.010801683 -0.075451374
-0.07246264 0.086671196 0.09433268 0.050269317 0.080260865 -0.047280833 -0.05868318 0.0835072
-0.04364318 -0.050515696 -0.08562722 -0.06321981 -0.015099489 -0.088272646 0.07510778 0.11512256
0.06702632 -0.08954219 -0.054945588 0.062036864 -0.05057418 -0.078420244 0.046630032 -0.032586068
-0.058238722 -0.04030636 -0.09455328 0.09182486 -0.041368153 0.061289586 0.06395286 -0.07106561
-0.06248621 0.046008732 0.013541336 -0.002602116 -0.04826054 -0.0411403 -0.006754569 -0.006984721
0.06390052 0.06527853 0.0471048 0.03639579 0.019046335 0.054422688 -0.009092308 -0.101982005
-0.0033846716 -0.026185479 0.014707256 0.09352621 0.08521201 -0.012669902 0.042083688 0.02829206
-0.0997226 0.024596678 0.004892934 -0.11390086 -0.034765802 -0.062679 0.07955668 0.02839429
0.056217413 0.0022057367 -0.06423027 0.012048925

fc3.weight f4 [1297, 84]
00000000: cbee 1fbd 3edd 283d 0944 ecbd a51f 863d
00000010: d0c7 923b dacb 803d f9de d5bc 7ab2 933d
00000020: 8921 373e ee37 efbd 625a 16bd 5402 803d
00000030: 96f3 47bd 8dde 2abd a708 9c3c b8fb 5a3d
00000040: 553f 34be e8d4 c43d 675e 50bd 0d45 1bbc
00000050: 42d7 833d 3a0d 8ebd 984f 5f3c 89ae 87bc
00000060: 0639 c23d c801 593d f3df 0c3d 67e9 0ebe
00000070: 9722 5c3d 2d78 993d 72ca 14bd 1046 293b
00000080: 97f8 b9bc 5583 50bd 58c2 573d d10e 94bc
00000090: 2106 dd3d 53ec 0abc af43 373d f780 1e3e
000000a0: 7aca 813d 2e0c 00bd 4d4d d6bd 0917 883d
000000b0: 35a5 cabd c413 993d 46cb f73d a783 853d
000000c0: 3dde fcbd 95f8 31bd 5fc2 49bd 9eea 55bb
000000d0: fe53 953c c478 05bd 0c6a bd3b 8291 ecbc
000000e0: c89a 0f3d 3d04 80bc ba09 96bd 0902 6e3d
000000f0: a64f 32bd 3ab7 50bd 51da 973d dac5 b8bd
00000100: 744b 9d3c edef 0e3e 142c 413d 016a 8e3d
00000110: e93e 873b 9d2c 34bd 2165 ab3c 4839 ec3c
00000120: 4d1d cdbd 119c 0d3d a7f5 983d ba63 0bbd
00000130: 40f6 8cbd c578 aebd 8d94 d7bd 3266 d5bc
00000140: b7ed f1bd 4643 393d 568c 3a3d 76b2 fcbd
00000150: 4ce4 bc3d efac 2dbd 9ee9 02bd 5e2d 343d
00000160: 9d2f 883d fbab 153d d583 b53d bb8b a2bb
00000170: b142 253e 4cc1 e0bd 7f4d 38bd 692a d9bd
00000180: 6cb0 bfbd 5319 69bd 688e bd3d 96af 08bd
00000190: 84e2 21be 1050 e139 0533 4a3c fc33 b73d
000001a0: c86f c3bd 4188 5bbd 005b a3bd c55b 553d
000001b0: 8a97 45bd 423b 053d 6716 01be cb6d e4bd
000001c0: 134f 98bd 8359 54bd 2efe b1bd ccf2 693d
000001d0: 3d95 163c 1ef4 b63d 1597 883d a302 efbc
000001e0: 0fb4 fabc 5700 da3d b9f2 a6bc 7817 a13d
000001f0: e36f d33d cfe6 34bc e15a a7bd 2bf3 b2bd
00000200: 26fb c6bb cc39 75bd 2cfa 3c3d f0d2 9a3d
00000210: 83db e3bd e0f1 c43d 676e 95bd dcf1 fdbc
00000220: 1ff1 a93d 8d10 443c 031a b7bd fffc 273d
00000230: c67a c5bd a945 d8bd c5e0 dd3b 6b48 79ba
00000240: 59c8 9ebd cb89 b13d ee47 ca3d d26b 323d
00000250: 1eab 0d3d 6224 9c3d f613 893d 3e7e b1bd
00000260: 00c6 fd3d 7661 763d 5551 7a3c 1ddf dfbc
00000270: 1fe5 db3d 2257 97bd 84aa 3c3d 7318 0cbd
00000280: 24aa 893c 4e69 5e3d b103 a5bd b6ed 19bd
00000290: 372c 8fbd 24d7 4cbd 2a96 9fbd 6182 c0bd
000002a0: 1f1d 14bd 32e9 d0bd a1ab 1fbc 59b0 873d
000002b0: 786a bc3c 1e42 1ebc c10a 90bc 9b3a 413d
000002c0: c9bb 643e 72d2 9e3c 541e c9bd f54e 05bd
000002d0: ca16 823c 4c1e 8bbc 62e9 643d f618 d4bd
000002e0: c70a d8bd f308 18bd 7987 b5bc dbcd b23d
000002f0: feba bd3d 86e6 bfbd b8fa cb3c f4fb 22bd
00000300: fa77 da3d 7903 973c eb37 aabd 4924 b1bd
00000310: 6c91 933c 83a2 b2bb 17c0 453c 48f5 7d3d
00000320: 9e0a b43d 8bb7 c3bd 53bc 283d 0817 a3bd
00000330: 60f5 a4bd 975e 57bb 09c8 8ebd b611 173e
00000340: 1609 c3bc 6168 063d 39dc 40bb 66db c9bd
00000350: 8313 e93c f906 1f3d f7d8 373c c7c0 683d
00000360: f3c5 8fbd b69c bcbd 3da4 8e39 f608 0d3e
00000370: e162 dabd 9330 b83b 3938 d1bd e6ec d03d
00000380: e7e0 afbc 0390 e9bd 87d2 88bd 7c57 473b
00000390: 7a1c 8f3d 4a31 e0bd 1ab7 5e3d 8647 06be
000003a0: 3edb debc de8b 9ebb 9c4c e73b 1f18 02bd
000003b0: ad93 283d da08 9f3d 6fa2 59bd f406 81bd
000003c0: f4b9 3f3d 7de3 febd 7b7d 3d3d f8ec e3bd
000003d0: 94dd ac3b 5841 efbc c6ef 84bd 2806 86bd
000003e0: ea81 b0bd 9bc7 3dbd 40cc 853d 9db5 633c
000003f0: e8aa 83bd 851b 54bd b810 b4bd dcce 39bd
-0.03904609 0.041226618 -0.11536414 0.065490045 0.004479386 0.062888816 -0.026107298 0.07211776
0.17883886 -0.116805896 -0.03670729 0.06250444 -0.048816286 -0.041716147 0.019047095 0.053462714
-0.17602284 0.09610921 -0.05087128 -0.009476912 0.064375415 -0.069361165 0.0136298165 -0.016562717
0.094835326 0.052980214 0.034393262 -0.13956223 0.053743925 0.07493625 -0.03632588 0.0025829114
-0.022701545 -0.050906498 0.052675575 -0.018073471 0.107921846 -0.008479196 0.044742282 0.15478884
0.063374475 -0.031261615 -0.10463963 0.066450186 -0.09894792 0.07474473 0.12099318 0.06519251
-0.12347076 -0.043449957 -0.049257632 -0.0032641063 0.018228527 -0.032585874 0.005780464 -0.028877977
0.03505972 -0.015627021 -0.07326074 0.05810741 -0.04353299 -0.05095599 0.074146874 -0.09022112
0.019201018 0.13958712 0.047161177 0.069538124 0.0041273725 -0.04398786 0.020922245 0.028835908
-0.10015354 0.034572665 0.074687295 -0.034030654 -0.06882906 -0.08519129 -0.10526381 -0.026049707
-0.11812919 0.045230173 0.04554399 -0.12338726 0.09223232 -0.04240125 -0.031961076 0.043988578
0.066497065 0.036540966 0.088630356 -0.004960505 0.16138722 -0.109743685 -0.04499578 -0.10603792
-0.09359822 -0.056908917 0.092556775 -0.033370577 -0.15809065 0.00042974995 0.012341266 0.08945462
-0.09542805 -0.05359674 -0.07976341 0.05208947 -0.048240222 0.032527216 -0.12606202 -0.11153754
-0.07436957 -0.051843178 -0.08691059 0.057116315 0.009190855 0.089332804 0.066694416 -0.029176062
-0.030603437 0.10644596 -0.020379411 0.078658044 0.10324075 -0.011041357 -0.08171631 -0.08737787
-0.0060724197 -0.059869573 0.04613702 0.075597644 -0.11125853 0.096164465 -0.07296448 -0.030999117
0.08297943 0.011966837 -0.08940508 0.04101276 -0.09642558 -0.105601616 0.0067711794 -0.00095093873
-0.07753057 0.0866886 0.09877001 0.043559857 0.03458702 0.07624127 0.0669326 -0.08666657
0.12391281 0.06015154 0.01527818 -0.027328068 0.10737061 -0.07389666 0.046061054 -0.034203004
0.016804762 0.054299645 -0.08057345 -0.037580214 -0.06990855 -0.05000986 -0.077923134 -0.09399868
-0.036160585 -0.102007285 -0.009745509 0.066254325 0.022999987 -0.009659318 -0.017583253 0.04717503
0.2233726 0.019387458 -0.09820238 -0.032546002 0.015880007 -0.01698222 0.055886634 -0.103563234
-0.105489306 -0.03711791 -0.022159325 0.0873067 0.092641816 -0.09370141 0.024899825 -0.039791062
0.10667415 0.018434273 -0.08311447 -0.08649499 0.018013678 -0.005451502 0.012069724 0.062001497
0.087910876 -0.095564924 0.041195225 -0.07963377 -0.08054614 -0.0032862776 -0.069717474 0.1475285
-0.023808043 0.032814387 -0.0029428138 -0.098563 0.028451687 0.03882501 0.011221162 0.05682447
-0.07020178 -0.09209578 0.00027206718 0.1377295 -0.10663391 0.005621025 -0.10215802 0.10201435
-0.021469546 -0.11404421 -0.0668078 0.0030417135 0.06987853 -0.10946901 0.054373838 -0.13113222
-0.027204152 -0.004838451 0.007058693 -0.031761285 0.04115646 0.0776536 -0.053133424 -0.06300154
0.046808198 -0.12445734 0.046262246 -0.111291826 0.0052754376 -0.029205963 -0.06491046 -0.06544143
-0.08618529 -0.046332937 0.06533098 0.01389828 -0.06429082 -0.051784057 -0.08792251 -0.045363292

fc3.bias f4 [1297]
00000000: 0bae 833d 8549 94bd be21 46bd f411 aa3d
00000010: ddc2 64bd 051c b83d 0bc6 153c f5b8 5f3c
00000020: 798b 6ebd f303 6dbd ef95 96bd c873 383c
00000030: ac08 843d d912 12bd 9d52 96bd f7dd d43d
00000040: 97d0 59bc ed37 e23d c0cb 23bd 9b0d c1bd
00000050: ddba 9b3d de23 863d fe50 c9ba fefd b7bd
00000060: 6884 48bd 5f27 d0bc 6f1a 9b3d f4e5 ac3d
00000070: c8f7 703d dfab 513d 8133 5fbd 5e37 5cbd
00000080: a1fb 91bc c14b 9539 f320 88bd 34d2 283d
00000090: 0478 3cbd 2807 83bd a3f6 843d dc13 6abd
000000a0: 0be3 afbd bcc0 c23d d7e4 a6bc 250f 4dbd
000000b0: ea0b afbd fe93 86bd 22f0 833d 92b5 9fbd
000000c0: 1fda 3cbb ca54 09bd 363c 0f3d 8784 6dbd
000000d0: 932a e43d 3a8f a53d 9aa2 50bd edaa 1d3d
000000e0: 965e cfbc d61b f6bb 183e 10bd 54a7 b43d
000000f0: 97d2 8bbd 08af 63bd 4fa2 a73c 3ac3 593d
00000100: 93ef e6ba 95b3 03bd a87c 3c3d 30b6 cf3d
00000110: 39b0 a83d 3c96 743d bcbf 6fbd bf5f 9e3d
00000120: 7399 35bd 9a5c 08bd 9981 afbd 2b5c 7f3d
00000130: a24f 1b3c adc5 f5bc 0547 203d 2610 7abc
00000140: 8fe5 33bd 0d34 a0bd 3e9e 3cbd 98ae ce3d
00000150: 65c1 42bd da54 453d 6bc4 7a3b 1deb 6ebd
00000160: f651 49bc 2bd4 2239 d03a 16bd 6431 66bd
00000170: df25 c33d 6b50 09bc 6f35 203b 3390 46bd
00000180: 56c0 18bb 945b b3bd 9251 61bd 07e3 843d
00000190: 7ac1 97bd fb09 993d 41cd 86bb df63 58bd
000001a0: 0567 05bd a450 66bd f46d c3bd 480a bd3d
000001b0: 92c1 193d 137f 393d 3a1f 0d3d f95a 143c
000001c0: 9458 1b3c dfc9 eabc 1a3b 88bd ebee 933d
000001d0: 1c8d b53d 21d6 aabb 7c2e 913c b403 13bd
000001e0: b9ee afbd ed1e a43b 290b 8abd ad09 d63d
000001f0: 4219 533c c7bc d03d 377d a0bd cc12 1d3c
00000200: bc87 bfbd 582c 6e3d b890 3ebc cbc4 a5bd
00000210: 7a5b a73c a5c6 91bd 5316 42bd 8bd0 d63c
00000220: 2d6e e33d 6aa4 9cbd 3151 cbbd 12bf 213d
00000230: c15e d73d 2fa7 7c38 6ce0 9bbb d1f1 41bd
00000240: 084f e23d ee5f 1b3d 46b9 c4bd 41b5 943d
00000250: c91f aa3d 4d15 203d b304 acbc 2560 083d
00000260: 3c43 bb3d 9fde e0bb 76f3 353d 5033 5a3d
00000270: 66fe a6bc 00c7 09bd 2176 53bd db26 383d
00000280: 0390 9ebd 6115 c03c 4118 213d e9d0 54bc
00000290: b88c bcbb f305 b0bd 4231 bb3d e68d 8e3d
000002a0: 1011 743c 8168 8ebd ee0c e6bb 4e5b 2fbd
000002b0: ad81 7fbd f6c9 d43d 35a1 bbbd ce30 053d
000002c0: 58b4 cabc 7c9d aa3d 3834 b53d f4ca f4bc
000002d0: 83b7 a6bd b3a7 dc3d 0510 123d 1b8d d93c
000002e0: 4e9e e1bc b5b4 d13c a178 8bbd ddd8 ce3d
000002f0: 17e0 49bd 09e4 433d 0bbd 8eb9 b52a d43d
00000300: 0780 d0bd abce 66bd 6579 403a 78ca f23a
00000310: 7430 823c ee0e 85bd 758e 433d 9580 d6bc
00000320: 95ae f03d 4281 50bc 216f 0d3d bfc9 0cbd
00000330: 96f8 24bd 7bea a83d d111 acbd 5e1e a0bd
00000340: 429b 06bc 920e 093d 1ab9 c53d c911 99bd
00000350: 9820 eebc 61e6 d43d 214c e5ba b407 c1bd
00000360: 0ffb 4f3b bdac 6dbd 3525 ed3c 8ee3 bcbd
00000370: 3a8e 203d 8e3d 43bd 2dbc d53c e7da a93d
00000380: e410 d33d 8340 babd 1a3e bd3d d6e3 a5bd
00000390: 0dda b1bd d803 333d aced bf3d 358e fa3d
000003a0: 4946 053d 7c80 583a 4e6c b2bd 8f1f 31bc
000003b0: 6255 bfbd a289 e63d 01cf 1a3d 0bac eebb
000003c0: 8db9 483d 8c2d c5bd 2b8b ab3d c7fb 873d
000003d0: edbe 12bd 4f23 583d 1fec 3e3d 0997 3d3d
000003e0: 1bb6 203d d674 a93c 8bfb e0bc 58f7 c63d
000003f0: 5ba1 d73c 9ff5 91bd 6f90 5c3c 4261 da3c
0.064296804 -0.07240585 -0.048372023 0.083042055 -0.0558499 0.08989719 0.009141455 0.013654937
-0.05823848 -0.057865094 -0.07352816 0.011258073 0.064469665 -0.035662506 -0.07339976 0.10393899
-0.013294361 0.11045823 -0.039989233 -0.09426423 0.07604001 0.0654981 -0.001535922 -0.08983992
-0.048954397 -0.025409399 0.07573401 0.084422976 0.058830053 0.0511893 -0.054492477 -0.05376374
-0.017820181 0.00028475936 -0.066469096 0.04121609 -0.046012893 -0.06397849 0.06492355 -0.057147846
-0.08588227 0.095094174 -0.020372791 -0.05006327 -0.08547194 -0.06571196 0.06442286 -0.07798304
-0.0028816534 -0.033528127 0.03496953 -0.057987716 0.11140933 0.08083959 -0.05093632 0.038493086
-0.025313657 -0.0075106425 -0.035215467 0.08820978 -0.06827276 -0.055586845 0.020463137 0.0531647
-0.0017619006 -0.032153685 0.04601732 0.101421714 0.08236737 0.059713587 -0.05853246 0.07733106
-0.044335794 -0.033291437 -0.08569641 0.062343758 0.009479435 -0.030001486 0.03913023 -0.015262639
-0.043920096 -0.07822428 -0.04604935 0.10091895 -0.047547717 0.048176624 0.0038264047 -0.05832969
-0.012287607 0.00015528563 -0.03667718 -0.056199446 0.09528708 -0.00838099 0.0024445911 -0.048477363
-0.0023308 -0.087577015 -0.055009432 0.064886145 -0.074099496 0.07472607 -0.0041138236 -0.05282962
-0.03256895 -0.05622925 -0.09542456 0.092304766 0.03753812 0.045287203 0.034453608 0.009054893
0.009481568 -0.028660713 -0.06651898 0.07223304 0.08864805 -0.0052135144 0.01772236 -0.035892203
-0.085904546 0.0050085695 -0.0674041 0.10451064 0.01288444 0.101922564 -0.07836383 0.009587001
-0.09352061 0.05814776 -0.011631183 -0.08094176 0.020429362 -0.071179666 -0.04738457 0.026222488
0.11104999 -0.07648547 -0.099275954 0.03948886 0.1051612 6.0237184e-05 -0.004756978 -0.047349755
0.1105023 0.037933283 -0.096056506 0.07261134 0.08306844 0.039082814 -0.020998335 0.033294816
0.09143683 -0.006862476 0.044421636 0.05327159 -0.020384979 -0.033637047 -0.05162633 0.04495893
-0.07742312 0.023447694 0.03932977 -0.012989261 -0.0057540797 -0.08594885 0.091402546 0.06960659
0.014896646 -0.06953526 -0.0070205843 -0.042811684 -0.062379528 0.103900835 -0.09161607 0.032517247
-0.024744198 0.08330819 0.088478506 -0.029881932 -0.08140471 0.107741736 0.03565981 0.026556542
-0.027541306 0.025598863 -0.068101175 0.10099957 -0.049285974 0.047824893 -0.000272252 0.10359708
-0.10180669 -0.056349438 0.0007342308 0.0018523475 0.015892245 -0.06496988 0.04774328 -0.02618436
0.11752049 -0.01272613 0.03452981 -0.034372088 -0.040276133 0.082478486 -0.08401836 -0.07818292
-0.008215727 0.03346116 0.09654446 -0.074740954 -0.029068276 0.10395504 -0.0017494002 -0.094252974
0.0031735336 -0.058026064 0.028948406 -0.0922309 0.039198138 -0.047666125 0.026090706 0.082937054
0.10305956 -0.09094336 0.092403606 -0.08100097 -0.08684168 0.043704838 0.09371504 0.12234155
0.032537732 0.0008258892 -0.08712064 -0.010810747 -0.09342457 0.1125672 0.03779507 -0.0072836927
0.04900508 -0.09627828 0.083761536 0.066398196 -0.035826612 0.052768048 0.0466119 0.046286616
0.03923617 0.020685595 -0.027463695 0.09715146 0.026322057 -0.07126927 0.01346217 0.026657704
