models/1296_pixels/2.pt (torch, 771783 bytes, 10 tensors)

conv1.weight f4 [6, 1, 5, 5]
-0.042577624 -0.03095245 -0.14020841 0.033621542 -0.06287371 0.15491922 -0.07771483 -0.021959083
-0.17368515 0.07913473 -0.1663854 -0.1149862 -0.047402274 -0.0685399 -0.16563134 0.08411211
0.1457524 -0.0328029 -0.07661859 0.12725258 0.05305657 -0.023060424 0.0016135593 0.10515569
-0.10638375 -0.09279639 0.105672956 0.049096704 0.084952995 0.14721046 0.08627565 -0.1364832
-0.19126101 -0.15003394 0.16468325 0.08444356 0.028873658 0.09866712 -0.12000816 -0.06750864
0.15793955 0.13209787 -0.16079526 -0.09562911 -0.12489424 -0.104984194 -0.094139196 0.023811156
0.0059837033 -0.115193166 -0.15669404 -0.17436275 0.14143993 0.13331206 -0.015179627 -0.1128602
-0.041887738 0.1517784 -0.16925263 -0.03150202 0.17523983 -0.056439415 0.11722573 -0.14043543
0.078972496 0.18199773 0.08963299 -0.075029075 0.09593354 0.19560811 0.069194585 0.13051529
-0.11192814 0.1913639 0.15132636 0.033534717 0.08184694 -0.18272284 -0.18987358 0.10382354
-0.102161385 -0.0840927 0.16964611 -0.13076426 0.1818565 -0.019245146 0.018539013 0.19695532
-0.123188674 -0.024840048 -0.040058453 -0.1871837 -0.06356815 -0.05814671 -0.15227437 -0.120557636
0.07705167 -0.14311332 0.1041508 -0.1508414 0.16020098 0.17584552 -0.057282884 -0.05777009
0.02363305 -0.003797177 -0.10015283 -0.09821168 -0.044112403 0.0647805 0.09871586 0.012325873
-0.15266588 0.10436439 -0.15807968 -0.17712972 -0.14551465 -0.17782542 0.16368893 0.14773445
0.08246066 0.16679417 0.08032486 0.1593848 0.15827458 -0.10172816 -0.032033317 0.042392388
0.019054458 0.14077981 -0.048492048 0.10854682 -0.036803685 0.012337298 0.13759202 0.17123511
-0.025308406 -0.053131804 -0.15160744 -0.114656895 0.06584902 0.085523404 0.17380498 -0.17677397
0.16650444 0.18475538 0.19989203 -0.01603133 -0.030342298 -0.1115062
00000000: e065 2ebd fe8f fdbc cb92 0fbe beb6 093d
00000010: efc3 80bd 25a3 1e3e f428 9fbd 89e3 b3bc
00000020: 85da 31be 6411 a23d ef60 2abe e37d ebbd
00000030: e328 42bd a65e 8cbd 439b 29be f842 ac3d
00000040: 1e40 153e 555c 06bd 35ea 9cbd 804e 023e
00000050: d951 593d 37e9 bcbc 117e d33a de5b d73d
00000060: b9df d9bd 090c bebd 106b d83d a019 493d
00000070: d6fb ad3d 57be 163e 4ab1 b03d 41c2 0bbe
00000080: edd9 43be 7fa2 19be baa2 283e bff0 ac3d
00000090: 7388 ec3c fd11 ca3d d7c6 f5bd f841 8abd
000000a0: e8ba 213e aa44 073e 83a7 24be 32d9 c3bd
000000b0: 8dc8 ffbd f401 d7bd 0dcc c0bd 9d0f c33c
000000c0: f112 c43b 65ea ebbd 6774 20be 268c 32be
000000d0: a1d5 103e f582 083e f8b3 78bc 4023 e7bd
000000e0: 7a92 2bbd cc6b 1b3e 9050 2dbe 4308 01bd
000000f0: 1272 333e 042d 67bd 0b14 f03d 4ece 0fbe
00000100: 55bc a13d 9d5d 3a3e 8091 b73d d8a8 99bd
00000110: ce78 c43d 7e4d 483e e4b5 8d3d cda5 053e
00000120: 953a e5bd e6f4 433e 4cf5 1a3e b35b 093d
00000130: 5e9f a73d b21b 3bbe 386e 42be 70a1 d43d
00000140: fd39 d1bd cb38 acbd b6b7 2d3e 11e7 05be
00000150: 9738 3a3e ffa7 9dbc 21df 973c a8ae 493e
00000160: 584a fcbd 5b7d cbbc 5514 24bd 15ad 3fbe
00000170: 0530 82bd 3f2b 6ebd d0ed 1bbe ece6 f6bd
00000180: 44cd 9d3d 4c8c 12be 044d d53d 2b76 1abe
00000190: ba0b 243e d910 343e 75a1 6abd 54a0 6cbd
000001a0: 199a c13c 0fda 78bb ed1c cdbd 3523 c9bd
000001b0: 35af 34bd a4ab 843d 8a2b ca3d 75f2 493c
000001c0: 7254 1cbe ffbc d53d a4df 21be 7e61 35be
000001d0: cb01 15be de17 36be 129e 273e b347 173e
000001e0: 22e1 a83d 17cc 2a3e 5c81 a43d c535 233e
000001f0: bb12 223e db56 d0bd 5e35 03bd a4a3 2d3d
00000200: 1818 9c3c 9528 103e 999f 46bd cc4d de3d
00000210: 76bf 16bd 6122 4a3c ece4 0c3e 4258 2f3e
00000220: 9353 cfbc bca0 59bd fb3e 1bbe 3cd1 eabd
00000230: dadb 863d e526 af3d eff9 313e 3c04 35be
00000240: 2480 2a3e 8430 3d3e 7fb0 4c3e 2354 83bc
00000250: 6990 f8bc 5d5d e4bd

conv1.bias f4 [6]
0.0068084323 0.11405707 0.14041232 -0.0043470724 -0.12965341 0.11859135
00000000: 4519 df3b c196 e93d 3fc8 0f3e e371 8ebb
00000010: ddc3 04be 06e0 f23d

conv2.weight f4 [16, 6, 5, 5]
-0.07678463 0.05848716 -0.060352854 -0.059195086 -0.01625079 0.064700335 -0.0808319 0.046329346
-0.07118565 0.08067923 0.063716285 -0.024004558 0.03816392 -0.013042207 0.04154436 0.059068248
-0.031328473 0.07345057 -0.059814725 0.036767203 0.042386275 0.051632397 0.02085616 -0.050863437
-0.06592112 0.029172951 0.042483296 0.013514882 -0.03236268 -0.06448755 -0.05755481 -0.067152336
-0.052462537 -0.044408005 -0.054040488 0.0044328407 0.057029016 0.07265527 0.017058605 0.019519784
0.047804896 -0.02623011 -0.06912649 -0.057729453 0.07629636 -0.024742847 0.04419617 0.060626805
0.054429375 0.05115851 -0.0753481 -0.07463837 -0.032459144 -0.008290187 -0.07300944 0.019633586
0.070551276 -0.078072906 -0.076414965 0.06626285 -0.028430732 0.01561723 0.065836504 0.0063228067
0.052454323 0.019440979 0.034225065 -0.042953152 -0.027270881 -0.021784002 -0.05349261 0.058569886
-0.052170828 0.034907464 -0.021533411 -0.07213558 0.06541627 -0.081413694 0.023523884 0.049898263
0.03912472 0.062765166 0.06272582 0.053735126 0.03710531 0.054287497 -0.034353282 0.07244833
0.014159751 -0.0056037745 0.07088908 -0.0029630114 0.06164658 0.015981488 0.026071087 0.0078831855
0.075871505 0.053466536 -0.019668112 -0.027430179 0.039815295 0.040870573 0.046274703 0.030863686
0.07579884 0.080477536 -0.061606456 -0.0069071427 0.005455357 0.058874406 0.0034932187 -0.037302468
0.060864553 0.032521036 0.048245117 -0.05996846 -0.012942396 0.060926538 -0.033724498 0.030077796
-0.06961989 -0.017636213 0.03619543 0.035969835 -0.04880689 -0.06326537 0.039406028 0.007952541
0.058605198 -0.07925926 -0.015120925 -0.04690278 0.08103186 0.029705726 0.0127065135 0.003166895
-0.023699086 0.018877128 -0.022447573 0.08012225 0.07783064 0.046512116 -0.08144857 0.0009732618
-0.019637574 0.07396 -0.072863884 -0.00903069 -0.054809988 0.066336185 0.030533288 -0.0032936605
-0.037170533 0.07743655 0.072695844 0.07535015 0.048953436 0.009511574 -0.039472464 0.024450507
-0.016867885 -0.038618315 -0.077226974 0.018405275 0.0030271872 -0.02289216 0.06736528 0.037954506
-0.043876924 -0.013049877 -0.074684605 -0.0409889 -0.06555623 0.0112955915 0.048372533 -0.05692572
0.0011154205 -0.04787418 0.03582606 -0.027300565 -0.013374666 -0.015254394 -0.03324752 0.009200437
-0.075216666 -0.002603247 -0.031755585 0.037666533 0.082929105 -0.008362732 0.020034438 -0.045013428
-0.0141938245 -0.012080514 -0.06380383 0.06798978 -0.005486621 -0.059803035 -0.039129894 0.07017474
0.011553791 0.017518131 0.021595215 -0.004835729 -0.05595042 -0.061830074 -0.07712186 -0.034393746
-0.06346951 -0.042305257 -0.06909951 -0.01079522 -0.031279493 0.07737498 -0.024500946 -0.0019053658
0.06138978 0.028587984 0.007677543 0.01763761 0.026525367 0.02507971 -0.016889045 0.03960057
0.057737518 0.07842611 0.03624803 -0.07275519 0.020242728 0.06274585 0.04372126 0.05605475
-0.05130658 -0.07802955 0.029314 -0.00049564755 -0.039919555 -0.05129833 0.021610018 -0.04255828
0.038612057 0.0664357 0.0689474 -0.07583474 -0.07933862 0.060631733 -0.010057024 0.021508908
-0.07692326 -0.06101879 0.044839438 0.01270871 -0.06669327 0.032121725 -0.0010562617 -0.042333283
00000000: 4341 9dbd 3b90 6f3d 8e34 77bd 8c76 72bd
00000010: 6020 85bc 9c81 843d 328b a5bd d7c3 3d3d
00000020: c8c9 91bd 273b a53d af7d 823d 35a5 c4bc
00000030: c551 1c3d fbae 55bc 6b2a 2a3d 8cf1 713d
00000040: 4952 00bd 416d 963d 4900 75bd 3599 163d
00000050: 3b9d 2d3d 7e7c 533d 8ada aa3c 2e56 50bd
00000060: a701 87bd 1dfc ee3c f702 2e3d 866d 5d3c
00000070: bb8e 04bd 0c12 84bd 98be 6bbd 2a87 89bd
00000080: f5e2 56bd 2be5 35bd 8f59 5dbd 5d41 913b
00000090: 4297 693d 49cc 943d 7dbe 8b3c f4e7 9f3c
000000a0: 11cf 433d 87e0 d6bc 3092 8dbd b875 6cbd
000000b0: 4441 9c3d 83b1 cabc 0b07 353d d053 783d
000000c0: 56f1 5e3d 968b 513d 1b50 9abd 00dc 98bd
000000d0: e1f3 04bd 91d3 07bc f985 95bd 9dd6 a03c
000000e0: 307d 903d b0e4 9fbd 737f 9cbd d1b4 873d
000000f0: 91e7 e8bc 69df 7f3c 4ad5 863d 8c2f cf3b
00000100: 58da 563d b042 9f3c 952f 0c3d a5ef 2fbd
00000110: 2f67 dfbc 5d74 b2bc 111b 5bbd fae6 6f3d
00000120: 14b1 55bd 21fb 0e3d d666 b0bc d2bb 93bd
00000130: f7f8 853d 39bc a6bd 29b5 c03c 1f62 4c3d
00000140: 3e41 203d 068b 803d 6576 803d 5d19 5c3d
00000150: bdfb 173d 915c 5e3d 07b6 0cbd ca5f 943d
00000160: 4dfe 673c de9f b7bb 4b2e 913d 152f 42bb
00000170: 2081 7c3d 9ceb 823c 0893 d53c 7a28 013c
00000180: 8562 9b3d baff 5a3d 051f a1bc 41b5 e0bc
00000190: 5d15 233d e767 273d 8b8a 3d3d d7d5 fc3c
000001a0: 6c3c 9b3d 68d1 a43d 0d57 7cbd 5055 e2bb
000001b0: dac2 b23b 4a26 713d 7cee 643b 79ca 18bd
000001c0: 1c4d 793d c734 053d ac9c 453d 7da1 75bd
000001d0: 580c 54bc 1b8e 793d b322 0abd b665 f63c
000001e0: df94 8ebd d279 90bc a941 143d 1b55 133d
000001f0: bce9 47bd 4691 81bd 3768 213d 604b 023c
00000200: 010c 703d ae52 a2bd c2bd 77bc 211d 40bd
00000210: 08f4 a53d 6c59 f33c fb2e 503c ae8b 4f3b
00000220: 9624 c2bc 35a4 9a3c f9e3 b7bc 2217 a43d
00000230: ac65 9f3d 7d83 3e3d 82ce a6bd 7e22 7f3a
00000240: fade a0bc 5778 973d a939 95bd 76f5 13bc
00000250: 7080 60bd 44db 873d f220 fa3c 74da 57bb
00000260: 2140 18bd 0e97 9e3d 8fe1 943d 2e51 9a3d
00000270: 6683 483d 6fd6 1b3c e1ad 21bd 6e4c c83c
00000280: 852e 8abc 3d2e 1ebd 2d29 9ebd a9c6 963c
00000290: c663 463b 5788 bbbc cff6 893d 2f76 1b3d
000002a0: 4ab8 33bd 27cf 55bc 3ef4 98bd fae3 27bd
000002b0: 5842 86bd 2511 393c 4722 463d f22a 69bd
000002c0: 4d33 923a b717 44bd 59be 123d 6fa5 dfbc
000002d0: 6a21 5bbc 91ed 79bc 8d2e 08bd 6ebd 163c
000002e0: 320b 9abd 3d9b 2abb 2512 02bd 3948 1a3d
000002f0: bcd6 a93d d703 09bc 431f a43c 0060 38bd
00000300: 378d 68bc 59ed 45bc 95ab 82bd 3a3e 8b3d
00000310: 1dc9 b3bb 07f4 74bd ab46 20bd c6b7 8f3d
00000320: 1d4c 3d3c 2f82 8f3c 73e8 b03c 0975 9ebb
00000330: 452c 65bd 8841 7dbd 11f2 9dbd 75e0 0cbd
00000340: 4dfc 81bd 4748 2dbd 0b84 8dbd 6fde 30bc
00000350: ed1e 00bd c676 9e3d 35b6 c8bc 78bd f9ba
00000360: da73 7b3d 5931 ea3c e693 fb3b c07c 903c
00000370: ba4b d93c f773 cd3c e55a 8abc 3534 223d
00000380: 2d7e 6c3d de9d a03d d078 143d ac00 95bd
00000390: 14d4 a53c e580 803d 1015 333d aa99 653d
000003a0: d926 52bd f5cd 9fbd ea23 f03c 58ee 01ba
000003b0: b082 23bd 331e 52bd 7e07 b13c 9751 2ebd
000003c0: ad27 1e3d 710f 883d 4b34 8d3d 3f4f 9bbd
000003d0: 497c a2bd fb58 783d 37c6 24bc 7333 b03c
000003e0: f189 9dbd d7ee 79bd 8fa9 373d 3138 503c
000003f0: 7b96 88bd 1292 033d 4372 8aba aa65 2dbd

conv2.bias f4 [16]
0.032707687 -0.016695006 0.054009773 -0.00054463226 -0.060861632 -0.050593913 -0.06378396 0.06263452
-0.020419637 -0.041037004 0.062006675 0.07265261 0.025601003 -0.03575767 -0.028105013 -0.064491
00000000: 7ff8 053d f7c3 88bc 5a39 5d3d a7c5 0eba
00000010: 0c4a 79bd 903b 4fbd 2aa1 82bd 8746 803d
00000020: 1547 a7bc 6b16 28bd b6fa 7d3d e4ca 943d
00000030: 32b9 d13c a276 12bd 7c3c e6bc db13 84bd

fc1.weight f4 [120, 576]
-0.002721727 -0.008689722 -0.00841634 -0.0006566296 0.021670591 -0.024845522 -0.022885522 -0.010588522
0.0077752075 0.0051760823 -0.014123425 -0.023324292 0.0132194515 -0.007117361 0.015703574 0.027509078
-0.003505513 -0.038554274 -0.018117517 -0.023670977 0.03742742 0.011505559 -0.0151598705 -0.037934046
0.00093537074 -0.0049496545 -0.040934768 0.011129628 -0.03110553 -0.0091234995 0.031404227 0.024894139
0.039875448 -0.0406762 -0.013145074 -0.04047337 0.0214731 0.019118747 0.040272325 0.034274146
-0.037640914 0.02769733 0.007849574 -0.03437155 0.04104036 -0.029160276 -0.006501402 0.032998588
0.02352593 -0.010194446 -0.0308997 0.021980911 -0.022737196 0.009569983 0.020047527 -0.011872168
-0.025871038 0.008239269 0.015203362 0.035724353 0.002128462 0.015091797 -0.0110835135 0.040300634
-0.0072746277 0.022085126 0.019205203 -0.025001716 -0.038090765 0.0009755145 0.00073592365 0.03629112
0.025050472 0.021765172 -0.014895668 0.040511232 0.011737744 0.0014313161 0.016640207 0.0009891391
0.02462103 0.0005593946 0.02955532 -0.03003265 -0.035823673 -0.037777748 0.037729807 -0.014090131
0.018193996 0.02430847 0.012935361 -0.037404075 0.011085495 -0.006620144 -0.026741162 0.034843426
-0.03890059 -3.33637e-05 0.026119774 0.02221333 0.019229716 -0.030800521 -0.009313628 0.014443323
0.03553468 0.013537606 -0.032761432 0.029951846 0.026595637 0.0004305641 -0.015368253 -0.016069299
0.01865254 -0.0060307086 -0.0022664368 0.02757993 0.014362454 0.026561743 -0.011374245 -0.020599723
-0.017383423 -0.024392486 0.005723407 0.02519179 0.0024906895 0.016459253 -0.0037844877 -0.031279758
0.0072366 0.015365477 0.023224503 -0.012496209 0.019432187 -0.00056639314 -0.0064970455 0.028877866
-0.011303147 0.028217917 -0.0036842674 -0.024203673 0.022113811 -0.027016744 0.0058392137 -0.022944894
0.010436277 0.0046994193 0.0035483688 -0.04151563 0.020853287 0.002508869 -0.029150888 0.014096126
0.033799198 -0.020084998 0.0012191087 0.034453727 0.0016057094 -0.020295914 -0.0018342435 -0.0006880164
-0.029573303 0.024917021 -0.0237881 -0.038915873 0.003568704 0.022714388 -0.04105605 -0.003039807
0.03193019 -0.011028459 0.0034039766 0.007905851 -0.029781625 -0.038682304 0.027892103 -0.0036364447
0.006491269 -0.027522793 -0.0045096627 0.014980948 0.017912265 0.032374334 0.0046904734 0.009138609
-0.005325 -0.033154186 -0.017233005 0.037376966 -0.028706029 0.028702945 -0.03458406 0.0011772116
-0.025217548 0.036663763 0.029593244 0.002750377 0.0030722718 0.016814237 -0.014427776 -0.028610935
-0.040978145 0.025817689 0.023075601 0.023771819 -0.026219493 -0.0008738985 -0.01364551 -0.038592294
-0.0095413625 -0.028551713 0.009132038 -0.008884167 -0.013220355 -0.019485291 0.020412778 0.03411655
0.033832185 0.026098993 0.017311623 -0.031932216 -0.020653944 -0.027437627 0.009588237 -0.0044376655
0.039887443 0.018445116 0.02607589 -0.016076788 -0.020259779 -0.030285444 0.024237048 -0.012260616
0.038455926 -0.020037174 -0.036719613 -0.030976688 -0.034776233 -0.0007503977 0.030708527 -0.034871873
-0.016813075 -0.016194563 0.016449928 0.0062992573 0.029675161 0.02465507 0.02721866 0.033553742
-0.033008367 0.017068949 -0.004942035 0.02808192 0.03945803 0.0073669506 -0.028293958 -0.002985537
00000000: 005f 32bb 565f 0ebc b0e4 09bc ab21 2cba
00000010: 8686 b13c d688 cbbc 6b7a bbbc 7b7b 2dbc
00000020: 2bc7 fe3b 209c a93b f065 67bc 9612 bfbc
00000030: 6696 583c c038 e9bb c8a4 803c b85a e13c
00000040: c0bc 65bb 16eb 1dbd 306b 94bc a3e9 c1bc
00000050: 7f4d 193d d081 3c3c 1b61 78bc bb60 1bbd
00000060: ab33 753a b630 a2bb 37ab 27bd 0b59 363c
00000070: 06d1 febc bb7a 15bc b8a1 003d cbee cb3c
00000080: 7054 233d 169c 26bd 705e 57bc 68c7 25bd
00000090: 5be8 af3c eb9e 9c3c 98f4 243d 0c63 0c3d
000000a0: 5c2d 1abd 83e5 e23c 809b 003c 2fc9 0cbd
000000b0: f019 283d 88e1 eebc b609 d5bb 8729 073d
000000c0: 73b9 c03c 9b06 27bc 5e21 fdbc 5011 b43c
000000d0: 5b43 babc 6bcb 1c3c b63a a43c 7b83 42bc
000000e0: 80ef d3bc 00fe 063c 8617 793c b353 123d
000000f0: ab7d 0b3b 9643 773c a097 35bc 4712 253d
00000100: 0060 eebb deeb b43c 3b54 9d3c 66d0 ccbc
00000110: 1005 1cbd abb9 7f3a 00eb 403a ffa5 143d
00000120: a636 cd3c e04c b23c f60c 74bc 1bef 253d
00000130: ab4f 403c 009b bb3a 0b51 883c 00a6 813a
00000140: 0bb2 c93c 56a4 123a 001e f23c 0807 f6bc
00000150: d8bb 12bd d7bc 1abd 928a 1a3d 4bda 66bc
00000160: 930b 953c 8e22 c73c d6ee 533c 0435 19bd
00000170: f09f 353c cbed d8bb 4810 dbbc fbb7 0e3d
00000180: 3a56 1fbd 00f0 0bb8 23f9 d53c bbf8 b53c
00000190: a387 9d3c 6051 fcbc 3098 18bc b0a3 6c3c
000001a0: d08c 113d d6cc 5d3c da30 06bd 935d f53c
000001b0: 18df d93c 56bd e139 20cb 7bbc c3a3 83bc
000001c0: 36cd 983c 409d c5bb 8088 14bb 4eef e13c
000001d0: 8050 6b3c 0398 d93c 0b5b 3abc c0c0 a8bc
000001e0: ae67 8ebc c0d2 c7bc 6b8b bb3b 035f ce3c
000001f0: d63a 233b 8ed5 863c 2b05 78bb 341f 00bd
00000200: 0021 ed3b 7bbf 7b3c 5041 be3c e6bc 4cbc
00000210: 4030 9f3c 007a 14ba 2be5 d4bb 4691 ec3c
00000220: d630 39bc 4329 e73c c073 71bb c846 c6bc
00000230: 0628 b53c 3852 ddbc e056 bf3b eef6 bbbc
00000240: ebfc 2a3c 96fd 993b c08b 683b 4b0c 2abd
00000250: 83d4 aa3c d66b 243b d8cd eebc 70f3 663c
00000260: 0771 0a3d 4b89 a4bc 80ca 9f3a 5a1f 0d3d
00000270: ab76 d23a 9e43 a6bc 006b f0ba 005c 34ba
00000280: b643 f2bc c81e cc3c 43df c2bc 4066 1fbd
00000290: ebe0 693b 8613 ba3c 642a 28bd 8037 47bb
000002a0: 3bc9 023d b6b0 34bc 4015 5f3b 8b87 013c
000002b0: 98f8 f3bc 5671 1ebd fb7d e43c 6b51 6ebb
000002c0: b6b4 d43b 7b77 e1bc cbc5 93bb a672 753c
000002d0: bebc 923c f39a 043d 8bb2 993b 1bba 153c
000002e0: 567d aebb afcc 07bd 3b2c 8dbc 9718 193d
000002f0: e828 ebbc 7022 eb3c 04a8 0dbd ab4c 9a3a
00000300: 0895 cebc be2c 163d 886d f23c ab3f 343b
00000310: 2b58 493b 03be 893c 7b62 6cbc 7b61 eabc
00000320: b3d8 27bd 9e7f d33c 0b09 bd3c 1ebd c23c
00000330: 43ca d6bc 5616 65ba 6b91 5fbc f412 1ebd
00000340: 6053 1cbc 48e5 e9bc 8b9e 153c e68e 11bc
00000350: 309a 58bc 9e9f 9fbc b338 a73c ccbd 0b3d
00000360: 9e93 0a3d 8ecd d53c 1bd1 8d3c 5bcb 02bd
00000370: 7632 a9bc e0c4 e0bc fb17 1d3c d669 91bb
00000380: 0461 233d 361a 973c 1b9d d53c 78b3 83bc
00000390: d6f7 a5bc 2e19 f8bc c68c c63c c0e0 48bc
000003a0: f683 1d3d 0025 a4bc 4e67 16bd d3c2 fdbc
000003b0: 8671 0ebd 56b6 44ba 7390 fb3c cfd5 0ebd
000003c0: 93bb 89bc 76aa 84bc 00c2 863c 006a ce3b
000003d0: 5319 f33c 6ef9 c93c abf9 de3c a66f 093d
000003e0: c833 07bd 2ed4 8b3c cbf0 a1bb 0e0c e63c
000003f0: be9e 213d 7666 f13b bbc8 e7bc 00a9 43bb

fc1.bias f4 [120]
-0.024869796 0.011626271 -0.00910764 0.03759112 0.011217583 0.02253413 0.024334576 -0.005287035
-0.026821688 0.030284058 -0.00664418 0.035378784 0.032933418 -0.026307106 0.008435321 -0.0029451996
-0.03770688 0.001278756 -0.014977093 -0.008680817 -0.033433978 0.034554515 -0.017022567 -0.005569291
-0.012024502 0.0081457365 0.012350733 0.019957861 0.030867996 0.023146916 0.028666813 -0.017441602
-0.012806399 -0.02640635 -0.03250588 -0.040544696 -0.024016012 -0.041478615 0.025150083 0.036963515
0.0086639365 0.024815317 -0.004868652 -0.012413425 -0.0026335078 0.0026731312 0.025055464 -0.02710999
-0.021945314 0.008735026 0.038002707 0.022882622 -0.029493017 0.031022523 0.03164197 -0.038492754
0.005218643 0.024418099 0.009745093 0.026221273 -0.031301167 0.008589789 0.009800817 0.004890185
0.0075765513 -0.02645844 0.03629935 0.03230205 -0.039282765 0.023746314 -0.0033250677 0.0020359082
0.0020372965 -0.03074756 0.006990659 -0.011394755 -0.022549726 -0.0011080209 0.043948676 0.0017711594
0.003937584 0.0292832 0.0013143194 -0.036006294 -0.032909643 -0.02380104 -0.028299168 -0.038984295
-0.041496314 0.004234482 0.0419427 0.032169994 -0.032308344 0.030824402 0.033910174 -0.0050169406
-0.039118487 -0.0013778135 -0.025142767 0.00761836 0.04019548 -0.018046327 -0.023389213 -0.004185241
0.0046438607 -0.016841043 -0.028188106 -0.0072209085 0.021752015 0.047657732 -0.003093248 -0.033279385
0.023343462 -0.007756887 0.03248424 -0.029325511 0.004618891 -0.00042979812 -0.023196291 0.01914642
00000000: bebb cbbc 1d7c 3e3c 3638 15bc 25f9 193d
00000010: f4c9 373c 7f99 b83c 4e59 c73c dd3e adbb
00000020: 28b9 dbbc 4616 f83c 6cb7 d9bb 58e9 103d
00000030: 31e5 063d 0082 d7bc 4d34 0a3c 4004 41bb
00000040: 8872 1abd ee9b a73a 7b62 75bc fc39 0ebc
00000050: 11f2 08bd 0989 0d3d e972 8bbc 997e b6bb
00000060: 6b02 45bc b275 053c bb5a 4a3c ab7e a33c
00000070: e1de fc3c 9a9e bd3c aad6 ea3c b1e1 8ebc
00000080: eed1 51bc 2152 d8bc e324 05bd 3212 26bd
00000090: 3abd c4bc 7be5 29bd 8c07 ce3c 0e67 173d
000000a0: 2ff3 0d3c 7e49 cb3c 3789 9fbb ae61 4bbc
000000b0: ee96 2cbb b32f 2f3b 1e41 cd3c c515 debc
000000c0: a9c6 b3bc 5b1d 0f3c baa8 1b3d 5674 bb3c
000000d0: 579b f1bc f222 fe3c 039b 013d 94aa 1dbd
000000e0: 2701 ab3b 7708 c83c e2a9 1f3c ffcd d63c
000000f0: a735 00bd 30bc 0c3c 9b93 203c d83d a03b
00000100: b844 f83b 5fbf d8bc a1ae 143d 284f 043d
00000110: f7e6 20bd a187 c23c 61e9 59bb df6c 053b
00000120: 2a84 053b 4fe2 fbbc e611 e53b 11b1 3abc
00000130: 34ba b8bc 033b 91ba 8703 343d 3f26 e83a
00000140: d906 813b 52e3 ef3c 3e45 ac3a 567b 13bd
00000150: 43cc 06bd 66fa c2bc a8d3 e7bc ffad 1fbd
00000160: 0af8 29bd 69c1 8a3b 1ccc 2b3d afc4 033d
00000170: c155 04bd 7583 fc3c 65e5 0a3d 2665 a4bb
00000180: b53a 20bd c097 b4ba 34f8 cdbc 70a3 f93b
00000190: 04a4 243d e4d5 93bc bc9a bfbc 5924 89bb
000001a0: 872b 983b 3af6 89bc beea e6bc 5f9d ecbb
000001b0: 4831 b23c c134 433d 17b8 4abb f74f 08bd
000001c0: ca3a bf3c 7c2d febb 320e 053d 0e3c f0bc
000001d0: 115a 973b 8756 e1b9 2606 bebc f4d8 9c3c

fc2.weight f4 [84, 120]
0.04278685 -0.06864671 -0.011452076 -0.054932617 -0.013895875 0.0792064 0.03279248 -0.031758618
-0.012839075 -0.05531834 0.09062149 -0.0014370363 -0.023065535 0.017267246 0.068191834 -0.047422417
-0.036531385 0.059046365 -0.08534353 -0.02637357 -0.061405305 -0.08369349 0.014511343 0.06416604
0.05231824 0.031091155 -0.044066444 -0.054674707 -0.016508164 0.039107796 -0.03935271 0.0807764
-0.03082059 0.063877024 -0.030039644 0.066153966 -0.07070884 0.026853338 0.0804165 -0.08005473
-0.04837273 0.028315566 -0.05237698 0.07716243 -0.05196877 0.048444588 -0.081138745 -0.0053918925
0.040350106 -0.04762707 -0.014634726 -0.07988323 -0.085484035 -0.08114768 0.012201832 0.041748293
-0.01709846 0.040812407 0.067961685 0.078493044 -0.09113609 0.020819217 0.054090776 0.013718058
-0.062377114 0.006652505 -0.0063851387 0.024814218 0.08082673 -0.08550361 0.07069011 0.022149717
0.0031059848 -0.0189671 -0.04488677 0.029378515 0.027560413 0.026217671 -0.004146841 -0.027630702
0.011207323 -0.08510282 -0.02304141 -0.07854897 0.08146911 -0.06667608 0.06758363 -0.088874176
0.012233705 0.029653182 0.008371153 -0.05551002 -0.07772918 0.047774293 0.008837404 0.072837465
-0.048868213 -0.013704913 0.038159233 -0.043669306 -0.08227694 0.056979574 0.08971238 0.07726565
-0.029222941 -0.035624743 -0.06801926 -0.05473404 -0.0022272088 0.067945026 0.051832717 0.015684135
-0.08005124 0.055548806 -0.030868895 -0.015126409 -0.05698484 0.032887034 0.081616126 0.010234807
-0.014714733 0.04915914 0.04534282 -0.07837396 0.040114276 0.07202192 -0.054439425 0.001517768
0.06424201 0.043449234 -0.07466832 -0.047563717 0.041595407 -0.077663265 0.05060706 0.07627876
-0.029687103 0.020024775 0.050055284 0.008511263 -0.018906487 0.0106864665 0.079349086 -0.003222026
-0.072553895 -0.06959845 0.009814976 -0.02330692 -0.016441917 0.050541326 -0.031113867 -0.08949477
-0.07135273 0.033288404 0.08830139 0.04019624 0.052675795 -0.07045193 0.025532208 0.0055214046
-0.028656099 -0.038362987 -0.067812815 0.044633377 -0.090821 0.0005226543 0.06916776 0.05395021
-0.0024714721 -0.027741702 -0.033874582 0.014888461 -0.07669533 0.014373211 -0.04031526 0.07744297
-0.08381588 0.059414845 -0.03563698 0.059290208 0.027567806 -0.05761279 0.0360772 0.05189148
0.06716681 -0.07654731 -0.02564781 -0.029937547 -0.017604114 -0.034698095 -0.014909665 -0.07772402
-0.040385768 -0.027949171 0.078749776 0.03991603 0.047809545 -0.048610352 0.07737577 0.05069845
-0.020667143 -0.08929771 0.006892867 -0.018706752 0.06567512 0.051607106 0.033777084 0.004519433
-0.051636428 -0.026228892 -0.00337298 0.035240486 0.038990494 -0.013692026 0.028872615 -0.0037384985
0.03174425 -0.05643241 0.01675385 -0.08652429 0.02287601 0.053989388 0.028222041 -0.072329886
0.069151945 0.09063331 0.015640626 -0.0085728215 0.014501284 -0.031207606 -0.071912915 -0.013792551
0.04469046 0.08504335 0.043662783 0.08044747 0.06541543 0.014791219 -0.08423887 -0.010483497
0.029549323 0.0024735492 0.009103476 0.019144377 0.08812351 0.04206462 0.025731685 -0.08263482
-0.06693176 0.03332043 -0.0608345 -0.05043685 0.03198005 0.073588885 0.027175892 -0.010248171
00000000: 4441 2f3d a596 8cbd 7da1 3bbc 0601 61bd
00000010: 86ab 63bc f736 a23d 6851 063d 5315 02bd
00000020: fc5a 52bc 7c95 62bd c297 b93d f05a bcba
00000030: eff3 bcbc 0a74 8d3c 29a8 8b3d 023e 42bd
00000040: efa1 15bd 9ada 713d 97c8 aebd 630d d8bc
00000050: 2184 7bbd 7e67 abbd fcc0 6d3c 7c69 833d
00000060: a74b 563d e1b2 fe3c 047f 34bd 96f2 5fbd
00000070: 213c 87bc 7f2f 203d 4f30 21bd 196e a53d
00000080: 767b fcbc f5d1 823d b315 f6bc bb7b 873d
00000090: cccf 90bd 88fb db3c 68b1 a43d bcf3 a3bd
000000a0: 7c22 46bd 0cf6 e73c 3f89 56bd 5607 9e3d
000000b0: 34dd 54bd d56d 463d 122c a6bd 79ae b0bb
000000c0: 2746 253d 9a14 43bd 7dc6 6fbc d299 a3bd
000000d0: 4112 afbd c130 a6bd 31ea 473c 4200 2b3d
000000e0: 1212 8cbc e92a 273d 7f2f 8b3d f6c0 a03d
000000f0: 8fa5 babd 108d aa3c 4a8e 5d3d b5c1 603c
00000100: 257f 7fbd 42fd d93b 6d3a d1bb 3047 cb3c
00000110: 7c88 a53d 841c afbd fac5 903d 5373 b53c
00000120: c78d 4b3b e460 9bbc 31db 37bd 36ab f03c
00000130: 60c6 e13c 71c6 d63c 39e2 87bb c859 e2bc
00000140: eb9e 373c 634a aebd 57c1 bcbc 48de a0bd
00000150: 47d9 a63d 788d 88bd 4969 8a3d aa03 b6bd
00000160: e16f 483c 3beb f23c 2927 093c 7a5e 63bd
00000170: 7a30 9fbd faae 433d c2ca 103c cf2b 953d
00000180: 092a 48bd 928a 60bc db4c 1c3d 96de 32bd
00000190: d080 a8bd 6a63 693d 20bb b73d 743d 9e3d
000001a0: f364 efbc 40eb 11bd af4d 8bbd cd30 60bd
000001b0: 5df6 11bb c326 8b3d 8b4e 543d 047c 803c
000001c0: e8f1 a3bd 2587 633d c4e0 fcbc c2d4 77bc
000001d0: f068 69bd 8eb4 063d 5b26 a73d e4af 273c
000001e0: 1016 71bc 185b 493d 65b9 393d 8782 a0bd
000001f0: de4e 243d 3a80 933d e0fb 5ebd d8ef c63a
00000200: 5191 833d d3f7 313d b4eb 98bd 2cd2 42bd
00000210: f25f 2a3d eb0d 9fbd 5949 4f3d 0a38 9c3d
00000220: 5e32 f3bc ff0a a43c c506 4d3d d372 0b3c
00000230: c7e1 9abc 4a16 2f3c c681 a23d a028 53bb
00000240: 2397 94bd a289 8ebd fece 203c 27ee bebc
00000250: 33b1 86bc 6c04 4f3d 82e2 febc 0949 b7bd
00000260: 6121 92bd 6c59 083d 5cd7 b43d d0a4 243d
00000270: 93c2 573d 1a49 90bd ec28 d13c e6ec b43b
00000280: 32c0 eabc 8222 1dbd 72e1 8abd 7dd1 363d
00000290: 5c00 babd bd02 093a d4a7 8d3d e5fa 5c3d
000002a0: 6cf8 21bb 9142 e3bc 13c0 0abd bbee 733c
000002b0: 7112 9dbd 9e7d 6b3c 9d21 25bd 6b9a 9e3d
000002c0: a9a7 abbd fb5c 733d 15f8 11bd 4ada 723d
000002d0: e1d5 e13c 64fb 6bbd b0c5 133d 298c 543d
000002e0: c18e 893d d6c4 9cbd 5b1b d2bc 963f f5bc
000002f0: 8136 90bc 971f 0ebd ab47 74bc c52d 9fbd
00000300: 8c6b 25bd a9f5 e4bc 9047 a13d fe7e 233d
00000310: f1d3 433d a61b 47bd 3077 9e3d 2ea9 4f3d
00000320: 244e a9bc b8e1 b6bd 8fdd e13b e73e 99bc
00000330: ad80 863d f961 533d d759 0a3d c017 943b
00000340: b880 53bd f9dd d6bc 370d 5dbb 5458 103d
00000350: 7fb4 1f3d 8554 60bc 4386 ec3c 9901 75bb
00000360: 4206 023d ac25 67bd 5f3f 893c a633 b1bd
00000370: 7866 bb3c fa23 5d3d e931 e73c b121 94bd
00000380: 899f 8d3d f59d b93d c520 803c 0575 0cbc
00000390: cb96 6d3c 18a7 ffbc 1447 93bd 27fa 61bc
000003a0: 580d 373d 352b ae3d bfd7 323d a5c1 a43d
000003b0: 86f8 853d de56 723c 6e85 acbd f9c2 2bbc
000003c0: 6c11 f23c 451b 223b bf26 153c abd4 9c3c
000003d0: 197a b43d f34b 2c3d 41cb d23c 723c a9bd
000003e0: 8513 89bd 017b 083d 992d 79bd df96 4ebd
000003f0: 83fd 023d c5b5 963d fa9f de3c f2e7 27bc

fc2.bias f4 [84]
-0.088214405 -0.051432747 0.04337769 0.01503653 -0.0040597003 -0.078787394 -0.057588372 -0.08170694
0.05641707 0.06530016 -0.085031286 0.051353015 0.06739784 0.053048927 0.028389663 -0.06100427
-0.036410067 0.06313179 0.07979492 0.047660608 0.06885887 -0.046176407 -0.0706603 0.05099689
-0.03415151 -0.05100412 -0.07965328 -0.038516298 -0.01856038 -0.076129295 0.055017047 0.09289402
0.050427496 -0.077245265 -0.04068529 0.056709316 -0.0450612 -0.060922287 0.05554016 -0.0401186
-0.064522475 -0.031757556 -0.08943874 0.05968654 -0.041368153 0.07041815 0.02177173 -0.06716116
-0.05504003 0.052613974 0.023515578 -0.0019782213 -0.02567224 -0.04041846 -0.0019288192 -0.0067410623
0.052630242 0.08143502 0.041031227 0.03458913 0.03709552 0.083616614 -0.013542319 -0.080754064
0.026271654 -0.022011317 0.017175855 0.079665385 0.041525908 -0.009826542 0.045525014 0.04561316
-0.08878431 0.05942075 0.0181155 -0.08512152 -0.03151662 -0.062679 0.0723243 0.03533036
0.029341655 0.0064734975 -0.031327363 0.026034372
00000000: c1a9 b4bd 25ab 52bd ceac 313d c75b 763c
00000010: 3c07 85bb 495b a1bd c9e1 6bbd f855 a7bd
00000020: 9615 673d 17bc 853d e224 aebd 8a57 523d
00000030: e107 8a3d d549 593d 7091 e83c 9ddf 79bd
00000040: b922 15bd 3d4b 813d 856b a33d c537 433d
00000050: e105 8d3d 7923 3dbd 59b6 90bd 1de2 503d
00000060: 74e2 0bbd b2e9 50bd 4221 a3bd 44c3 1dbd
00000070: f00b 98bc ade9 9bbd 8e59 613d 383f be3d
00000080: 108d 4e3d c432 9ebd 9ea5 26bd 0748 683d
00000090: 1892 38bd a689 79bd 147e 633d 6753 24bd
000000a0: 5c24 84bd 3614 02bd a82b b7bd e079 743d
000000b0: a771 29bd 6437 903d a15a b23c ca8b 89bd
000000c0: a871 61bd c081 573d bea3 c03c 0ca5 01bb
000000d0: 974e d2bc d48d 25bd 6fd0 fcba 21e4 dcbb
000000e0: cf92 573d 67c7 a63d 5c10 283d 55ad 0d3d
000000f0: 79f1 173d 303f ab3d 9ae0 5dbc 6362 a5bd
00000100: a737 d73c 1451 b4bc 61b4 8c3c 9b27 a33d
00000110: 1217 2a3d 81ff 20bc 7078 3a3d ddd4 3a3d
00000120: 8cd4 b5bd 2c63 733d f566 943c 3154 aebd
00000130: 9217 01bd d95d 80bd c31e 943d 91b6 103d
00000140: e95d f03c a21f d43b 1f51 00bd 0946 d53c

fc3.weight f4 [1297, 84]
-0.039258268 0.04126738 -0.09659896 0.046673443 -0.018088283 0.062888816 -0.026047548 0.08126153
0.07782084 -0.10748426 -0.03655561 0.06250878 -0.05073427 -0.09290247 0.018923745 0.07126933
-0.07319422 0.094474874 -0.025336215 0.0041544004 0.062371433 -0.06935746 0.018477641 -0.061859332
0.09491547 0.033282958 0.06859257 -0.100122854 0.09049138 0.090717554 -0.06383892 -0.016571999
-0.047929734 -0.047427423 0.06798125 -0.0002491502 0.10792963 -0.0051985956 0.044417728 0.066330634
0.004529436 -0.007436033 -0.1001057 0.10683454 -0.09894792 0.08637627 0.08041077 0.060953222
-0.05473662 -0.034166906 -0.049284916 -0.07206848 0.02198418 -0.049756113 0.018584399 -0.02887784
0.041252334 0.0054586893 -0.07025608 0.063898146 -0.023425173 -0.020071236 0.035163786 -0.035742864
0.07953244 0.0559514 0.04601485 0.1043016 -0.045594335 -0.022925993 0.020294856 0.03971459
-0.09775113 0.07988339 0.09022041 -0.018806718 -0.06882785 -0.08519129 -0.107298 -0.010482645
-0.084188245 0.044998292 0.07490216 -0.10138168 0.0920746 -0.042381022 -0.021218462 0.03435873
0.059132323 0.036540966 0.08866444 -0.0010070868 0.05813759 -0.09183224 -0.04492714 -0.1063236
-0.09559374 -0.10624065 0.092103295 -0.023837248 -0.06199231 -0.0013009397 0.034823302 0.09548298
-0.097684726 -0.05359984 -0.07432577 0.013827513 -0.048187528 0.011668829 -0.09605511 -0.083253026
-0.05800165 -0.04501669 -0.08474422 0.064925805 -0.0067768404 0.090694234 0.0736205 -0.0015874978
-0.030595304 0.107655 -0.02084352 -0.01353826 0.046878446 -5.136408e-07 -0.079953246 -0.04001479
-0.0060724197 -0.053407725 0.015502518 0.07119472 -0.044268034 0.09971428 -0.07300771 -0.101139694
0.085201696 -0.0062117563 -0.0827914 0.041012775 -0.09501883 -0.09728906 0.007822611 0.011078648
-0.06722101 0.10080337 0.066359706 0.077703185 0.0631983 -0.00668282 0.065725714 -0.05940562
0.10005813 0.06930336 0.014629316 -0.022785788 0.1084173 -0.046783753 0.052565094 -0.02649139
0.016805943 0.054299645 -0.08289074 -0.027642716 0.0029419055 -0.050351944 -0.062652014 -0.083577536
-0.036526553 -0.101988345 0.014074645 0.054864086 0.03182963 -0.009659318 -0.01755195 0.05142371
0.107624136 0.07038476 -0.09814211 -0.032625437 0.0143092945 -0.059473094 0.05571001 -0.09373029
0.05097037 -0.03851026 0.03559345 0.09347412 0.091264695 -0.093697995 0.05056438 -0.0731366
0.1067565 -0.0026420844 -0.041761585 -0.038206853 0.03369938 0.0011469305 0.06649984 0.1072247
0.08079215 -0.094360806 0.04780643 -0.031012028 -0.08053457 -0.0022659148 -0.07011547 0.045609463
-0.09525621 0.043597598 -0.0013189026 -0.011825625 0.028451687 0.055356942 -0.009891748 0.0525264
0.032063596 -0.0886542 0.00023464474 0.06331171 -0.102311514 -0.011436047 -0.09525353 0.102014355
-0.019563507 -0.105748996 -0.06572988 0.03629758 0.084395654 -0.094900765 0.021689512 -0.062641025
0.0032465048 -0.10109065 0.0060787834 0.04626689 0.0291399 0.08679444 -0.053630214 -0.05873319
0.04776278 -0.07191084 0.052272435 -0.10226257 0.00527669 -0.029205963 -0.06670565 -0.037540678
0.07253666 -0.046623822 0.082030974 0.025081584 -0.0646083 -0.05176556 -0.06513758 -0.063033335
00000000: 47cd 20bd fc07 293d add5 c5bd a72c 3f3d
00000010: e12d 94bc dacb 803d ab61 d5bc 726c a63d
00000020: 8860 9f3d b520 dcbd 56bb 15bd 9a04 803d
00000030: bdce 4fbd a643 bebd f805 9b3c a8f5 913d
00000040: dae6 95bd 0b7c c13d e58d cfbc a321 883b
00000050: 3079 7f3d 490b 8ebd 6c5e 973c 3660 7dbd
00000060: 0b63 c23d b653 083d 437a 8c3d 360d cdbd
00000070: 8b53 b93d 20ca b93d fbbd 82bd 00c2 87bc
00000080: f851 44bd 4243 42bd c139 8b3d 60a0 82b9
00000090: 360a dd3d fb58 aabb 5def 353d 5bd8 873d
000000a0: aa6b 943b f7a9 f3bb 3804 cdbd 11cc da3d
000000b0: 35a5 cabd 0be6 b03d 67ae a43d 16aa 793d
000000c0: 8233 60bd 99f2 0bbd fbde 49bd a498 93bd
000000d0: 2b18 b43c 11cd 4bbd 4f3e 983c 3891 ecbc
000000e0: 35f8 283d cede b23b 6be2 8fbd 08dd 823d
000000f0: 26e6 bfbc 6f6c a4bc e707 103d 1c67 12bd
00000100: e7e1 a23d 4c2d 653d 117a 3c3d 149c d53d
00000110: 20c1 3abd 4bcf bbbc 6641 a63c c4ab 223d
00000120: bf31 c8bd e799 a33d 7ac5 b83d 8c10 9abc
00000130: 9ef5 8cbd c578 aebd 0ebf dbbd 66bf 2bbc
00000140: e36a acbd 2150 383d 4e66 993d 33a1 cfbd
00000150: 9c91 bc3d b997 2dbd 57d2 adbc bdbb 0c3d
00000160: bc34 723d fbab 153d b495 b53d 3a00 84ba
00000170: ae21 6e3d 8b12 bcbd 8505 38bd 30c0 d9bd
00000180: a7c6 c3bd b394 d9bd a7a0 bc3d 5546 c3bc
00000190: a6eb 7dbd 4b84 aaba e1a2 0e3d 958c c33d
000001a0: ee0e c8bd 818b 5bbd 1c38 98bd cb8c 623c
000001b0: 4960 45bd 9e2e 3f3c 8bb8 c4bd 9080 aabd
000001c0: 2393 6dbd 6c63 38bd 618e adbd d2f7 843d
000001d0: 4210 debb e6bd b93d 58c6 963d 9613 d0ba
000001e0: 01a3 fabc 3a7a dc3d 08c0 aabc 94cf 5dbc
000001f0: 9d03 403d 21e1 09b5 87be a3bd 8ce6 23bd
00000200: 26fb c6bb 0fc2 5abd 46fe 7d3c 8ace 913d
00000210: 6652 35bd 0037 cc3d 1185 95bd 5422 cfbd
00000220: 3a7e ae3d fd8b cbbb 8a8e a9bd 03fd 273d
00000230: 3b99 c2bd 7d3f c7bd 692a 003c 3883 353c
00000240: 2bab 89bd ff71 ce3d 99e7 873d d922 9f3d
00000250: 1c6e 813d 8ffb dabb 349b 863d 4f53 73bd
00000260: 47eb cc3d ecee 8d3d ccaf 6f3c 43a9 babc
00000270: e409 de3d 52a0 3fbd 7f4e 573d 7904 d9bc
00000280: 9eac 893c 4e69 5e3d 9fc2 a9bd fa72 e2bc
00000290: fccc 403b d73d 4ebd b34f 80bd b32a abbd
000002a0: de9c 15bd 44df d0bd 5799 663c 2ab9 603d
000002b0: c95f 023d 1e42 1ebc 1bc9 8fbc aba1 523d
000002c0: 0b6a dc3d e325 903d bbfe c8bd 40a2 05bd
000002d0: 8871 6a3c 0f9a 73bd 2e30 643d abf5 bfbd
000002e0: 4fc6 503d efbc 1dbd 70ca 113d 5c6f bf3d
000002f0: fce8 ba3d bce4 bfbd 981c 4f3d a4c8 95bd
00000300: 27a3 da3d d226 2dbb 320e 2bbd ca7e 1cbd
00000310: 5c08 0a3d 9a54 963a 1131 883d a098 db3d
00000320: 5b76 a53d 3d40 c1bd add0 433d f00c febc
00000330: 4fef a4bd be7f 14bb b398 8fbd fdd0 3a3d
00000340: b015 c3bd 6593 323d 07df acba 44c0 41bc
00000350: 8313 e93c f6bd 623d 0011 22bc ec25 573d
00000360: 1e55 033d 5590 b5bd f80a 7639 92a9 813d
00000370: b388 d1bd 425e 3bbc 4814 c3bd e7ec d03d
00000380: a643 a0bc ee92 d8bd 639d 86bd c5ac 143d
00000390: a1d7 ac3d 555b c2bd 34ae b13c f049 80bd
000003a0: 50c3 543b 9d08 cfbd 8830 c73b 5a82 3d3d
000003b0: cdb6 ee3c 49c1 b13d 5bab 5bbd 3792 70bd
000003c0: e8a2 433d fe45 93bd 9f1b 563d 0a6f d1bd
000003d0: 15e8 ac3b 5841 efbc f99c 88bd 41c4 19bd
000003e0: 1a8e 943d 9ff8 3ebd dbff a73d e577 cd3c
000003f0: 5b51 84bd 2008 54bd da66 85bd 9f17 81bd

fc3.bias f4 [1297]
0.051250935 -0.098657385 -0.05238347 0.0700951 -0.07490644 0.083177954 -0.008059148 0.004495056
-0.072071105 -0.06647376 -0.09339328 0.007869333 0.06174529 -0.052784182 -0.085781805 0.09459607
-0.018474625 0.09813827 -0.050526023 -0.103682 0.07681458 0.050046507 -0.01035227 -0.094781354
-0.044629574 -0.040350612 0.063722014 0.09148196 0.055728536 0.05590482 -0.05974092 -0.06888374
-0.022985755 -0.017688356 -0.07914932 0.029165667 -0.06343978 -0.07098998 0.06490237 -0.062137183
-0.08936109 0.088147976 -0.030629376 -0.06079285 -0.087405995 -0.073102556 0.05600031 -0.08983238
0.0059526353 -0.0337421 0.038677458 -0.06498966 0.10296229 0.07353929 -0.06017676 0.023342745
-0.031352162 -0.026712801 -0.052125446 0.093214445 -0.07656998 -0.062717 0.016509544 0.045675974
-0.0039029713 -0.056342993 0.04518039 0.09871575 0.08567435 0.05660231 -0.07730063 0.08620381
-0.050005697 -0.046748664 -0.08139454 0.06740749 -0.0013195705 -0.032282066 0.033088185 -0.019001145
-0.051109158 -0.08704718 -0.05680631 0.09219481 -0.056695282 0.050400116 -0.0070656617 -0.06979303
-0.0196043 -0.010531088 -0.053720724 -0.0732432 0.09438272 -0.015020457 0.0031817653 -0.057311956
-0.0070438925 -0.094181746 -0.06136243 0.051311236 -0.07778533 0.069238015 -0.011427254 -0.06391997
-0.03857296 -0.06248671 -0.10611432 0.094630815 0.042050198 0.046261616 0.029849 -0.0076172007
0.007935568 -0.035893604 -0.07293734 0.06795662 0.0925542 -0.0039325166 0.011134001 -0.049301554
-0.08988977 -0.0121124 -0.074423924 0.10411072 -0.0005781002 0.09193135 -0.09413198 0.005384441
-0.09239216 0.05497238 -0.01203279 -0.09085684 0.025314102 -0.07749822 -0.04949246 0.026690561
0.107627906 -0.09522247 -0.104312375 0.030701153 0.10200795 -0.002997493 -0.008116199 -0.056330033
0.10148262 0.031572156 -0.10365867 0.06713459 0.07040045 0.031432074 -0.032296855 0.020238671
0.09864172 -0.018815562 0.043260973 0.050836384 -0.034532566 -0.041205436 -0.056206275 0.03634851
-0.089699425 0.010648752 0.036793105 -0.01874212 -0.005110403 -0.0868639 0.097035944 0.07726455
0.012156157 -0.08352726 -0.019234125 -0.060676865 -0.054289997 0.10340008 -0.09782355 0.043121666
-0.02740059 0.07596192 0.07808157 -0.030252583 -0.08073376 0.10261588 0.04910205 0.026332349
-0.03829154 0.015862988 -0.066198245 0.096174836 -0.058024347 0.045416046 0.0015254299 0.09734518
-0.0920273 -0.053571463 -0.0024807225 0.005699784 0.008710529 -0.065918304 0.041533392 -0.040414754
0.10563277 -0.009313349 0.027777005 -0.019014757 -0.029723303 0.08561421 -0.098952144 -0.10199899
-0.009682539 0.038263425 0.09441283 -0.08388288 -0.027051782 0.10191016 -0.012342574 -0.10059734
-0.0036203724 -0.0683056 0.018392013 -0.1057369 0.046703864 -0.06304302 0.016012423 0.08738425
0.09650662 -0.09078689 0.09802909 -0.092974074 -0.092585616 0.036821578 0.0992005 0.10642537
0.033764534 0.0033338135 -0.08419466 -0.019489156 -0.1055185 0.09932149 0.058008727 -0.016852638
0.047471907 -0.10360185 0.09542096 0.0761134 -0.041263223 0.049885865 0.052834947 0.04187864
0.029529292 0.012173589 -0.033017088 0.101646654 0.03617743 -0.060869463 0.009941154 0.015265376
00000000: 80ec 513d e20c cabd 0d90 56bd 058e 8f3d
00000010: 8c68 99bd 3459 aa3d 840a 04bc 434b 933b
00000020: 049a 93bd 6523 88bd fa44 bfbd 60ee 003c
00000030: a1e8 7c3d 3a34 58bd 5fae afbd 96bb c13d
00000040: 1958 97bc b8fc c83d 60f4 4ebd 3a57 d4bd
00000050: f650 9d3d 91fd 4c3d 919c 29bc ba1c c2bd
00000060: 80cd 36bd af46 25bd b080 823d e55a bb3d
00000070: 9b43 643d 74fc 643d e5b2 74bd eb12 8dbd
00000080: 9f4c bcbc 2ce7 90bc 0a19 a2bd d6ec ee3c
00000090: b7ec 81bd 3263 91bd 89eb 843d 8f83 7ebd
000000a0: f202 b7bd ed86 b43d 75ea fabc ec01 79bd
000000b0: ea01 b3bd cbb6 95bd 9560 653d 0afa b7bd
000000c0: 530e c33b 2835 0abd 416c 1e3d 4d19 85bd
000000d0: e5dd d23d c49b 963d e87b 76bd 4939 bf3c
000000e0: 206b 00bd ced4 dabc 7e81 55bd 37e7 be3d
000000f0: b9d0 9cbd c571 80bd 063f 873c bb16 3b3d
00000100: fec8 7fbb e9c7 66bd 130f 393d 7c2b ca3d
00000110: 0976 af3d d3d7 673d cb4f 9ebd a08b b03d
00000120: c6d2 4cbd 877b 3fbd 2eb2 a6bd f00c 8a3d
00000130: 70f5 acba 333a 04bd 7a87 073d 4aa8 9bbc
00000140: d657 51bd cb45 b2bd bcad 68bd a2d0 bc3d
00000150: 5039 68bd 5a70 4e3d 1187 e7bb a6ef 8ebd
00000160: 3299 a0bc 968a 2cbc 430a 5cbd 8800 96bd
00000170: ba4b c13d 5d18 76bc 2a85 503b f1bf 6abd
00000180: 74d0 e6bb 5ce2 c0bd 2c57 7bbd bb2b 523d
00000190: ea4d 9fbd a9cc 8d3d 6139 3bbc 79e8 82bd
000001a0: aefe 1dbd 10f2 7fbd 7752 d9bd cdcd c13d
000001b0: d43c 2c3d d27c 3d3d e485 f43c b699 f9bb
000001c0: 2f04 023c 2c05 13bd 2c60 95bd d72c 8b3d
000001d0: 0e8d bd3d 57dc 80bb 636b 363c 6df0 49bd
000001e0: 2118 b8bd 1673 46bc 926b 98bd 0038 d53d
000001f0: a68b 17ba 8146 bc3d 44c8 c0bd f76f b03b
00000200: 1a38 bdbd b82a 613d 2e25 45bc 2713 babd
00000210: 855f cf3c 63b7 9ebd 9bb8 4abd 2aa6 da3c
00000220: 056c dc3d 0004 c3bd baa1 d5bd fc80 fb3c
00000230: 8be9 d03d 9671 44bb cef9 04bc 52ba 66bd
00000240: 1fd6 cf3d ce51 013d ff4a d4bd dc7d 893d
00000250: 1c2e 903d ebbe 003d b549 04bd 92cb a53c
00000260: ac04 ca3d 1823 9abc 6b32 313d d039 503d
00000270: 0572 0dbd 08c7 28bd 8d38 66bd 2de2 143d
00000280: 55b4 b7bd 1a78 2e3c 5eb4 163d 1389 99bc
00000290: 2b75 a7bb b3e5 b1bd c8ba c63d e03c 9e3d
000002a0: 9e2a 473c 5710 abbd e290 9dbc 4e88 78bd
000002b0: 305f 5ebd 6cc3 d33d b757 c8bd 58a0 303d
000002c0: 3477 e0bc ec91 9b3d 3be9 9f3d 44d4 f7bc
000002d0: be57 a5bd 4628 d23d 3b1f 493d f0b6 d73c
000002e0: 97d7 1cbd 19f3 813c f292 87bd 50f7 c43d
000002f0: f0aa 6dbd 2d06 3a3d eff0 c73a e95c c73d
00000300: cf78 bcbd c06d 5bbd 9e93 22bb 41c5 ba3b
00000310: 9bb6 0e3c 2d00 87bd eb1e 2a3d f189 25bd
00000320: fe55 d83d 0497 18bc 9a8c e33c d6c4 9bbc
00000330: 497e f3bc 8156 af3d 6ca7 cabd d9e4 d0bd
00000340: 83a3 1ebc 1cba 1c3d 845b c13d caca abbd
00000350: b39b ddbc 46b6 d03d 8238 4abc fa05 cebd
00000360: c543 6dbb cee3 8bbd d9aa 963c 968c d8bd
00000370: 8d4c 3f3d b31c 81bd 7c2c 833c 83f6 b23d
00000380: 43a5 c53d 7aee b9bd 7ac3 c83d 3169 bebd
00000390: 879d bdbd 39d2 163d a229 cb3d 8bf5 d93d
000003a0: ae4c 0a3d 1c7c 5a3b 406e acbd b9a7 9fbc
000003b0: 151a d8bd 1169 cb3d 8f9a 6d3d 8b0e 8abc
000003c0: e771 423d 352d d4bd 106c c33d 58e1 9b3d
000003d0: a003 29bd 1f55 4c3d 7569 583d f088 2b3d
000003e0: 6ae7 f13c bc73 473c ed3c 07bd 1f2c d03d
000003f0: c92e 143d 4252 79bd 39e0 223c a11b 7a3c
