models/1296_pixels/3.pt (torch, 771783 bytes, 10 tensors)

conv1.weight f4 [6, 1, 5, 5]
00000000: ca30 25bd 390d ebbc bb4d 0ebe 5d74 163d
00000010: db5d 78bd 98d9 223e 0361 9bbd 0849 a0bc
00000020: 83f2 30be bf52 a93d af56 29be 7a7c e8bd
00000030: 6fea 38bd 576f 89bd fd90 28be 9002 b33d
00000040: b124 193e fdc2 fdbc 34b0 99bd 9e3f 063e
00000050: ea66 653d 7ba2 aabc a1c5 803b 9169 de3d
00000060: b985 d6bd 6465 c1bd 330e d93d 29ed 473d
00000070: 2474 ad3d 99fd 163e 97c6 b03d cd78 0dbe
00000080: 8938 45be eecd 1abe fb43 293e 1417 ac3d
00000090: f706 e53c 9d08 cc3d cc4b f8bd a90d 8cbd
000000a0: 8f52 223e 5d7e 073e 8f2a 26be bc20 c5bd
000000b0: 4dfc 00be 0950 dabd 3887 c4bd 3812 c03c
000000c0: 5064 bd3b 6340 edbd ab30 1dbe 1d73 2fbe
000000d0: ef5d 133e b0eb 0a3e 1ffb 4abc 20dc e1bd
000000e0: 8b67 20bd 3ac0 1d3e aeeb 29be a0fc e9bc
000000f0: 7aee 353e 9cd6 5cbd eeb7 f43d 3c2a 0dbe
00000100: 22ec a63d 9fdc 3c3e 77f5 bc3d 2601 93bd
00000110: 0295 c93d 1bcc 4a3e 980d 943d 81db 073e
00000120: f464 dfbd 6122 463e 7085 1d3e 0968 0c3d
00000130: e056 a93d 08e5 3abe 6d4c 42be 0a66 d63d
00000140: 1e67 d0bd 099a abbd e885 2e3e 13aa 05be
00000150: b491 3a3e 21dd 98bc 0f1c 9e3c 09c6 4a3e
00000160: de0d fbbd 432c c6bc f5d2 22bd b752 3fbe
00000170: 48b1 80bd 03fe 6bbd d692 1bbe 956b f6bd
00000180: 814b 9f3d 1714 12be eacd d63d a65c 1abe
00000190: f2a9 243e a54a 343e 3f2e 6abd 5ab7 6bbd
000001a0: 0c3b c53c e3e5 82bb 0cbd cebd 0573 cabd
000001b0: 3560 36bd 64ed 853d a4da cb3d c602 533c
000001c0: 9812 1dbe b4c0 d73d 400e 23be d20b 36be
000001d0: ee7b 15be 54a8 37be 438a 283e 2971 173e
000001e0: d622 aa3d d446 2b3e 9614 a43d f3d9 223e
000001f0: a891 223e 999f c8bd 745e ebbc 242a 3a3d
00000200: 2441 b63c 10ad 133e 1ff1 38bd 1d4b e33d
00000210: 4373 09bd b83c 7a3c 411c 103e ad6c 313e
00000220: 6b5c b4bc 219d 4cbd e4a8 17be 38cd e2bd
00000230: 144e 8d3d 5a36 b63d 066f 343e 06b8 30be
00000240: 8ad0 2b3e f8d7 3f3e cce2 4f3e 3c97 53bc
00000250: f59d e0bc f4d3 dcbd
-0.040329732 -0.028692828 -0.1389684 0.036732066 -0.060636383 0.15903318 -0.07586863 -0.019566074
-0.17280011 0.08267736 -0.16536973 -0.11351867 -0.04514545 -0.067106895 -0.16461559 0.08740723
0.14955403 -0.030976767 -0.07504311 0.13110206 0.05600635 -0.02082943 0.003929809 0.10859979
-0.10474724 -0.09443167 0.105984114 0.048810158 0.08469418 0.14745177 0.08631628 -0.13815613
-0.19259848 -0.15117618 0.16529839 0.08402839 0.027957423 0.0996258 -0.12123832 -0.06838543
0.15851806 0.13231798 -0.16227172 -0.09625384 -0.12596245 -0.10659797 -0.095961034 0.023446187
0.0057797804 -0.115845464 -0.15350597 -0.17133756 0.14391302 0.1356647 -0.0123889735 -0.11028314
-0.039161246 0.1540536 -0.16593811 -0.028562844 0.17766753 -0.053915605 0.11949144 -0.13785642
0.081505075 0.18443535 0.09226506 -0.071779534 0.09842874 0.19804423 0.07229155 0.13267328
-0.10907927 0.19349052 0.15382934 0.034278903 0.08268523 -0.18251431 -0.18974467 0.10468681
-0.10175918 -0.08378989 0.17043269 -0.1305316 0.18219644 -0.01866013 0.019300489 0.19802107
-0.12258504 -0.024191028 -0.039751966 -0.18683897 -0.06283814 -0.05761529 -0.15192732 -0.120322384
0.07778073 -0.14265476 0.10488494 -0.15074405 0.16080454 0.176066 -0.05717301 -0.057547905
0.024076007 -0.00399469 -0.100946516 -0.098852195 -0.044525344 0.06539419 0.09953812 0.012879079
-0.15339124 0.10534802 -0.15923405 -0.17777947 -0.14598057 -0.17935306 0.16458993 0.14789261
0.08307426 0.16726238 0.08011739 0.15903454 0.15875876 -0.09796066 -0.028731562 0.045450345
0.022247858 0.14421487 -0.045151826 0.11098311 -0.033557188 0.015273266 0.14073278 0.17326613
-0.022016725 -0.049954537 -0.1481052 -0.110742986 0.06899658 0.088970855 0.17620477 -0.172577
0.1677877 0.1873473 0.2030136 -0.012914475 -0.02741907 -0.10782614

conv1.bias f4 [6]
00000000: 28f7 5a3c 215c f93d 49e0 0c3e 87e7 37bb
00000010: ac26 06be 775d e93d
0.013364591 0.12175775 0.13757433 -0.0028061585 -0.1310069 0.1139478

conv2.weight f4 [16, 6, 5, 5]
00000000: d1af 9bbd b064 733d 2921 74bd f0ea 6ebd
00000010: 4295 7dbc c2b2 863d 4a14 a4bd 8948 413d
00000020: ac31 90bd 5fc2 a63d 6f34 843d f797 bebc
00000030: cfb9 1f3d 7051 49bc 9be6 2d3d 9622 763d
00000040: ea58 fabc 1047 983d 76ff 71bd 2d37 1a3d
00000050: 9015 313d 4053 573d 3aa8 b13c 440f 4dbd
00000060: 4f4a 85bd b9f1 023d 36fe 383d 5dd4 863c
00000070: 36d4 f3bc e3c2 7dbd d48a 60bd 574b 84bd
00000080: 0eba 4cbd 0e79 2abd 66e2 52bd ab65 e43b
00000090: f0e9 743d a6c2 9a3d eb95 a13c c4bc b53c
000000a0: 03a8 503d 4a4e c1bc b76f 88bd 6f84 62bd
000000b0: d6f3 a23d 26c5 b5bc ba8c 403d ba4b 823d
000000c0: 7c5f 6a3d 41b5 5c3d a555 9bbd 4b92 99bd
000000d0: cbb7 04bd a0cc 0bbc 2c5d 96bd d00d a03c
000000e0: e51d 903d f4b9 a0bd 9e57 9dbd 74b2 873d
000000f0: 271a ebbc 218a 7a3c d38c 873d faec c73b
00000100: 65a2 553d fb70 9e3c e261 0c3d 01e5 31bd
00000110: 8234 e1bc 44a0 b5bc 9c2b 5dbd 787b 703d
00000120: 9a78 57bd 5763 103d 3f75 b7bc 9275 92bd
00000130: bd5b 873d 9697 a5bd 9caa c43c 0d47 4f3d
00000140: dd02 233d bae2 813d 02d0 813d 950b 5f3d
00000150: c7f8 1a3d 1fde 603d 3336 0abd 9296 953d
00000160: 9d89 733c 8ec0 a6bb 767f 923d e0be 1cbb
00000170: 7f42 7f3d 5b10 883c e351 db3c 1543 0c3c
00000180: 1f97 9c3d 3932 5e3d e047 9cbc 76a2 dbbc
00000190: f313 263d db0c 2c3d 0929 423d 9a2c 023d
000001a0: 6f7f 9d3d c468 a73d 3de6 78bd eb28 d1bb
000001b0: 8679 c63b 071e 743d 5a52 933b 8575 16bd
000001c0: 3635 7e3d dbc7 083d f3b4 493d dc7f 71bd
000001d0: a8ef 46bc 9060 7e3d 4a0d 08bd cdad fa3c
000001e0: 1ac9 8cbd cc4d 8bbc c5b0 173d b966 173d
000001f0: dbf9 43bd d642 81bd b2cb 223d 77f6 083c
00000200: a508 713d e7d6 a1bd 65c2 73bc fac2 3fbd
00000210: 8579 a63d ebbd f23c 73b3 513c 02f5 5d3b
00000220: fb3a c2bc 9d9b 9e3c 5969 b7bc a8ff a43d
00000230: 9fc4 a03d a54e 3f3d 68d3 a6bd 5f81 9b3a
00000240: a5e9 9dbc 7516 983d 90e2 94bd 5ff7 0abc
00000250: 9431 5fbd d5f4 883d 100f fc3c f47a 4cbb
00000260: bd33 17bd 8ff9 9e3d a250 953d c6d2 9a3d
00000270: 1ef2 483d 505d 1f3c 85b4 20bd e11a ca3c
00000280: c920 88bc 6ae3 1cbd 38eb 9dbd f7b2 983c
00000290: 8e10 553b 16f7 b9bc 0b96 8a3d 9c99 1c3d
000002a0: 44de 32bd ac78 52bc 759d 98bd 7c08 27bd
000002b0: 9be9 85bd 4a42 3d3c d72b 473d e3ef 66bd
000002c0: 5ad5 f23a b722 41bd e869 163d 9ba6 d9bc
000002d0: 2af3 4dbc 5dfb 6cbc 5e41 05bd c779 223c
000002e0: 19a9 98bd 5e34 f2ba 89d0 fbbc d54f 1d3d
000002f0: 78b2 ab3d c4ee fabb 4c74 a93c b3d9 35bd
00000300: d41c 5cbc 4edd 3abc 0480 81bd 8fc7 8c3d
00000310: 39d9 9fbb 64df 72bd c71d 1dbd 213b 913d
00000320: e073 393c d4b2 8f3c d524 b13c 9bd9 9ebb
00000330: 3ded 65bd e6bb 7dbd e98a 9ebd b49e 0cbd
00000340: 31d4 82bd bade 2dbd f1d0 8dbd 24cf 2fbc
00000350: 9197 01bd 86a3 9e3d 4b85 c8bc d4ea f7ba
00000360: c49f 7b3d 3aa4 e93c ab25 fb3b 21fe 8f3c
00000370: 4e5d da3c 2770 cd3c deff 8abc 6464 223d
00000380: 475e 6d3d 32cb a03d 355a 153d 30aa 94bd
00000390: 8a7f a63c 5eeb 803d 2dd2 333d 08b3 663d
000003a0: 2971 51bd 0f83 9fbd 357b f13c 9215 95b9
000003b0: f012 23bd 815e 51bd fcf7 b23c 456a 2dbd
000003c0: dd05 1f3d bc65 883d d4d2 8d3d 8f06 9bbd
000003d0: be11 a2bd 5637 793d 1e36 24bc e386 b03c
000003e0: 1d3a 9dbd 1194 79bd c1c3 383d 2d79 543c
000003f0: 6155 88bd f789 043d c3ed 71ba cb60 2cbd
-0.07601894 0.059422195 -0.059601936 -0.058329523 -0.01547748 0.06577064 -0.08011682 0.047188316
-0.07040724 0.08142542 0.064553134 -0.023265822 0.03899556 -0.012287483 0.04245625 0.060091577
-0.030559976 0.07435429 -0.059081517 0.037650276 0.043233454 0.052569628 0.021686662 -0.050063387
-0.06508314 0.031968806 0.04516431 0.016458685 -0.029764276 -0.061953437 -0.054819897 -0.064596824
-0.049982123 -0.041619353 -0.05148544 0.0069701276 0.059793413 0.075566575 0.019724807 0.022184737
0.05094148 -0.023596901 -0.06661933 -0.05530208 0.07956664 -0.022188734 0.047009207 0.063621
0.057219967 0.053883795 -0.07584695 -0.07498606 -0.03240184 -0.008532673 -0.0734199 0.019537836
0.07036952 -0.07847968 -0.07682727 0.06625834 -0.028698994 0.015291722 0.06618657 0.006101248
0.052156825 0.019340983 0.034273036 -0.043431286 -0.027490858 -0.022171147 -0.053996667 0.0587115
-0.05260525 0.035250988 -0.022394774 -0.07151331 0.066092946 -0.08085553 0.024007134 0.05060487
0.039797653 0.06342073 0.063385025 0.054454405 0.03783491 0.05489933 -0.033743095 0.0730411
0.0148643525 -0.0050888723 0.071532175 -0.0023917481 0.062319275 0.016609361 0.026772445 0.0085609155
0.076460116 0.054247115 -0.019077241 -0.026810866 0.04054637 0.042004447 0.047402415 0.031780817
0.07690322 0.08174279 -0.060766447 -0.0063830516 0.006056967 0.05959895 0.004495901 -0.03673317
0.062062465 0.033393722 0.049244832 -0.058959827 -0.012142099 0.062103808 -0.0332158 0.030600453
-0.068742946 -0.01700487 0.037033815 0.0369632 -0.047845703 -0.06311576 0.03974504 0.008359543
0.058846135 -0.079023175 -0.01487789 -0.046816804 0.08128647 0.029631576 0.012799132 0.003386796
-0.023709765 0.019361312 -0.0223891 0.08056575 0.078500025 0.04670586 -0.08145791 0.0011864117
-0.01927645 0.07426158 -0.07269776 -0.008481829 -0.05449064 0.06687323 0.030768901 -0.0031201215
-0.036914576 0.07762443 0.0729077 0.07559733 0.049059026 0.009726837 -0.039234657 0.02467102
-0.016617196 -0.038302816 -0.0771088 0.018640025 0.0032511088 -0.022700828 0.067669 0.03823243
-0.043669 -0.012846153 -0.074519075 -0.040779576 -0.06538697 0.011551449 0.048625793 -0.056381118
0.0018526718 -0.047152247 0.036722094 -0.026568701 -0.012570182 -0.014464227 -0.032533042 0.009916729
-0.07454128 -0.0018478741 -0.030739086 0.038406212 0.083836496 -0.0076578576 0.020685337 -0.044397067
-0.013434608 -0.011405302 -0.06323245 0.06874 -0.00487819 -0.059295073 -0.038358476 0.07091356
0.011319131 0.017541327 0.021624008 -0.004847718 -0.05613445 -0.061946772 -0.07741339 -0.03433104
-0.063881285 -0.042448737 -0.06924618 -0.0107305385 -0.031638686 0.07746033 -0.024477622 -0.0018914589
0.06143166 0.028520692 0.0076644025 0.017577233 0.02665582 0.025077892 -0.01696771 0.03964652
0.057951238 0.078512564 0.03646298 -0.07259023 0.020324487 0.06294893 0.04390161 0.05632308
-0.05113331 -0.07788669 0.029477695 -0.00028435566 -0.039812982 -0.051115517 0.021846764 -0.042337675
0.03882395 0.06660029 0.06924978 -0.0756961 -0.0791354 0.060843788 -0.010022668 0.021548694
-0.076771 -0.060932223 0.04510856 0.012968344 -0.0665691 0.032358136 -0.00092288497 -0.042084496

conv2.bias f4 [16]
00000000: 9222 0a3d ab60 85bc 813c 593d a7c5 0eba
00000010: 98cc 88bd 721f 3ebd ce8f 83bd 6dcc 7d3d
00000020: 4eaa aabc f469 18bd d4fa 6d3d 9562 973d
00000030: bd5a da3c 8035 1abd 28eb fcbc 24f9 83bd
0.033724375 -0.016281446 0.053036217 -0.00054463226 -0.06679648 -0.046416707 -0.06423913 0.061962534
-0.02083316 -0.03721042 0.058100536 0.0739185 0.026654596 -0.037648678 -0.03087385 -0.06444004

fc1.weight f4 [120, 576]
00000000: 005f 32bb 565f 0ebc b0e4 09bc ab21 2cba
00000010: 8686 b13c d688 cbbc 6b7a bbbc 7b7b 2dbc
00000020: 2bc7 fe3b 209c a93b f065 67bc 9612 bfbc
00000030: 6696 583c c038 e9bb c8a4 803c b85a e13c
00000040: c0bc 65bb 16eb 1dbd 306b 94bc a3e9 c1bc
00000050: 7f4d 193d d081 3c3c 1b61 78bc bb60 1bbd
00000060: ab33 753a b630 a2bb 37ab 27bd 0b59 363c
00000070: 06d1 febc bb7a 15bc b8a1 003d cbee cb3c
00000080: 7054 233d 169c 26bd 705e 57bc 68c7 25bd
00000090: 5be8 af3c eb9e 9c3c 98f4 243d 0c63 0c3d
000000a0: 5c2d 1abd 83e5 e23c 809b 003c 2fc9 0cbd
000000b0: f019 283d 88e1 eebc b609 d5bb 8729 073d
000000c0: 73b9 c03c 9b06 27bc 5e21 fdbc 5011 b43c
000000d0: 5b43 babc 6bcb 1c3c b63a a43c 7b83 42bc
000000e0: 80ef d3bc 00fe 063c 8617 793c b353 123d
000000f0: ab7d 0b3b 9643 773c a097 35bc 4712 253d
00000100: 0060 eebb deeb b43c 3b54 9d3c 66d0 ccbc
00000110: 1005 1cbd abb9 7f3a 00eb 403a ffa5 143d
00000120: a636 cd3c e04c b23c f60c 74bc 1bef 253d
00000130: ab4f 403c 009b bb3a 0b51 883c 00a6 813a
00000140: 0bb2 c93c 56a4 123a 001e f23c 0807 f6bc
00000150: d8bb 12bd d7bc 1abd 928a 1a3d 4bda 66bc
00000160: 930b 953c 8e22 c73c d6ee 533c 0435 19bd
00000170: f09f 353c cbed d8bb 4810 dbbc fbb7 0e3d
00000180: 3a56 1fbd 00f0 0bb8 23f9 d53c bbf8 b53c
00000190: a387 9d3c 6051 fcbc 3098 18bc b0a3 6c3c
000001a0: d08c 113d d6cc 5d3c da30 06bd 935d f53c
000001b0: 18df d93c 56bd e139 20cb 7bbc c3a3 83bc
000001c0: 36cd 983c 409d c5bb 8088 14bb 4eef e13c
000001d0: 8050 6b3c 0398 d93c 0b5b 3abc c0c0 a8bc
000001e0: ae67 8ebc c0d2 c7bc 6b8b bb3b 035f ce3c
000001f0: d63a 233b 8ed5 863c 2b05 78bb 341f 00bd
00000200: 0021 ed3b 7bbf 7b3c 5041 be3c e6bc 4cbc
00000210: 4030 9f3c 007a 14ba 2be5 d4bb 4691 ec3c
00000220: d630 39bc 4329 e73c c073 71bb c846 c6bc
00000230: 0628 b53c 3852 ddbc e056 bf3b eef6 bbbc
00000240: ebfc 2a3c 96fd 993b c08b 683b 4b0c 2abd
00000250: 83d4 aa3c d66b 243b d8cd eebc 70f3 663c
00000260: 0771 0a3d 4b89 a4bc 80ca 9f3a 5a1f 0d3d
00000270: ab76 d23a 9e43 a6bc 006b f0ba 005c 34ba
00000280: b643 f2bc c81e cc3c 43df c2bc 4066 1fbd
00000290: ebe0 693b 8613 ba3c 642a 28bd 8037 47bb
000002a0: 3bc9 023d b6b0 34bc 4015 5f3b 8b87 013c
000002b0: 98f8 f3bc 5671 1ebd fb7d e43c 6b51 6ebb
000002c0: b6b4 d43b 7b77 e1bc cbc5 93bb a672 753c
000002d0: bebc 923c f39a 043d 8bb2 993b 1bba 153c
000002e0: 567d aebb afcc 07bd 3b2c 8dbc 9718 193d
000002f0: e828 ebbc 7022 eb3c 04a8 0dbd ab4c 9a3a
00000300: 0895 cebc be2c 163d 886d f23c ab3f 343b
00000310: 2b58 493b 03be 893c 7b62 6cbc 7b61 eabc
00000320: b3d8 27bd 9e7f d33c 0b09 bd3c 1ebd c23c
00000330: 43ca d6bc 5616 65ba 6b91 5fbc f412 1ebd
00000340: 6053 1cbc 48e5 e9bc 8b9e 153c e68e 11bc
00000350: 309a 58bc 9e9f 9fbc b338 a73c ccbd 0b3d
00000360: 9e93 0a3d 8ecd d53c 1bd1 8d3c 5bcb 02bd
00000370: 7632 a9bc e0c4 e0bc fb17 1d3c d669 91bb
00000380: 0461 233d 361a 973c 1b9d d53c 78b3 83bc
00000390: d6f7 a5bc 2e19 f8bc c68c c63c c0e0 48bc
000003a0: f683 1d3d 0025 a4bc 4e67 16bd d3c2 fdbc
000003b0: 8671 0ebd 56b6 44ba 7390 fb3c cfd5 0ebd
000003c0: 93bb 89bc 76aa 84bc 00c2 863c 006a ce3b
000003d0: 5319 f33c 6ef9 c93c abf9 de3c a66f 093d
000003e0: c833 07bd 2ed4 8b3c cbf0 a1bb 0e0c e63c
000003f0: be9e 213d 7666 f13b bbc8 e7bc 00a9 43bb
-0.002721727 -0.008689722 -0.00841634 -0.0006566296 0.021670591 -0.024845522 -0.022885522 -0.010588522
0.0077752075 0.0051760823 -0.014123425 -0.023324292 0.0132194515 -0.007117361 0.015703574 0.027509078
-0.003505513 -0.038554274 -0.018117517 -0.023670977 0.03742742 0.011505559 -0.0151598705 -0.037934046
0.00093537074 -0.0049496545 -0.040934768 0.011129628 -0.03110553 -0.0091234995 0.031404227 0.024894139
0.039875448 -0.0406762 -0.013145074 -0.04047337 0.0214731 0.019118747 0.040272325 0.034274146
-0.037640914 0.02769733 0.007849574 -0.03437155 0.04104036 -0.029160276 -0.006501402 0.032998588
0.02352593 -0.010194446 -0.0308997 0.021980911 -0.022737196 0.009569983 0.020047527 -0.011872168
-0.025871038 0.008239269 0.015203362 0.035724353 0.002128462 0.015091797 -0.0110835135 0.040300634
-0.0072746277 0.022085126 0.019205203 -0.025001716 -0.038090765 0.0009755145 0.00073592365 0.03629112
0.025050472 0.021765172 -0.014895668 0.040511232 0.011737744 0.0014313161 0.016640207 0.0009891391
0.02462103 0.0005593946 0.02955532 -0.03003265 -0.035823673 -0.037777748 0.037729807 -0.014090131
0.018193996 0.02430847 0.012935361 -0.037404075 0.011085495 -0.006620144 -0.026741162 0.034843426
-0.03890059 -3.33637e-05 0.026119774 0.02221333 0.019229716 -0.030800521 -0.009313628 0.014443323
0.03553468 0.013537606 -0.032761432 0.029951846 0.026595637 0.0004305641 -0.015368253 -0.016069299
0.01865254 -0.0060307086 -0.0022664368 0.02757993 0.014362454 0.026561743 -0.011374245 -0.020599723
-0.017383423 -0.024392486 0.005723407 0.02519179 0.0024906895 0.016459253 -0.0037844877 -0.031279758
0.0072366 0.015365477 0.023224503 -0.012496209 0.019432187 -0.00056639314 -0.0064970455 0.028877866
-0.011303147 0.028217917 -0.0036842674 -0.024203673 0.022113811 -0.027016744 0.0058392137 -0.022944894
0.010436277 0.0046994193 0.0035483688 -0.04151563 0.020853287 0.002508869 -0.029150888 0.014096126
0.033799198 -0.020084998 0.0012191087 0.034453727 0.0016057094 -0.020295914 -0.0018342435 -0.0006880164
-0.029573303 0.024917021 -0.0237881 -0.038915873 0.003568704 0.022714388 -0.04105605 -0.003039807
0.03193019 -0.011028459 0.0034039766 0.007905851 -0.029781625 -0.038682304 0.027892103 -0.0036364447
0.006491269 -0.027522793 -0.0045096627 0.014980948 0.017912265 0.032374334 0.0046904734 0.009138609
-0.005325 -0.033154186 -0.017233005 0.037376966 -0.028706029 0.028702945 -0.03458406 0.0011772116
-0.025217548 0.036663763 0.029593244 0.002750377 0.0030722718 0.016814237 -0.014427776 -0.028610935
-0.040978145 0.025817689 0.023075601 0.023771819 -0.026219493 -0.0008738985 -0.01364551 -0.038592294
-0.0095413625 -0.028551713 0.009132038 -0.008884167 -0.013220355 -0.019485291 0.020412778 0.03411655
0.033832185 0.026098993 0.017311623 -0.031932216 -0.020653944 -0.027437627 0.009588237 -0.0044376655
0.039887443 0.018445116 0.02607589 -0.016076788 -0.020259779 -0.030285444 0.024237048 -0.012260616
0.038455926 -0.020037174 -0.036719613 -0.030976688 -0.034776233 -0.0007503977 0.030708527 -0.034871873
-0.016813075 -0.016194563 0.016449928 0.0062992573 0.029675161 0.02465507 0.02721866 0.033553742
-0.033008367 0.017068949 -0.004942035 0.02808192 0.03945803 0.0073669506 -0.028293958 -0.002985537

fc1.bias f4 [120]
00000000: bebb cbbc 8858 333c fbe4 05bc 4376 1b3d
00000010: dc00 4c3c 1914 bd3c 5d42 b73c 25d9 65bb
00000020: 8e5a e1bc 9f54 e33c b4ab e7bb 9a9a 0d3d
00000030: d656 083d 0082 d7bc 1019 063c f0bf 46bb
00000040: 8872 1abd 2734 3d3b 7b62 75bc 64d2 0ebc
00000050: 0a0b 11bd 2689 163d 551d 83bc 0454 e2bb
00000060: decc 47bc bf21 0e3c 7631 673c 820b 9e3c
00000070: dac9 f23c 57e1 bc3c 3f5d e03c 6a7e 90bc
00000080: 6c37 34bc 9af7 d7bc e324 05bd 8187 26bd
00000090: 8408 d9bc bce3 29bd 3d0b ce3c 0015 163d
000000a0: ff86 093c 4d7b ca3c 6fcd efbb 6c63 4bbc
000000b0: 2b70 24bb a595 173b 43dc cb3c 9213 debc
000000c0: d8ca b3bc 5420 093c 6960 213d 2313 bf3c
000000d0: 5a67 f2bc 8c12 013d b80e 0a3d ce87 1ebd
000000e0: 464f b73b 270a c83c 6458 473c 5fa3 d33c
000000f0: c3ae 00bd 160f 0f3c aa74 0a3c 8c0d a03b
00000100: eab0 f93b debd d8bc fa85 163d 7c86 043d
00000110: 81ea 20bd 820c bd3c fef7 63bb 01a3 2b3b
00000120: 0e75 313b d3e5 fbbc 5cad dc3b dcc2 3abc
00000130: 1f2b d5bc 0b32 7dba cc42 353d 5fad ffb7
00000140: 19d2 593b a716 f63c fc1e e4ba b41e 15bd
00000150: b953 09bd 7ef9 c2bc a8d3 e7bc e4dc 20bd
00000160: 1dc0 2cbd 00a3 8a3b 5fd3 2e3d d8e0 013d
00000170: c997 04bd 830f ff3c 9eb3 0b3d 3048 adbb
00000180: e418 1ebd 5f97 b4ba f99b ddbc 0ebc 0e3c
00000190: cac4 273d 5796 a5bc 9ef4 bdbc b8bb 99bb
000001a0: 82c1 9e3b 19a5 89bc 483b fabc d596 ecbb
000001b0: 73d1 b13c 7877 4d3d b9eb 91bb 8f97 05bd
000001c0: 5911 be3c 6b26 0cbc 0d79 023d 5144 f4bc
000001d0: fbc9 903b 1795 98ba 6100 bebc 56ea 8f3c
-0.024869796 0.0109464 -0.008172269 0.03795458 0.012451377 0.023080872 0.022370512 -0.0035072055
-0.027509 0.027750311 -0.007070029 0.034571268 0.03328594 -0.026307106 0.008184686 -0.0030326806
-0.03770688 0.0028870197 -0.014977093 -0.008717153 -0.03541092 0.03675189 -0.016005198 -0.006906988
-0.01219484 0.008675038 0.0141109135 0.019292597 0.029637266 0.02305667 0.027388213 -0.017638404
-0.010999542 -0.026363183 -0.03250588 -0.04065657 -0.026493318 -0.04147695 0.025151843 0.03664112
0.008394002 0.024716998 -0.0073181908 -0.012413841 -0.0025091271 0.0023129967 0.024885302 -0.027108941
-0.02194731 0.008369524 0.039398585 0.023324555 -0.029590297 0.03151183 0.033705443 -0.038703732
0.005594167 0.024418904 0.01216707 0.025834737 -0.031416666 0.008731624 0.008450666 0.0048844274
0.0076199668 -0.026457723 0.036748864 0.032354817 -0.03928614 0.023077253 -0.0034785266 0.0026189687
0.0027077827 -0.030749237 0.0067345332 -0.011398997 -0.026021538 -0.0009658641 0.044253156 -3.0479101e-05
0.00332368 0.030040098 -0.0017404254 -0.036406234 -0.03352711 -0.023800608 -0.028299168 -0.039273158
-0.0421754 0.004230857 0.042682048 0.03170857 -0.032371316 0.031135326 0.034106843 -0.0052881464
-0.038597956 -0.0013778022 -0.027051913 0.008711828 0.040959157 -0.02021329 -0.023187932 -0.0046915673
0.0048448453 -0.016802358 -0.030545846 -0.007220129 0.021706318 0.050162762 -0.004453149 -0.03261524
0.023201631 -0.008554081 0.031853724 -0.029817732 0.004418609 -0.0011641112 -0.02319354 0.017567795

fc2.weight f4 [84, 120]
00000000: 4441 2f3d a596 8cbd 7da1 3bbc 0601 61bd
00000010: 86ab 63bc f736 a23d 6851 063d 5315 02bd
00000020: fc5a 52bc 7c95 62bd c297 b93d f05a bcba
00000030: eff3 bcbc 0a74 8d3c 29a8 8b3d 023e 42bd
00000040: efa1 15bd 9ada 713d 97c8 aebd 630d d8bc
00000050: 2184 7bbd 7e67 abbd fcc0 6d3c 7c69 833d
00000060: a74b 563d e1b2 fe3c 047f 34bd 96f2 5fbd
00000070: 213c 87bc 7f2f 203d 4f30 21bd 196e a53d
00000080: 767b fcbc f5d1 823d b315 f6bc bb7b 873d
00000090: cccf 90bd 88fb db3c 68b1 a43d bcf3 a3bd
000000a0: 7c22 46bd 0cf6 e73c 3f89 56bd 5607 9e3d
000000b0: 34dd 54bd d56d 463d 122c a6bd 79ae b0bb
000000c0: 2746 253d 9a14 43bd 7dc6 6fbc d299 a3bd
000000d0: 4112 afbd c130 a6bd 31ea 473c 4200 2b3d
000000e0: 1212 8cbc e92a 273d 7f2f 8b3d f6c0 a03d
000000f0: 8fa5 babd 108d aa3c 4a8e 5d3d b5c1 603c
00000100: 257f 7fbd 42fd d93b 6d3a d1bb 3047 cb3c
00000110: 7c88 a53d 841c afbd fac5 903d 5373 b53c
00000120: c78d 4b3b e460 9bbc 31db 37bd 36ab f03c
00000130: 60c6 e13c 71c6 d63c 39e2 87bb c859 e2bc
00000140: eb9e 373c 634a aebd 57c1 bcbc 48de a0bd
00000150: 47d9 a63d 788d 88bd 4969 8a3d aa03 b6bd
00000160: e16f 483c 3beb f23c 2927 093c 7a5e 63bd
00000170: 7a30 9fbd faae 433d c2ca 103c cf2b 953d
00000180: 092a 48bd 928a 60bc db4c 1c3d 96de 32bd
00000190: d080 a8bd 6a63 693d 20bb b73d 743d 9e3d
000001a0: f364 efbc 40eb 11bd af4d 8bbd cd30 60bd
000001b0: 5df6 11bb c326 8b3d 8b4e 543d 047c 803c
000001c0: e8f1 a3bd 2587 633d c4e0 fcbc c2d4 77bc
000001d0: f068 69bd 8eb4 063d 5b26 a73d e4af 273c
000001e0: 1016 71bc 07ac 483d 95a1 383d c4a8 a1bd
000001f0: 74d2 233d db5c 933d d3a1 5fbd 0fc1 983a
00000200: 8faa 823d 4151 303d 5b01 99bd 3071 44bd
00000210: cd02 293d eb0d 9fbd 6f47 4f3d 0a38 9c3d
00000220: 5e32 f3bc e011 a33c c506 4d3d c06e 0b3c
00000230: f50f 9dbc 4161 2e3c 8301 a23d 50b2 61bb
00000240: 72bc 94bd 61c7 8ebd 37b9 203c ecd4 bebc
00000250: 71b0 86bc 8f04 4f3d 81e2 febc 2049 b7bd
00000260: 14fd 92bd 6c59 083d 5cd7 b43d 0461 243d
00000270: 1f87 533d 0649 90bd ec28 d13c 00e7 b13b
00000280: 6b76 efbc a529 1dbd 8c0c 8cbd 7dd1 363d
00000290: 5b00 babd 2216 9539 69b9 8c3d e5fa 5c3d
000002a0: 6cf8 21bb b174 e5bc 1d53 0bbd 958d 733c
000002b0: a412 9dbd 61c3 643c a470 25bd 5b6e 9d3d
000002c0: 10a8 abbd 6e5b 733d 54c6 12bd e323 713d
000002d0: 49d2 e13c 4e43 6cbd ebbd 123d 0baa 523d
000002e0: c18e 893d d6c4 9cbd 1557 d6bc 963f f5bc
000002f0: d536 90bc 3b34 0fbd 454a 74bc e794 9fbd
00000300: fe0a 27bd 46f5 e4bc 9d47 a13d 167f 233d
00000310: a7bb 413d a028 47bd 914e 9e3d f4c6 4c3d
00000320: 1b48 acbc 4dbe b7bd e846 da3b 9b48 99bc
00000330: f04d 863d f961 533d d759 0a3d d075 8e3b
00000340: 858a 53bd f9dd d6bc 296b 86bb f657 103d
00000350: 7fb4 1f3d 5b6a 67bc 1b8c ec3c e71b 75bb
00000360: 1057 013d ac25 67bd 47cb 843c 3652 b1bd
00000370: 7866 bb3c 4f64 5b3d 090c e63c 3523 94bd
00000380: 7ea3 8d3d f59d b93d a7e3 703c ef73 0cbc
00000390: 9f80 6d3c 8a92 00bd 2be5 93bd eff9 61bc
000003a0: 520d 373d 011f ae3d 32d0 323d 9c6c a43d
000003b0: 8bf8 853d 42a5 683c 6e85 acbd 38d0 32bc
000003c0: 6c11 f23c 853e 673b 0914 0a3c 4f10 ae3c
000003d0: ab62 b23d 140f 2a3d 890e da3c fc12 a8bd
000003e0: 97ff 87bd 6689 0a3d dada 79bd 16cf 4abd
000003f0: ab3d 053d c5b5 963d 75aa de3c 2228 28bc
0.04278685 -0.06864671 -0.011452076 -0.054932617 -0.013895875 0.0792064 0.03279248 -0.031758618
-0.012839075 -0.05531834 0.09062149 -0.0014370363 -0.023065535 0.017267246 0.068191834 -0.047422417
-0.036531385 0.059046365 -0.08534353 -0.02637357 -0.061405305 -0.08369349 0.014511343 0.06416604
0.05231824 0.031091155 -0.044066444 -0.054674707 -0.016508164 0.039107796 -0.03935271 0.0807764
-0.03082059 0.063877024 -0.030039644 0.066153966 -0.07070884 0.026853338 0.0804165 -0.08005473
-0.04837273 0.028315566 -0.05237698 0.07716243 -0.05196877 0.048444588 -0.081138745 -0.0053918925
0.040350106 -0.04762707 -0.014634726 -0.07988323 -0.085484035 -0.08114768 0.012201832 0.041748293
-0.01709846 0.040812407 0.067961685 0.078493044 -0.09113609 0.020819217 0.054090776 0.013718058
-0.062377114 0.006652505 -0.0063851387 0.024814218 0.08082673 -0.08550361 0.07069011 0.022149717
0.0031059848 -0.0189671 -0.04488677 0.029378515 0.027560413 0.026217671 -0.004146841 -0.027630702
0.011207323 -0.08510282 -0.02304141 -0.07854897 0.08146911 -0.06667608 0.06758363 -0.088874176
0.012233705 0.029653182 0.008371153 -0.05551002 -0.07772918 0.047774293 0.008837404 0.072837465
-0.048868213 -0.013704913 0.038159233 -0.043669306 -0.08227694 0.056979574 0.08971238 0.07726565
-0.029222941 -0.035624743 -0.06801926 -0.05473404 -0.0022272088 0.067945026 0.051832717 0.015684135
-0.08005124 0.055548806 -0.030868895 -0.015126409 -0.05698484 0.032887034 0.081616126 0.010234807
-0.014714733 0.048992183 0.04507597 -0.078935176 0.039995626 0.07195445 -0.054597687 0.0011654216
0.06380188 0.04304624 -0.07470962 -0.047959507 0.041262437 -0.077663265 0.050605234 0.07627876
-0.029687103 0.019905984 0.050055284 0.008510292 -0.019172648 0.010643304 0.079104446 -0.0034438558
-0.072625056 -0.06971622 0.009809784 -0.023294888 -0.016441556 0.050541457 -0.031113865 -0.08949494
-0.07177177 0.033288404 0.08830139 0.040131584 0.051642533 -0.07045178 0.025532208 0.0054291487
-0.02923127 -0.038369793 -0.068383306 0.044633377 -0.09082099 0.00028435985 0.06871302 0.05395021
-0.0024714721 -0.028009744 -0.03401481 0.014865299 -0.07669571 0.013962598 -0.040390626 0.07687064
-0.08381665 0.059413366 -0.03583367 0.058872115 0.027566092 -0.057681374 0.03582565 0.051431697
0.06716681 -0.07654731 -0.02616457 -0.029937547 -0.017604271 -0.03496192 -0.014910285 -0.07792073
-0.040781967 -0.027948987 0.07874987 0.03991612 0.0472981 -0.048622727 0.07729829 0.049994424
-0.021030476 -0.08971844 0.0066612847 -0.018711379 0.06557834 0.051607106 0.033777084 0.0043475404
-0.051645774 -0.026228892 -0.00410213 0.035240136 0.038990494 -0.014124478 0.028875401 -0.0037400664
0.03157717 -0.05643241 0.016210211 -0.086582586 0.02287601 0.05356246 0.02808191 -0.07233278
0.06915949 0.09063331 0.014702714 -0.008572563 0.014495998 -0.03138975 -0.07221445 -0.013792499
0.044690438 0.08502007 0.04365558 0.08028528 0.065415464 0.014199557 -0.08423887 -0.010913901
0.029549323 0.0035285067 0.008427628 0.02124801 0.08710226 0.041518286 0.026618259 -0.08206746
-0.06640547 0.03382244 -0.06099973 -0.0495139 0.032529514 0.073588885 0.02718089 -0.010263475

fc2.bias f4 [84]
00000000: c1a9 b4bd 6c2e 5abd baf3 333d 056f 6c3c
00000010: 2ef0 84bb 495b a1bd c9e1 6bbd 91ce a7bd
00000020: 0317 663d 2e03 7f3d e224 aebd e50d 343d
00000030: 1f00 903d 579e 603d e015 be3c 3b97 82bd
00000040: 3246 1dbd 1ccd 8d3d 03b2 ab3d 5de4 443d
00000050: 3a31 953d 7923 3dbd 0e39 90bd 1ebf 5c3d
00000060: 86cb 0fbd b2e9 50bd 4221 a3bd eec6 1ebd
00000070: 52a6 7bbc ffb7 97bd fac1 663d 4877 c83d
00000080: 038d 563d ba7d 9fbd efaf 34bd 1e7b 723d
00000090: e744 39bd 06d2 7dbd 7b2c 5b3d 1361 24bd
000000a0: 5c24 84bd 2516 ffbc a82b b7bd 4c57 823d
000000b0: a771 29bd 9458 833d 4423 de3c a47f 89bd
000000c0: d970 61bd 9e34 4b3d 8cb9 983c 5521 0cba
000000d0: 20b0 02bd d48d 25bd 8f83 0cbb c6b5 e4bb
000000e0: e70e 5c3d e67a 9d3d 54ec 343d d687 133d
000000f0: b506 193d 5b51 a33d b840 93bc 3acb a8bd
00000100: 8aaa ad3c ae13 e2bc 1168 943c 1057 9f3d
00000110: 2838 4c3d 15d2 22bc a5e3 353d 9247 2b3d
00000120: f3a2 b6bd 163b 6f3d 1fd5 af3c 6d8f b7bd
00000130: 6618 01bd d95d 80bd 7cc0 953d 2cd2 053d
00000140: 6e61 0a3d 9fe7 c13b c7a9 14bd 3800 9a3c
-0.088214405 -0.053266928 0.043933608 0.014430766 -0.004056952 -0.078787394 -0.057588372 -0.08193696
0.05617429 0.06225889 -0.085031286 0.043958563 0.07031273 0.054838505 0.02320379 -0.06376501
-0.03839702 0.06923887 0.083835624 0.048069347 0.0728478 -0.046176407 -0.07042132 0.0538932
-0.035106204 -0.05100412 -0.07965328 -0.038763933 -0.015359478 -0.07408141 0.056337334 0.09788376
0.052380573 -0.07787652 -0.044113096 0.059199445 -0.045231726 -0.061967872 0.053509217 -0.04013164
-0.064522475 -0.031138489 -0.08943874 0.06364307 -0.041368153 0.06413379 0.027116425 -0.06713799
-0.05503926 0.049610727 0.018643163 -0.0005345543 -0.031906247 -0.04041846 -0.002144072 -0.006979677
0.05372515 0.07689457 0.044170693 0.036018215 0.037359912 0.07974502 -0.017975196 -0.082418874
0.021199483 -0.027597275 0.018116029 0.07780278 0.049858242 -0.009937783 0.044406552 0.0418163
-0.08917799 0.058405958 0.021463929 -0.08962903 -0.03151741 -0.062679 0.07312104 0.03267114
0.033784322 0.005917504 -0.036294725 0.018798932

fc3.weight f4 [1297, 84]
00000000: 47cd 20bd 4eff 283d 9f6d c6bd b127 403d
00000010: e12d 94bc dacb 803d ab61 d5bc 586c a63d
00000020: dc09 a03d 76cc dbbd 56bb 15bd 2fd5 7f3d
00000030: 71a7 4ebd 1741 bdbd c49a 9b3c 0c36 903d
00000040: 7048 98bd 562b c23d 26de cdbc e968 863b
00000050: 766d 803d 490b 8ebd 1530 973c 3acd 7bbd
00000060: 7f5f c23d b653 083d 437a 8c3d 93f0 cdbd
00000070: 6072 b83d 6084 b93d cf38 82bd a8e9 84bc
00000080: 2982 43bd a157 42bd 69c4 8a3d 200d 05b7
00000090: 360a dd3d a76b aabb 2de3 363d 5bd8 873d
000000a0: aa6b 943b b236 04bc 3804 cdbd 4865 db3d
000000b0: 35a5 cabd a8a4 b03d a13b a53d 16aa 793d
000000c0: 8233 60bd 6f49 0bbd 71c9 49bd 2d99 93bd
000000d0: 872b b23c 11cd 4bbd 8c19 953c 7e91 ecbc
000000e0: d4f7 293d 93b3 b73b 9f1b 90bd ab3e 833d
000000f0: 7d37 c4bc 5892 a9bc f9dc 0f3d 5669 14bd
00000100: a212 a03d 47e1 643d deaf 3c3d 95ee d53d
00000110: 7b8f 39bd efd5 bbbc dd56 a83c a267 223d
00000120: a136 c8bd 3557 a33d 188b b83d 3cd8 9cbc
00000130: 9ef5 8cbd c578 aebd c507 dbbd 8c6d 29bc
00000140: 6e41 acbd 2050 383d a1c8 973d 7292 d0bd
00000150: 9c91 bc3d c29e 2dbd 5adc aebc 43d5 0d3d
00000160: bc34 723d fbab 153d b495 b53d 1510 84ba
00000170: 49b6 6f3d e56f bbbd 8505 38bd 2e9b d9bd
00000180: aa22 c3bd ea66 d8bd e7cd bc3d 4109 c9bc
00000190: 77ea 80bd c823 6eba c8fc 0f3d 51a9 c33d
000001a0: c645 c7bd 818b 5bbd c341 98bd 1d6a 6a3c
000001b0: 5666 45bd 9e2e 3f3c 8bb8 c4bd ff3c abbd
000001c0: ee03 6fbd a6d5 38bd 3ec1 acbd 48fe 853d
000001d0: 5e52 d5bb b9b5 b93d 1f66 963d fdda a5ba
000001e0: 1fa3 fabc ab79 dc3d 5599 a8bc 97cf 5dbc
000001f0: 9d03 403d 32c1 08ba 87be a3bd 2565 22bd
00000200: 26fb c6bb 947c 5abd 7fbd 813c 8ace 913d
00000210: 6652 35bd 6bc5 cc3d d876 95bd 2321 cfbd
00000220: e118 ae3d fd8b cbbb 7a34 aabd 00fd 273d
00000230: 63f0 c1bd 118f c6bd 74eb ff3b 8c5f 393c
00000240: 1158 8abd 5ac5 cd3d 99d5 873d 3e4d 9e3d
00000250: c66e 7e3d 71f6 dcbb e6b3 863d e32b 72bd
00000260: f6a6 cd3d eced 8d3d 483a 743c 0392 babc
00000270: fc05 de3d 8285 3fbd 0609 573d 444d dbbc
00000280: 9eac 893c 4e69 5e3d b9ee a8bd cb59 e0bc
00000290: 8fc9 4c3b 823b 4ebd 7fa4 81bd 4dec abbd
000002a0: de9c 15bd 05e3 d0bd 101d 633c e19b 613d
000002b0: c95f 023d 1e42 1ebc 1bc9 8fbc 55a1 523d
000002c0: 300a dd3d 6a89 903d bbfe c8bd 74b7 05bd
000002d0: 9f8e 6e3c a0ac 71bd b176 643d 007d c1bd
000002e0: 919f 4c3d 1370 1cbd 68b1 123d 7862 bf3d
000002f0: 808b bb3d bce4 bfbd f907 4f3d 5904 95bd
00000300: f79f da3d d226 2dbb 320e 2bbd 5811 1ebd
00000310: ed82 083d 773d 873a 20c0 883d c854 dc3d
00000320: 6ce4 a53d e448 c1bd 2c05 433d 5208 fcbc
00000330: 4fef a4bd e59f 14bb c826 8fbd fdd0 3a3d
00000340: b015 c3bd 2b50 303d 07df acba 8d26 3dbc
00000350: 8313 e93c 6671 623d 9cac 1dbc ec25 573d
00000360: 1e55 033d 9536 b5bd 8e37 8739 2dac 813d
00000370: 1bf4 d1bd 425e 3bbc 4ac4 c3bd e7ec d03d
00000380: d43d 9ebc a22f d8bd 3dc3 86bd f06e 153d
00000390: 56f5 ab3d 7d60 c3bd fa60 b13c b72e 81bd
000003a0: 8591 073b 892a cfbd 6e49 c83b d13f 3e3d
000003b0: 1d10 f13c 2bc0 b13d 6ec4 5abd c0bb 70bd
000003c0: 649a 433d 466e 93bd 4ab5 553d 240a d2bd
000003d0: 15e8 ac3b 5841 efbc 57ee 87bd fc1a 19bd
000003e0: 81c8 943d 95f6 3ebd ca95 a63d 6936 ca3c
000003f0: 5b51 84bd 9f10 54bd 0bfc 85bd 83a7 80bd
-0.039258268 0.041259103 -0.09688877 0.046912853 -0.018088283 0.062888816 -0.026047548 0.08126134
0.078143805 -0.10732357 -0.03655561 0.062459167 -0.050452653 -0.092409305 0.018994696 0.070415586
-0.07435691 0.09480922 -0.025130343 0.0041018617 0.06270878 -0.06935746 0.018455544 -0.061475016
0.09490871 0.033282958 0.06859257 -0.100556515 0.0900619 0.09058452 -0.06358492 -0.016224697
-0.047731552 -0.04744685 0.067757435 -7.930474e-06 0.10792963 -0.0052008214 0.044650245 0.066330634
0.004529436 -0.008069681 -0.1001057 0.10712677 -0.09894792 0.08625156 0.08068014 0.060953222
-0.05473662 -0.03400558 -0.049264375 -0.0720695 0.021749271 -0.049756113 0.018200658 -0.02887797
0.041496113 0.0056061237 -0.07036518 0.06408437 -0.02395224 -0.020699665 0.035122845 -0.03623327
0.07816054 0.055878904 0.046066158 0.104458965 -0.04530285 -0.02292916 0.020549232 0.039649613
-0.09776045 0.07975618 0.09010905 -0.019146077 -0.06882785 -0.08519129 -0.10694841 -0.010341059
-0.08410917 0.04499829 0.07411314 -0.10184182 0.0920746 -0.04238773 -0.021345306 0.03462721
0.059132323 0.036540966 0.08866444 -0.0010075594 0.05852345 -0.091522016 -0.04492714 -0.10625301
-0.09528096 -0.10566504 0.0921896 -0.024540545 -0.062947206 -0.00090843113 0.03515318 0.09553779
-0.09730105 -0.05359984 -0.07434418 0.014307526 -0.0481933 0.011668829 -0.09605511 -0.083612435
-0.058353357 -0.045125626 -0.084352955 0.06542641 -0.006510063 0.09067864 0.07343697 -0.0012653765
-0.03059536 0.10765394 -0.020580927 -0.013538263 0.046878446 -0.00052167766 -0.079953246 -0.03964724
-0.0060724197 -0.053341463 0.01583743 0.07119472 -0.044268034 0.09998592 -0.07298058 -0.10113742
0.08500839 -0.0062117563 -0.0831079 0.041012764 -0.09469678 -0.096952565 0.0078100506 0.011314284
-0.067550786 0.100474074 0.066325374 0.077295765 0.06211736 -0.0067432453 0.06577282 -0.059123885
0.10041611 0.069301456 0.014906473 -0.022774702 0.10840985 -0.046758182 0.05249884 -0.026770242
0.016805943 0.054299645 -0.08248658 -0.027386567 0.0031248068 -0.05034972 -0.06330203 -0.0839468
-0.036526553 -0.101995505 0.0138619095 0.0550803 0.03182963 -0.009659318 -0.01755195 0.05142339
0.10792959 0.0705746 -0.09814211 -0.032645658 0.014560371 -0.05900252 0.055777255 -0.0944767
0.049956862 -0.03819282 0.03581372 0.09344953 0.09157467 -0.093697995 0.050544713 -0.0727622
0.10675042 -0.0026420844 -0.041761585 -0.03859076 0.033327986 0.0010318 0.0667727 0.10758358
0.08100209 -0.09437731 0.047612354 -0.030765686 -0.08053457 -0.0022678312 -0.06989819 0.045609463
-0.09525621 0.043045204 -0.0013189026 -0.011544836 0.028451687 0.055283926 -0.009623673 0.0525264
0.032063596 -0.08848301 0.00025790598 0.06331668 -0.102516375 -0.011436047 -0.095589235 0.102014355
-0.019316591 -0.1055596 -0.065802075 0.03648275 0.083964035 -0.09539888 0.021652687 -0.06307738
0.0020686102 -0.10115535 0.006112269 0.04644758 0.029426629 0.08679231 -0.053409986 -0.058772802
0.04775466 -0.07198767 0.052174844 -0.102558404 0.00527669 -0.029205963 -0.066372566 -0.03737925
0.072648056 -0.046621878 0.08134039 0.024684148 -0.0646083 -0.051773664 -0.06542214 -0.0628195

fc3.bias f4 [1297]
00000000: bdf3 4f3d f4ef c5bd 7997 55bd 3bed 8d3d
00000010: c9cd 9abd 05e4 a73d ef01 e4bb 63fd 383b
00000020: cf7f 91bd 1482 8abd ce5f bebd 3343 c73b
00000030: 965a 743d a037 51bd eab7 adbd bc31 be3d
00000040: 5b34 a0bc 1ebd c83d 0d2f 48bd a2c1 d2bd
00000050: 1b9d 993d 8ec0 493d 9b09 2cbc 97a7 c1bd
00000060: 8804 3cbd da97 1fbd 8845 813d 9608 b83d
00000070: 8cd0 613d bf8e 623d 9e65 6dbd 8e22 8cbd
00000080: 1435 c2bc 4fb9 82bc ee6b a0bd a0b0 f53c
00000090: fbbc 7fbd 383d 8fbd bc6f 853d dd84 78bd
000000a0: 3ce2 b6bd 9748 b53d d583 ecbc c908 76bd
000000b0: b912 b3bd 2e37 93bd f189 613d 3db6 b6bd
000000c0: 1b4f 983b b0d4 0abd c8ce 1f3d 884c 85bd
000000d0: 9c7e d03d 457a 973d 0658 75bd e77b c03c
000000e0: 0646 06bd ec5e dabc 6abd 50bd ed5d bb3d
000000f0: 9ea7 99bd d88f 7dbd cc0a 873c f7aa 3d3d
00000100: 6441 a0bb 4d03 5fbd abc3 303d 1e31 c93d
00000110: 96b2 ae3d bb2f 673d 51f7 9ebd d3d8 b23d
00000120: 7ba5 46bd 4aef 43bd 6bfd a8bd 8d79 873d
00000130: 15d3 1bbb fb70 08bd a5ff 063d cbfe 91bc
00000140: af54 4cbd 73c5 b2bd 0188 61bd c324 bd3d
00000150: 6dbf 62bd ffac 4d3d 5aad 06bc 97d5 8abd
00000160: 1f3e 96bc 7875 27bc 4c94 50bd 8343 93bd
00000170: 6fa1 c03d fcb7 56bc f6b5 5f3b 1cdb 68bd
00000180: b63c e5bb 5edf bfbd eef3 7abd d825 573d
00000190: bbd2 9ebd 07e5 8e3d 9365 36bc c1b9 80bd
000001a0: 0587 16bd 40c1 80bd e40c d6bd b277 c13d
000001b0: 62be 2f3d 3dd2 423d eb50 003d c541 07bc
000001c0: 9bff 163c b0a9 17bd 1caf 96bd b4df 883d
000001d0: db81 ba3d a08b 5fbb e32d 103c a99c 44bd
000001e0: 984b b5bd 39fc 46bc b915 99bd 83be d43d
000001f0: 2c1f 4d3a 8510 be3d e0b3 bebd 5122 9f3b
00000200: 393a bdbd 733c 5f3d 0292 47bc 9c72 b8bd
00000210: dfc8 ca3c 2bbc 9abd 6d3a 4dbd a8b3 d53c
00000220: 3a9b d83d f2ee c1bd f6fa d2bd 8d60 083d
00000230: f513 cd3d 4a01 1dbb 6033 dbbb 9bc6 66bd
00000240: 60ac ce3d 9659 023d 7aa1 d3bd 4601 893d
00000250: 44eb 913d 15c4 fb3c 4895 ffbc 85eb b13c
00000260: 0e6e c53d 138c 9cbc be29 2a3d 8f19 513d
00000270: 1c66 0abd e069 23bd ca6d 61bd 0527 133d
00000280: 8143 b6bd 1d51 3e3c 8167 193d bdd8 8bbc
00000290: a10a d4bb 88b8 afbd f243 c63d fab5 9b3d
000002a0: 4076 2e3c a369 a8bd 5e7b 9bbc 2f9a 72bd
000002b0: 0ec7 5ebd 0e45 d23d b121 c7bd 8f2c 2f3d
000002c0: e2f8 e1bc fb4e 993d f3c1 9e3d 1e3b f7bc
000002d0: 9db5 a3bd 73b7 cf3d b3ca 443d 27a0 d13c
000002e0: 34ae 17bd 9827 833c 642f 86bd f97b c43d
000002f0: b594 6ebd d814 353d bf34 813a 6457 c73d
00000300: ade5 bdbd 8fe5 58bd 7230 09bb 349d 883b
00000310: 6445 003c d5df 86bd 3cff 233d a9a3 24bd
00000320: 068e d73d 538c 19bc edd2 e43c f216 a8bc
00000330: c024 fcbc bda2 ac3d acf6 c8bd 2601 cebd
00000340: 91e2 30bc bde3 183d 78d2 c03d c6eb acbd
00000350: 564c debc b4d0 cf3d 7b03 3ebc 0dc2 cbbd
00000360: 173b 97ba b74f 8bbd 56e2 933c 00d1 d9bd
00000370: aae0 363d 6c2c 80bd 0466 813c efa1 b53d
00000380: 501a c43d 07e4 babd 709a c63d 34f9 bbbd
00000390: bf3b bdbd 8309 143d 538e c73d 730e d93d
000003a0: cc8d 083d ed61 4d3b 6603 abbd 32d6 9ebc
000003b0: 9f2c d6bd a304 ce3d 14df 673d c21d 84bc
000003c0: 4fe3 403d d4d3 d3bd 92b7 be3d 965e 953d
000003d0: 7a21 2abd d767 503d 8358 583d 8651 283d
000003e0: f0a3 ee3c 15c2 383c 6a99 06bd cd46 cd3d
000003f0: 61c1 0c3d 16a8 77bd 1d45 253c d686 893c
0.050769556 -0.09664908 -0.05214641 0.06930014 -0.07558782 0.08197788 -0.0069582383 0.0028227202
-0.07104456 -0.06763092 -0.09295617 0.006081009 0.059656702 -0.05107844 -0.084823444 0.0928683
-0.019556215 0.09801696 -0.048872996 -0.10290839 0.075006686 0.0492559 -0.010500337 -0.09455793
-0.04590276 -0.038963176 0.0631209 0.08986013 0.055130526 0.055311915 -0.057958238 -0.06842528
-0.02370695 -0.015957503 -0.07833086 0.029991448 -0.062436085 -0.069940984 0.06515452 -0.060673583
-0.089298695 0.08851736 -0.028871456 -0.060066972 -0.087438054 -0.07188259 0.05506319 -0.08921478
0.004648102 -0.03389424 0.03901556 -0.06508738 0.10180399 0.07396368 -0.0598984 0.023496581
-0.032781623 -0.02665659 -0.05096189 0.09148774 -0.075026736 -0.06190476 0.01648464 0.046305623
-0.0048906077 -0.054446507 0.043155354 0.098238215 0.08530156 0.056442004 -0.077620156 0.08732762
-0.04849766 -0.047835626 -0.08251461 0.06614981 -0.0023776938 -0.03331087 0.032958645 -0.01782169
-0.049885448 -0.08729067 -0.055061344 0.09235527 -0.05535834 0.05021381 -0.008220041 -0.0677902
-0.018340169 -0.010220878 -0.050922677 -0.07190611 0.09405791 -0.013105389 0.0034135557 -0.056849584
-0.0069957627 -0.09368776 -0.061267786 0.052526325 -0.077550374 0.06977277 -0.011132616 -0.0628543
-0.03674986 -0.062868595 -0.104516774 0.09446658 0.042906173 0.04756378 0.03132717 -0.008255427
0.0092162145 -0.03702706 -0.07357618 0.06683293 0.09106799 -0.0034110323 0.008800003 -0.048000965
-0.08852309 -0.0121450955 -0.074748464 0.103879 0.00078247744 0.092804946 -0.09311652 0.0048563858
-0.09239621 0.05450101 -0.012180807 -0.09006235 0.024753986 -0.075554214 -0.050104547 0.026086643
0.10576482 -0.09469403 -0.10301773 0.033295203 0.10013572 -0.0023957067 -0.006689474 -0.05634175
0.10091472 0.031823717 -0.103335336 0.06689696 0.071249515 0.030733148 -0.031199113 0.02171875
0.09640132 -0.019109761 0.041543715 0.051049765 -0.033788785 -0.039895892 -0.055036344 0.035925884
-0.08899594 0.011616019 0.037452225 -0.017071122 -0.0064709936 -0.085801184 0.09680928 0.07603069
0.01064831 -0.082232736 -0.018979724 -0.059229072 -0.054389052 0.102670774 -0.09723223 0.042767104
-0.027584497 0.074857675 0.07751837 -0.030179556 -0.07993624 0.10142412 0.04804487 0.025589062
-0.037031367 0.01601009 -0.06552008 0.095939584 -0.058247287 0.04420933 0.0009857639 0.09733465
-0.09272323 -0.0529533 -0.0020933417 0.0041691307 0.007829044 -0.06585661 0.040038332 -0.04019514
0.10525136 -0.009371835 0.027932609 -0.020518754 -0.030779243 0.08429477 -0.09812674 -0.10058813
-0.010796205 0.037326563 0.09415144 -0.08443408 -0.02713601 0.10147229 -0.0115975095 -0.099491216
-0.0011537996 -0.06802314 0.018052261 -0.10635567 0.04464785 -0.06258473 0.015795715 0.08868777
0.09575331 -0.09125524 0.09697425 -0.09178391 -0.09239911 0.036141884 0.09743943 0.10598459
0.033338353 0.0031338886 -0.083502576 -0.019389246 -0.104577295 0.10059478 0.05660923 -0.01612747
0.04709178 -0.103431374 0.09312357 0.072934315 -0.041535832 0.05088028 0.052818786 0.04109337
0.029130906 0.0112767415 -0.03286115 0.1002327 0.034364108 -0.060463034 0.010087279 0.016787928
