models/1296_pixels/4.pt (torch, 771783 bytes, 10 tensors)

conv1.weight f4 [6, 1, 5, 5]
00000000: 8fde 16bd 85fb cabc 3bc2 0bbe 1277 2b3d
00000010: 87af 68bd 209b 2a3e a6dd 94bd c0f6 70bc
00000020: e146 2fbe f2cf b53d bb7d 27be d855 e4bd
00000030: c445 2abd a79c 83bd 86bd 26be 0b43 bf3d
00000040: aeb2 203e 19cb e3bc df84 93bd 3680 0d3e
00000050: f030 793d e6d5 8dbc 955c ec3b be5a eb3d
00000060: 2b94 d1bd ecc4 c7bd 4c59 db3d d0fe 453d
00000070: d674 ad3d 38c4 173e ced4 b03d 17d1 10be
00000080: e94f 48be 3e76 1ebe b266 2b3e 765d aa3d
00000090: a2b0 d73c b4f9 cf3d 70d8 fcbd 98a5 8fbd
000000a0: 24f7 223e b18f 083e 482a 29be d66d c8bd
000000b0: 5e13 03be aad1 dfbd 717f c9bd f4fb ba3c
000000c0: 1b0c b23b ec96 f1bd 24e9 17be cc65 2abe
000000d0: c1eb 173e 665e 0f3e 7b58 ebbb 95ae d7bd
000000e0: abbf 0bbd f5f6 213e 5ec2 23be 2ee0 c0bc
000000f0: d4c5 393e 808a 49bd 12a2 fd3d 14e8 07be
00000100: dd55 b03d 3713 413e 184c c63d b788 88bd
00000110: 9232 d43d ab31 4f3e 9fc2 9d3d dbba 0c3e
00000120: da70 d4bd 9d7a 4a3e cebd 223e d15f 103d
00000130: 95d0 ab3d beb0 3abe 4d0f 42be 353c d93d
00000140: b9d4 cebd 6027 aabd 1086 303e dd10 05be
00000150: 4839 3c3e 3aeb 90bc 7594 a73c e9d5 4c3e
00000160: 94d8 f9bd ac6d bbbc 7143 1ebd 3bd1 3ebe
00000170: 3bf2 7dbd dead 68bd c905 1bbe e378 f5bd
00000180: 2e62 a23d ddb5 11be 8c0c da3d b2b1 19be
00000190: 67a2 253e 5f4d 353e 22bb 6dbd 7ead 6dbd
000001a0: 5ff1 c73c 02d0 8ebb 1dac d1bd 65b8 cbbd
000001b0: 9616 3abd 96f5 873d 9b0e cd3d a42a 543c
000001c0: ced6 1ebe 4859 d93d ddab 24be d73e 37be
000001d0: 6eed 16be 91da 39be 086b 293e 611c 183e
000001e0: 7565 ab3d 1120 2c3e 158d a33d a111 233e
000001f0: 20b4 223e f765 bcbd a392 bdbc b308 4f3d
00000200: 1439 e33c 4cda 183e d314 21bd 5eb4 ec3d
00000210: e708 ecbc f030 a43c c530 153e 6c9e 353e
00000220: c63d 8cbc 4ebf 37bd 8b7a 11be ebe5 d5bd
00000230: e495 973d f806 c13d a439 383e 297b 2abe
00000240: 0741 2e3e 8d64 443e c868 543e 924c ecbb
00000250: 8816 b6bc eb60 d2bd
-0.036833342 -0.024778137 -0.13648312 0.0418616 -0.05680802 0.16660738 -0.072688386 -0.014707267
-0.17116882 0.08877553 -0.16356556 -0.11149186 -0.04157044 -0.064263634 -0.16283235 0.09338959
0.15693161 -0.027806805 -0.072030775 0.1381844 0.060837686 -0.017313909 0.007213185 0.11491917
-0.10233339 -0.09754357 0.107103914 0.04833871 0.0846955 0.14820945 0.08634339 -0.14142261
-0.19561733 -0.15474793 0.16738394 0.083186075 0.026329342 0.10155049 -0.1234597 -0.070140064
0.15914589 0.13336064 -0.16520035 -0.097865745 -0.12800357 -0.10928662 -0.09838761 0.022825219
0.005433572 -0.11796364 -0.1483503 -0.16640395 0.14836027 0.14000854 -0.0071821786 -0.10531346
-0.034118336 0.15816863 -0.15992114 -0.023544397 0.18141872 -0.04920435 0.12384428 -0.13272125
0.08610127 0.18854986 0.096824825 -0.06666701 0.10361208 0.2023379 0.07703137 0.13743155
-0.10373087 0.19773336 0.15892717 0.035247628 0.08389393 -0.18231484 -0.1895115 0.10607187
-0.100991674 -0.083082914 0.17238641 -0.12994714 0.18381226 -0.01769029 0.020456532 0.20003475
-0.12199512 -0.022879444 -0.038638536 -0.18634503 -0.061998587 -0.056806438 -0.15138926 -0.11985948
0.079288825 -0.14229532 0.106469244 -0.15009192 0.16175233 0.17705296 -0.058039792 -0.058026783
0.024407087 -0.0043582926 -0.10237906 -0.0994728 -0.045431696 0.06638639 0.100125514 0.012949619
-0.15511629 0.10612732 -0.16081186 -0.17895065 -0.1473901 -0.18149783 0.16544735 0.14854576
0.08368961 0.16809107 0.07985894 0.15924694 0.15889025 -0.09199136 -0.02314121 0.050545406
0.027737178 0.14927024 -0.0393265 0.1155784 -0.028812839 0.020042866 0.14569385 0.17736214
-0.0171193 -0.044860177 -0.14206903 -0.10444244 0.07401636 0.09425157 0.17990738 -0.16648544
0.17016993 0.19178982 0.20743096 -0.0072112763 -0.02222754 -0.10272392

conv1.bias f4 [6]
00000000: 13d0 e23c eb14 0d3e 66b2 083e eeee 8a3a
00000010: ffbc 05be 7a6f db3d
0.027687108 0.13777511 0.13349304 0.0010599771 -0.13060378 0.10714622

conv2.weight f4 [16, 6, 5, 5]
00000000: 2660 98bd cbd6 7a3d f972 6dbd 467f 67bd
00000010: 96e1 61bc 56ef 8a3d 2103 a1bd 4023 493d
00000020: ebdc 8cbd 9e38 aa3d a3d5 873d ee19 b3bc
00000030: f55f 273d 95be 2cbc 761c 363d 6917 7e3d
00000040: 129f eebc 3912 9c3d 96c1 6bbd 13e0 213d
00000050: bf47 383d 3097 5e3d e3ad c03c 827b 46bd
00000060: a2e9 81bd 0a6f 123d 7fe5 493d ff40 a83c
00000070: e687 d4bc 04e2 6ebd 8484 51bd 2f61 7abd
00000080: acca 3dbd f3cc 1abd 4a5c 43bd 265c 313c
00000090: de05 823d 7ad9 a33d 3d66 bf3c 4291 d43c
000000a0: f426 633d 7ec8 a2bc 1137 81bd 9534 55bd
000000b0: 8757 ab3d 49ca 97bc 9acb 503d 8dfe 8a3d
000000c0: 3b8d 793d dbc8 6c3d 544f 9cbd 347f 9bbd
000000d0: fddf 05bd 43f3 18bc 88ee 97bd 91c2 9d3c
000000e0: 9306 8f3d a8d4 a1bd b6bc 9fbd 619c 863d
000000f0: 5ca4 f1bc 224b 733c 71ee 863d 7c4f b83b
00000100: 1fe8 523d db99 973c fe4b 0a3d 9d8f 36bd
00000110: 579a e6bc 5af2 bcbc 76bd 60bd b9c7 6d3d
00000120: 9288 5bbd d25d 0f3d 6159 c2bc de66 90bd
00000130: 9d24 8a3d 6082 a3bd abb0 cd3c 8de5 543d
00000140: e6cb 273d 6d7c 843d 8521 843d 4bb0 643d
00000150: 8108 203d bb98 653d dbe6 05bd f6ce 973d
00000160: 5b29 843c 6385 86bb 560f 953d 4af9 b2ba
00000170: 702e 823d 9ee2 913c 69e2 e43c e7e2 1f3c
00000180: 871f 9f3d acb6 633d f8d9 93bc 527d d2bc
00000190: f2bf 293d 84ec 2e3d 5366 453d ddab 053d
000001a0: 99b7 9f3d c14a aa3d 308b 76bd eba7 b9bb
000001b0: 0cea ce3b e47e 753d e7ed b43b e543 15bd
000001c0: 8d58 813d deef 0b3d b711 4e3d 040b 6ebd
000001d0: 382c 3fbc ebfa 813d b5ea 05bd 2517 003d
000001e0: dd2d 8bbd 9dec 83bc 7658 1a3d 5e12 1a3d
000001f0: 5b8e 40bd f199 81bd 2751 233d 8282 093c
00000200: 05ce 6f3d cb69 a2bd c997 6fbc 5c5f 40bd
00000210: ccdf a63d 147b ef3c 87a6 4f3c 1b89 683b
00000220: 043f c5bc 15cc a03c b921 babc e472 a53d
00000230: 2b7e a13d b443 3e3d e49d a7bd af12 3d3a
00000240: 99a4 9dbc 3143 983d 09c8 95bd c0b6 09bc
00000250: 54aa 5fbd 428c 883d a9c2 fe3c 1505 3dbb
00000260: 3660 16bd f56c 9f3d 2bf8 953d 067e 9b3d
00000270: 06db 493d db78 233c d5bc 1fbd 7aba cb3c
00000280: dedf 85bc 317b 1bbd 1522 9dbd f4e9 9b3c
00000290: 7ff1 613b a8ca b7bc 6f28 8b3d f0df 1d3d
000002a0: 1678 31bd 0dfd 4cbc 7b4c 98bd fc6c 26bd
000002b0: ec9b 85bd 0c8c 433c 242f 483d 2f6f 64bd
000002c0: 65b1 243b 843e 3fbd bef5 183d c822 d3bc
000002d0: 17a1 43bc 5bd6 60bc bea7 02bd 378f 2a3c
000002e0: c05d 97bd c97b a6ba c6e5 f7bc 3589 203d
000002f0: 145b ad3d 641e e2bb d9f2 ae3c 339e 33bd
00000300: 687e 50bc 749c 2ebc 5b32 80bd 2329 8e3d
00000310: f572 89bb 04cf 70bd 59b0 1abd aa58 923d
00000320: 7b6e 373c 1a71 8e3c 7a41 b13c ec3b 9bbb
00000330: a6f5 65bd b8eb 7cbd d7e8 9ebd a214 0dbd
00000340: 7943 83bd 28ef 2ebd c94e 8dbd c086 2ebc
00000350: b870 02bd c776 9e3d d829 cabc 95c5 ecba
00000360: 7488 7c3d 859c e93c 51aa fb3b ed90 8e3c
00000370: 0596 db3c 07bc cd3c 673c 8cbc 4213 223d
00000380: 86e6 6d3d fe32 a13d 7807 163d d750 94bd
00000390: 811b a83c 865f 813d bcdb 343d cea9 673d
000003a0: f8f9 50bd 595a 9fbd a4af f33c 87f3 23b9
000003b0: c5ad 22bd 14bd 50bd b4d1 b43c 8cb7 2cbd
000003c0: 031b 203d bbbb 883d 881e 8e3d f8e3 9abd
000003d0: dbad a1bd 7c34 7a3d c6b1 23bc 0324 b23c
000003e0: c8e2 9cbd 4346 79bd e5cc 393d f59b 563c
000003f0: fa26 88bd 971d 053d db2a 35ba c46a 2bbd
-0.07440214 0.06124 -0.057970975 -0.05651786 -0.013786694 0.06783931 -0.07861925 0.049105883
-0.06878074 0.0831158 0.06632545 -0.02186295 0.040862996 -0.010543485 0.044460736 0.062034044
-0.029128585 0.07620663 -0.057557665 0.039520334 0.044990297 0.054343402 0.023520416 -0.04845763
-0.0634339 0.035750426 0.04929113 0.020538805 -0.025943708 -0.058321014 -0.051151767 -0.061127838
-0.04633586 -0.03779311 -0.047695436 0.010825193 0.06348775 0.08000465 0.02336418 0.02594817
0.05545707 -0.019870993 -0.06309331 -0.0520521 0.08366304 -0.018529074 0.05097542 0.06786833
0.060925703 0.05780874 -0.07632318 -0.075926214 -0.032684315 -0.009335342 -0.07418543 0.019257816
0.06983676 -0.07901889 -0.07799666 0.06572796 -0.029497318 0.014849456 0.06588448 0.0056247097
0.0514909 0.018505981 0.033763878 -0.044570554 -0.028149767 -0.023064781 -0.054868184 0.0580518
-0.05359704 0.035001583 -0.02372426 -0.0705087 0.06745265 -0.079838514 0.025108656 0.05197673
0.040965937 0.06469045 0.06451706 0.05583219 0.03907061 0.05605386 -0.032690864 0.074125215
0.016133001 -0.0041052564 0.07278316 -0.0013654616 0.063565135 0.017808255 0.027939992 0.009758688
0.07769685 0.05559413 -0.018048272 -0.025694523 0.04144282 0.042706028 0.048193287 0.032634605
0.0779869 0.083150394 -0.060191333 -0.0056657693 0.0063145217 0.059935465 0.005521524 -0.036441702
0.06315718 0.034164302 0.050309863 -0.058115974 -0.011668257 0.06346687 -0.032694537 0.031272072
-0.06795857 -0.016104037 0.03768202 0.037615173 -0.04701076 -0.0632819 0.039872315 0.008392932
0.058546085 -0.07930335 -0.014623591 -0.04696594 0.081481546 0.029233493 0.012673981 0.0035482112
-0.0240779 0.019628564 -0.022721158 0.08078554 0.07885393 0.046451285 -0.08184412 0.0007212562
-0.019243525 0.07434691 -0.07313544 -0.008405387 -0.054605797 0.06667377 0.03109868 -0.002884214
-0.036712848 0.07784454 0.07322725 0.075923964 0.049281143 0.009977545 -0.038998444 0.024869192
-0.0163421 -0.03795928 -0.07672516 0.019032456 0.0034476218 -0.022435501 0.067948215 0.03854364
-0.043327413 -0.012511504 -0.074364625 -0.04063128 -0.0652388 0.011935245 0.04887308 -0.055770095
0.002513015 -0.04669048 0.037343733 -0.02577342 -0.011940262 -0.013722981 -0.031898253 0.010410122
-0.07390928 -0.0012701686 -0.030260932 0.03919335 0.084646374 -0.0069005955 0.021356033 -0.043852042
-0.01272545 -0.0106574185 -0.062596045 0.0694144 -0.004194612 -0.058791175 -0.037765834 0.071458176
0.011195774 0.017387915 0.021637667 -0.004737368 -0.05614247 -0.061748236 -0.077592544 -0.034443505
-0.06409354 -0.042708546 -0.06899793 -0.010652244 -0.03184578 0.07737499 -0.024678156 -0.0018064255
0.06165357 0.028517017 0.0076802154 0.01740309 0.026804933 0.025114072 -0.017118646 0.039569147
0.058081172 0.07871054 0.036628217 -0.072419815 0.020520927 0.06317048 0.044154868 0.056558423
-0.05101964 -0.07780904 0.029746838 -0.00015635612 -0.0397165 -0.05096157 0.02207265 -0.04216723
0.03908826 0.06676432 0.06939417 -0.07563013 -0.078944884 0.06108521 -0.009991115 0.021745687
-0.076604426 -0.060858022 0.04536142 0.0130987065 -0.06648059 0.032498922 -0.0006910988 -0.041849867

conv2.bias f4 [16]
00000000: 3088 153d b6fc 81bc 6314 603d a7c5 0eba
00000010: 2fbc 96bd 97a3 26bd 667d 84bd 614a 7b3d
00000020: 2eb9 aabc 2ac7 04bd 86ca 5b3d d406 993d
00000030: e694 e23c c342 1fbd 53c6 0ebd 98ef 82bd
0.03650683 -0.015867572 0.054706942 -0.00054463226 -0.07360112 -0.040683355 -0.0646923 0.06135023
-0.020840254 -0.0324165 0.05365994 0.074720055 0.027658891 -0.03888203 -0.034857105 -0.06393355

fc1.weight f4 [120, 576]
00000000: 005f 32bb 565f 0ebc b0e4 09bc ab21 2cba
00000010: 8686 b13c d688 cbbc 6b7a bbbc 7b7b 2dbc
00000020: 2bc7 fe3b 209c a93b f065 67bc 9612 bfbc
00000030: 6696 583c c038 e9bb c8a4 803c b85a e13c
00000040: c0bc 65bb 16eb 1dbd 306b 94bc a3e9 c1bc
00000050: 7f4d 193d d081 3c3c 1b61 78bc bb60 1bbd
00000060: ab33 753a b630 a2bb 37ab 27bd 0b59 363c
00000070: 06d1 febc bb7a 15bc b8a1 003d cbee cb3c
00000080: 7054 233d 169c 26bd 705e 57bc 68c7 25bd
00000090: 5be8 af3c eb9e 9c3c 98f4 243d 0c63 0c3d
000000a0: 5c2d 1abd 83e5 e23c 809b 003c 2fc9 0cbd
000000b0: f019 283d 88e1 eebc b609 d5bb 8729 073d
000000c0: 73b9 c03c 9b06 27bc 5e21 fdbc 5011 b43c
000000d0: 5b43 babc 6bcb 1c3c b63a a43c 7b83 42bc
000000e0: 80ef d3bc 00fe 063c 8617 793c b353 123d
000000f0: ab7d 0b3b 9643 773c a097 35bc 4712 253d
00000100: 0060 eebb deeb b43c 3b54 9d3c 66d0 ccbc
00000110: 1005 1cbd abb9 7f3a 00eb 403a ffa5 143d
00000120: a636 cd3c e04c b23c f60c 74bc 1bef 253d
00000130: ab4f 403c 009b bb3a 0b51 883c 00a6 813a
00000140: 0bb2 c93c 56a4 123a 001e f23c 0807 f6bc
00000150: d8bb 12bd d7bc 1abd 928a 1a3d 4bda 66bc
00000160: 930b 953c 8e22 c73c d6ee 533c 0435 19bd
00000170: f09f 353c cbed d8bb 4810 dbbc fbb7 0e3d
00000180: 3a56 1fbd 00f0 0bb8 23f9 d53c bbf8 b53c
00000190: a387 9d3c 6051 fcbc 3098 18bc b0a3 6c3c
000001a0: d08c 113d d6cc 5d3c da30 06bd 935d f53c
000001b0: 18df d93c 56bd e139 20cb 7bbc c3a3 83bc
000001c0: 36cd 983c 409d c5bb 8088 14bb 4eef e13c
000001d0: 8050 6b3c 0398 d93c 0b5b 3abc c0c0 a8bc
000001e0: ae67 8ebc c0d2 c7bc 6b8b bb3b 035f ce3c
000001f0: d63a 233b 8ed5 863c 2b05 78bb 341f 00bd
00000200: 0021 ed3b 7bbf 7b3c 5041 be3c e6bc 4cbc
00000210: 4030 9f3c 007a 14ba 2be5 d4bb 4691 ec3c
00000220: d630 39bc 4329 e73c c073 71bb c846 c6bc
00000230: 0628 b53c 3852 ddbc e056 bf3b eef6 bbbc
00000240: ebfc 2a3c 96fd 993b c08b 683b 4b0c 2abd
00000250: 83d4 aa3c d66b 243b d8cd eebc 70f3 663c
00000260: 0771 0a3d 4b89 a4bc 80ca 9f3a 5a1f 0d3d
00000270: ab76 d23a 9e43 a6bc 006b f0ba 005c 34ba
00000280: b643 f2bc c81e cc3c 43df c2bc 4066 1fbd
00000290: ebe0 693b 8613 ba3c 642a 28bd 8037 47bb
000002a0: 3bc9 023d b6b0 34bc 4015 5f3b 8b87 013c
000002b0: 98f8 f3bc 5671 1ebd fb7d e43c 6b51 6ebb
000002c0: b6b4 d43b 7b77 e1bc cbc5 93bb a672 753c
000002d0: bebc 923c f39a 043d 8bb2 993b 1bba 153c
000002e0: 567d aebb afcc 07bd 3b2c 8dbc 9718 193d
000002f0: e828 ebbc 7022 eb3c 04a8 0dbd ab4c 9a3a
00000300: 0895 cebc be2c 163d 886d f23c ab3f 343b
00000310: 2b58 493b 03be 893c 7b62 6cbc 7b61 eabc
00000320: b3d8 27bd 9e7f d33c 0b09 bd3c 1ebd c23c
00000330: 43ca d6bc 5616 65ba 6b91 5fbc f412 1ebd
00000340: 6053 1cbc 48e5 e9bc 8b9e 153c e68e 11bc
00000350: 309a 58bc 9e9f 9fbc b338 a73c ccbd 0b3d
00000360: 9e93 0a3d 8ecd d53c 1bd1 8d3c 5bcb 02bd
00000370: 7632 a9bc e0c4 e0bc fb17 1d3c d669 91bb
00000380: 0461 233d 361a 973c 1b9d d53c 78b3 83bc
00000390: d6f7 a5bc 2e19 f8bc c68c c63c c0e0 48bc
000003a0: f683 1d3d 0025 a4bc 4e67 16bd d3c2 fdbc
000003b0: 8671 0ebd 56b6 44ba 7390 fb3c cfd5 0ebd
000003c0: 93bb 89bc 76aa 84bc 00c2 863c 006a ce3b
000003d0: 5319 f33c 6ef9 c93c abf9 de3c a66f 093d
000003e0: c833 07bd 2ed4 8b3c cbf0 a1bb 0e0c e63c
000003f0: be9e 213d 7666 f13b bbc8 e7bc 00a9 43bb
-0.002721727 -0.008689722 -0.00841634 -0.0006566296 0.021670591 -0.024845522 -0.022885522 -0.010588522
0.0077752075 0.0051760823 -0.014123425 -0.023324292 0.0132194515 -0.007117361 0.015703574 0.027509078
-0.003505513 -0.038554274 -0.018117517 -0.023670977 0.03742742 0.011505559 -0.0151598705 -0.037934046
0.00093537074 -0.0049496545 -0.040934768 0.011129628 -0.03110553 -0.0091234995 0.031404227 0.024894139
0.039875448 -0.0406762 -0.013145074 -0.04047337 0.0214731 0.019118747 0.040272325 0.034274146
-0.037640914 0.02769733 0.007849574 -0.03437155 0.04104036 -0.029160276 -0.006501402 0.032998588
0.02352593 -0.010194446 -0.0308997 0.021980911 -0.022737196 0.009569983 0.020047527 -0.011872168
-0.025871038 0.008239269 0.015203362 0.035724353 0.002128462 0.015091797 -0.0110835135 0.040300634
-0.0072746277 0.022085126 0.019205203 -0.025001716 -0.038090765 0.0009755145 0.00073592365 0.03629112
0.025050472 0.021765172 -0.014895668 0.040511232 0.011737744 0.0014313161 0.016640207 0.0009891391
0.02462103 0.0005593946 0.02955532 -0.03003265 -0.035823673 -0.037777748 0.037729807 -0.014090131
0.018193996 0.02430847 0.012935361 -0.037404075 0.011085495 -0.006620144 -0.026741162 0.034843426
-0.03890059 -3.33637e-05 0.026119774 0.02221333 0.019229716 -0.030800521 -0.009313628 0.014443323
0.03553468 0.013537606 -0.032761432 0.029951846 0.026595637 0.0004305641 -0.015368253 -0.016069299
0.01865254 -0.0060307086 -0.0022664368 0.02757993 0.014362454 0.026561743 -0.011374245 -0.020599723
-0.017383423 -0.024392486 0.005723407 0.02519179 0.0024906895 0.016459253 -0.0037844877 -0.031279758
0.0072366 0.015365477 0.023224503 -0.012496209 0.019432187 -0.00056639314 -0.0064970455 0.028877866
-0.011303147 0.028217917 -0.0036842674 -0.024203673 0.022113811 -0.027016744 0.0058392137 -0.022944894
0.010436277 0.0046994193 0.0035483688 -0.04151563 0.020853287 0.002508869 -0.029150888 0.014096126
0.033799198 -0.020084998 0.0012191087 0.034453727 0.0016057094 -0.020295914 -0.0018342435 -0.0006880164
-0.029573303 0.024917021 -0.0237881 -0.038915873 0.003568704 0.022714388 -0.04105605 -0.003039807
0.03193019 -0.011028459 0.0034039766 0.007905851 -0.029781625 -0.038682304 0.027892103 -0.0036364447
0.006491269 -0.027522793 -0.0045096627 0.014980948 0.017912265 0.032374334 0.0046904734 0.009138609
-0.005325 -0.033154186 -0.017233005 0.037376966 -0.028706029 0.028702945 -0.03458406 0.0011772116
-0.025217548 0.036663763 0.029593244 0.002750377 0.0030722718 0.016814237 -0.014427776 -0.028610935
-0.040978145 0.025817689 0.023075601 0.023771819 -0.026219493 -0.0008738985 -0.01364551 -0.038592294
-0.0095413625 -0.028551713 0.009132038 -0.008884167 -0.013220355 -0.019485291 0.020412778 0.03411655
0.033832185 0.026098993 0.017311623 -0.031932216 -0.020653944 -0.027437627 0.009588237 -0.0044376655
0.039887443 0.018445116 0.02607589 -0.016076788 -0.020259779 -0.030285444 0.024237048 -0.012260616
0.038455926 -0.020037174 -0.036719613 -0.030976688 -0.034776233 -0.0007503977 0.030708527 -0.034871873
-0.016813075 -0.016194563 0.016449928 0.0062992573 0.029675161 0.02465507 0.02721866 0.033553742
-0.033008367 0.017068949 -0.004942035 0.02808192 0.03945803 0.0073669506 -0.028293958 -0.002985537

fc1.bias f4 [120]
00000000: bebb cbbc c201 323c 1e33 fcbb 3375 1b3d
00000010: c7b4 4f3c 5421 c33c c87a ae3c 953b f1ba
00000020: af2f d8bc 0b0c d03c 28db d2bb 920d 0f3d
00000030: 4087 083d 0082 d7bc 2ec4 053c 1096 4ebb
00000040: 8872 1abd d7f8 a13b 7b62 75bc 85db 10bc
00000050: 77e4 16bd ea7a 1d3d afd2 76bc 628e 0cbc
00000060: 8227 3cbc 36fc 1d3c b625 783c cd80 9c3c
00000070: 5a62 e93c 0342 bf3c b486 d53c 6c1a 92bc
00000080: 1719 17bc 9ee1 d7bc e324 05bd 0f69 28bd
00000090: 911e f7bc 6de4 29bd 1416 ce3c d32b 163d
000000a0: da94 e23b 928b ce3c 701a 11bc 3631 4bbc
000000b0: 4ca0 0ebb c8e0 e43a 979e c53c 4016 debc
000000c0: d8ca b3bc e925 dd3b 94a5 263d 8bf5 bb3c
000000d0: 0b0c f3bc 6ab9 063d 2815 0f3d 4fdf 24bd
000000e0: 7ee7 d53b f15e c83c 8eef 6b3c 2f12 ce3c
000000f0: dc32 01bd f873 0c3c 8010 c33b 0682 a73b
00000100: 4114 ef3b debd d8bc 6dd8 1d3d 86bf 043d
00000110: 1ae9 20bd 8bba be3c ccc6 5dbb 8cac 273b
00000120: 55ac 233b c051 fcbc 0767 cb3b b9cd 3abc
00000130: 5d08 eabc bcca 36ba ef1a 363d 1528 33bb
00000140: 8ee5 073b a154 f53c f3cf 4fbb 5c5c 16bd
00000150: f2aa 0cbd aff3 c2bc a8d3 e7bc 1d06 21bd
00000160: 67c8 33bd 2dcc 8a3b 0df7 303d 2398 003d
00000170: 681d 05bd a395 033d 1e02 0d3d a857 9abb
00000180: 74f2 22bd 47ea b4ba c447 e7bc 5ca0 193c
00000190: f7f8 2a3d e43c babc 2454 b8bc 7f80 9bbb
000001a0: 4c59 a53b 95c2 89bc 7944 0abd 3541 ecbb
000001b0: 8c01 b03c f1cf 533d 0f90 9fbb 920b 00bd
000001c0: 56b4 bc3c abb2 0cbc e110 003d fdf1 f1bc
000001d0: f99e 833b fe1d 12bb 5706 bebc a98b 883c
-0.024869796 0.010864677 -0.0076965233 0.037953567 0.012677378 0.023819603 0.021298781 -0.0018404598
-0.026389925 0.025396368 -0.006434817 0.03492505 0.03333211 -0.026307106 0.008164449 -0.003152255
-0.03770688 0.004942994 -0.014977093 -0.0088414 -0.036838975 0.038447298 -0.015064879 -0.008578869
-0.011484029 0.009642651 0.01514571 0.019104386 0.02848928 0.023346907 0.026065208 -0.017834865
-0.0092222905 -0.0263527 -0.03250588 -0.041115817 -0.030165942 -0.04147761 0.025157012 0.036662888
0.006914717 0.025213037 -0.008856401 -0.0124018695 -0.0021763025 0.001746201 0.024123473 -0.027110219
-0.02194731 0.006748904 0.04068525 0.022944232 -0.029668828 0.03289167 0.034932286 -0.040252026
0.00652784 0.024459334 0.014400376 0.025155155 -0.031542644 0.008572571 0.0059528947 0.0051119355
0.0072961156 -0.026457723 0.038536478 0.032409213 -0.039284803 0.02328231 -0.0033840416 0.0025585024
0.0024974544 -0.0308007 0.00620735 -0.011401587 -0.028568441 -0.0006972959 0.04445928 -0.0027337123
0.002073619 0.02994758 -0.003170964 -0.036709175 -0.034342714 -0.023797838 -0.028299168 -0.03931247
-0.04389229 0.0042357654 0.043204356 0.03139509 -0.032498747 0.032125127 0.034425847 -0.0047101565
-0.039782003 -0.001380273 -0.028232463 0.009376612 0.041741338 -0.022734113 -0.022501059 -0.0047455425
0.0050460454 -0.016816417 -0.033756707 -0.0072099217 0.021485113 0.05171198 -0.004869468 -0.031261034
0.02303521 -0.00858752 0.031266097 -0.029534334 0.0040167538 -0.0022295709 -0.023196382 0.016668158

fc2.weight f4 [84, 120]
00000000: 4441 2f3d a596 8cbd 7da1 3bbc 0601 61bd
00000010: 86ab 63bc f736 a23d 6851 063d 5315 02bd
00000020: fc5a 52bc 7c95 62bd c297 b93d f05a bcba
00000030: eff3 bcbc 0a74 8d3c 29a8 8b3d 023e 42bd
00000040: efa1 15bd 9ada 713d 97c8 aebd 630d d8bc
00000050: 2184 7bbd 7e67 abbd fcc0 6d3c 7c69 833d
00000060: a74b 563d e1b2 fe3c 047f 34bd 96f2 5fbd
00000070: 213c 87bc 7f2f 203d 4f30 21bd 196e a53d
00000080: 767b fcbc f5d1 823d b315 f6bc bb7b 873d
00000090: cccf 90bd 88fb db3c 68b1 a43d bcf3 a3bd
000000a0: 7c22 46bd 0cf6 e73c 3f89 56bd 5607 9e3d
000000b0: 34dd 54bd d56d 463d 122c a6bd 79ae b0bb
000000c0: 2746 253d 9a14 43bd 7dc6 6fbc d299 a3bd
000000d0: 4112 afbd c130 a6bd 31ea 473c 4200 2b3d
000000e0: 1212 8cbc e92a 273d 7f2f 8b3d f6c0 a03d
000000f0: 8fa5 babd 108d aa3c 4a8e 5d3d b5c1 603c
00000100: 257f 7fbd 42fd d93b 6d3a d1bb 3047 cb3c
00000110: 7c88 a53d 841c afbd fac5 903d 5373 b53c
00000120: c78d 4b3b e460 9bbc 31db 37bd 36ab f03c
00000130: 60c6 e13c 71c6 d63c 39e2 87bb c859 e2bc
00000140: eb9e 373c 634a aebd 57c1 bcbc 48de a0bd
00000150: 47d9 a63d 788d 88bd 4969 8a3d aa03 b6bd
00000160: e16f 483c 3beb f23c 2927 093c 7a5e 63bd
00000170: 7a30 9fbd faae 433d c2ca 103c cf2b 953d
00000180: 092a 48bd 928a 60bc db4c 1c3d 96de 32bd
00000190: d080 a8bd 6a63 693d 20bb b73d 743d 9e3d
000001a0: f364 efbc 40eb 11bd af4d 8bbd cd30 60bd
000001b0: 5df6 11bb c326 8b3d 8b4e 543d 047c 803c
000001c0: e8f1 a3bd 2587 633d c4e0 fcbc c2d4 77bc
000001d0: f068 69bd 8eb4 063d 5b26 a73d e4af 273c
000001e0: 1016 71bc cd64 483d 47d2 373d 3369 a2bd
000001f0: 11e5 223d 273a 933d 8bfd 5fbd 8d74 803a
00000200: 8def 813d 11d9 2e3d 5c14 99bd e99c 45bd
00000210: 191a 283d eb0d 9fbd 1547 4f3d 0a38 9c3d
00000220: 5e32 f3bc 2315 a23c c506 4d3d 9f6f 0b3c
00000230: 259b 9ebc 07d6 2d3c 8eaf a13d 56a7 6cbb
00000240: 1ccc 94bd 9ce4 8ebd a5b2 203c 2ee0 bebc
00000250: cdae 86bc 8f04 4f3d 81e2 febc 2649 b7bd
00000260: a589 93bd 6c59 083d 5cd7 b43d eeca 233d
00000270: 2187 503d 0649 90bd ec28 d13c ed7e af3b
00000280: a248 f3bc aa2d 1dbd 82ed 8cbd 7dd1 363d
00000290: 5c00 babd 6236 9038 0412 8c3d e5fa 5c3d
000002a0: 6cf8 21bb ce82 e7bc fe9b 0bbd e078 733c
000002b0: a112 9dbd 9b32 603c ddb7 25bd 2ad4 9c3d
000002c0: a6a8 abbd b75b 733d 2f63 13bd 5756 703d
000002d0: c5d3 e13c daa5 6cbd fac0 113d 396d 513d
000002e0: c18e 893d d6c4 9cbd 1a96 d9bc 963f f5bc
000002f0: d536 90bc cb43 10bd df61 74bc 06fe 9fbd
00000300: ad69 28bd 42f6 e4bc 9d47 a13d 0d7f 233d
00000310: f32e 403d a545 47bd 842f 9e3d 24ba 4a3d
00000320: c474 aebc 6c7e b8bd e294 d43b 6747 99bc
00000330: 3113 863d f961 533d d759 0a3d 1ee3 8b3b
00000340: 138a 53bd f9dd d6bc 79ad 97bb e857 103d
00000350: 7fb4 1f3d 381e 6cbc 598b ec3c 80da 75bb
00000360: 5900 013d ac25 67bd 7841 813c 2870 b1bd
00000370: 7866 bb3c a32e 5a3d 665f e43c c120 94bd
00000380: 0ba0 8d3d f59d b93d a55f 653c 5c73 0cbc
00000390: 4d7f 6d3c e6e5 00bd 4792 94bd 877b 62bc
000003a0: 520d 373d fe1b ae3d f0d1 323d 00fc a33d
000003b0: 72f8 853d fe92 613c 6e85 acbd 3b85 38bc
000003c0: 6c11 f23c 6346 a13b 6966 f43b e4ee c23c
000003d0: 6693 af3d 9d31 263d 5932 e33c dc96 a6bd
000003e0: 8f9d 86bd 8152 0d3d f323 7bbd d0f9 45bd
000003f0: 2a1d 073d c5b5 963d 7bd3 de3c de42 28bc
0.04278685 -0.06864671 -0.011452076 -0.054932617 -0.013895875 0.0792064 0.03279248 -0.031758618
-0.012839075 -0.05531834 0.09062149 -0.0014370363 -0.023065535 0.017267246 0.068191834 -0.047422417
-0.036531385 0.059046365 -0.08534353 -0.02637357 -0.061405305 -0.08369349 0.014511343 0.06416604
0.05231824 0.031091155 -0.044066444 -0.054674707 -0.016508164 0.039107796 -0.03935271 0.0807764
-0.03082059 0.063877024 -0.030039644 0.066153966 -0.07070884 0.026853338 0.0804165 -0.08005473
-0.04837273 0.028315566 -0.05237698 0.07716243 -0.05196877 0.048444588 -0.081138745 -0.0053918925
0.040350106 -0.04762707 -0.014634726 -0.07988323 -0.085484035 -0.08114768 0.012201832 0.041748293
-0.01709846 0.040812407 0.067961685 0.078493044 -0.09113609 0.020819217 0.054090776 0.013718058
-0.062377114 0.006652505 -0.0063851387 0.024814218 0.08082673 -0.08550361 0.07069011 0.022149717
0.0031059848 -0.0189671 -0.04488677 0.029378515 0.027560413 0.026217671 -0.004146841 -0.027630702
0.011207323 -0.08510282 -0.02304141 -0.07854897 0.08146911 -0.06667608 0.06758363 -0.088874176
0.012233705 0.029653182 0.008371153 -0.05551002 -0.07772918 0.047774293 0.008837404 0.072837465
-0.048868213 -0.013704913 0.038159233 -0.043669306 -0.08227694 0.056979574 0.08971238 0.07726565
-0.029222941 -0.035624743 -0.06801926 -0.05473404 -0.0022272088 0.067945026 0.051832717 0.015684135
-0.08005124 0.055548806 -0.030868895 -0.015126409 -0.05698484 0.032887034 0.081616126 0.010234807
-0.014714733 0.048924256 0.04487827 -0.079302214 0.039769236 0.07188826 -0.054685157 0.000980036
0.06344519 0.04268748 -0.07474586 -0.048245344 0.041040514 -0.077663265 0.0506049 0.07627876
-0.029687103 0.01978547 0.050055284 0.008510499 -0.019361088 0.01061011 0.078948125 -0.0036110482
-0.07265493 -0.069771975 0.009808217 -0.023300257 -0.016440773 0.050541457 -0.031113865 -0.08949499
-0.07203988 0.033288404 0.08830139 0.03998845 0.05091012 -0.07045178 0.025532208 0.005355707
-0.02969772 -0.038373627 -0.068812385 0.044633377 -0.090821 6.876585e-05 0.06839374 0.05395021
-0.0024714721 -0.028260615 -0.034084313 0.014860362 -0.07669569 0.01368394 -0.04045855 0.076576546
-0.083817765 0.059413638 -0.03598326 0.05867609 0.0275668 -0.057775356 0.035584427 0.051129553
0.06716681 -0.07654731 -0.026560832 -0.029937547 -0.017604271 -0.035220902 -0.014915912 -0.07812123
-0.041116405 -0.027949456 0.07874987 0.039916087 0.046919774 -0.048650403 0.07723907 0.049493924
-0.021295913 -0.09008488 0.006487475 -0.018710805 0.06546629 0.051607106 0.033777084 0.004269018
-0.05164535 -0.026228892 -0.004628834 0.035240084 0.038990494 -0.014411502 0.02887504 -0.003751427
0.031494472 -0.05643241 0.015778288 -0.0866397 0.02287601 0.053267132 0.02787752 -0.0723281
0.069152914 0.09063331 0.013999854 -0.008572426 0.014495683 -0.03146925 -0.07254463 -0.0138233965
0.044690438 0.08501433 0.043657243 0.080070496 0.06541528 0.013767956 -0.08423887 -0.011262233
0.029549323 0.004921721 0.0074584973 0.023795553 0.08573036 0.04057466 0.027733969 -0.08134243
-0.06573021 0.03450251 -0.06131358 -0.048333943 0.032986797 0.073588885 0.027200451 -0.010269849

fc2.bias f4 [84]
00000000: c1a9 b4bd 53a5 5ebd 741a 313d 49d6 613c
00000010: d4bd 77bb 495b a1bd c9e1 6bbd 9097 a9bd
00000020: a693 633d c666 723d e224 aebd b629 313d
00000030: 6eca 993d 3f09 623d 1410 983c 200e 82bd
00000040: 85bb 32bd 8098 993d a54b ad3d 0621 423d
00000050: 03a1 9e3d 7923 3dbd 0dbd 8dbd 5b0b 6d3d
00000060: 1866 1cbd b2e9 50bd 4221 a3bd cd6e 28bd
00000070: 2ecd 32bc 1a14 99bd 3c35 763d 0e31 ca3d
00000080: 13d4 663d 0776 a4bd 68ac 3bbd b3f7 793d
00000090: d745 3bbd 52d2 83bd 2e1a 4d3d 1361 24bd
000000a0: 5c24 84bd d372 02bd a82b b7bd acb5 8f3d
000000b0: a771 29bd d304 713d 9aa1 033d 2763 89bd
000000c0: d970 61bd 230f 483d 9ee5 7f3c 6e90 6f3a
000000d0: 1fdc 1bbd d48d 25bd 706b 2dbb 2d06 e3bb
000000e0: adfc 623d d7ee 953d fdb9 383d 6195 133d
000000f0: aa05 0d3d 6927 9a3d 9c20 acbc 9651 aabd
00000100: e8e9 3e3c 7e37 f1bc b0ea 993c 84fc a83d
00000110: 952b 6e3d f132 2bbc b51d 313d 380e 303d
00000120: ff63 bbbd c986 683d e952 b63c fa95 c1bd
00000130: 0523 01bd d95d 80bd 1584 953d af8d 0b3d
00000140: 3cf8 253d 7242 b93b 6d61 27bd 8ba6 8b3c
-0.088214405 -0.054356884 0.04323812 0.013784 -0.0037802355 -0.078787394 -0.057588372 -0.082808614
0.05556073 0.059180044 -0.085031286 0.04325267 0.075093135 0.0551846 0.018562354 -0.063503504
-0.043635864 0.0749979 0.08461694 0.047394775 0.07745554 -0.046176407 -0.06920824 0.057872158
-0.0381833 -0.05100412 -0.07965328 -0.041121293 -0.010913176 -0.07474537 0.060109362 0.09872638
0.056354593 -0.080303244 -0.045818716 0.06102724 -0.0457209 -0.064366 0.050073795 -0.04013164
-0.064522475 -0.031847786 -0.08943874 0.07017073 -0.041368153 0.05884249 0.032136537 -0.06708365
-0.05503926 0.04884256 0.01561871 0.0009138648 -0.03805172 -0.04041846 -0.0026461743 -0.0069282264
0.05541675 0.07320946 0.045099247 0.03603113 0.03442923 0.07527048 -0.021011643 -0.083163425
0.011652447 -0.029445406 0.018788666 0.082512885 0.05814703 -0.010449157 0.04324122 0.04298231
-0.09149932 0.056769166 0.022256332 -0.09452434 -0.031527538 -0.062679 0.07300583 0.034070667
0.040519938 0.005653673 -0.040864397 0.017047187

fc3.weight f4 [1297, 84]
00000000: 47cd 20bd 12fb 283d 2594 c7bd 1b54 413d
00000010: e62d 94bc dacb 803d ab61 d5bc 726a a63d
00000020: c0cd a03d 798b dbbd 56bb 15bd 30b9 7f3d
00000030: b333 4dbd 1e25 bcbd 2212 9c3c 9d42 8e3d
00000040: 17c8 9abd a20c c33d c361 cbbc 49eb 7f3b
00000050: 9236 813d 490b 8ebd af8c 963c fce6 79bd
00000060: 9758 c23d b653 083d 437a 8c3d 223c cfbd
00000070: 45ec b63d 8c11 b93d f4aa 81bd 13a6 81bc
00000080: cf79 42bd 078e 42bd df06 8a3d 32d1 7439
00000090: 1e0a dd3d 544f abbb 5a9e 373d 5bd8 873d
000000a0: aa6b 943b 6e60 10bc 3804 cdbd 9612 dc3d
000000b0: 35a5 cabd a2b7 b03d 27fb a53d 16aa 793d
000000c0: 8233 60bd 78a7 0abd 4ac7 49bd 3987 93bd
000000d0: 545f b03c 11cd 4bbd dece 903c 7f91 ecbc
000000e0: 854b 2b3d 0cab b73b f31b 90bd 35c1 833d
000000f0: b249 cabc 9dbf afbc 68d5 0f3d c4a4 17bd
00000100: 6cb6 9c3d 4aba 643d aa29 3d3d 410a d63d
00000110: c7e3 37bd d5e3 bbbc 635d aa3c b48c 213d
00000120: 7850 c8bd c598 a23d 9230 b83d f0ff a0bc
00000130: 9ef5 8cbd c578 aebd f13e dabd dea6 29bc
00000140: 6720 acbd f255 383d 378a 953d 70ca d1bd
00000150: 9c91 bc3d 10a2 2dbd d917 b2bc 4bfc 0e3d
00000160: 5b35 723d fbab 153d b495 b53d 1387 84ba
00000170: 643a 713d 2e05 bbbd 8505 38bd 7285 d9bd
00000180: ae71 c2bd f04c d7bd 8eeb bc3d 5a5b cfbc
00000190: c9ee 82bd 498c fdb9 6e64 113d 526d c33d
000001a0: 6782 c6bd 818b 5bbd 5663 98bd d326 723c
000001b0: c171 45bd 9e2e 3f3c 8bb8 c4bd 444d acbd
000001c0: 3e76 71bd 0d8e 39bd 3e09 acbd d3ec 863d
000001d0: af87 ccbb d09f b93d 9fcd 953d 6af1 82ba
000001e0: e3a3 fabc 796e dc3d 992a a7bc 97cf 5dbc
000001f0: 9d03 403d c9d8 92ba 87be a3bd dcf1 20bd
00000200: 26fb c6bb 8e06 5abd 44c4 843c 8ace 913d
00000210: 6652 35bd 0d29 cd3d 7673 95bd b10a cfbd
00000220: a4bb ad3d fd8b cbbb ba13 abbd 00fd 273d
00000230: 4440 c1bd 2852 c6bd 1fa5 003c 1281 3d3c
00000240: c877 8bbd 49b7 cc3d 8dd2 873d 72f8 9c3d
00000250: 3aff 783d 0afb ddbb d3e8 863d 8898 71bd
00000260: 0783 ce3d 5ceb 8d3d 87f0 773c 8ab1 bbbc
00000270: 58f1 dd3d 566b 40bd 6385 563d 32a9 debc
00000280: 9dac 893c 4e69 5e3d 9b25 a8bd 94b7 dfbc
00000290: cea5 553b c934 4ebd 7476 83bd 97e8 acbd
000002a0: de9c 15bd 8ae4 d0bd 6f25 5b3c 739a 623d
000002b0: 9e62 023d 1e42 1ebc 1bc9 8fbc 769d 523d
000002c0: fbaf dd3d 31bd 903d bbfe c8bd 91c5 05bd
000002d0: d939 733c 8dc8 6fbd 40b6 643d 142d c3bd
000002e0: 0848 483d 57f6 1abd d1b9 133d 8906 bf3d
000002f0: d733 bc3d bce4 bfbd 4abe 4e3d 793a 94bd
00000300: ae99 da3d d226 2dbb 320e 2bbd 935f 20bd
00000310: 80ec 053d 07c0 5d3a 3b31 893d 4102 dd3d
00000320: 5e5d a63d f75f c1bd 8cc1 413d d663 fabc
00000330: 63ef a4bd dc1c 16bb 1ad3 8ebd fdd0 3a3d
00000340: b015 c3bd 35b5 2d3d 07df acba d9b2 38bc
00000350: 8313 e93c 997c 623d 31a6 18bc ec25 573d
00000360: 1e55 033d 20f3 b4bd 2d45 8c39 98c0 813d
00000370: 2c57 d2bd 425e 3bbc 17b4 c4bd e7ec d03d
00000380: 9eff 9bbc 9b28 d8bd 52c0 86bd bb48 163d
00000390: 21a4 aa3d e2b3 c4bd f052 b13c b1a2 82bd
000003a0: 5859 2b3a 6a3c cfbd d3c3 ca3b cf69 3e3d
000003b0: 14df f33c 60bd b13d 07fc 59bd 447c 71bd
000003c0: 266f 433d 891a 94bd 5024 553d ceef d2bd
000003d0: 05e8 ac3b 5841 efbc 323f 87bd e930 19bd
000003e0: a9e2 943d 44f1 3ebd a4a2 a43d ee01 c63c
000003f0: 5b51 84bd b114 54bd 5324 87bd 0627 80bd
-0.039258268 0.041255064 -0.09745053 0.04719935 -0.018088292 0.062888816 -0.026047548 0.081257716
0.07851744 -0.10719962 -0.03655561 0.062432468 -0.050098132 -0.09186767 0.019051615 0.06946299
-0.07557695 0.09523894 -0.02482689 0.0039050153 0.063092366 -0.06935746 0.01837763 -0.0610113
0.094895534 0.033282958 0.06859257 -0.10118891 0.089317836 0.0903655 -0.06331435 -0.01582626
-0.047479447 -0.04749873 0.06739592 0.00023347585 0.10792945 -0.0052279625 0.04482875 0.066330634
0.004529436 -0.008812053 -0.1001057 0.107457325 -0.09894792 0.08628775 0.08104544 0.060953222
-0.05473662 -0.033851117 -0.049262322 -0.07203526 0.021529831 -0.049756113 0.017676767 -0.028877972
0.041820068 0.005605107 -0.07036581 0.06433336 -0.024693344 -0.021453673 0.03511563 -0.037022367
0.07651982 0.05584172 0.046182312 0.104511745 -0.04489496 -0.022935787 0.020796483 0.039440826
-0.09780973 0.07939295 0.08993639 -0.01965329 -0.06882785 -0.08519129 -0.10656536 -0.010354726
-0.08404618 0.04500384 0.07301753 -0.1024369 0.0920746 -0.042390883 -0.021739887 0.034908574
0.059132915 0.036540966 0.08866444 -0.0010111056 0.058893576 -0.09131847 -0.04492714 -0.10621156
-0.09494339 -0.105127215 0.09224616 -0.025312115 -0.06393201 -0.0004836044 0.035496168 0.095423356
-0.09692841 -0.05359984 -0.07440822 0.014779764 -0.048204187 0.011668829 -0.09605511 -0.08413175
-0.058950655 -0.045301486 -0.084002 0.065881394 -0.0062417607 0.09063685 0.0731461 -0.000999016
-0.030595725 0.107632585 -0.020406054 -0.013538263 0.046878446 -0.0011203523 -0.079953246 -0.039293155
-0.0060724197 -0.053228907 0.016206868 0.07119472 -0.044268034 0.100175954 -0.07297413 -0.10109461
0.08483055 -0.0062117563 -0.08353372 0.041012764 -0.09436086 -0.09683639 0.007851868 0.011566417
-0.06809956 0.09995896 0.06631956 0.07664575 0.060790278 -0.006774311 0.065873764 -0.058983356
0.10083585 0.06929657 0.01513303 -0.022911806 0.10837048 -0.046977364 0.0523733 -0.027180288
0.016805941 0.054299645 -0.08210298 -0.027309217 0.0032600048 -0.05034331 -0.064190775 -0.084428005
-0.036526553 -0.1019984 0.013375624 0.055323076 0.03183233 -0.009659318 -0.01755195 0.051419698
0.10824581 0.070673354 -0.09814211 -0.032659117 0.014845335 -0.05854087 0.05583787 -0.09530082
0.04889682 -0.037832584 0.03606588 0.09327418 0.09189575 -0.093697995 0.050474443 -0.07237715
0.10673843 -0.0026420844 -0.041761585 -0.039153647 0.032696247 0.0008459095 0.06698843 0.107914455
0.08123277 -0.09442132 0.04730372 -0.030565184 -0.08053472 -0.0022905385 -0.06973858 0.045609463
-0.09525621 0.04240914 -0.0013189026 -0.011273109 0.028451687 0.055294607 -0.009316967 0.0525264
0.032063596 -0.08835435 0.0002675442 0.063355625 -0.10270533 -0.011436047 -0.09604662 0.102014355
-0.019042786 -0.1055462 -0.06579651 0.036690455 0.08332086 -0.096046224 0.021645993 -0.06378687
0.00065364456 -0.10118945 0.006187895 0.046487626 0.029769458 0.086786985 -0.053218868 -0.0589564
0.04771342 -0.07231624 0.052036583 -0.10299645 0.0052766823 -0.029205963 -0.066038504 -0.03740016
0.072697945 -0.046616808 0.08038834 0.024170842 -0.0646083 -0.051777545 -0.06598725 -0.06257443

fc3.bias f4 [1297]
00000000: 6a16 503d bd19 c3bd f1e6 55bd d155 8c3d
00000010: f8a4 9abd 7850 a73d 4b46 c9bb 5cd9 243b
00000020: 01d4 8dbd 003e 85bd e221 bcbd 423f cc3b
00000030: 1320 713d 75d9 55bd 8ef3 acbd 402d bc3d
00000040: 46f4 9abc 1540 c83d 6275 4cbd c05b d1bd
00000050: e98d 983d 3d68 4b3d a628 38bc 2b0f bebd
00000060: 8f12 3abd 2055 18bd 69a1 7d3d ef48 b63d
00000070: 201d 603d 89e4 5b3d d4ec 69bd a56d 89bd
00000080: b227 d0bc 1e9a 81bc b515 9fbd 611f ef3c
00000090: d0fe 7cbd f8c5 8fbd 0f42 893d 8987 76bd
000000a0: 25ae b5bd 6723 b43d 5176 ebbc 4dc0 73bd
000000b0: dfbf b4bd 6055 8fbd 567f 643d bbb9 b5bd
000000c0: c81b 753b c5a3 08bd 61be 1b3d 0943 87bd
000000d0: 22e6 d13d 1a45 953d 3df3 72bd 8b14 cb3c
000000e0: c600 09bd 900e c9bc 429c 50bd 6896 b93d
000000f0: d7a7 98bd 8891 76bd 7d0d 833c 4331 363d
00000100: fe67 c2bb 0bf1 60bd c277 2e3d 38c8 c83d
00000110: ff15 ab3d a064 643d b5d6 99bd ce37 ad3d
00000120: 40e5 47bd ec91 3ebd b8f3 a6bd b408 863d
00000130: 0d57 c8ba cf97 09bd 743d 053d 965c 95bc
00000140: 5c73 48bd 3f0b b1bd 8098 5dbd ed74 b83d
00000150: 9f09 63bd 7c4b 4b3d 4c2d f2bb 6276 88bd
00000160: 18d6 93bc 4728 2bbc 73fc 4bbd a6f1 90bd
00000170: 532f c23d bda2 48bc 1584 8c3b 7e15 60bd
00000180: 934f f0bb e88d babd b2dc 76bd 81c0 5b3d
00000190: 546a a1bd a80d 8b3d 587b 3fbc 0d03 79bd
000001a0: a5cc 16bd f20a 80bd 371c d2bd fdca be3d
000001b0: 2692 293d 09da 433d 6d60 f93c de7f d1bb
000001c0: 0f03 0d3c 78a8 16bd e490 97bd 72d2 893d
000001d0: 6051 b93d 28fc 4bbb a28e 153c 973a 48bd
000001e0: 091e b1bd 874e 3bbc 976e 97bd d6d4 d23d
000001f0: ff15 7a39 dd03 bd3d 446b bfbd a644 a23b
00000200: 561d bdbd e137 5c3d cbcf 32bc 10f5 b8bd
00000210: 6c88 be3c 6c74 9abd e61e 4abd a00c d23c
00000220: 37f5 d43d 746c bebd e40a d4bd 0dd2 083d
00000230: 1093 cb3d 1e8e 51bb b28b c5bb d1bc 67bd
00000240: 51df cb3d 9f59 083d 584d d2bd 9df1 853d
00000250: 930b 933d 3f31 003d 621d febc e570 c03c
00000260: 668c c23d c656 90bc 1f12 293d c8db 513d
00000270: 936e 09bd 0bef 20bd f174 61bd 6c66 163d
00000280: 7187 b0bd 4065 423c ec11 193d 2aa1 90bc
00000290: b96f d4bb 172d abbd 27ea c73d a935 983d
000002a0: d4a1 2b3c 9afb a8bd 557a 93bc fabe 6fbd
000002b0: 285c 5ebd cbd3 ce3d c6f7 c3bd a5b1 263d
000002c0: 28ce e6bc f279 973d 58f5 9f3d 91ff 00bd
000002d0: e987 a5bd 3d3d c93d a4a2 423d 3c98 de3c
000002e0: 7708 16bd 4cf2 823c c94a 84bd d5dd c23d
000002f0: 0974 6dbd 03a4 2e3d 89cd 8a3a 6ef7 c63d
00000300: 87ba bebd dbce 5cbd d6a6 17bb a91e 843b
00000310: da72 003c 44f5 83bd 7795 223d 2c4e 20bd
00000320: 5009 d53d cb7d 1dbc f3f4 e03c 2373 adbc
00000330: 076e eabc ed60 ad3d 2179 c8bd be89 c8bd
00000340: 26b1 45bc a8c6 173d 7e4f c03d 920e acbd
00000350: 5177 ddbc 9a8f ce3d 2538 38bc e8bb ccbd
00000360: 8654 20ba 6952 8abd f2a6 9a3c 9db1 d9bd
00000370: 4ebf 343d 8c5f 7dbd ba79 813c 42c2 b53d
00000380: 52ae c13d 2800 b9bd 9b13 c93d a268 bbbd
00000390: 8ef7 bbbd d727 153d 9f37 c43d 81bf d63d
000003a0: 878c 023d 1558 803b e4d7 abbd fdd5 a6bc
000003b0: a220 d4bd de14 cd3d d8e8 633d 39bf 77bc
000003c0: 49a3 403d 84c0 d3bd c811 bc3d 7b69 943d
000003d0: 5aee 2ebd c01e 503d c91d 523d d94b 283d
000003e0: b6bd f43c 0a60 3c3c e977 fdbc 4f0c cb3d
000003f0: 245b 0f3d 8d8f 6fbd a26a 2b3c f89b 8e3c
0.050802626 -0.095263936 -0.052222196 0.06852306 -0.075509965 0.08169645 -0.006142413 0.002515397
-0.06925202 -0.06505966 -0.0918615 0.006233127 0.05886848 -0.052209336 -0.08444892 0.09188318
-0.018915307 0.09777848 -0.049916632 -0.10222578 0.07448942 0.049659956 -0.01124016 -0.09280237
-0.045427855 -0.037190557 0.06192151 0.0890063 0.054715276 0.053684745 -0.057110623 -0.06710366
-0.025409553 -0.01582056 -0.07767812 0.029189767 -0.061766446 -0.070201814 0.06702053 -0.06018785
-0.08871106 0.08795815 -0.028742941 -0.059509564 -0.08825659 -0.06998706 0.0557855 -0.08873316
0.0037400592 -0.033359308 0.038023356 -0.06604583 0.102489725 0.07288571 -0.059314 0.02479007
-0.033448003 -0.024543077 -0.05093027 0.09061891 -0.07453888 -0.060197383 0.015997643 0.044480573
-0.005932807 -0.054917376 0.04259468 0.09803814 0.08353805 0.055760026 -0.07511655 0.084579095
-0.048802614 -0.04652588 -0.081519544 0.06544629 -0.0015284732 -0.03359204 0.03252931 -0.018232625
-0.04893814 -0.08644723 -0.054100513 0.09006677 -0.055429097 0.049632534 -0.0073906537 -0.06663205
-0.018046424 -0.010446615 -0.0498013 -0.07077341 0.09481683 -0.012245831 0.0042882063 -0.054707997
-0.0073337047 -0.09109098 -0.060269065 0.053650383 -0.078816086 0.06789714 -0.011687122 -0.060793925
-0.036816258 -0.06252088 -0.10259288 0.09316061 0.041399144 0.047815356 0.030441487 -0.006393417
0.008606686 -0.036781758 -0.074006826 0.067295924 0.09048724 -0.0031125639 0.009128245 -0.048884
-0.08648307 -0.011432297 -0.0739414 0.102945015 0.00023850052 0.092292525 -0.09346631 0.004952031
-0.09234111 0.053764228 -0.0109137995 -0.09031117 0.02325841 -0.07541737 -0.049345873 0.025640786
0.103983335 -0.092980295 -0.1035364 0.033403445 0.09940159 -0.0031975578 -0.006028616 -0.056576554
0.099547036 0.033288594 -0.102686584 0.06540225 0.07179942 0.031296965 -0.03101987 0.023491332
0.09499435 -0.017619502 0.041277047 0.05123499 -0.033552717 -0.03929047 -0.055043165 0.03671877
-0.086195834 0.01186496 0.037370607 -0.017654974 -0.006483045 -0.083582096 0.09761458 0.0743211
0.010475595 -0.08251114 -0.018002668 -0.05853174 -0.054287106 0.1009899 -0.095687434 0.04069676
-0.028174475 0.07396306 0.078104675 -0.031493727 -0.080825634 0.098261334 0.047518387 0.0271722
-0.036629166 0.015984677 -0.06459577 0.09514967 -0.057971988 0.042636883 0.0010589819 0.09715162
-0.09312921 -0.05390821 -0.0023140213 0.0040319753 0.007839883 -0.06443265 0.039693322 -0.03913705
0.10402167 -0.009612511 0.02746055 -0.021173066 -0.028616918 0.08465753 -0.097887285 -0.09791897
-0.012066161 0.037054688 0.09390162 -0.084012166 -0.027034434 0.100859836 -0.011243855 -0.09996778
-0.00061161106 -0.06754 0.018878434 -0.1062958 0.044127755 -0.0618587 0.015805114 0.08874942
0.09457077 -0.09033233 0.098181926 -0.091508165 -0.09178077 0.036414947 0.095809214 0.10485745
0.0318723 0.00391675 -0.08390787 -0.02036571 -0.10357787 0.10013746 0.05564198 -0.015121275
0.04703072 -0.10339454 0.09183079 0.07246681 -0.04270778 0.050810575 0.051297937 0.04108796
0.029875617 0.011497507 -0.030940967 0.09914457 0.034999028 -0.05848651 0.010462435 0.017408356
