models/1296_pixels/5.pt (torch, 771783 bytes, 10 tensors)

conv1.weight f4 [6, 1, 5, 5]
00000000: 927d 03bd b466 a0bc b072 09be 026b 4b3d
00000010: 819f 57bd 5c21 383e 33d2 8dbd 96ea 04bc
00000020: 1264 2dbe 1e80 ca3d d868 26be e866 dfbd
00000030: dd4b 17bd 31a0 76bd 495c 25be e9b1 d13d
00000040: 4c04 2c3e 23a0 c4bc d4b6 8cbd c797 193e
00000050: dd79 8a3d 2be8 63bc fafd 3c3c e735 ff3d
00000060: 5de5 ccbd be8c d0bd 0f25 e23d 8f1d 463d
00000070: c905 ae3d 091b 1a3e ea77 b33d e181 16be
00000080: ab9a 4dbe cf2a 25be 4367 313e dd66 a83d
00000090: e905 c33c 0a8e db3d 5b3b 03be 8297 96bd
000000a0: e7d4 263e c649 0b3e e390 2fbe 0a44 cdbd
000000b0: 1bd2 06be c5dd e9bd 3114 d3bd 4807 bd3c
000000c0: df61 ba3b 8d6f f9bd 9e10 0cbe 549c 1ebe
000000d0: a041 223e 4845 193e 980e 853b 4c7c bfbd
000000e0: cb7d b8bc b81d 2c3e 572e 17be 7c74 50bc
000000f0: daed 423e b31d 1abd a277 083e c674 f7bd
00000100: 73ba c53d 030f 4b3e 2bc5 dd3d 0e15 5fbd
00000110: 7e5d e93d 62e9 583e 8724 b43d 7caf 173e
00000120: c61c bcbd ca3a 543e 21c2 2d3e 4788 1e3d
00000130: ea26 b43d 4e7b 39be 1ec6 40be 68a6 e13d
00000140: 28d3 cabd 1d62 a6bd 6b07 363e 760e 03be
00000150: 5815 423e 6aec 6ebc 3391 c33c 8af6 523e
00000160: 16ff f5bd 1fea a1bc c8b3 11bd f181 3dbe
00000170: c726 74bd f938 5ebd 4553 19be 58c0 f1bd
00000180: 730b ac3d eb3f 10be 3371 e33d 2025 18be
00000190: dcbc 293e cfa6 383e 1e09 69bd 5ba1 67bd
000001a0: 3d0d df3c 9ee4 38bb 9a2d d0bd 4a47 cabd
000001b0: b5ee 34bd 5b07 8e3d 2b3f d43d f3fb 813c
000001c0: 1fab 1ebe 00fc df3d c566 25be 685b 37be
000001d0: dd95 16be 8735 3abe 860f 2d3e fbbb 1b3e
000001e0: 26d9 b13d d48f 2f3e 3ff3 a83d 02e5 253e
000001f0: 998d 253e d383 a8bd 20e3 5cbc 3794 743d
00000200: 2040 1a3d 7038 223e 95c3 f0bc 96ae fc3d
00000210: d320 9dbc e0c0 f13c 47f5 1d3e d8e8 3c3e
00000220: 03c4 e1bb 9ac3 0ebd 791b 06be de64 bfbd
00000230: 47ad ac3d fdf0 d53d 9926 3f3e 11e6 1fbe
00000240: 7e4b 333e 192c 4d3e c4ea 5c3e a41f 443b
00000250: 0618 4bbc ffe3 bbbd
-0.032102175 -0.019580223 -0.13422656 0.049662597 -0.05264235 0.17981476 -0.06924858 -0.00811257
-0.16932705 0.09887718 -0.16250932 -0.109083 -0.036937583 -0.060211364 -0.16148485 0.10239012
0.16798514 -0.02400214 -0.06870809 0.14999305 0.06761525 -0.013910334 0.011535162 0.12461453
-0.10004685 -0.101830944 0.110422246 0.048368033 0.08497197 0.15049376 0.08763106 -0.14697982
-0.20078532 -0.16129611 0.17324547 0.082227446 0.02380653 0.10720451 -0.12815611 -0.073531166
0.16292153 0.13602361 -0.17145114 -0.10022743 -0.13166086 -0.11419252 -0.103065856 0.023074761
0.0056879367 -0.1217948 -0.13678214 -0.15489322 0.15845346 0.14967835 0.0040605776 -0.093498796
-0.02252092 0.16808212 -0.14763771 -0.012723085 0.19036046 -0.03762598 0.13326886 -0.1208282
0.09654703 0.19829945 0.108286224 -0.05446344 0.11394785 0.21182778 0.087960295 0.14813036
-0.091851756 0.20725551 0.16968586 0.038704183 0.08796485 -0.18113443 -0.18825576 0.110180676
-0.09903556 -0.081241824 0.17776267 -0.12798485 0.18953454 -0.014582733 0.023872947 0.2060186
-0.120115444 -0.019764958 -0.035571843 -0.185066 -0.059607293 -0.054253552 -0.14973171 -0.11804265
0.08400621 -0.14086883 0.111055754 -0.14857912 0.1657595 0.18032382 -0.05689346 -0.056550365
0.027227992 -0.0028212438 -0.10164948 -0.098768786 -0.04417296 0.06934997 0.10363611 0.015867209
-0.15494965 0.10936737 -0.16152485 -0.17905962 -0.14705606 -0.18184482 0.16900453 0.15208428
0.08683996 0.1714471 0.082495205 0.16200641 0.16167296 -0.082282685 -0.013481885 0.05971166
0.03765881 0.15841842 -0.029390136 0.12337987 -0.01918069 0.029510915 0.15425597 0.18448198
-0.0068898215 -0.03485451 -0.13096417 -0.09345411 0.084314875 0.104463555 0.18667068 -0.15615107
0.17509267 0.20036353 0.21573931 0.0029926086 -0.012395864 -0.09174346

conv1.bias f4 [6]
00000000: 6d1d 603d d264 2e3e dd56 013e 5d0a 593c
00000010: 09d7 02be 3309 c73d
0.054715563 0.17030647 0.12630792 0.0132471 -0.12777342 0.097185515

conv2.weight f4 [16, 6, 5, 5]
00000000: fce4 90bd 9a3c 863d ed3a 5dbd b37b 57bd
00000010: 8442 20bc 6a05 943d e700 99bd 7fd0 5a3d
00000020: 7b88 85bd cdaa b23d 77b9 903d ee95 95bc
00000030: 5277 393d 22de d6bb 68c9 473d 371a 883d
00000040: dc95 d0bc 0a0e a53d 7317 5dbd 61e1 323d
00000050: e588 483d c2cc 6f3d fadf e33c 3913 37bd
00000060: abb1 73bd c063 2b3d c58c 653d 08bb dc3c
00000070: 516f a1bc 9ac5 56bd 4b26 39bd 4f85 62bd
00000080: 3ae1 24bd cfd4 01bd ed32 2bbd 7759 8b3c
00000090: 7c05 8f3d 562f b23d c3ca ef3c 94c7 033d
000000a0: 4ff8 7f3d 38b4 62bc 3df4 6abd 7b67 3ebd
000000b0: ad7c b93d e353 4dbc de0f 6a3d 1603 993d
000000c0: 1ee4 893d 9ece 833d 9255 9dbd b454 9dbd
000000d0: cb83 05bd 7945 22bc 7293 98bd 33c5 9d3c
000000e0: a971 8e3d 5a4e a3bd 03cd a1bd 8565 863d
000000f0: 2ef0 f5bc a9b4 6d3c 72a1 863d ba63 a53b
00000100: 11f1 513d 103f 943c ce14 093d 68b1 3bbd
00000110: f62d eabc 33f4 c2bc 01e5 63bd 105b 6c3d
00000120: 5a5c 5fbd f5c7 0f3d 0ff1 c8bc 0756 8cbd
00000130: 69d0 8f3d 007c 9fbd 3ba7 e13c e9d4 5e3d
00000140: e78b 313d f39b 893d d3d2 883d f742 703d
00000150: 9cf3 283d 4402 6f3d 42cd f9bc 0139 9c3d
00000160: 57ab 963c 85d7 14bb a392 9a3d 8ef1 383a
00000170: be5e 873d c32e a53c 4365 fa3c f104 473c
00000180: d1ce a33d 074c 6e3d cd4d 81bc 69ed bebc
00000190: 7f44 303d 5490 343d 7499 4c3d 65c9 0b3d
000001a0: de99 a33d 01db ae3d 596f 71bd 9f81 85bb
000001b0: 3b3c ed3b 918c 7a3d 9efe e83b a51b 11bd
000001c0: 0b8f 853d cbf2 103d eba4 553d f312 68bd
000001d0: 2abb 27bc 9a28 863d 9ff8 02bd 5fd9 043d
000001e0: cadb 88bd f3c5 75bc 4167 1f3d d4a9 203d
000001f0: f074 39bd 9abf 81bd 55ae 243d 9ec5 103c
00000200: c462 703d 18c6 a2bd 5417 6dbc e8ec 40bd
00000210: a00d a83d 5b67 ea3c c7a7 4e3c bf6d 883b
00000220: 030d c5bc 7eb7 a53c 8846 bdbc 78e6 a63d
00000230: 045f a33d f2fe 3d3d 35c1 a7bd 87f1 5c3a
00000240: 36a4 9bbc ffa3 983d 5d33 96bd 779b 02bc
00000250: 8d2c 5fbd e50a 893d 7e41 023d f6fa 10bb
00000260: 8d0e 14bd a9e1 a03d 314f 973d e0e5 9c3d
00000270: d697 4c3d 5de6 2e3c d661 1dbd 6d49 d13c
00000280: 2456 80bc 94a5 18bd eafc 9bbd b170 a13c
00000290: 9a3a 843b 87d0 b2bc 3977 8c3d 45bb 203d
000002a0: e426 2fbd 7de5 44bc 4115 97bd 212e 24bd
000002b0: 7e9e 84bd 386f 4d3c 7517 4a3d 2da9 60bd
000002c0: e2e2 6d3b 4afc 3abd 7e03 1d3d 8842 cdbc
000002d0: ebae 30bc 00c1 4dbc 7287 fdbc 166b 3d3c
000002e0: 787e 95bd 3b1a 05b9 ae4f f0bc b502 253d
000002f0: d038 af3d 342c b1bb 2a63 b73c d5ad 2fbd
00000300: d1b3 3dbc fa5d 1fbc a055 7dbd 2349 903d
00000310: 7dd3 49bb 09df 6dbd 36e8 15bd 6a6f 943d
00000320: 6664 2f3c 2606 8b3c b99c ac3c 3de8 a3bb
00000330: f48f 67bd ab5b 7ebd ff48 a0bd 79f8 0dbd
00000340: 1e77 84bd 0477 30bd 335b 8ebd 56cb 33bc
00000350: 4387 03bd 9430 9e3d c91d cdbc 8238 0fbb
00000360: 00cc 7c3d f161 e83c 03be fb3b a0b6 8b3c
00000370: 24e3 d93c 3837 cb3c 3668 8dbc ca91 203d
00000380: 73c7 6d3d 0dc6 a13d 7832 173d a9aa 93bd
00000390: a994 a93c 8021 823d e9bc 353d 2796 693d
000003a0: 4222 50bd 1406 9fbd 1d72 f63c 717a d7b6
000003b0: 1aeb 21bd 8c98 4fbd 0371 b73c 57bc 2bbd
000003c0: 55b4 213d 9671 893d 56cc 8e3d 129b 9abd
000003d0: b212 a1bd 865d 7b3d ec08 20bc ebeb b33c
000003e0: fd6d 9cbd 8b30 78bd a68c 3b3d 7c6c 5e3c
000003f0: 84a6 87bd 2dfb 063d 21ef 20b9 d5d9 2abd
-0.07074925 0.065545276 -0.054011274 -0.052608203 -0.009781484 0.07227595 -0.07470875 0.053421494
-0.06520172 0.08723984 0.070666246 -0.018259969 0.04527981 -0.006557242 0.04877606 0.06645625
-0.025462084 0.08059318 -0.05397744 0.04367197 0.048958678 0.05854488 0.027816761 -0.044696067
-0.05949561 0.041843176 0.05604245 0.026944652 -0.0197064 -0.05243454 -0.045202535 -0.055302914
-0.040253855 -0.03169709 -0.041796613 0.017010434 0.06983468 0.08700435 0.029271489 0.032172754
0.062492665 -0.013836913 -0.05736183 -0.046485405 0.09056983 -0.012532207 0.05714404 0.07471292
0.06732963 0.064358935 -0.07682337 -0.076821715 -0.03259639 -0.009904259 -0.07449998 0.019259071
0.06955273 -0.07973929 -0.07900431 0.06562332 -0.030021753 0.014508405 0.06573762 0.0050472887
0.05125529 0.018096477 0.033467107 -0.045823485 -0.028586369 -0.023798084 -0.055638317 0.05770403
-0.054531433 0.035102803 -0.024529008 -0.06852346 0.07022173 -0.07787323 0.027545562 0.054402266
0.043346312 0.06719198 0.066808365 0.058657613 0.04124795 0.05835177 -0.030493382 0.0762806
0.018392248 -0.0022711467 0.075475 0.00070550374 0.066098675 0.0201639 0.030565863 0.012147174
0.079984315 0.058177974 -0.015784169 -0.023306565 0.043034073 0.044082955 0.04995103 0.03412761
0.07988332 0.085378654 -0.05894408 -0.00407429 0.007239846 0.06116921 0.007110431 -0.035426755
0.06521424 0.035387795 0.05215923 -0.056658696 -0.0102374945 0.06550713 -0.031975385 0.032433864
-0.066825464 -0.015000808 0.03891683 0.03922446 -0.045277536 -0.06335373 0.04020532 0.008836178
0.05868794 -0.0794794 -0.014470894 -0.04710093 0.08205724 0.028613737 0.012613243 0.0041634734
-0.024054056 0.020229097 -0.023104921 0.08149427 0.07977107 0.046385713 -0.08191148 0.00084283244
-0.0189992 0.07453155 -0.073340155 -0.007971636 -0.054485846 0.06691531 0.03180074 -0.002212224
-0.03614669 0.07855541 0.073881514 0.07661033 0.04994949 0.01067504 -0.03842338 0.025547707
-0.015666075 -0.037267283 -0.07616599 0.019707056 0.004035306 -0.02182795 0.068586774 0.039241094
-0.0427617 -0.012017605 -0.07377101 -0.040083054 -0.064755425 0.012538724 0.049338777 -0.05484884
0.0036298563 -0.045650758 0.03833341 -0.025056139 -0.010783891 -0.012558222 -0.030948374 0.011561176
-0.072995126 -0.0001269364 -0.02933487 0.040285785 0.08555758 -0.0054068808 0.022386152 -0.04289039
-0.011578516 -0.009726996 -0.061849236 0.070452 -0.0030796223 -0.05807403 -0.036598407 0.07247813
0.010705089 0.016970705 0.021070825 -0.00500205 -0.05653377 -0.06209914 -0.07826423 -0.03466079
-0.06468032 -0.043082252 -0.069509886 -0.010973772 -0.032111418 0.07724109 -0.025038617 -0.002185375
0.061717987 0.028367015 0.0076825633 0.017054856 0.026597567 0.024806604 -0.017261606 0.039201535
0.058051538 0.07899103 0.036913365 -0.07210285 0.02070077 0.06354046 0.044369612 0.057027962
-0.05081392 -0.07764831 0.03008371 -6.4217534e-06 -0.03953085 -0.05068259 0.022392755 -0.04192766
0.03947862 0.06711118 0.06972568 -0.075491086 -0.07864894 0.061368488 -0.009767752 0.02196308
-0.07638166 -0.06059317 0.04578843 0.013575669 -0.06623557 0.032954384 -0.00015347872 -0.041711647

conv2.bias f4 [16]
00000000: 19a0 2f3d f55b 7dbc 41c5 6c3d a7c5 0eba
00000010: 8ea2 a7bd a143 fbbc f0ff 84bd f84f 7a3d
00000020: 869f aebc e574 dbbc 5e03 483d b1c3 9f3d
00000030: 696d ee3c 366e 25bd f01f 23bd da05 81bd
0.04287729 -0.015463819 0.057805303 -0.00054463226 -0.08185302 -0.030671896 -0.06494129 0.06111142
-0.021316301 -0.026789138 0.048831336 0.07800997 0.029104905 -0.04038831 -0.03982538 -0.06299944

fc1.weight f4 [120, 576]
00000000: 005f 32bb 565f 0ebc b0e4 09bc ab21 2cba
00000010: 8686 b13c d688 cbbc 6b7a bbbc 7b7b 2dbc
00000020: 2bc7 fe3b 209c a93b f065 67bc 9612 bfbc
00000030: 6696 583c c038 e9bb c8a4 803c b85a e13c
00000040: c0bc 65bb 16eb 1dbd 306b 94bc a3e9 c1bc
00000050: 7f4d 193d d081 3c3c 1b61 78bc bb60 1bbd
00000060: ab33 753a b630 a2bb 37ab 27bd 0b59 363c
00000070: 06d1 febc bb7a 15bc b8a1 003d cbee cb3c
00000080: 7054 233d 169c 26bd 705e 57bc 68c7 25bd
00000090: 5be8 af3c eb9e 9c3c 98f4 243d 0c63 0c3d
000000a0: 5c2d 1abd 83e5 e23c 809b 003c 2fc9 0cbd
000000b0: f019 283d 88e1 eebc b609 d5bb 8729 073d
000000c0: 73b9 c03c 9b06 27bc 5e21 fdbc 5011 b43c
000000d0: 5b43 babc 6bcb 1c3c b63a a43c 7b83 42bc
000000e0: 80ef d3bc 00fe 063c 8617 793c b353 123d
000000f0: ab7d 0b3b 9643 773c a097 35bc 4712 253d
00000100: 0060 eebb deeb b43c 3b54 9d3c 66d0 ccbc
00000110: 1005 1cbd abb9 7f3a 00eb 403a ffa5 143d
00000120: a636 cd3c e04c b23c f60c 74bc 1bef 253d
00000130: ab4f 403c 009b bb3a 0b51 883c 00a6 813a
00000140: 0bb2 c93c 56a4 123a 001e f23c 0807 f6bc
00000150: d8bb 12bd d7bc 1abd 928a 1a3d 4bda 66bc
00000160: 930b 953c 8e22 c73c d6ee 533c 0435 19bd
00000170: f09f 353c cbed d8bb 4810 dbbc fbb7 0e3d
00000180: 3a56 1fbd 00f0 0bb8 23f9 d53c bbf8 b53c
00000190: a387 9d3c 6051 fcbc 3098 18bc b0a3 6c3c
000001a0: d08c 113d d6cc 5d3c da30 06bd 935d f53c
000001b0: 18df d93c 56bd e139 20cb 7bbc c3a3 83bc
000001c0: 36cd 983c 409d c5bb 8088 14bb 4eef e13c
000001d0: 8050 6b3c 0398 d93c 0b5b 3abc c0c0 a8bc
000001e0: ae67 8ebc c0d2 c7bc 6b8b bb3b 035f ce3c
000001f0: d63a 233b 8ed5 863c 2b05 78bb 341f 00bd
00000200: 0021 ed3b 7bbf 7b3c 5041 be3c e6bc 4cbc
00000210: 4030 9f3c 007a 14ba 2be5 d4bb 4691 ec3c
00000220: d630 39bc 4329 e73c c073 71bb c846 c6bc
00000230: 0628 b53c 3852 ddbc e056 bf3b eef6 bbbc
00000240: ebfc 2a3c 96fd 993b c08b 683b 4b0c 2abd
00000250: 83d4 aa3c d66b 243b d8cd eebc 70f3 663c
00000260: 0771 0a3d 4b89 a4bc 80ca 9f3a 5a1f 0d3d
00000270: ab76 d23a 9e43 a6bc 006b f0ba 005c 34ba
00000280: b643 f2bc c81e cc3c 43df c2bc 4066 1fbd
00000290: ebe0 693b 8613 ba3c 642a 28bd 8037 47bb
000002a0: 3bc9 023d b6b0 34bc 4015 5f3b 8b87 013c
000002b0: 98f8 f3bc 5671 1ebd fb7d e43c 6b51 6ebb
000002c0: b6b4 d43b 7b77 e1bc cbc5 93bb a672 753c
000002d0: bebc 923c f39a 043d 8bb2 993b 1bba 153c
000002e0: 567d aebb afcc 07bd 3b2c 8dbc 9718 193d
000002f0: e828 ebbc 7022 eb3c 04a8 0dbd ab4c 9a3a
00000300: 0895 cebc be2c 163d 886d f23c ab3f 343b
00000310: 2b58 493b 03be 893c 7b62 6cbc 7b61 eabc
00000320: b3d8 27bd 9e7f d33c 0b09 bd3c 1ebd c23c
00000330: 43ca d6bc 5616 65ba 6b91 5fbc f412 1ebd
00000340: 6053 1cbc 48e5 e9bc 8b9e 153c e68e 11bc
00000350: 309a 58bc 9e9f 9fbc b338 a73c ccbd 0b3d
00000360: 9e93 0a3d 8ecd d53c 1bd1 8d3c 5bcb 02bd
00000370: 7632 a9bc e0c4 e0bc fb17 1d3c d669 91bb
00000380: 0461 233d 361a 973c 1b9d d53c 78b3 83bc
00000390: d6f7 a5bc 2e19 f8bc c68c c63c c0e0 48bc
000003a0: f683 1d3d 0025 a4bc 4e67 16bd d3c2 fdbc
000003b0: 8671 0ebd 56b6 44ba 7390 fb3c cfd5 0ebd
000003c0: 93bb 89bc 76aa 84bc 00c2 863c 006a ce3b
000003d0: 5319 f33c 6ef9 c93c abf9 de3c a66f 093d
000003e0: c833 07bd 2ed4 8b3c cbf0 a1bb 0e0c e63c
000003f0: be9e 213d 7666 f13b bbc8 e7bc 00a9 43bb
-0.002721727 -0.008689722 -0.00841634 -0.0006566296 0.021670591 -0.024845522 -0.022885522 -0.010588522
0.0077752075 0.0051760823 -0.014123425 -0.023324292 0.0132194515 -0.007117361 0.015703574 0.027509078
-0.003505513 -0.038554274 -0.018117517 -0.023670977 0.03742742 0.011505559 -0.0151598705 -0.037934046
0.00093537074 -0.0049496545 -0.040934768 0.011129628 -0.03110553 -0.0091234995 0.031404227 0.024894139
0.039875448 -0.0406762 -0.013145074 -0.04047337 0.0214731 0.019118747 0.040272325 0.034274146
-0.037640914 0.02769733 0.007849574 -0.03437155 0.04104036 -0.029160276 -0.006501402 0.032998588
0.02352593 -0.010194446 -0.0308997 0.021980911 -0.022737196 0.009569983 0.020047527 -0.011872168
-0.025871038 0.008239269 0.015203362 0.035724353 0.002128462 0.015091797 -0.0110835135 0.040300634
-0.0072746277 0.022085126 0.019205203 -0.025001716 -0.038090765 0.0009755145 0.00073592365 0.03629112
0.025050472 0.021765172 -0.014895668 0.040511232 0.011737744 0.0014313161 0.016640207 0.0009891391
0.02462103 0.0005593946 0.02955532 -0.03003265 -0.035823673 -0.037777748 0.037729807 -0.014090131
0.018193996 0.02430847 0.012935361 -0.037404075 0.011085495 -0.006620144 -0.026741162 0.034843426
-0.03890059 -3.33637e-05 0.026119774 0.02221333 0.019229716 -0.030800521 -0.009313628 0.014443323
0.03553468 0.013537606 -0.032761432 0.029951846 0.026595637 0.0004305641 -0.015368253 -0.016069299
0.01865254 -0.0060307086 -0.0022664368 0.02757993 0.014362454 0.026561743 -0.011374245 -0.020599723
-0.017383423 -0.024392486 0.005723407 0.02519179 0.0024906895 0.016459253 -0.0037844877 -0.031279758
0.0072366 0.015365477 0.023224503 -0.012496209 0.019432187 -0.00056639314 -0.0064970455 0.028877866
-0.011303147 0.028217917 -0.0036842674 -0.024203673 0.022113811 -0.027016744 0.0058392137 -0.022944894
0.010436277 0.0046994193 0.0035483688 -0.04151563 0.020853287 0.002508869 -0.029150888 0.014096126
0.033799198 -0.020084998 0.0012191087 0.034453727 0.0016057094 -0.020295914 -0.0018342435 -0.0006880164
-0.029573303 0.024917021 -0.0237881 -0.038915873 0.003568704 0.022714388 -0.04105605 -0.003039807
0.03193019 -0.011028459 0.0034039766 0.007905851 -0.029781625 -0.038682304 0.027892103 -0.0036364447
0.006491269 -0.027522793 -0.0045096627 0.014980948 0.017912265 0.032374334 0.0046904734 0.009138609
-0.005325 -0.033154186 -0.017233005 0.037376966 -0.028706029 0.028702945 -0.03458406 0.0011772116
-0.025217548 0.036663763 0.029593244 0.002750377 0.0030722718 0.016814237 -0.014427776 -0.028610935
-0.040978145 0.025817689 0.023075601 0.023771819 -0.026219493 -0.0008738985 -0.01364551 -0.038592294
-0.0095413625 -0.028551713 0.009132038 -0.008884167 -0.013220355 -0.019485291 0.020412778 0.03411655
0.033832185 0.026098993 0.017311623 -0.031932216 -0.020653944 -0.027437627 0.009588237 -0.0044376655
0.039887443 0.018445116 0.02607589 -0.016076788 -0.020259779 -0.030285444 0.024237048 -0.012260616
0.038455926 -0.020037174 -0.036719613 -0.030976688 -0.034776233 -0.0007503977 0.030708527 -0.034871873
-0.016813075 -0.016194563 0.016449928 0.0062992573 0.029675161 0.02465507 0.02721866 0.033553742
-0.033008367 0.017068949 -0.004942035 0.02808192 0.03945803 0.0073669506 -0.028293958 -0.002985537

fc1.bias f4 [120]
00000000: bebb cbbc 681e 3a3c df3a 0abc a409 1c3d
00000010: 6b52 483c ae73 c73c 8b89 b33c e6ea 263a
00000020: f944 d6bc db0d bc3c eefc cebb a9d2 0d3d
00000030: 424e 073d 0082 d7bc 7676 043c 10f2 4fbb
00000040: 8872 1abd 12dd d03b 7b62 75bc 2137 1abc
00000050: 7a4a 1bbd 3579 263d 7d28 73bc 33a6 25bc
00000060: 582f 34bc 3aa1 343c ee45 8f3c b691 9d3c
00000070: a9f4 e53c e526 c13c c80e c93c 8fe3 94bc
00000080: 861b 15bc a3dc d7bc e324 05bd a2ad 2bbd
00000090: 22dc 02bd 96e1 29bd 1416 ce3c 4eca 193d
000000a0: 6170 cf3b c68a d33c ffb2 31bc ec2f 4bbc
000000b0: 5762 b6ba 9ca8 a13a d01a c43c dfb3 ddbc
000000c0: d8ca b3bc c8ad c23b 256c 2d3d a00d ba3c
000000d0: c65e f5bc 8cf9 0d3d b787 1b3d 4859 29bd
000000e0: e4a5 e73b 4174 c83c ca57 8e3c eb82 cf3c
000000f0: bf50 01bd 6f01 0c3c 7ca8 993b 567c aa3b
00000100: 0314 e53b debd d8bc a7b4 233d 04db 043d
00000110: cce5 20bd 586d be3c 06a3 99bb be64 103b
00000120: 1ad3 2c3b 7214 fdbc 87fa bc3b b9cd 3abc
00000130: dd38 fabc ac6d 3dba 3013 3a3d 9ca9 9abb
00000140: 462d 113a 525e ef3c 6a90 bdbb bdf2 16bd
00000150: a5d0 0cbd 4cf8 c2bc a8d3 e7bc 57bd 20bd
00000160: 3673 3abd da94 8a3b 96fd 323d 452d ff3c
00000170: bdc6 05bd 6ca4 033d dd25 0d3d fd08 93bb
00000180: 979c 24bd 6d51 b5ba 1adb f5bc 2827 353c
00000190: 5aaf 2f3d 0cb2 c5bc ad95 babc a9e3 91bb
000001a0: 3026 b43b eac2 88bc 8f80 1bbd f378 edbb
000001b0: ddf7 ae3c 2df5 5d3d 0ed4 a3bb efee 04bd
000001c0: 6111 b83c f972 02bc a3bc fb3c 2021 f6bc
000001d0: 5ec0 633b 5592 4fbb 5706 bebc 91cb 833c
-0.024869796 0.0113597885 -0.0084368875 0.03809513 0.012226681 0.024347153 0.021916172 0.00063674
-0.026155936 0.022955826 -0.0063167727 0.03462473 0.033033617 -0.026307106 0.008084884 -0.0031729974
-0.03770688 0.00637401 -0.014977093 -0.009412558 -0.037912823 0.040642936 -0.014841196 -0.010110426
-0.010997616 0.0110247675 0.0174894 0.01923452 0.028070765 0.023578117 0.024543181 -0.018174915
-0.0091008 -0.026350325 -0.03250588 -0.041913636 -0.031948216 -0.0414749 0.025157012 0.03754645
0.0063305353 0.025823008 -0.010845899 -0.012401562 -0.0013914806 0.0012333575 0.023938566 -0.027063308
-0.02194731 0.0059411265 0.042339463 0.022711575 -0.029952418 0.034661815 0.037971225 -0.04134491
0.0070693363 0.024469497 0.017375845 0.025330981 -0.031571146 0.008545264 0.0046892744 0.0052028103
0.006990911 -0.026457723 0.039967205 0.032435432 -0.03928165 0.023245499 -0.0046886234 0.0022032703
0.0026370944 -0.030893538 0.00576717 -0.011401587 -0.030544693 -0.000722612 0.045428455 -0.004719926
0.00055380573 0.02921978 -0.0057850378 -0.036852587 -0.034378666 -0.023800038 -0.028299168 -0.03924307
-0.04552003 0.0042291703 0.04369887 0.031149516 -0.032660235 0.032139227 0.034459937 -0.0044871555
-0.0401884 -0.0013833471 -0.030011702 0.011056699 0.042891838 -0.02413275 -0.02277645 -0.004452188
0.0054977164 -0.016694505 -0.0379644 -0.0072470843 0.021358425 0.054188896 -0.004999644 -0.032454427
0.022469224 -0.007961982 0.030729597 -0.030045092 0.003475211 -0.0031672914 -0.023196382 0.016088279

fc2.weight f4 [84, 120]
00000000: 4441 2f3d a596 8cbd 7da1 3bbc 0601 61bd
00000010: 86ab 63bc f736 a23d 6851 063d 5315 02bd
00000020: fc5a 52bc 7c95 62bd c297 b93d f05a bcba
00000030: eff3 bcbc 0a74 8d3c 29a8 8b3d 023e 42bd
00000040: efa1 15bd 9ada 713d 97c8 aebd 630d d8bc
00000050: 2184 7bbd 7e67 abbd fcc0 6d3c 7c69 833d
00000060: a74b 563d e1b2 fe3c 047f 34bd 96f2 5fbd
00000070: 213c 87bc 7f2f 203d 4f30 21bd 196e a53d
00000080: 767b fcbc f5d1 823d b315 f6bc bb7b 873d
00000090: cccf 90bd 88fb db3c 68b1 a43d bcf3 a3bd
000000a0: 7c22 46bd 0cf6 e73c 3f89 56bd 5607 9e3d
000000b0: 34dd 54bd d56d 463d 122c a6bd 79ae b0bb
000000c0: 2746 253d 9a14 43bd 7dc6 6fbc d299 a3bd
000000d0: 4112 afbd c130 a6bd 31ea 473c 4200 2b3d
000000e0: 1212 8cbc e92a 273d 7f2f 8b3d f6c0 a03d
000000f0: 8fa5 babd 108d aa3c 4a8e 5d3d b5c1 603c
00000100: 257f 7fbd 42fd d93b 6d3a d1bb 3047 cb3c
00000110: 7c88 a53d 841c afbd fac5 903d 5373 b53c
00000120: c78d 4b3b e460 9bbc 31db 37bd 36ab f03c
00000130: 60c6 e13c 71c6 d63c 39e2 87bb c859 e2bc
00000140: eb9e 373c 634a aebd 57c1 bcbc 48de a0bd
00000150: 47d9 a63d 788d 88bd 4969 8a3d aa03 b6bd
00000160: e16f 483c 3beb f23c 2927 093c 7a5e 63bd
00000170: 7a30 9fbd faae 433d c2ca 103c cf2b 953d
00000180: 092a 48bd 928a 60bc db4c 1c3d 96de 32bd
00000190: d080 a8bd 6a63 693d 20bb b73d 743d 9e3d
000001a0: f364 efbc 40eb 11bd af4d 8bbd cd30 60bd
000001b0: 5df6 11bb c326 8b3d 8b4e 543d 047c 803c
000001c0: e8f1 a3bd 2587 633d c4e0 fcbc c2d4 77bc
000001d0: f068 69bd 8eb4 063d 5b26 a73d e4af 273c
000001e0: 1016 71bc de5f 483d 9ac8 373d 1777 a2bd
000001f0: 6fff 223d 123c 933d 18f7 5fbd 82b1 7e3a
00000200: f1f0 813d 9bdc 2e3d 1714 99bd 4391 45bd
00000210: ee0a 283d eb0d 9fbd 1d47 4f3d 0a38 9c3d
00000220: 5e32 f3bc 7c03 a23c c506 4d3d d96e 0b3c
00000230: d68a 9ebc 63ab 2d3c 25ab a13d 8d42 6cbb
00000240: 48cc 94bd 08eb 8ebd 9fb1 203c dee0 bebc
00000250: 1faf 86bc 8f04 4f3d 81e2 febc 2649 b7bd
00000260: 428a 93bd 6c59 083d 5cd7 b43d f6da 233d
00000270: 268a 503d 0649 90bd ec28 d13c 3db9 ae3b
00000280: 120f f3bc 3b2c 1dbd 0ae4 8cbd 7dd1 363d
00000290: 5c00 babd 874d d338 b912 8c3d e5fa 5c3d
000002a0: 6cf8 21bb 694e e7bc 2fa7 0bbd 0b6f 733c
000002b0: a412 9dbd 45b6 5f3c 4bbe 25bd c6c4 9c3d
000002c0: a3a8 abbd b35b 733d b869 13bd f855 703d
000002d0: 97d3 e13c cc8e 6cbd c1c1 113d 5c47 513d
000002e0: c18e 893d d6c4 9cbd 9cab d9bc 963f f5bc
000002f0: d536 90bc 792f 10bd 1059 74bc 28fc 9fbd
00000300: cf66 28bd c5f6 e4bc 9d47 a13d 0d7f 233d
00000310: e025 403d 213a 47bd 9b30 9e3d 0dca 4a3d
00000320: a35d aebc a57c b8bd 75de d33b 6747 99bc
00000330: d41a 863d f961 533d d759 0a3d 9ba6 8b3b
00000340: d490 53bd f9dd d6bc 63b5 97bb d457 103d
00000350: 7fb4 1f3d b01d 6cbc 7d8b ec3c 6949 75bb
00000360: 0603 013d ac25 67bd e32e 813c 6275 b1bd
00000370: 7866 bb3c 5e30 5a3d 2a9d e43c e01f 94bd
00000380: f9a0 8d3d f59d b93d 9e5e 653c 3e73 0cbc
00000390: e47c 6d3c a6e4 00bd 7189 94bd d48b 62bc
000003a0: 520d 373d 2c1d ae3d f0d1 323d 93f8 a33d
000003b0: 72f8 853d 509a 613c 6e85 acbd 4771 38bc
000003c0: 6c11 f23c 858b cf3b 2149 943b 7d4b ca3c
000003d0: 5ae6 a53d 1f19 203d 045e e43c 0142 a6bd
000003e0: 404e 8bbd a3da 043d 06ea 7dbd 5daa 49bd
000003f0: 1b29 043d c5b5 963d 39d3 de3c 5a48 28bc
0.04278685 -0.06864671 -0.011452076 -0.054932617 -0.013895875 0.0792064 0.03279248 -0.031758618
-0.012839075 -0.05531834 0.09062149 -0.0014370363 -0.023065535 0.017267246 0.068191834 -0.047422417
-0.036531385 0.059046365 -0.08534353 -0.02637357 -0.061405305 -0.08369349 0.014511343 0.06416604
0.05231824 0.031091155 -0.044066444 -0.054674707 -0.016508164 0.039107796 -0.03935271 0.0807764
-0.03082059 0.063877024 -0.030039644 0.066153966 -0.07070884 0.026853338 0.0804165 -0.08005473
-0.04837273 0.028315566 -0.05237698 0.07716243 -0.05196877 0.048444588 -0.081138745 -0.0053918925
0.040350106 -0.04762707 -0.014634726 -0.07988323 -0.085484035 -0.08114768 0.012201832 0.041748293
-0.01709846 0.040812407 0.067961685 0.078493044 -0.09113609 0.020819217 0.054090776 0.013718058
-0.062377114 0.006652505 -0.0063851387 0.024814218 0.08082673 -0.08550361 0.07069011 0.022149717
0.0031059848 -0.0189671 -0.04488677 0.029378515 0.027560413 0.026217671 -0.004146841 -0.027630702
0.011207323 -0.08510282 -0.02304141 -0.07854897 0.08146911 -0.06667608 0.06758363 -0.088874176
0.012233705 0.029653182 0.008371153 -0.05551002 -0.07772918 0.047774293 0.008837404 0.072837465
-0.048868213 -0.013704913 0.038159233 -0.043669306 -0.08227694 0.056979574 0.08971238 0.07726565
-0.029222941 -0.035624743 -0.06801926 -0.05473404 -0.0022272088 0.067945026 0.051832717 0.015684135
-0.08005124 0.055548806 -0.030868895 -0.015126409 -0.05698484 0.032887034 0.081616126 0.010234807
-0.014714733 0.04891955 0.044869043 -0.07932871 0.03979438 0.07189192 -0.054679006 0.0009715782
0.06344784 0.042690855 -0.07474535 -0.048234235 0.04102605 -0.077663265 0.05060493 0.07627876
-0.029687103 0.019777052 0.050055284 0.008510315 -0.019353312 0.010599944 0.07893971 -0.003605041
-0.07265526 -0.069784224 0.009807973 -0.023300584 -0.016440926 0.050541457 -0.031113865 -0.08949499
-0.07204105 0.033288404 0.08830139 0.04000374 0.050913 -0.07045178 0.025532208 0.0053321407
-0.029670272 -0.03837226 -0.068794325 0.044633377 -0.090821 0.000100757046 0.068395086 0.05395021
-0.0024714721 -0.028235631 -0.034094986 0.014858018 -0.07669571 0.013654296 -0.04046468 0.07654719
-0.08381774 0.059413623 -0.035989493 0.058675736 0.027566714 -0.05775337 0.03558517 0.051093444
0.06716681 -0.07654731 -0.026571088 -0.029937547 -0.017604271 -0.035201523 -0.014913812 -0.07811767
-0.04111367 -0.0279497 0.07874987 0.039916087 0.04691112 -0.04863942 0.077241145 0.049509097
-0.021284884 -0.09008149 0.006465728 -0.018710805 0.06548086 0.051607106 0.033777084 0.0042618043
-0.05165179 -0.026228892 -0.0046297773 0.03524001 0.038990494 -0.014411375 0.028875107 -0.003742779
0.031497024 -0.05643241 0.015769428 -0.08664967 0.02287601 0.053268783 0.027906973 -0.07232642
0.06915469 0.09063331 0.013999609 -0.008572398 0.014495108 -0.031468056 -0.07252777 -0.013827283
0.044690438 0.08501658 0.043657243 0.08006396 0.06541528 0.013769701 -0.08423887 -0.011257476
0.029549323 0.0063337707 0.004525319 0.024694199 0.08100577 0.039086457 0.027876861 -0.08118058
-0.068020344 0.03243507 -0.06199076 -0.049234737 0.032265764 0.073588885 0.027200328 -0.010271156

fc2.bias f4 [84]
00000000: c1a9 b4bd dff2 5ebd 7140 163d d9aa 453c
00000010: d34e 9bba 495b a1bd 47fb 6ebd 440f b0bd
00000020: a2e5 693d b57b 5e3d f815 afbd 77bc 173d
00000030: e480 a03d b260 6f3d cdd9 5c3c 13cf 84bd
00000040: c332 3abd 8781 a83d f397 b33d 8019 3d3d
00000050: bfff a43d 7923 3dbd 410b 88bd 9416 803d
00000060: a1d0 1ebd b2e9 50bd 4221 a3bd 00c3 2ebd
00000070: 5d3d 09bc fcc4 9cbd 2dfd 873d ced5 d53d
00000080: 09e0 783d ed04 a8bd 8398 3dbd 8fbd 853d
00000090: 7756 40bd 4ba4 88bd 6226 463d 1361 24bd
000000a0: 5c24 84bd 553e f7bc a82b b7bd 5ef3 9b3d
000000b0: a771 29bd 2cb6 6f3d c5a8 1c3d c8a0 89bd
000000c0: d970 61bd c4d0 4c3d 93a1 5e3c 4650 183a
000000d0: ddd1 30bd d48d 25bd 4018 0abb c134 e2bb
000000e0: 1801 743d de95 923d f14a 423d 619c 0a3d
000000f0: 64ee e73c a3c9 8f3d ca84 b3bc d46f b1bd
00000100: 43fb 1b3c e88c f7bc c4cf 9a3c 7228 b33d
00000110: afdf 853d 34c3 eabb 24ef 2c3d d546 243d
00000120: ca5b c0bd ab11 4a3d 177f 963c cbbd cdbd
00000130: 0d25 0abd d95d 80bd 11ac 9a3d d98d 0e3d
00000140: c681 4c3d 57ae 943b 216f 43bd 9fc9 813c
-0.088214405 -0.05443084 0.03668255 0.012064659 -0.0011849053 -0.078787394 -0.058345105 -0.08596662
0.05710376 0.054317195 -0.08549112 0.03704497 0.07837084 0.058441825 0.013479662 -0.06484809
-0.045458566 0.082278304 0.087692164 0.046166897 0.08056592 -0.046176407 -0.066427715 0.062543064
-0.038773183 -0.05100412 -0.07965328 -0.042666435 -0.008376447 -0.07654759 0.06640086 0.10441171
0.06076053 -0.082040645 -0.046288025 0.06530296 -0.04695746 -0.066719614 0.04837645 -0.04013164
-0.064522475 -0.03018109 -0.08943874 0.07614778 -0.041368153 0.058523342 0.03824689 -0.0672012
-0.05503926 0.050003782 0.013588327 0.00058103015 -0.04316889 -0.04041846 -0.0021071583 -0.0069032614
0.059571356 0.07157491 0.04743475 0.03384054 0.028311916 0.07020881 -0.021913905 -0.08663908
0.009520355 -0.030218557 0.018897898 0.08747949 0.06536805 -0.0071643833 0.04222025 0.040106613
-0.093925074 0.049333256 0.018371148 -0.10045966 -0.03372674 -0.062679 0.0755235 0.034803245
0.04992845 0.0045373845 -0.047713403 0.01584321

fc3.weight f4 [1297, 84]
00000000: 47cd 20bd b9fa 283d 0aac c9bd 6d6a 423d
00000010: 9300 94bc dacb 803d d365 d5bc e559 a63d
00000020: d984 a13d 9b68 dbbd 02be 15bd c916 803d
00000030: 58d9 4bbd 7122 bbbd 0d25 9c3c 12c9 8a3d
00000040: e159 9dbd 73e5 c33d fee0 c9bc 4b9a 4c3b
00000050: 1ce1 813d 490b 8ebd c996 943c 3168 78bd
00000060: d157 c23d b653 083d 437a 8c3d 0ea0 d0bd
00000070: 9732 b33d 45a2 b73d e132 81bd 71f7 7cbc
00000080: e450 41bd f129 43bd fe66 883d 9417 c039
00000090: 7e09 dd3d 25e3 aebb 17ca 373d 5bd8 873d
000000a0: aa6b 943b a542 26bc 3804 cdbd be7f dc3d
000000b0: 35a5 cabd 269b b03d 79be a63d 23a9 793d
000000c0: 8233 60bd 46d3 0cbd acc1 49bd fc53 93bd
000000d0: ab1b ad3c 11cd 4bbd acbd 883c 7f91 ecbc
000000e0: a2e1 2b3d 7216 a33b 0a34 90bd 5444 843d
000000f0: 5497 d6bc aa8d bebc 52ba 0f3d 015b 1dbd
00000100: d948 963d f5ac 643d e9c8 3d3d 7196 d53d
00000110: 9253 36bd 1669 c1bc a061 ab3c 6b8a 1e3d
00000120: 779c c8bd 8f5b a13d c319 b73d 3f36 aabc
00000130: d9f5 8cbd c578 aebd 8e8a d9bd ca28 2bbc
00000140: 5558 acbd cb73 383d 7d2e 913d ec3c d4bd
00000150: 9c91 bc3d 48a2 2dbd 11cf b7bc 193d 103d
00000160: 124d 723d fbab 153d fe94 b53d 96d2 87ba
00000170: 9bd0 723d fd87 babd 6d07 38bd da2d d9bd
00000180: 1fb1 c1bd c722 d6bd 65f7 bc3d f62f dabc
00000190: e6ee 84bd 0658 90b7 d2b0 123d 4954 c23d
000001a0: bfc1 c5bd 818b 5bbd 4eca 98bd 77d6 793c
000001b0: 7273 45bd 9e2e 3f3c 8bb8 c4bd 066e adbd
000001c0: 312e 77bd bfc2 3bbd e422 abbd 000f 883d
000001d0: 4421 c1bb f563 b93d f98c 943d 3a5e 4bba
000001e0: 02a7 fabc 5f43 dc3d 90ba a6bc 97cf 5dbc
000001f0: 9d03 403d c3f4 0cbb 87be a3bd 3391 1fbd
00000200: 26fb c6bb b297 59bd 8358 883c 4ece 913d
00000210: 6652 35bd 728e cc3d 506e 95bd 57cd cebd
00000220: a018 ad3d fd8b cbbb 3ca8 acbd 00fd 273d
00000230: b1c0 c0bd e9f2 c6bd 5f11 013c b870 423c
00000240: 79b2 8dbd b422 ca3d e2c6 873d ada5 9a3d
00000250: 9408 6f3d bf49 debb 423f 873d 7695 71bd
00000260: 467d cf3d d1da 8c3d 894f 7a3c d6fb bfbc
00000270: 8fb7 dd3d d7d0 41bd 45de 543d 51db e5bc
00000280: 33ab 893c 4e69 5e3d 0f57 a7bd 2c1e dfbc
00000290: e324 5b3b d41a 4ebd 5edf 86bd 00ce aebd
000002a0: de9c 15bd 8fe4 d0bd e3ef 4c3c f57b 633d
000002b0: 9476 023d 1e42 1ebc fccb 8fbc 1080 523d
000002c0: b740 de3d 93c9 903d 98ff c8bd 2062 05bd
000002d0: 2171 773c 3223 6ebd cebf 643d 65fc c5bd
000002e0: 8ec1 433d da9d 19bd 693f 143d ceb6 bd3d
000002f0: 06ba bc3d bce4 bfbd ded8 4d3d a7a1 93bd
00000300: f398 da3d d226 2dbb 320e 2bbd 51ce 22bd
00000310: af18 003d 0ee8 9a39 ec75 893d 6491 dd3d
00000320: 62d8 a63d 439c c1bd 2432 3f3d 34aa f9bc
00000330: f1ef a4bd c580 1bbb 90c0 8ebd fdd0 3a3d
00000340: b015 c3bd 1d63 293d 07df acba c08f 36bc
00000350: 8313 e93c 971f 623d 2fa2 13bc 0625 573d
00000360: 1e55 033d fdcb b5bd 48af 8e39 b9ef 813d
00000370: 1800 d3bd 425e 3bbc e45c c6bd e7ec d03d
00000380: 5a03 9bbc 562b d9bd e1cb 86bd 5425 173d
00000390: bd1a a83d ccb4 c7bd 121e b13c e630 85bd
000003a0: d81b f3ba b341 cfbd d074 ce3b 4378 3d3d
000003b0: 7a55 f63c d5a2 b03d 62a3 59bd 82e6 73bd
000003c0: 66fb 423d d931 95bd 2f70 533d c5cf d4bd
000003d0: b6e1 ac3b 5841 efbc 0fad 86bd 729f 19bd
000003e0: dd97 943d b3db 3ebd dc10 a13d 0f2f be3c
000003f0: 5b51 84bd fc14 54bd a5e3 88bd c906 7fbd
-0.039258268 0.041254733 -0.09847267 0.047464777 -0.01806668 0.062888816 -0.02604953 0.08122615
0.07886667 -0.10713311 -0.03655816 0.06254346 -0.049767822 -0.091374286 0.019060636 0.06776632
-0.07683159 0.09565248 -0.024643417 0.0031219895 0.06341764 -0.06935746 0.018138306 -0.06064624
0.09489406 0.033282958 0.06859257 -0.10186778 0.087498836 0.08966497 -0.063085325 -0.015439854
-0.047196284 -0.04764742 0.06660269 0.0003663866 0.10792826 -0.0053371363 0.044870462 0.066330634
0.004529436 -0.010147725 -0.1001057 0.107665524 -0.09894792 0.08623342 0.081417985 0.060952317
-0.05473662 -0.034381174 -0.049256966 -0.07193753 0.021131357 -0.049756113 0.016692005 -0.028877972
0.041963227 0.004977041 -0.07041176 0.06458345 -0.026195206 -0.02326091 0.0350898 -0.038416866
0.07338113 0.055829007 0.04633418 0.10429085 -0.044513293 -0.02360968 0.020920575 0.038706224
-0.09795468 0.078787915 0.089404605 -0.02077782 -0.06882829 -0.08519129 -0.1062213 -0.010446737
-0.084152855 0.045032304 0.07088945 -0.103631824 0.0920746 -0.04239109 -0.022437604 0.035214517
0.05915553 0.036540966 0.08866309 -0.0010362442 0.059280973 -0.09107969 -0.044928957 -0.106044486
-0.09457611 -0.10455852 0.09226874 -0.026634198 -0.06490879 -1.7207127e-05 0.03581316 0.09488732
-0.09656095 -0.05359984 -0.074604616 0.015248886 -0.0482058 0.011668829 -0.09605511 -0.08468251
-0.060346786 -0.04584002 -0.08356264 0.06643486 -0.005893858 0.090522684 0.07253451 -0.00077578763
-0.030597214 0.107550375 -0.020352632 -0.013538263 0.046878446 -0.0021508194 -0.079953246 -0.038956832
-0.0060724197 -0.053123184 0.016643768 0.071194276 -0.044268034 0.09988107 -0.07296431 -0.10097759
0.084519625 -0.0062117563 -0.08430526 0.041012764 -0.09411753 -0.097143 0.007877677 0.011867695
-0.069188066 0.098699 0.06629731 0.075511314 0.05835779 -0.0067836936 0.06603862 -0.058980428
0.10131316 0.068776734 0.015277752 -0.023435514 0.10826027 -0.047318306 0.051969785 -0.02805868
0.016805267 0.054299645 -0.08170902 -0.027236067 0.0033438734 -0.050318554 -0.06585573 -0.08535385
-0.036526553 -0.10199844 0.012508365 0.055538137 0.031851366 -0.009659318 -0.017553322 0.05139166
0.10852187 0.07069697 -0.09814376 -0.032564282 0.015102656 -0.058139034 0.05584698 -0.09667281
0.04779201 -0.037504055 0.036193285 0.09263383 0.09215169 -0.093697995 0.05025565 -0.07208567
0.10673704 -0.0026420844 -0.041761585 -0.03974754 0.03127354 0.00029546063 0.06711945 0.10818747
0.081467405 -0.09453633 0.046678677 -0.030476667 -0.08053578 -0.0023727876 -0.06970322 0.045609463
-0.09525621 0.041354287 -0.0013189026 -0.011142671 0.028451687 0.055205908 -0.009010836 0.052525543
0.032063596 -0.08876798 0.00027214945 0.063445516 -0.10302752 -0.011436047 -0.09685686 0.102014355
-0.018922497 -0.10603969 -0.065818556 0.036900833 0.08208225 -0.09751281 0.021620784 -0.06503467
-0.0018547727 -0.10119953 0.006300546 0.04625727 0.030070055 0.08624808 -0.05313433 -0.059546
0.047603033 -0.07284898 0.05162066 -0.103911914 0.0052759303 -0.029205963 -0.06575977 -0.037505575
0.07255528 -0.04659624 0.07864544 0.023215799 -0.0646083 -0.051777825 -0.06684045 -0.06226233

fc3.bias f4 [1297]
00000000: 3170 4b3d cc11 c0bd ec99 5abd fbce 8d3d
00000010: a3fa 97bd 5b77 a83d 9835 d6bb eb1d 553b
00000020: 7f22 8dbd afe2 84bd c93c b7bd 18a4 c23b
00000030: cf32 6d3d fb68 54bd 6622 adbd f73c bc3d
00000040: 9c95 94bc 3b9d cc3d 5066 4abd c81a cfbd
00000050: ceba 973d 3d50 4d3d ff59 41bc 95d6 babd
00000060: ecda 37bd 4643 0fbd 30b9 7b3d 0695 b03d
00000070: 1479 5d3d d6b2 5a3d 89e9 6cbd 98c6 87bd
00000080: 9ec5 cfbc 1b03 7cbc 6d38 9abd dbd7 f03c
00000090: 57fb 79bd a5b1 8ebd 8e85 883d abfa 77bd
000000a0: 23ba b2bd 1ba5 b23d 1256 efbc 9ea2 6dbd
000000b0: b295 b3bd b70e 90bd 25af 5f3d d519 b3bd
000000c0: 7ece 673b 95fa 04bd fb22 1b3d cdad 85bd
000000d0: d27e d23d 8468 953d c208 79bd c62f c43c
000000e0: 5a7a 09bd 95ae bebc f2d9 47bd de4c b53d
000000f0: a4ea 99bd 3421 73bd bd8f 7a3c 810e 353d
00000100: 4e37 e3bb 796f 59bd 6fc4 2f3d 441c c63d
00000110: 3ad8 ad3d 5828 6a3d d45a 97bd 2d12 aa3d
00000120: 179f 44bd fc00 3ebd a75f a6bd 5575 823d
00000130: c42d ecba 42a7 0abd 7808 f63c 3db8 9fbc
00000140: 09ec 4abd 8198 b1bd 95f5 57bd 9df1 b53d
00000150: 425f 5fbd 0fe9 483d 56bb c1bb bf3f 84bd
00000160: b9e9 94bc da6d 31bc 2541 4bbd 1204 90bd
00000170: b8ba bf3d 6982 42bc 8aeb 9a3b f663 63bd
00000180: f0ae e5bb 15c8 b9bd d50a 71bd 7ec2 5a3d
00000190: 19ff 9fbd 75ae 8a3d 6271 2fbc 23ad 7dbd
000001a0: 5448 17bd 4dae 80bd fb5c cebd e363 bd3d
000001b0: 92ec 253d 3b8b 433d ba97 f63c 4c8b 8cbb
000001c0: fbd9 053c c925 13bd 9c70 96bd 1d7e 8c3d
000001d0: 1ac4 b43d 902c dfba a68d 2b3c 76cb 45bd
000001e0: d4d0 b2bd 3c30 29bc c151 98bd 751c d53d
000001f0: ed20 703a 804f be3d 32fb bcbd e347 833b
00000200: ab01 bdbd 0e30 5c3d 2bfc 29bc 2d99 b5bd
00000210: f1eb b43c 748f 99bd 1b29 48bd b3e9 cf3c
00000220: 12b6 d33d ae95 bbbd 4444 d1bd 8c43 063d
00000230: fe1f c93d 1d3c 79bb f251 98bb e7bf 62bd
00000240: d665 cc3d 3159 033d bfbb d2bd dda4 813d
00000250: d1bb 933d c563 053d b642 fbbc 31b6 c63c
00000260: 240f be3d bb78 89bc c230 253d 10f3 4d3d
00000270: 3b18 fcbc bdee 1fbd 6cbd 60bd d041 113d
00000280: b0b5 adbd c381 533c 8c42 1a3d 19c0 91bc
00000290: 36f3 eebb 1f42 aabd 80d3 c53d 49bc 933d
000002a0: 5305 403c ef3b a8bd 7689 8dbc 2843 69bd
000002b0: d3b1 5ebd 747c cd3d 79a1 c3bd 10f8 223d
000002c0: 75ff e3bc b4a9 953d e8f9 9d3d a2b3 f8bc
000002d0: cf7c a6bd db57 cb3d 164a 3f3d 6cff d53c
000002e0: f9a0 11bd 53a6 813c 64ba 83bd 0301 c23d
000002f0: 5c14 6dbd 544d 323d 2f29 533a 8c50 c43d
00000300: bc2f bfbd 55ac 58bd a8da 02bb e55c 803b
00000310: aff7 e63b 485b 84bd 3635 233d 8812 1cbd
00000320: d9ed d43d c0cc 14bc d72c d33c c9fb b4bc
00000330: a984 e7bc 2324 af3d e597 c4bd 9437 c4bd
00000340: 46a0 34bc 9994 163d 422c bd3d ac66 a7bd
00000350: d652 e1bc 1127 cd3d df19 20bc 0e2b cbbd
00000360: 2f90 cf3a ffcc 8abd a64c b13c 10fa d5bd
00000370: 4bf3 373d 5da1 7bbd 578e 8b3c e683 b23d
00000380: ce45 c03d bdfa b9bd 7443 c73d 87ab b7bd
00000390: 2a20 bdbd 98ef 1a3d dfe6 c53d 8d78 da3d
000003a0: 9d14 043d 3f4c 853b 1509 a8bd f3d3 99bc
000003b0: 4998 cfbd 0d3b cd3d f48a 5d3d 3ad5 6bbc
000003c0: d2aa 3d3d 8891 cfbd 5884 b93d 7c8c 913d
000003d0: 091c 28bd 4aea 503d 6784 4e3d 4fbd 243d
000003e0: 07d0 ef3c 3cf4 313c 593e fabc a822 c83d
000003f0: 7c13 093d acc8 70bd 0f5b 3d3c 4fc0 973c
0.04966754 -0.093783945 -0.053369448 0.06924244 -0.07420852 0.0822589 -0.0065371506 0.0032519053
-0.06891345 -0.06488549 -0.08947141 0.0059399717 0.057909783 -0.05185793 -0.084538266 0.091913156
-0.018137746 0.09990927 -0.04941398 -0.1011253 0.07408677 0.05012535 -0.011801242 -0.091229595
-0.044886515 -0.034976266 0.061455905 0.08622174 0.054070547 0.053393207 -0.057839904 -0.066296756
-0.025362786 -0.0153816 -0.075302936 0.029399803 -0.061030712 -0.06967477 0.066660985 -0.06054179
-0.08726909 0.087228976 -0.029215846 -0.058016412 -0.087687865 -0.07034057 0.05461039 -0.087451614
0.0035370882 -0.032465536 0.037875157 -0.065272905 0.10278095 0.072953254 -0.060799368 0.023948561
-0.03356395 -0.023276607 -0.048791833 0.08852552 -0.07515457 -0.059357837 0.015293059 0.044203285
-0.006934083 -0.053084824 0.042911943 0.0967336 0.084885076 0.05716738 -0.07390371 0.08304248
-0.048003282 -0.046387658 -0.08123713 0.063700356 -0.001801901 -0.033850916 0.030033335 -0.019497031
-0.049541507 -0.08671666 -0.05272444 0.08883975 -0.054534204 0.049050387 -0.0059122248 -0.06457471
-0.018177854 -0.010829413 -0.049622674 -0.07032026 0.09361786 -0.0118719125 0.0047277855 -0.055515252
-0.0070093796 -0.09071366 -0.05884822 0.05340814 -0.07812328 0.06771556 -0.010708185 -0.061932694
-0.03693421 -0.06283245 -0.10076328 0.092475675 0.040508814 0.047740202 0.030101646 -0.0042890664
0.008169646 -0.035924707 -0.07345697 0.06859992 0.08826466 -0.001702683 0.010470783 -0.04828974
-0.08731237 -0.010326441 -0.07437468 0.104058184 0.000916018 0.09292507 -0.09227599 0.0040063723
-0.09228834 0.053756766 -0.010375063 -0.088671066 0.022085162 -0.07498065 -0.048867326 0.025379991
0.103374615 -0.091594085 -0.10218099 0.03277926 0.09820555 -0.0038030215 -0.0046484405 -0.055358794
0.09980361 0.03206748 -0.10289716 0.06330273 0.072135575 0.03256585 -0.030671459 0.024256798
0.092802316 -0.016781202 0.040329702 0.05028063 -0.030773273 -0.039046038 -0.054868147 0.035463154
-0.0848192 0.012909356 0.03766112 -0.017791795 -0.0072921766 -0.08313393 0.09659481 0.07213647
0.011720019 -0.082145564 -0.01727746 -0.05694881 -0.054368805 0.10033503 -0.09552283 0.039787352
-0.027831772 0.07307759 0.077136815 -0.030359093 -0.08129274 0.099288665 0.046701513 0.026122771
-0.035553906 0.01582638 -0.064320356 0.09472849 -0.057880744 0.043530777 0.0008055148 0.095856756
-0.093352765 -0.052898724 -0.0019966755 0.003917324 0.007048569 -0.06462723 0.039845668 -0.03810361
0.10396928 -0.009082019 0.025778217 -0.022092717 -0.0282615 0.085518144 -0.09599284 -0.09580913
-0.01102454 0.036762808 0.09236957 -0.0817388 -0.02750532 0.10017217 -0.009771793 -0.099203214
0.0015835817 -0.06777381 0.021642994 -0.10448086 0.044909757 -0.061433185 0.017035646 0.08716564
0.09388314 -0.09081028 0.097296625 -0.08968263 -0.092346504 0.03782615 0.09663176 0.106675245
0.03224622 0.004067927 -0.08204857 -0.018777823 -0.10136468 0.10021029 0.054087594 -0.014394099
0.046305485 -0.1013518 0.09058446 0.071068734 -0.04104236 0.051004685 0.050419237 0.0402196
0.029274 0.010861453 -0.030547308 0.09772235 0.033465847 -0.058785126 0.011557355 0.018524317
