models/1296_pixels/6.pt (torch, 771783 bytes, 10 tensors)

conv1.weight f4 [6, 1, 5, 5]
0	0xbd079066	-0.033096693
1	0xbc995a46	-0.018719804
2	0xbe0e6e97	-0.13909374
3	0x3d6a9449	0.057270322
4	0xbd5dad12	-0.05412013
5	0x3e4d0fb8	0.20025527
6	0xbd930250	-0.071781754
7	0xbb8097fd	-0.0039243684
8	0xbe3314d5	-0.17488416
9	0x3de5208c	0.111878484
10	0xbe2dc59b	-0.16969912
11	0xbdec9af1	-0.1155299
12	0xbd15211a	-0.03640852
13	0xbd7e18a9	-0.062035237
14	0xbe2ab889	-0.16671957
15	0x3de335c2	0.11094238
16	0x3e3c3b95	0.18382104
17	0xbcd28929	-0.025700169
18	0xbd93bd1a	-0.07213803
19	0x3e29de95	0.16588815
20	0x3d92d95c	0.07170364
21	0xbc8580a9	-0.016296702
22	0x3c2cca85	0.010546331
23	0x3e0bafec	0.13641328
24	0xbdd901e9	-0.105960675
25	0xbde61ba0	-0.11235738
26	0x3dfb61f6	0.12274544
27	0x3d51a497	0.051182356
28	0x3db610b7	0.08889907
29	0x3e2435e2	0.1603618
30	0x3dc412b1	0.095738776
31	0xbe239cc6	-0.15977773
32	0xbe59c437	-0.21266256
33	0xbe332403	-0.17494206
34	0x3e444aea	0.19169202
35	0x3daa3c5c	0.08312294
36	0x3ca50759	0.020145105
37	0x3e0145fa	0.1262435
38	0xbe0bdcd6	-0.13658461
39	0xbd9f8262	-0.077885404
40	0x3e33370e	0.1750147
41	0x3e16ec7b	0.14738648
42	0xbe3c9ecd	-0.18419953
43	0xbdd2f8c4	-0.103013545
44	0xbe0d16f4	-0.13778287
45	0xbe005f4c	-0.12536353
46	0xbde740e4	-0.11291674
47	0x3cd66aaf	0.026173918
48	0x3c1e988e	0.009679927
49	0xbe04896e	-0.1294305
50	0xbdea038a	-0.11426456
51	0xbe064610	-0.13112664
52	0x3e33c556	0.17555746
53	0x3e2a9699	0.16659011
54	0x3cd17bd1	0.025571736
55	0xbd903057	-0.0704047
56	0xb9560812	-0.00020411637
57	0x3e3c607b	0.1839618
58	0xbdfc35d2	-0.12314953
59	0x3c0dc3a4	0.008652601
60	0x3e51f9eb	0.20505492
61	0xbc66f618	-0.014096759
62	0x3e19c0b0	0.1501491
63	0xbdc5c112	-0.09655966
64	0x3decce5d	0.11562798
65	0x3e5cf8da	0.21579304
66	0x3e03eb42	0.12882712
67	0xbcf86548	-0.030321732
68	0x3e08f717	0.13375507
69	0x3e6a39c0	0.22873592
70	0x3ddcea0b	0.10786828
71	0x3e29efdb	0.16595404
72	0xbd8b0e8f	-0.06789886
73	0x3e648722	0.22317174
74	0x3e40d48a	0.18831077
75	0x3d546e60	0.051863074
76	0x3dd27c33	0.10277595
77	0xbe342418	-0.17591894
78	0xbe3ad58a	-0.18245521
79	0x3e00501d	0.12530561
80	0xbdb95d8f	-0.09051048
81	0xbd96fe1d	-0.07372687
82	0x3e491d3f	0.19640063
83	0xbdf706f7	-0.12061875
84	0x3e554614	0.20827514
85	0xbb42acbd	-0.002970501
86	0x3d16066c	0.036627218
87	0x3e67198a	0.22568336
88	0xbde6759f	-0.11252903
89	0xbc126fe9	-0.008937814
90	0xbcca8ece	-0.024726298
91	0xbe3879f1	-0.18015267
92	0xbd4f49ff	-0.050607678
93	0xbd380820	-0.044929624
94	0xbe1248ed	-0.14285631
95	0xbde2beca	-0.110715464
96	0x3dcd6146	0.10028319
97	0xbe08caa6	-0.13358554
98	0x3e02b19b	0.12763064
99	0xbe1129f6	-0.14176163
100	0x3e2f7d8d	0.17137738
101	0x3e3e5bae	0.1858966
102	0xbd601ae2	-0.054713137
103	0xbd5ac802	-0.0534134
104	0x3d03b5f2	0.03215594
105	0xb8c258dc	-9.267192e-05
106	0xbdcd88ac	-0.10035834
107	0xbdc63507	-0.09678083
108	0xbd2a99b9	-0.041650508
109	0x3d991379	0.07474417
110	0x3ddf26d1	0.108960755
111	0x3ca94d19	0.020666646
112	0xbe1ed806	-0.15512094
113	0x3de8e4e4	0.113717824
114	0xbe2540b6	-0.16137967
115	0xbe36c43b	-0.17848293
116	0xbe1593bc	-0.14607137
117	0xbe3aabe1	-0.18229629
118	0x3e320ab1	0.17386891
119	0x3e211a5a	0.15732709
120	0x3dbb74ec	0.091531605
121	0x3e3548e0	0.17703581
122	0x3db0cdd8	0.086330116
123	0x3e2a7a3c	0.16648191
124	0x3e2a6d3a	0.16643229
125	0xbd82342d	-0.06357608
126	0x3b915507	0.004435185
127	0x3d9b3385	0.07578186
128	0x3d65eae0	0.056132197
129	0x3e314148	0.17310059
130	0xbc28e2b7	-0.010307959
131	0x3e0c3900	0.13693619
132	0xbb16e034	-0.002302182
133	0x3d3e1168	0.04640332
134	0x3e2b6da2	0.1674104
135	0x3e4901bd	0.1962957
136	0x3c4d9a00	0.0125489235
137	0xbc84870b	-0.016177675
138	0xbde1c700	-0.11024284
139	0xbd95e309	-0.07318694
140	0x3dd15e29	0.10223038
141	0x3dfbec15	0.123008884
142	0x3e49b293	0.19697027
143	0xbe09a5f8	-0.13442218
144	0x3e3a03a4	0.18165451
145	0x3e5ae32a	0.21375719
146	0x3e6a576a	0.22884908
147	0x3cb31101	0.021858694
148	0x3bb2194d	0.005435145
149	0xbd93fac5	-0.07225565

conv1.bias f4 [6]
0	0x3de212a2	0.1103871
1	0x3e8058a0	0.25067616
2	0x3dda4876	0.10658352
3	0x3d48ff9c	0.049071893
4	0xbdf912c4	-0.121617824
5	0x3d9c0963	0.07618978

conv2.weight f4 [16, 6, 5, 5]
0	0xbd7ed1f9	-0.062211964
1	0x3d98ebdb	0.07466861
2	0xbd3908df	-0.045174476
3	0xbd3390d0	-0.043839276
4	0xba686ece	-0.0008866609
5	0x3da77ad0	0.081777215
6	0xbd882e0b	-0.06649407
7	0x3d80b21f	0.06283974
8	0xbd6abf2e	-0.05731123
9	0x3dc50217	0.09619539
10	0x3da31179	0.07962317
11	0xbc28fc9e	-0.010314135
12	0x3d60ad27	0.05485263
13	0x3b052ce9	0.0020320958
14	0x3d6eb6b6	0.058279715
15	0x3d9b9754	0.07597223
16	0xbc8ee6ed	-0.017444098
17	0x3db803e9	0.08985121
18	0xbd3c47a7	-0.04596677
19	0x3d58789c	0.052849397
20	0x3d6c47c2	0.05768562
21	0x3d8aafcb	0.06771811
22	0x3d168945	0.036752004
23	0xbd13cde3	-0.03608502
24	0xbd4f9d38	-0.050687045
25	0x3d5bd1c2	0.053666838
26	0x3d8c14e8	0.06839925
27	0x3d2105b3	0.039312076
28	0xbbfeb4c6	-0.0077730147
29	0xbd28fe75	-0.041258294
30	0xbd0ae0b8	-0.033905715
31	0xbd36620d	-0.044527102
32	0xbce7dd02	-0.028303627
33	0xbca3bb89	-0.019986885
34	0xbcf6336e	-0.03005382
35	0x3cebdf0f	0.028792886
36	0x3da7d953	0.08195748
37	0x3dcd8db2	0.10036792
38	0x3d27581c	0.040855512
39	0x3d359778	0.044333905
40	0x3d9b4eae	0.07583366
41	0xbb184ed9	-0.0023240356
42	0xbd3cd669	-0.046102915
43	0xbd129b3e	-0.03579258
44	0x3dd49f4a	0.103819445
45	0xba42e0f1	-0.00074340316
46	0x3d8ddecb	0.0692726
47	0x3db2e3cf	0.08734857
48	0x3da2e3c7	0.07953601
49	0x3d9dba6c	0.07701573
50	0xbd9dd798	-0.07707137
51	0xbd9f9c20	-0.0779345
52	0xbd01bd2e	-0.031674556
53	0xbc2a8a98	-0.01040902
54	0xbd991551	-0.07474769
55	0x3ca2fd2e	0.019896116
56	0x3d8ed227	0.06973677
57	0xbda33d90	-0.079707265
58	0xbda4cc0f	-0.080467336
59	0x3d882a09	0.066486426
60	0xbcf879d6	-0.030331533
61	0x3c70c823	0.014696154
62	0x3d889d73	0.06670656
63	0x3b98ced5	0.004663328
64	0x3d53d91e	0.05172073
65	0x3c9387b1	0.018009039
66	0x3d094d56	0.03352102
67	0xbd41db1e	-0.047328107
68	0xbceb2000	-0.028701782
69	0xbcc80b0f	-0.024419336
70	0xbd67c957	-0.056588497
71	0x3d6b72e7	0.057482626
72	0xbd63afaa	-0.05558745
73	0x3d143b41	0.03618932
74	0xbcd1eda8	-0.025626019
75	0xbd816e96	-0.06319921
76	0x3d9dd114	0.07705894
77	0xbd949716	-0.0725538
78	0x3d09691f	0.033547517
79	0x3d77dde6	0.060514353
80	0x3d4a1fa8	0.049346596
81	0x3d96589a	0.07341118
82	0x3d94c257	0.0726363
83	0x3d8657c1	0.065597065
84	0x3d40f857	0.047111835
85	0x3d83f5f1	0.06443394
86	0xbcca7e01	-0.024718286
87	0x3da7ea27	0.08198958
88	0x3cc73566	0.024317455
89	0x3b41b52a	0.0029557445
90	0x3da8887e	0.08229159
91	0x3bc8b065	0.0061245435
92	0x3d95099c	0.072772235
93	0x3cd66b63	0.026174253
94	0x3d17687a	0.03696487
95	0x3c94aaf7	0.018147929
96	0x3db05ccf	0.08611452
97	0x3d847b1e	0.06468795
98	0xbc2795c6	-0.01022858
99	0xbc8ddbef	-0.017316787
100	0x3d3e2f0d	0.04643159
101	0x3d41b518	0.047291845
102	0x3d5b3840	0.05352044
103	0x3d19979f	0.037498113
104	0x3dabc6cc	0.08387527
105	0x3db7ef47	0.089811854
106	0xbd679272	-0.056536146
107	0xbaa8812f	-0.0012855883
108	0x3c166c49	0.009181091
109	0x3d834a86	0.064106986
110	0x3c2b05dc	0.010438409
111	0xbd0b20f9	-0.033966992
112	0x3d8e47dc	0.069473
113	0x3d1e0a5d	0.038584102
114	0x3d64e700	0.05588436
115	0xbd5c7ea2	-0.053831704
116	0xbc00415c	-0.007828083
117	0x3d8e5311	0.069494374
118	0xbcf713be	-0.030160781
119	0x3d109b1e	0.03530418
120	0xbd8372ec	-0.06418404
121	0xbc4b2055	-0.012397845
122	0x3d2c460e	0.042058997
123	0x3d2dbcbe	0.042416327
124	0xbd2c6fef	-0.042098936
125	0xbd822c9d	-0.063561656
126	0x3d25e3fe	0.040500633
127	0x3c2608a5	0.010133897
128	0x3d723fee	0.059143
129	0xbda2a33b	-0.0794129
130	0xbc611041	-0.013736785
131	0xbd4073b6	-0.04698535
132	0x3dab4a33	0.08363762
133	0x3ce6dde2	0.028181974
134	0x3c54c873	0.012987244
135	0x3ba139a5	0.004920202
136	0xbcc0ce48	-0.023535863
137	0x3cb0d08a	0.021583814
138	0xbcbe9774	-0.023265578
139	0x3daa9490	0.08329117
140	0x3da7609d	0.081727244
141	0x3d400e61	0.046888713
142	0xbda877b6	-0.08225958
143	0x3a4cba1a	0.0007809714
144	0xbc92ece4	-0.017935224
145	0x3d9a6915	0.07539574
146	0xbd968803	-0.07350161
147	0xbbf05807	-0.0073347124
148	0xbd5cb802	-0.05388642
149	0x3d8b37e1	0.067977674
150	0x3d06f891	0.032951895
151	0xba7f36da	-0.00097356515
152	0xbd0fb8d4	-0.035088375
153	0x3da33f8c	0.07971105
154	0x3d996710	0.07490361
155	0x3d9f5114	0.07779136
156	0x3d515eef	0.051115926
157	0x3c3fc578	0.011704795
158	0xbd1973f3	-0.037464093
159	0x3cda4e0b	0.026648542
160	0xbc6e76ac	-0.014554661
161	0xbd1441df	-0.036195632
162	0xbd99ad4d	-0.075037576
163	0x3ca954d1	0.020670326
164	0x3bab5456	0.0052285595
165	0xbcac0319	-0.02099757
166	0x3d8e7fb3	0.069579504
167	0x3d257b9d	0.04040109
168	0xbd2a6a0b	-0.041605037
169	0xbc33b34e	-0.010968043
170	0xbd9503b7	-0.07276099
171	0xbd20312b	-0.03910939
172	0xbd82f486	-0.063942954
173	0x3c5df099	0.0135461325
174	0x3d4efab4	0.050532058
175	0xbd5b8ca4	-0.053600922
176	0x3ba5bd9c	0.0050580036
177	0xbd362531	-0.044469062
178	0x3d237103	0.0399027
179	0xbcc2ef52	-0.023795757
180	0xbc173604	-0.009229187
181	0xbc3719f8	-0.011175625
182	0xbcf192ce	-0.029488947
183	0x3c51e0f7	0.012809983
184	0xbd935618	-0.071941555
185	0x3aa5c222	0.0012646357
186	0xbce735ac	-0.028223835
187	0x3d2b4428	0.041813046
188	0x3db27cfb	0.087152444
189	0xbb83c8d3	-0.004021743
190	0x3cc26154	0.02372805
191	0xbd2b4037	-0.041809287
192	0xbc28e6e6	-0.010308957
193	0xbc086c96	-0.00832667
194	0xbd77a914	-0.06046398
195	0x3d936760	0.071974516
196	0xbaf412fb	-0.0018621379
197	0xbd69651d	-0.056981195
198	0xbd116f30	-0.035506427
199	0x3d97b97d	0.07408426
200	0x3c2d1551	0.010564164
201	0x3c899f17	0.016799493
202	0x3cabc27d	0.020966763
203	0xbba9d623	-0.005182998
204	0xbd676be6	-0.056499384
205	0xbd7f644c	-0.06235151
206	0xbda12291	-0.07867921
207	0xbd0f4793	-0.034980368
208	0xbd84cc30	-0.06484258
209	0xbd3074ab	-0.043080013
210	0xbd8ee601	-0.069774635
211	0xbc344f17	-0.011005185
212	0xbd046bcf	-0.032329377
213	0x3d9e5a65	0.07732085
214	0xbccf3b45	-0.025296817
215	0xbb0d21db	-0.0021535072
216	0x3d7cf4eb	0.06175701
217	0x3ce9d41a	0.02854352
218	0x3bf9a553	0.007618585
219	0x3c8ae62b	0.016955456
220	0x3cd9c261	0.026581945
221	0x3ccb525f	0.024819551
222	0xbc8c7be7	-0.017148925
223	0x3d203649	0.03911427
224	0x3d6e241c	0.058139905
225	0x3da2d9bf	0.07951688
226	0x3d191d8a	0.037381686
227	0xbd926174	-0.07147494
228	0x3caf3a52	0.021390114
229	0x3d83d369	0.06436808
230	0x3d38758f	0.045033988
231	0x3d6c8d66	0.057752036
232	0xbd4ddce5	-0.05025949
233	0xbd9dcaa4	-0.07704666
234	0x3cfb69ce	0.0306901
235	0x3a0da854	0.0005403806
236	0xbd201f69	-0.039092455
237	0xbd4c7360	-0.049914718
238	0x3cbc937e	0.023019549
239	0xbd294e91	-0.041334692
240	0x3d245419	0.040119264
241	0x3d8a6e19	0.06759281
242	0x3d8ffdeb	0.07030853
243	0xbd997cb7	-0.074944906
244	0xbd9ff894	-0.078110844
245	0x3d7d9376	0.061908208
246	0xbc15bead	-0.009139699
247	0x3cb82823	0.022480076
248	0xbd9b3cce	-0.07579957
249	0xbd762d14	-0.060101584
250	0x3d3db3f1	0.046314184
251	0x3c6a6a3d	0.014307556
252	0xbd869d64	-0.06572989
253	0x3d087c88	0.033321887
254	0x392a498a	0.00016239859
255	0xbd28fb84	-0.04125549

conv2.bias f4 [16]
0	0x3d64d042	0.055862673
1	0xbc71c78c	-0.014757048
2	0x3d801b1c	0.06255171
3	0xba0ec5a7	-0.00054463226
4	0xbdbffa4e	-0.09373914
5	0xbc6397b2	-0.013891147
6	0xbd852611	-0.06501401
7	0x3d851e4e	0.06499921
8	0xbccf046e	-0.025270667
9	0xbc896f1e	-0.016776618
10	0x3d27dec3	0.040983927
11	0x3da88f14	0.08230415
12	0x3cf68445	0.030092368
13	0xbd2de41f	-0.04245388
14	0xbd4f8196	-0.050660692
15	0xbd7cd331	-0.061724845

fc1.weight f4 [120, 576]
0	0xbb325f00	-0.002721727
1	0xbc0e5f56	-0.008689722
2	0xbc09e4b0	-0.00841634
3	0xba2c21ab	-0.0006566296
4	0x3cb18686	0.021670591
5	0xbccb88d6	-0.024845522
6	0xbcbb7a6b	-0.022885522
7	0xbc2d7b7b	-0.010588522
8	0x3bfec72b	0.0077752075
9	0x3ba99c20	0.0051760823
10	0xbc6765f0	-0.014123425
11	0xbcbf1296	-0.023324292
12	0x3c589666	0.0132194515
13	0xbbe938c0	-0.007117361
14	0x3c80a4c8	0.015703574
15	0x3ce15ab8	0.027509078
16	0xbb65bcc0	-0.003505513
17	0xbd1deb16	-0.038554274
18	0xbc946b30	-0.018117517
19	0xbcc1e9a3	-0.023670977
20	0x3d194d7f	0.03742742
21	0x3c3c81d0	0.011505559
22	0xbc78611b	-0.0151598705
23	0xbd1b60bb	-0.037934046
24	0x3a7533ab	0.00093537074
25	0xbba230b6	-0.0049496545
26	0xbd27ab37	-0.040934768
27	0x3c36590b	0.011129628
28	0xbcfed106	-0.03110553
29	0xbc157abb	-0.0091234995
30	0x3d00a1b8	0.031404227
31	0x3ccbeecb	0.024894139
32	0x3d235470	0.039875448
33	0xbd269c16	-0.0406762
34	0xbc575e70	-0.013145074
35	0xbd25c768	-0.04047337
36	0x3cafe85b	0.0214731
37	0x3c9c9eeb	0.019118747
38	0x3d24f498	0.040272325
39	0x3d0c630c	0.034274146
40	0xbd1a2d5c	-0.037640914
41	0x3ce2e583	0.02769733
42	0x3c009b80	0.007849574
43	0xbd0cc92f	-0.03437155
44	0x3d2819f0	0.04104036
45	0xbceee188	-0.029160276
46	0xbbd509b6	-0.006501402
47	0x3d072987	0.032998588
48	0x3cc0b973	0.02352593
49	0xbc27069b	-0.010194446
50	0xbcfd215e	-0.0308997
51	0x3cb41150	0.021980911
52	0xbcba435b	-0.022737196
53	0x3c1ccb6b	0.009569983
54	0x3ca43ab6	0.020047527
55	0xbc42837b	-0.011872168
56	0xbcd3ef80	-0.025871038
57	0x3c06fe00	0.008239269
58	0x3c791786	0.015203362
59	0x3d1253b3	0.035724353
60	0x3b0b7dab	0.002128462
61	0x3c774396	0.015091797
62	0xbc3597a0	-0.0110835135
63	0x3d251247	0.040300634
64	0xbbee6000	-0.0072746277
65	0x3cb4ebde	0.022085126
66	0x3c9d543b	0.019205203
67	0xbcccd066	-0.025001716
68	0xbd1c0510	-0.038090765
69	0x3a7fb9ab	0.0009755145
70	0x3a40eb00	0.00073592365
71	0x3d14a5ff	0.03629112
72	0x3ccd36a6	0.025050472
73	0x3cb24ce0	0.021765172
74	0xbc740cf6	-0.014895668
75	0x3d25ef1b	0.040511232
76	0x3c404fab	0.011737744
77	0x3abb9b00	0.0014313161
78	0x3c88510b	0.016640207
79	0x3a81a600	0.0009891391
80	0x3cc9b20b	0.02462103
81	0x3a12a456	0.0005593946
82	0x3cf21e00	0.02955532
83	0xbcf60708	-0.03003265
84	0xbd12bbd8	-0.035823673
85	0xbd1abcd7	-0.037777748
86	0x3d1a8a92	0.037729807
87	0xbc66da4b	-0.014090131
88	0x3c950b93	0.018193996
89	0x3cc7228e	0.02430847
90	0x3c53eed6	0.012935361
91	0xbd193504	-0.037404075
92	0x3c359ff0	0.011085495
93	0xbbd8edcb	-0.006620144
94	0xbcdb1048	-0.026741162
95	0x3d0eb7fb	0.034843426
96	0xbd1f563a	-0.03890059
97	0xb80bf000	-3.33637e-05
98	0x3cd5f923	0.026119774
99	0x3cb5f8bb	0.02221333
100	0x3c9d87a3	0.019229716
101	0xbcfc5160	-0.030800521
102	0xbc189830	-0.009313628
103	0x3c6ca3b0	0.014443323
104	0x3d118cd0	0.03553468
105	0x3c5dccd6	0.013537606
106	0xbd0630da	-0.032761432
107	0x3cf55d93	0.029951846
108	0x3cd9df18	0.026595637
109	0x39e1bd56	0.0004305641
110	0xbc7bcb20	-0.015368253
111	0xbc83a3c3	-0.016069299
112	0x3c98cd36	0.01865254
113	0xbbc59d40	-0.0060307086
114	0xbb148880	-0.0022664368
115	0x3ce1ef4e	0.02757993
116	0x3c6b5080	0.014362454
117	0x3cd99803	0.026561743
118	0xbc3a5b0b	-0.011374245
119	0xbca8c0c0	-0.020599723
120	0xbc8e67ae	-0.017383423
121	0xbcc7d2c0	-0.024392486
122	0x3bbb8b6b	0.005723407
123	0x3cce5f03	0.02519179
124	0x3b233ad6	0.0024906895
125	0x3c86d58e	0.016459253
126	0xbb78052b	-0.0037844877
127	0xbd001f34	-0.031279758
128	0x3bed2100	0.0072366
129	0x3c7bbf7b	0.015365477
130	0x3cbe4150	0.023224503
131	0xbc4cbce6	-0.012496209
132	0x3c9f3040	0.019432187
133	0xba147a00	-0.00056639314
134	0xbbd4e52b	-0.0064970455
135	0x3cec9146	0.028877866
136	0xbc3930d6	-0.011303147
137	0x3ce72943	0.028217917
138	0xbb7173c0	-0.0036842674
139	0xbcc646c8	-0.024203673
140	0x3cb52806	0.022113811
141	0xbcdd5238	-0.027016744
142	0x3bbf56e0	0.0058392137
143	0xbcbbf6ee	-0.022944894
144	0x3c2afceb	0.010436277
145	0x3b99fd96	0.0046994193
146	0x3b688bc0	0.0035483688
147	0xbd2a0c4b	-0.04151563
148	0x3caad483	0.020853287
149	0x3b246bd6	0.002508869
150	0xbceecdd8	-0.029150888
151	0x3c66f370	0.014096126
152	0x3d0a7107	0.033799198
153	0xbca4894b	-0.020084998
154	0x3a9fca80	0.0012191087
155	0x3d0d1f5a	0.034453727
156	0x3ad276ab	0.0016057094
157	0xbca6439e	-0.020295914
158	0xbaf06b00	-0.0018342435
159	0xba345c00	-0.0006880164
160	0xbcf243b6	-0.029573303
161	0x3ccc1ec8	0.024917021
162	0xbcc2df43	-0.0237881
163	0xbd1f6640	-0.038915873
164	0x3b69e0eb	0.003568704
165	0x3cba1386	0.022714388
166	0xbd282a64	-0.04105605
167	0xbb473780	-0.003039807
168	0x3d02c93b	0.03193019
169	0xbc34b0b6	-0.011028459
170	0x3b5f1540	0.0034039766
171	0x3c01878b	0.007905851
172	0xbcf3f898	-0.029781625
173	0xbd1e7156	-0.038682304
174	0x3ce47dfb	0.027892103
175	0xbb6e516b	-0.0036364447
176	0x3bd4b4b6	0.006491269
177	0xbce1777b	-0.027522793
178	0xbb93c5cb	-0.0045096627
179	0x3c7572a6	0.014980948
180	0x3c92bcbe	0.017912265
181	0x3d049af3	0.032374334
182	0x3b99b28b	0.0046904734
183	0x3c15ba1b	0.009138609
184	0xbbae7d56	-0.005325
185	0xbd07ccaf	-0.033154186
186	0xbc8d2c3b	-0.017233005
187	0x3d191897	0.037376966
188	0xbceb28e8	-0.028706029
189	0x3ceb2270	0.028702945
190	0xbd0da804	-0.03458406
191	0x3a9a4cab	0.0011772116
192	0xbcce9508	-0.025217548
193	0x3d162cbe	0.036663763
194	0x3cf26d88	0.029593244
195	0x3b343fab	0.002750377
196	0x3b49582b	0.0030722718
197	0x3c89be03	0.016814237
198	0xbc6c627b	-0.014427776
199	0xbcea617b	-0.028610935
200	0xbd27d8b3	-0.040978145
201	0x3cd37f9e	0.025817689
202	0x3cbd090b	0.023075601
203	0x3cc2bd1e	0.023771819
204	0xbcd6ca43	-0.026219493
205	0xba651656	-0.0008738985
206	0xbc5f916b	-0.01364551
207	0xbd1e12f4	-0.038592294
208	0xbc1c5360	-0.0095413625
209	0xbce9e548	-0.028551713
210	0x3c159e8b	0.009132038
211	0xbc118ee6	-0.008884167
212	0xbc589a30	-0.013220355
213	0xbc9f9f9e	-0.019485291
214	0x3ca738b3	0.020412778
215	0x3d0bbdcc	0.03411655
216	0x3d0a939e	0.033832185
217	0x3cd5cd8e	0.026098993
218	0x3c8dd11b	0.017311623
219	0xbd02cb5b	-0.031932216
220	0xbca93276	-0.020653944
221	0xbce0c4e0	-0.027437627
222	0x3c1d17fb	0.009588237
223	0xbb9169d6	-0.0044376655
224	0x3d236104	0.039887443
225	0x3c971a36	0.018445116
226	0x3cd59d1b	0.02607589
227	0xbc83b378	-0.016076788
228	0xbca5f7d6	-0.020259779
229	0xbcf8192e	-0.030285444
230	0x3cc68cc6	0.024237048
231	0xbc48e0c0	-0.012260616
232	0x3d1d83f6	0.038455926
233	0xbca42500	-0.020037174
234	0xbd16674e	-0.036719613
235	0xbcfdc2d3	-0.030976688
236	0xbd0e7186	-0.034776233
237	0xba44b656	-0.0007503977
238	0x3cfb9073	0.030708527
239	0xbd0ed5cf	-0.034871873
240	0xbc89bb93	-0.016813075
241	0xbc84aa76	-0.016194563
242	0x3c86c200	0.016449928
243	0x3bce6a00	0.0062992573
244	0x3cf31953	0.029675161
245	0x3cc9f96e	0.02465507
246	0x3cdef9ab	0.02721866
247	0x3d096fa6	0.033553742
248	0xbd0733c8	-0.033008367
249	0x3c8bd42e	0.017068949
250	0xbba1f0cb	-0.004942035
251	0x3ce60c0e	0.02808192
252	0x3d219ebe	0.03945803
253	0x3bf16676	0.0073669506
254	0xbce7c8bb	-0.028293958
255	0xbb43a900	-0.002985537

fc1.bias f4 [120]
0	0xbccbbbbe	-0.024869796
1	0x3c5bd9dd	0.013418642
2	0xbc0be583	-0.008538607
3	0x3d2092d6	0.039202534
4	0x3c368654	0.011140425
5	0x3cc89844	0.024486668
6	0x3cb311b9	0.021859037
7	0x3b3fa36c	0.0029241694
8	0xbcd30a7b	-0.025761833
9	0x3cb47f91	0.022033485
10	0xbbcfa60e	-0.006336934
11	0x3d0a7075	0.033798654
12	0x3d0c584b	0.03426389
13	0xbcd78200	-0.026307106
14	0x3c05190a	0.008123646
15	0xbb500577	-0.0031741539
16	0xbd1a7288	-0.03770688
17	0x3c14d5ec	0.009084206
18	0xbc75627b	-0.014977093
19	0xbc28fd32	-0.010314273
20	0xbd1fc043	-0.039001714
21	0x3d2a29cf	0.041543778
22	0xbc6ab208	-0.0143246725
23	0xbc415cf6	-0.011801949
24	0xbc1485ab	-0.009065072
25	0x3c500b28	0.012697972
26	0x3c9a9265	0.018868634
27	0x3c9fe135	0.019516567
28	0x3ce1b4fd	0.027552122
29	0x3cc1c368	0.023652747
30	0x3cbb6e19	0.022879647
31	0xbc950731	-0.018191906
32	0xbc28b590	-0.010297194
33	0xbcd7dca3	-0.026350325
34	0xbd0524e3	-0.03250588
35	0xbd323a1d	-0.043512452
36	0xbd0b63a5	-0.034030575
37	0xbd29e196	-0.0414749
38	0x3cce1614	0.025157012
39	0x3d216be4	0.039409533
40	0x3b93d7aa	0.004511793
41	0x3cd4f1af	0.02599415
42	0xbc447241	-0.011990131
43	0xbc4b2fec	-0.012401562
44	0xb9985592	-0.00029055454
45	0xb9b8be3d	-0.00035236953
46	0x3cc76f72	0.024345133
47	0xbcda9c66	-0.026685905
48	0xbcb3cad8	-0.02194731
49	0x3babe8ed	0.005246273
50	0x3d392ec5	0.04521062
51	0x3cba6844	0.022754796
52	0xbcf6539b	-0.030069163
53	0x3d1370de	0.03599631
54	0x3d2c7a30	0.042108715
55	0xbd2cf8e2	-0.04222954
56	0x3bff8b41	0.007798583
57	0x3cc87df9	0.024474131
58	0x3caf0347	0.021363867
59	0x3cca832c	0.02472075
60	0xbd014c35	-0.031566817
61	0x3c0aff3e	0.008483706
62	0x3b98b5ef	0.00466036
63	0x3b9320f2	0.0044900114
64	0x3bdf18d7	0.006808381
65	0xbcd8bdde	-0.026457723
66	0x3d2212a3	0.039568555
67	0x3d04db9d	0.032436002
68	0xbd20ec80	-0.039288044
69	0x3cb8e74b	0.022571227
70	0xbbd531ae	-0.0065061664
71	0x3aaf0a35	0.0013354482
72	0x3b1fe360	0.0024397
73	0xbcff6911	-0.03117803
74	0x3bba394d	0.0056831003
75	0xbc3acdb9	-0.011401587
76	0xbd03a21a	-0.032137014
77	0xba5c463a	-0.00084027986
78	0x3d409dcd	0.04702549
79	0xbbe35dcf	-0.006938673
80	0xb9f54b18	-0.0004678599
81	0x3ce0a2df	0.027421413
82	0xbc096d65	-0.008387898
83	0xbd178c87	-0.03699925
84	0xbd0fc4ea	-0.0350999
85	0xbcc387c8	-0.023868456
86	0xbce7d3a8	-0.028299168
87	0xbd239245	-0.039934415
88	0xbd405d0f	-0.046963748
89	0x3b8a94da	0.0042291703
90	0x3d313002	0.043258674
91	0x3cfef616	0.031123202
92	0xbd06d3c7	-0.03291681
93	0x3d039e03	0.032133114
94	0x3d0d3741	0.034476522
95	0xbb948a2d	-0.0045330734
96	0xbd24b14d	-0.04020815
97	0xbab5516d	-0.0013833471
98	0xbcffa9c1	-0.031208875
99	0x3c5bd915	0.013418456
100	0x3d36e3d4	0.044650868
101	0xbcce9c21	-0.025220932
102	0xbcc38bae	-0.023870315
103	0xbb87e84a	-0.004147564
104	0x3bbae48e	0.0057035154
105	0xbc88d984	-0.016705282
106	0xbd2df6be	-0.04247164
107	0xbbedb986	-0.007254782
108	0x3cae9af5	0.021314124
109	0x3d674157	0.056458797
110	0xbbdb0e35	-0.006685043
111	0xbd0c4ed0	-0.03425485
112	0x3cb67d99	0.022276687
113	0xbc09a39b	-0.008400823
114	0x3cf9c5af	0.03048977
115	0xbd000d83	-0.031262886
116	0x3b28a26b	0.0025731574
117	0xbb781302	-0.0037853126
118	0xbcbe0657	-0.023196382
119	0x3c84b49c	0.016199403

fc2.weight f4 [84, 120]
0	0x3d2f4144	0.04278685
1	0xbd8c96a5	-0.06864671
2	0xbc3ba17d	-0.011452076
3	0xbd610106	-0.054932617
4	0xbc63ab86	-0.013895875
5	0x3da236f7	0.0792064
6	0x3d065168	0.03279248
7	0xbd021553	-0.031758618
8	0xbc525afc	-0.012839075
9	0xbd62957c	-0.05531834
10	0x3db997c2	0.09062149
11	0xbabc5af0	-0.0014370363
12	0xbcbcf3ef	-0.023065535
13	0x3c8d740a	0.017267246
14	0x3d8ba829	0.068191834
15	0xbd423e02	-0.047422417
16	0xbd15a1ef	-0.036531385
17	0x3d71da9a	0.059046365
18	0xbdaec897	-0.08534353
19	0xbcd80d63	-0.02637357
20	0xbd7b8421	-0.061405305
21	0xbdab677e	-0.08369349
22	0x3c6dc0fc	0.014511343
23	0x3d83697c	0.06416604
24	0x3d564ba7	0.05231824
25	0x3cfeb2e1	0.031091155
26	0xbd347f04	-0.044066444
27	0xbd5ff296	-0.054674707
28	0xbc873c21	-0.016508164
29	0x3d202f7f	0.039107796
30	0xbd21304f	-0.03935271
31	0x3da56e19	0.0807764
32	0xbcfc7b76	-0.03082059
33	0x3d82d1f5	0.063877024
34	0xbcf615b3	-0.030039644
35	0x3d877bbb	0.066153966
36	0xbd90cfcc	-0.07070884
37	0x3cdbfb88	0.026853338
38	0x3da4b168	0.0804165
39	0xbda3f3bc	-0.08005473
40	0xbd46227c	-0.04837273
41	0x3ce7f60c	0.028315566
42	0xbd56893f	-0.05237698
43	0x3d9e0756	0.07716243
44	0xbd54dd34	-0.05196877
45	0x3d466dd5	0.048444588
46	0xbda62c12	-0.081138745
47	0xbbb0ae79	-0.0053918925
48	0x3d254627	0.040350106
49	0xbd43149a	-0.04762707
50	0xbc6fc67d	-0.014634726
51	0xbda399d2	-0.07988323
52	0xbdaf1241	-0.085484035
53	0xbda630c1	-0.08114768
54	0x3c47ea31	0.012201832
55	0x3d2b0042	0.041748293
56	0xbc8c1212	-0.01709846
57	0x3d272ae9	0.040812407
58	0x3d8b2f7f	0.067961685
59	0x3da0c0f6	0.078493044
60	0xbdbaa58f	-0.09113609
61	0x3caa8d10	0.020819217
62	0x3d5d8e4a	0.054090776
63	0x3c60c1b5	0.013718058
64	0xbd7f7f25	-0.062377114
65	0x3bd9fd42	0.006652505
66	0xbbd13a6d	-0.0063851387
67	0x3ccb4730	0.024814218
68	0x3da5887c	0.08082673
69	0xbdaf1c84	-0.08550361
70	0x3d90c5fa	0.07069011
71	0x3cb57353	0.022149717
72	0x3b4b8dc7	0.0031059848
73	0xbc9b60e4	-0.0189671
74	0xbd37db31	-0.04488677
75	0x3cf0ab36	0.029378515
76	0x3ce1c660	0.027560413
77	0x3cd6c671	0.026217671
78	0xbb87e239	-0.004146841
79	0xbce259c8	-0.027630702
80	0x3c379eeb	0.011207323
81	0xbdae4a63	-0.08510282
82	0xbcbcc157	-0.02304141
83	0xbda0de48	-0.07854897
84	0x3da6d947	0.08146911
85	0xbd888d78	-0.06667608
86	0x3d8a6949	0.06758363
87	0xbdb603aa	-0.088874176
88	0x3c486fe1	0.012233705
89	0x3cf2eb3b	0.029653182
90	0x3c092729	0.008371153
91	0xbd635e7a	-0.05551002
92	0xbd9f307a	-0.07772918
93	0x3d43aefa	0.047774293
94	0x3c10cac2	0.008837404
95	0x3d952bcf	0.072837465
96	0xbd482a09	-0.048868213
97	0xbc608a92	-0.013704913
98	0x3d1c4cdb	0.038159233
99	0xbd32de96	-0.043669306
100	0xbda880d0	-0.08227694
101	0x3d69636a	0.056979574
102	0x3db7bb20	0.08971238
103	0x3d9e3d74	0.07726565
104	0xbcef64f3	-0.029222941
105	0xbd11eb40	-0.035624743
106	0xbd8b4daf	-0.06801926
107	0xbd6030cd	-0.05473404
108	0xbb11f65d	-0.0022272088
109	0x3d8b26c3	0.067945026
110	0x3d544e8b	0.051832717
111	0x3c807c04	0.015684135
112	0xbda3f1e8	-0.08005124
113	0x3d638725	0.055548806
114	0xbcfce0c4	-0.030868895
115	0xbc77d4c2	-0.015126409
116	0xbd6968f0	-0.05698484
117	0x3d06b48e	0.032887034
118	0x3da7265b	0.081616126
119	0x3c27afe4	0.010234807
120	0xbc711610	-0.014714733
121	0x3d4811b7	0.04884502
122	0x3d36b3e1	0.04460514
123	0xbda2f3c4	-0.07956651
124	0x3d1f7435	0.038929183
125	0x3d931ee5	0.07183627
126	0xbd61b60e	-0.05510526
127	0x3a67dfda	0.0008845307
128	0x3d80c41e	0.062874064
129	0x3d2c6874	0.0420918
130	0xbd992658	-0.074780166
131	0xbd47359b	-0.048635107
132	0x3d27aba3	0.04093517
133	0xbd9f0deb	-0.077663265
134	0x3d4f471d	0.05060493
135	0x3d9c380a	0.07627876
136	0xbcf3325e	-0.029687103
137	0x3ca0ddbd	0.019636983
138	0x3d4d06c5	0.050055284
139	0x3c0b6c31	0.008509682
140	0xbca0a4d5	-0.019609848
141	0x3c2d0ce5	0.010562156
142	0x3da10c1f	0.0786364
143	0xbb7c53bd	-0.003850206
144	0xbd94ca98	-0.07265204
145	0xbd8f104d	-0.06985531
146	0x3c20316f	0.009777411
147	0xbcbedf8b	-0.023299953
148	0xbc86ae53	-0.016440546
149	0x3d4f048f	0.050541457
150	0xbcfee281	-0.031113865
151	0xbdb74926	-0.08949499
152	0xbd946ecc	-0.07247695
153	0x3d08596c	0.033288404
154	0x3db4d75c	0.08830139
155	0x3d21b793	0.03948171
156	0x3d4ced33	0.0500309
157	0xbd904906	-0.07045178
158	0x3cd128ec	0.025532208
159	0x3bab28b4	0.005223358
160	0xbcfa65fc	-0.030566208
161	0xbd1d2c7a	-0.038372494
162	0xbd8e9f4a	-0.06963976
163	0x3d36d17d	0.044633377
164	0xbdba005c	-0.090821
165	0xba1fc2b8	-0.0006094384
166	0x3d8b39af	0.06798112
167	0x3d5cfae5	0.05395021
168	0xbb21f86c	-0.0024714721
169	0xbcec9b06	-0.028882515
170	0xbd0bdf27	-0.03414836
171	0x3c7378bf	0.014860331
172	0xbd9d12a4	-0.07669571
173	0x3c5d76bd	0.013517079
174	0xbd265ebd	-0.040617693
175	0x3d9c7de6	0.07641201
176	0xbdaba8b7	-0.08381789
177	0x3d735bb3	0.059413623
178	0xbd13ab3e	-0.03605198
179	0x3d6f9339	0.05849001
180	0x3ce1d397	0.027566714
181	0xbd6d9298	-0.05800113
182	0x3d1101b6	0.035402022
183	0x3d500aa7	0.05079141
184	0x3d898ec1	0.06716681
185	0xbd9cc4d6	-0.07654731
186	0xbcde02aa	-0.02710088
187	0xbcf53f96	-0.029937547
188	0xbc9036d5	-0.017604271
189	0xbd126a39	-0.035745833
190	0xbc74e935	-0.014948179
191	0xbda0a293	-0.078435086
192	0xbd2a5f10	-0.041594565
193	0xbce4f6bc	-0.027949683
194	0x3da1479d	0.07874987
195	0x3d237f0d	0.039916087
196	0x3d3d8a3b	0.046274405
197	0xbd47ab4a	-0.04874734
198	0x3d9e28df	0.07722639
199	0x3d470e41	0.048597578
200	0xbcb2a117	-0.02180533
201	0xbdb9ae97	-0.090665035
202	0x3bcffaff	0.0063470597
203	0xbc9947a8	-0.018710926
204	0x3d85b463	0.06528547
205	0x3d5361f9	0.051607106
206	0x3d0a59d7	0.033777084
207	0x3b838d90	0.0040146783
208	0xbd539544	-0.051656023
209	0xbcd6ddf9	-0.026228892
210	0xbba85035	-0.0051365145
211	0x3d1057d4	0.03524001
212	0x3d1fb47f	0.038990494
213	0xbc726d02	-0.014796497
214	0x3cec8b7d	0.028875107
215	0xbb78ad11	-0.0037944952
216	0x3d000abb	0.031260233
217	0xbd6725ac	-0.05643241
218	0x3c7ad33f	0.015309154
219	0xbdb1a65e	-0.0867431
220	0x3cbb6678	0.02287601
221	0x3d57a2eb	0.052645605
222	0x3cdf65a9	0.027270155
223	0xbd941e35	-0.07232324
224	0x3d8da244	0.06915715
225	0x3db99df5	0.09063331
226	0x3c58806a	0.01321421
227	0xbc0c733e	-0.008572398
228	0x3c6d7ce4	0.014495108
229	0xbd00e47d	-0.031467903
230	0xbd96300f	-0.07333385
231	0xbc637933	-0.013883877
232	0x3d370d52	0.044690438
233	0x3dadf8d3	0.08494725
234	0x3d32d1f0	0.043657243
235	0x3da32fc7	0.07968097
236	0x3d85f872	0.06541528
237	0x3c55b940	0.013044655
238	0xbdac856e	-0.08423887
239	0xbc417f35	-0.011810114
240	0x3cf2116c	0.029549323
241	0x3c0792c9	0.008274742
242	0xba1eba8c	-0.00060550193
243	0x3ce0991a	0.027416755
244	0x3d931d25	0.07183293
245	0x3d189ec8	0.0372608
246	0x3ce3f6d7	0.027827663
247	0xbda350d8	-0.07974404
248	0xbd91709d	-0.071015574
249	0x3ceec103	0.02914477
250	0xbd814312	-0.06311621
251	0xbd4f4a41	-0.050607923
252	0x3d00ba9a	0.031427957
253	0x3d96b5c5	0.073588885
254	0x3cdecd31	0.027197452
255	0xbc284863	-0.010271165

fc2.bias f4 [84]
0	0xbdb4a9c1	-0.088214405
1	0xbd60f8cc	-0.05492477
2	0x3d011f6d	0.03152411
3	0x3c37ef28	0.011226453
4	0x3b219388	0.0024654586
5	0xbda15b49	-0.078787394
6	0xbd77d5d4	-0.060506657
7	0xbdbb19d6	-0.09135787
8	0x3d743479	0.059620354
9	0x3d61de3d	0.055143584
10	0xbdb470af	-0.08810555
11	0x3d0d8747	0.03455284
12	0x3da8b332	0.08237304
13	0x3d7a2213	0.061067652
14	0x3c3dc64d	0.011582923
15	0xbd886646	-0.06660132
16	0xbd407ebf	-0.046995874
17	0x3db26854	0.08711305
18	0x3dbc51de	0.091953024
19	0x3d56517e	0.05232381
20	0x3da48945	0.080339946
21	0xbd3d2379	-0.046176407
22	0xbd8040b6	-0.06262343
23	0x3d8fed88	0.07027727
24	0xbd28a581	-0.04117346
25	0xbd50e9b2	-0.05100412
26	0xbda59e37	-0.08086818
27	0xbd3f896d	-0.04676192
28	0xbc02d73d	-0.007985887
29	0xbda47f54	-0.080320984
30	0x3d9433ed	0.072364666
31	0x3de976f9	0.11399645
32	0x3d824199	0.06360168
33	0xbdab8afd	-0.08376119
34	0xbd3d39b1	-0.046197597
35	0x3d905bfe	0.07048796
36	0xbd4841fb	-0.04889105
37	0xbd8eb2b6	-0.0696768
38	0x3d45f15a	0.048325874
39	0xbd246113	-0.04013164
40	0xbd84245c	-0.064522475
41	0xbd00d0f0	-0.03144926
42	0xbdb1402b	-0.08654817
43	0x3da8232c	0.082098335
44	0xbd2971a7	-0.041368153
45	0x3d7654ae	0.06013935
46	0x3d35b137	0.04435846
47	0xbd8a54de	-0.067544684
48	0xbd6109b2	-0.054940887
49	0x3d56055c	0.052251205
50	0x3c5e0bd2	0.013552623
51	0xbb634592	-0.0034678918
52	0xbd46289f	-0.048378583
53	0xbd258dd4	-0.04041846
54	0xbb74bcf7	-0.0037344077
55	0xbbe22852	-0.006901779
56	0x3d7ee92a	0.06223408
57	0x3d8953db	0.06705447
58	0x3d461713	0.04836185
59	0x3d0efa8a	0.0349069
60	0x3ca659d6	0.020306509
61	0x3d7bc57a	0.061467625
62	0xbcac4439	-0.021028625
63	0xbdb4bef7	-0.08825486
64	0x3bcab6d0	0.0061863437
65	0xbcfec38c	-0.031099103
66	0x3c95aa7a	0.018269766
67	0x3db68adc	0.08913204
68	0x3d92de98	0.07171363
69	0xbc19e2fd	-0.009392497
70	0x3d2cda34	0.042200282
71	0x3d18b1c0	0.03727889
72	0xbdc6728f	-0.09689819
73	0x3d2c5058	0.04206881
74	0x3c862617	0.016375585
75	0xbddc50b7	-0.10757583
76	0xbd0d89d9	-0.03455529
77	0xbd805dd9	-0.062679
78	0x3d9f53f4	0.07779685
79	0x3d0995df	0.033590194
80	0x3d70e565	0.058812518
81	0x3b593472	0.0033142832
82	0xbd693c03	-0.056941997
83	0x3c76a707	0.015054471

fc3.weight f4 [1297, 84]
0	0xbd20cd47	-0.039258268
1	0x3d28f83c	0.04125236
2	0xbdcb7afa	-0.09935565
3	0x3d43bc92	0.047787257
4	0xbc9299e2	-0.017895643
5	0x3d80cbda	0.062888816
6	0xbcd5da55	-0.026105085
7	0x3da39153	0.07986703
8	0x3da27710	0.079328656
9	0xbddb2cce	-0.10701905
10	0xbd160879	-0.036629174
11	0x3d80251e	0.062570795
12	0xbd4a5f2b	-0.049407165
13	0xbdb9b189	-0.09067065
14	0x3c9c1166	0.019051265
15	0x3d830fc0	0.063994884
16	0xbda1a353	-0.0789248
17	0x3dc4c502	0.09607889
18	0xbcc9214a	-0.024552006
19	0x39fddf0c	0.00048422103
20	0x3d823a18	0.06358737
21	0xbd8e0b49	-0.06935746
22	0x3c8f0097	0.017456336
23	0xbd765183	-0.06013633
24	0x3dc254e2	0.09488846
25	0x3d0853b6	0.033282958
26	0x3d8c781a	0.06858845
27	0xbdd2cfbb	-0.10293528
28	0x3da6d88e	0.08146773
29	0x3db2f4bf	0.08738088
30	0xbd806fd9	-0.06271333
31	0xbc75c719	-0.015001082
32	0xbd3f68c4	-0.04673077
33	0xbd450c0f	-0.048107203
34	0x3d82a52c	0.0637916
35	0x3a0e3ac7	0.00054256286
36	0x3ddd085b	0.10792609
37	0xbbbc862c	-0.005753299
38	0x3d37ca17	0.044870462
39	0x3d87d85b	0.066330634
40	0x3b946baa	0.004529436
41	0xbc64722d	-0.013943237
42	0xbdcdc77b	-0.100478135
43	0x3ddcca7a	0.10780807
44	0xbdcaa535	-0.09894792
45	0x3db03851	0.086044915
46	0x3da7c544	0.08191922
47	0x3d79a18a	0.06094507
48	0xbd603387	-0.05473664
49	0xbd14bfaf	-0.036315616
50	0xbd49c1ac	-0.049256966
51	0xbd92e707	-0.07172971
52	0x3ca66357	0.02031104
53	0xbd4bcd11	-0.049756113
54	0x3c663086	0.014049655
55	0xbcec917f	-0.028877972
56	0x3d2a4d3a	0.041577555
57	0x3a9dba54	0.001203368
58	0xbd91292e	-0.070879325
59	0x3d85099a	0.06495972
60	0xbceff664	-0.029292293
61	0xbce75adb	-0.028241565
62	0x3d0fe78f	0.03513294
63	0xbd289427	-0.041156914
64	0x3d837b9d	0.06420062
65	0x3d64d906	0.055871032
66	0x3d3f19a6	0.04665532
67	0x3dd4d6b0	0.10392511
68	0xbd33ebc0	-0.043926
69	0xbcdc6c0a	-0.026906986
70	0x3cab6521	0.020922245
71	0x3d17adf7	0.03703114
72	0xbdc9afa1	-0.09847952
73	0x3d9f5beb	0.07781204
74	0x3db22e36	0.0870022
75	0xbcbce8dc	-0.023060255
76	0xbd8cf63d	-0.06882904
77	0xbdae78c5	-0.08519129
78	0xbdd89fbc	-0.10577342
79	0xbc2f7420	-0.010708839
80	0xbdac83b9	-0.084235616
81	0x3d38b983	0.045098793
82	0x3d8615e7	0.06547146
83	0xbddb0115	-0.10693566
84	0x3dbc919c	0.0920746
85	0xbd2da3b6	-0.042392455
86	0xbcbc6b20	-0.0230003
87	0x3d116edf	0.035506126
88	0x3d72eee0	0.05930984
89	0x3d15abfb	0.036540966
90	0x3db58445	0.08863119
91	0xbafa97b7	-0.0019118701
92	0x3d7488a1	0.059700612
93	0xbdba0c97	-0.090844326
94	0xbd3830c8	-0.044968396
95	0xbdd91d6a	-0.106013134
96	0xbdc1056a	-0.09424861
97	0xbdd4d16d	-0.10391507
98	0x3dbcf46c	0.09226307
99	0xbcede269	-0.029038625
100	0xbd87f0ee	-0.066377506
101	0x39c64f9c	0.00037824817
102	0x3d135452	0.035969086
103	0x3dbefd2b	0.09325632
104	0xbdc5715b	-0.096407615
105	0xbd5b8b81	-0.05359984
106	0xbd99e3a0	-0.07514119
107	0x3c80c1bf	0.015717385
108	0xbd4578b6	-0.048210822
109	0x3c3f2e9e	0.011668829
110	0xbdc4ba6e	-0.09605871
111	0xbdaf01ad	-0.085452415
112	0xbd832826	-0.06404142
113	0xbd417bd7	-0.047237244
114	0xbdaa24f6	-0.08307831
115	0x3d891693	0.06693759
116	0xbbb2a341	-0.0054515903
117	0x3db8d4ab	0.09024938
118	0x3d910526	0.0708106
119	0xba162c24	-0.00057286234
120	0xbcfaab8b	-0.030599376
121	0x3ddbc217	0.10730379
122	0xbca6ba90	-0.020352632
123	0xbc5dcf97	-0.013538263
124	0x3d40039d	0.046878446
125	0xbb934ea8	-0.0044954605
126	0xbda42cb2	-0.080163375
127	0xbd1ecde1	-0.03877056
128	0xbbc6fb26	-0.0060724197
129	0xbd59e06d	-0.053192545
130	0x3c8c0bf2	0.01709554
131	0x3d91cb3b	0.07118841
132	0xbd355269	-0.044268046
133	0x3dca2b88	0.09871584
134	0xbd956e50	-0.07296431
135	0xbdce60eb	-0.100770794
136	0x3dabfcfa	0.08397861
137	0xbbcb8bfd	-0.0062117563
138	0xbdb0265d	-0.08601067
139	0x3d27fd00	0.041012764
140	0xbdc0efd1	-0.09420741
141	0xbdcb829a	-0.0993702
142	0x3bf96863	0.007611321
143	0x3c4851ed	0.012226564
144	0xbd91cdb2	-0.071193114
145	0x3dc3c3a7	0.09558802
146	0x3d87de10	0.06634152
147	0x3d9670a7	0.073457055
148	0x3d578551	0.052617375
149	0xbbdcccba	-0.0067382725
150	0x3d87d84b	0.066330515
151	0xbd723233	-0.059129905
152	0x3dd09f8d	0.10186682
153	0x3d88a397	0.06671827
154	0x3c7a5155	0.01527818
155	0xbcc855b1	-0.024454923
156	0x3ddd1352	0.10794701
157	0xbd441f06	-0.04788115
158	0x3d4ee812	0.05051429
159	0xbcf1dfa1	-0.02952558
160	0x3c89aa29	0.016804771
161	0x3d5e694e	0.054299645
162	0xbda67cc7	-0.08129268
163	0xbcdfcd84	-0.027319677
164	0x3b60829e	0.0034257541
165	0xbd4ddb60	-0.05025804
166	0xbd8e140a	-0.06937416
167	0xbdb302d3	-0.08740773
168	0xbd159cde	-0.036526553
169	0xbdd0e519	-0.10199947
170	0x3c40dccc	0.011771392
171	0x3d64a568	0.055821806
172	0x3d03159d	0.032003034
173	0xbc1e421e	-0.009659318
174	0xbc90090f	-0.017582444
175	0x3d4e9ef8	0.050444573
176	0x3ddf144f	0.108925454
177	0x3d90d8d8	0.0707261
178	0xbdc91260	-0.09817958
179	0xbd0538bf	-0.03252482
180	0x3c7c68ed	0.015405876
181	0xbd6bb13f	-0.057542082
182	0x3d64bbb3	0.055843066
183	0xbdcb0e1c	-0.099148005
184	0x3d3bdd00	0.04586506
185	0xbd18225d	-0.037142146
186	0x3d1449cf	0.0362032
187	0x3dba3f41	0.09094096
188	0x3dbd05ab	0.09229597
189	0xbdbfe4bc	-0.093697995
190	0x3d4b210e	0.04959207
191	0xbd92bfdb	-0.071655
192	0x3dda9591	0.10673059
193	0xbb2d26d2	-0.0026420844
194	0xbd2b13a5	-0.04176678
195	0xbd26c9e3	-0.040719878
196	0x3ce20613	0.027590787
197	0xba90072d	-0.0010988467
198	0x3d89b7de	0.06724523
199	0x3dde27b8	0.108474195
200	0x3da7a48e	0.08185683
201	0xbdc22a71	-0.09480751
202	0x3d381d50	0.04494983
203	0xbcf8d7ae	-0.030376282
204	0xbda4f13a	-0.08053823
205	0xbb2ac8f4	-0.0026059719
206	0xbd8ec08d	-0.0697032
207	0x3d3ad0fd	0.045609463
208	0xbdc315b0	-0.09525621
209	0x3d1fc2f9	0.0390043
210	0xbac8f67a	-0.0015332245
211	0xbc35f615	-0.011106034
212	0x3ce91383	0.028451687
213	0x3d611e2c	0.054960415
214	0xbc0c9a00	-0.008581638
215	0x3d571c2b	0.052517097
216	0x3d035514	0.03206356
217	0xbdb8214b	-0.08990725
218	0x398eb5a3	0.0002721968
219	0x3d824e9c	0.0636265
220	0xbdd42b2a	-0.103597954
221	0xbc3b5e42	-0.011436047
222	0xbdca07f7	-0.098648004
223	0x3dd0ece7	0.102014355
224	0xbc9be2ef	-0.019029109
225	0xbdddd0cc	-0.108308405
226	0xbd8753a1	-0.06607748
227	0x3d186640	0.03720689
228	0x3da3b667	0.07993775
229	0xbdce3cbb	-0.10070177
230	0x3cb156e3	0.021647876
231	0xbd8a54ee	-0.0675448
232	0xbbfc1fbe	-0.0076942137
233	0xbdcf2a7d	-0.10115526
234	0x3bd7826c	0.006576827
235	0x3d3bc166	0.045838736
236	0x3cfa3dac	0.030546986
237	0x3dac52d8	0.08414239
238	0xbd59a26f	-0.053133424
239	0xbd7803b5	-0.06055041
240	0x3d41bfda	0.047302105
241	0xbd96d04e	-0.0736395
242	0x3d4d848d	0.05017524
243	0xbdd7ecb7	-0.10543197
244	0x3bacddb1	0.005275451
245	0xbcef4158	-0.029205963
246	0xbd85e5b4	-0.06537953
247	0xbd1ab7d4	-0.03777297
248	0x3d93fc98	0.07225913
249	0xbd3ea5ef	-0.046544965
250	0x3d997b22	0.07494189
251	0x3cad2377	0.021135075
252	0xbd84515b	-0.0646083
253	0xbd541667	-0.051779177
254	0xbd8a7235	-0.067600645
255	0xbd7dcdb3	-0.06196375

fc3.bias f4 [1297]
0	0x3d4a6553	0.049413037
1	0xbdbcfe3e	-0.0922818
2	0xbd591260	-0.05299604
3	0x3d8ee22d	0.06976733
4	0xbd955713	-0.07291999
5	0x3da606a9	0.08106739
6	0xbb9c9260	-0.0047781914
7	0x3b316b60	0.0027072057
8	0xbd8b1048	-0.06790215
9	0xbd831d86	-0.064021155
10	0xbdb3ddd8	-0.08782548
11	0x3bfc32e8	0.007696498
12	0x3d63a42d	0.055576492
13	0xbd4d32b8	-0.050097197
14	0xbdabdae4	-0.083913594
15	0x3dba3843	0.09092762
16	0xbc8ea613	-0.017413175
17	0x3dcb6167	0.099306874
18	0xbd4692a4	-0.04847969
19	0xbdc9df7d	-0.0985708
20	0x3d9709da	0.07374926
21	0x3d526462	0.051365264
22	0xbc28f69f	-0.010312705
23	0xbdb8a2f3	-0.09015455
24	0xbd3a1434	-0.045429423
25	0xbd0e5914	-0.03475292
26	0x3d8209ee	0.0634955
27	0x3daa71ae	0.08322464
28	0x3d55aecc	0.052168652
29	0x3d4f6b9e	0.05063974
30	0xbd6ac064	-0.057312384
31	0xbd84b827	-0.06480437
32	0xbcce1683	-0.025157219
33	0xbc7c4ef1	-0.0153996805
34	0xbd95a4eb	-0.07306846
35	0x3cf260ff	0.029587267
36	0xbd713b14	-0.058894232
37	0xbd8ef87a	-0.06980987
38	0x3d85c960	0.0653255
39	0xbd77ba0d	-0.060480166
40	0xbdb38507	-0.08765607
41	0x3db33eba	0.087521985
42	0xbcec546b	-0.028848847
43	0xbd6c2030	-0.057647884
44	0xbdb07ff3	-0.086181544
45	0xbd91124c	-0.07083568
46	0x3d5b7dc9	0.053586755
47	0xbdadc856	-0.08485477
48	0x3b070d9c	0.0020607477
49	0xbd01f821	-0.031730775
50	0x3d1340bb	0.035950404
51	0xbd83adce	-0.06429635
52	0x3dd22f46	0.10262923
53	0x3d94db9f	0.07268452
54	0xbd79c6db	-0.06098066
55	0x3cc4c805	0.024021158
56	0xbd046587	-0.032323387
57	0xbcb2d8e5	-0.021831939
58	0xbd40b51d	-0.047047723
59	0x3db332b6	0.08749907
60	0xbd995583	-0.07487013
61	0xbd742761	-0.059607867
62	0x3c6f6bce	0.014613105
63	0x3d3de710	0.046362936
64	0xbba136f3	-0.0049198805
65	0xbd4d0acf	-0.050059136
66	0x3d2aa0e7	0.041657355
67	0x3dc689aa	0.09694226
68	0x3db0fbcb	0.08641776
69	0x3d6c8ddb	0.05775247
70	0xbd9445ca	-0.07239874
71	0x3da6357a	0.081156686
72	0xbd3bc7f0	-0.045844972
73	0xbd39cf2f	-0.0453636
74	0xbda7a738	-0.08186191
75	0x3d81da48	0.06340462
76	0xb9cdf8fd	-0.00039286158
77	0xbd0a478d	-0.033759642
78	0x3cf9231e	0.030412253
79	0xbc9159dd	-0.017743045
80	0xbd45019f	-0.04809725
81	0xbdb12bdc	-0.08650944
82	0xbd53c3df	-0.05170047
83	0x3db728bc	0.08943316
84	0xbd5872b4	-0.052843764
85	0x3d459dbe	0.048246138
86	0xbb9d12e5	-0.004793512
87	0xbd82b7d5	-0.063827194
88	0xbc912106	-0.017715942
89	0xbc13530b	-0.008991967
90	0xbd441bb2	-0.047877975
91	0xbd8bf0f4	-0.068330675
92	0x3dbd6993	0.09248652
93	0xbc340fe0	-0.010990113
94	0x3ba75c35	0.0051074275
95	0xbd5aa2b1	-0.05337781
96	0xbbe09b44	-0.0068544466
97	0xbdb8c932	-0.0902275
98	0xbd720268	-0.059084326
99	0x3d64fbf9	0.055904362
100	0xbd9ce949	-0.07661683
101	0x3d8d0fb6	0.06887762
102	0xbc22f54b	-0.009946178
103	0xbd79a82e	-0.060951404
104	0xbd17c4c1	-0.037052874
105	0xbd7d690d	-0.061867762
106	0xbdcaa6e0	-0.0989511
107	0x3dbc7393	0.092017315
108	0x3d24479e	0.040107362
109	0x3d439042	0.047744997
110	0x3cf2e428	0.029649809
111	0xbb159c0a	-0.0022828602
112	0x3c0f672d	0.008752626
113	0xbd114b60	-0.035472274
114	0xbd974120	-0.073854685
115	0x3d8d162c	0.068889946
116	0x3db17fe5	0.08666972
117	0xb9e3f9a5	-0.00043482814
118	0x3c4a3dbc	0.01234382
119	0xbd4160ed	-0.047211576
120	0xbdb47af0	-0.08812511
121	0xbc071b4e	-0.008246256
122	0xbd9a7e49	-0.07543618
123	0x3dd27577	0.10276311
124	0x3ac1ba5d	0.0014780272
125	0x3dbfabd4	0.093589455
126	0xbdb94862	-0.09047009
127	0x3bb60d46	0.0055557815
128	0xbdbf2d07	-0.0933476
129	0x3d5f1975	0.054467637
130	0xbc26cf1c	-0.010181215
131	0xbdb33340	-0.087500095
132	0x3ca26143	0.019821769
133	0xbd9a878a	-0.07545383
134	0xbd3daf25	-0.04630961
135	0x3cc1c67b	0.023654213
136	0x3dd652e6	0.1046503
137	0xbdb5a2c9	-0.088689394
138	0xbdd1704e	-0.102264985
139	0x3d0db43d	0.034595717
140	0x3dcc5082	0.09976293
141	0xbb7c0655	-0.0038455923
142	0xbb9b5d9f	-0.004741385
143	0xbd5e8145	-0.0543225
144	0x3dcd3532	0.10019912
145	0x3d041fc1	0.032256845
146	0xbdd04463	-0.10169294
147	0x3d8184ae	0.06324135
148	0x3d946237	0.072452955
149	0x3d03df36	0.032195292
150	0xbce9f2bc	-0.028558128
151	0x3cc6d9f6	0.024273854
152	0x3dba10c6	0.090852305
153	0xbc7e2285	-0.01551116
154	0x3d252f78	0.040328473
155	0x3d4416a1	0.047873143
156	0xbce829ee	-0.028340306
157	0xbd201ee9	-0.03909198
158	0xbd58c72a	-0.052924313
159	0x3d11e030	0.035614192
160	0xbdacaa91	-0.084309705
161	0x3c71bcb8	0.014754467
162	0x3d1611a2	0.03663791
163	0xbc861d15	-0.01637129
164	0xbbd830c3	-0.0065976097
165	0xbdaca8c8	-0.0843063
166	0x3dc2349a	0.09482689
167	0x3d939401	0.07205964
168	0x3c45e528	0.012078561
169	0xbda44839	-0.08021588
170	0xbc8dcffd	-0.01731109
171	0xbd612cc3	-0.05497433
172	0xbd62f4b8	-0.055409163
173	0x3dcea7ba	0.10090585
174	0xbdc2aaa2	-0.09505202
175	0x3d22f479	0.03978393
176	0xbcd53ef3	-0.026030993
177	0x3d961a0f	0.07329189
178	0x3d9e5f87	0.07733064
179	0xbce399b7	-0.027783258
180	0xbda82560	-0.08210254
181	0x3dcb0606	0.09913258
182	0x3d3eb043	0.046554815
183	0x3cd3beda	0.025847841
184	0xbd145b33	-0.036219787
185	0x3c85225d	0.016251737
186	0xbd815257	-0.06314533
187	0x3dc63cfc	0.096796006
188	0xbd6afee0	-0.057371974
189	0x3d33c009	0.04388431
190	0xba056dbe	-0.00050899
191	0x3dc1758e	0.0944625
192	0xbdc44c2e	-0.095848426
193	0xbd607c11	-0.05480582
194	0xb9890f41	-0.0002614204
195	0x3b4f2959	0.0031610338
196	0x3c0e8642	0.008699002
197	0xbd8380c0	-0.064210415
198	0x3d27ec48	0.04099682
199	0xbd1963c5	-0.037448663
200	0x3dd700e5	0.104982175
201	0xbc09c106	-0.008407837
202	0x3cd6ec68	0.026235774
203	0xbcc3c28f	-0.023896484
204	0xbcf3c8fd	-0.029758925
205	0x3daad280	0.08340931
206	0xbdbfbc36	-0.0936207
207	0xbdbc8bc4	-0.09206346
208	0xbc3d1f3a	-0.0115430895
209	0x3d0d1e55	0.034452755
210	0x3dbea929	0.093096085
211	0xbda110e3	-0.07864549
212	0xbce125f6	-0.027483921
213	0x3dcc6d43	0.099817775
214	0xbbe0e2f4	-0.0068629924
215	0xbdca4275	-0.09875957
216	0x3b2f99b8	0.0026794504
217	0xbd86acc3	-0.065759204
218	0x3cb58f00	0.022162914
219	0xbdd2a24a	-0.102848604
220	0x3d2d089c	0.04224454
221	0xbd71cff2	-0.059036203
222	0x3c9f6d27	0.019461228
223	0x3db26507	0.08710676
224	0x3dc2f6d4	0.09519735
225	0xbdbd295d	-0.09236405
226	0x3dc48603	0.09595873
227	0xbdb38544	-0.08765653
228	0xbdbd7b33	-0.09252014
229	0x3d2134dc	0.03935705
230	0x3dc53176	0.096285746
231	0x3ddcccd2	0.10781254
232	0x3cfc81fc	0.0308237
233	0x3aebc480	0.0017987639
234	0xbda7617c	-0.081728905
235	0xbc8f2edb	-0.017478397
236	0xbdcd2adf	-0.10017943
237	0x3dd023b3	0.10163059
238	0x3d516328	0.051119953
239	0xbc5fef5e	-0.013667909
240	0x3d39d459	0.045368526
241	0xbdcb9c14	-0.09941879
242	0x3db789dd	0.08961842
243	0x3d8f1975	0.069872774
244	0xbd2592f6	-0.040423356
245	0x3d4f27a4	0.050574914
246	0x3d45fcf1	0.048336927
247	0x3d25f773	0.04051919
248	0x3cfaefb3	0.030631876
249	0x3c30e5c9	0.010796973
250	0xbcfed5fd	-0.031107897
251	0x3dc805f0	0.097667575
252	0x3d0c0e7d	0.034193505
253	0xbd791bbf	-0.060817476
254	0x3c3c1180	0.011478782
255	0x3ca1725e	0.019707855
