models/1296_pixels/7.pt (torch, 771783 bytes, 10 tensors)

conv1.weight f4 [6, 1, 5, 5]
000000 cb 0a 1d bd ed 54 af bc c5 17 1c be c0 76 89 3d
       -0.03834037 -0.0214028 -0.15243442 0.06712103
000010 03 84 75 bd 7a bf 71 3e c2 74 a7 bd 13 70 74 3a
       -0.05994035 0.23608199 -0.08176567 0.00093245617
000020 e4 47 43 be 98 2f 08 3e cd 53 41 be c4 b4 05 be
       -0.19070393 0.13299406 -0.18879624 -0.13057238
000030 f9 5f 22 bd 3a a3 90 bd 3b ac 3a be cc 9c fb 3d
       -0.039642308 -0.07062383 -0.18229763 0.12285766
000040 15 a9 57 3e ac 35 0b bd 6e f2 a9 bd 0e 05 46 3e
       0.21060593 -0.033986732 -0.08298193 0.19337866
000050 ae d4 99 3d 0f b9 d0 bc 18 e1 81 3b 3d 3a 1e 3e
       0.075112686 -0.025478868 0.003963601 0.15451904
000060 10 ea f4 bd 14 93 07 be 26 36 16 3e e8 bb 64 3d
       -0.119587064 -0.132397 0.14669093 0.055843264
000070 74 27 c4 3d 7b ad 37 3e 85 9f e0 3d e2 4a 3e be
       0.095778376 0.17937271 0.10967926 -0.18583253
000080 bf 02 73 be 70 da 50 be 04 62 68 3e b0 c5 af 3d
       -0.23731516 -0.20395827 0.2269364 0.08582628
000090 60 07 52 3c d7 02 26 3e 2a 2b 1d be 79 35 b4 bd
       0.012819141 0.16212021 -0.15348497 -0.087992616
0000a0 bd 78 4a 3e 83 f0 2d 3e 40 0a 58 be 80 47 e2 bd
       0.1977262 0.16986279 -0.2109766 -0.11048794
0000b0 74 9a 17 be 20 a0 12 be 49 d6 07 be fa 24 03 3d
       -0.14805013 -0.14318895 -0.13265337 0.032017685
0000c0 c2 5f 8c 3c c9 17 13 be 98 c0 a8 bd 11 ae c4 bd
       0.017135505 -0.14364542 -0.08239859 -0.09603513
0000d0 95 6d 4a 3e fd aa 40 3e ff 80 61 3d 53 a2 18 bd
       0.19768365 0.18815227 0.05505466 -0.03726418
0000e0 18 2e fd 3c f6 06 53 3e e3 e1 ae bd ad b5 1e 3d
       0.030905768 0.20608124 -0.08539178 0.03874748
0000f0 19 89 65 3e 7a 42 a1 3c c1 bf 30 3e c7 dd 71 bd
       0.2241558 0.019685019 0.17260648 -0.059049394
000100 a5 47 10 3e 94 8d 74 3e 38 70 20 3e 0d 07 a6 3b
       0.1408983 0.23882133 0.15667808 0.0050667585
000110 f1 60 24 3e 5a 2e 80 3e c6 0b 0b 3e cc ef 41 3e
       0.16052605 0.25035363 0.1357871 0.18939131
000120 98 19 06 bd 70 c4 79 3e 8e 71 59 3e 22 98 84 3d
       -0.03273925 0.24391341 0.21234724 0.064743295
000130 47 c9 f6 3d 06 01 37 be f8 2a 3c be 83 52 13 3e
       0.12050109 -0.17871484 -0.18375766 0.14386944
000140 66 5e b3 bd e5 3c 96 bd 60 77 64 3e 15 8d f6 bd
       -0.087582394 -0.073358335 0.22311163 -0.12038628
000150 4e ae 70 3e 07 7c 00 3c ab 7d 47 3d 33 30 82 3e
       0.23503992 0.00784207 0.04870383 0.25427398
000160 31 4a e4 bd ab eb eb 39 54 17 7d bc 78 2e 3a be
       -0.111469634 0.0004499828 -0.015447456 -0.18181789
000170 33 de 3e bd a4 d9 20 bd 57 15 0f be 1b a1 de bd
       -0.046598624 -0.03927006 -0.13972984 -0.10870572
000180 d9 09 f9 3d 1e 6f 07 be 98 78 19 3e 60 38 0f be
       0.121600814 -0.13225982 0.14987409 -0.13986349
000190 66 e9 35 3e a3 2d 46 3e 12 e0 60 bd 31 f7 55 bd
       0.17764816 0.19353347 -0.05490119 -0.052237693
0001a0 73 d3 15 3d c0 f3 4c 3a 9c 43 d1 bd 90 53 c9 bd
       0.036578607 0.0007818304 -0.102179736 -0.098303914
0001b0 51 ac 2a bd 42 b2 a3 3d 5c 70 eb 3d 47 c5 cc 3c
       -0.04166824 0.07992984 0.1149604 0.024996413
0001c0 df fa 23 be 3b 25 f3 3d 41 d9 29 be d5 b6 39 be
       -0.16013668 0.118723355 -0.16586782 -0.18136151
0001d0 c9 c6 17 be 9d a2 40 be 70 bf 37 3e de 01 27 3e
       -0.14821924 -0.18812032 0.17944121 0.16309306
0001e0 88 28 c5 3d 7a e2 3c 3e fb b8 b5 3d a1 60 2f 3e
       0.09626871 0.18445769 0.08873173 0.17126705
0001f0 46 12 30 3e 04 e3 1a bd cc 4a f1 3c 82 d2 c6 3d
       0.17194471 -0.037814155 0.029454611 0.0970812
000200 8c e5 a7 3d c2 d9 42 3e 94 49 87 3c 7e 9f 1e 3e
       0.081980795 0.1902838 0.016514577 0.15490529
000210 20 29 bd 3c 13 94 8d 3d 8f 8e 3c 3e 21 2b 58 3e
       0.023090899 0.069130085 0.18413757 0.21110202
000220 24 ab 24 3d a9 75 21 3c fc 46 a5 bd e7 38 33 bd
       0.040202275 0.0098547125 -0.0807018 -0.04375544
000230 9a 16 02 3e 2d 55 17 3e db 5a 57 3e e3 eb d2 bd
       0.12703934 0.14778586 0.21030752 -0.10298898
000240 e4 ba 41 3e de 9f 6b 3e 85 95 7b 3e 73 f5 46 3d
       0.1891895 0.23010203 0.24568756 0.048573922
000250 34 1a f4 3c e7 69 39 bd
       0.02979765 -0.045267012

conv1.bias f4 [6]
000000 93 b4 48 3e 49 22 be 3e bf eb aa 3d 81 b5 e4 3d
       0.19600134 0.37135532 0.08345746 0.111674316
000010 6e 27 d7 bd ea dd 57 3d
       -0.105055675 0.052701868

conv2.weight f4 [16, 6, 5, 5]
000000 5d cb 47 bd b4 c3 b6 3d 3c 99 00 bd a7 85 f3 bc
       -0.048777927 0.08924046 -0.031396136 -0.029726816
000010 0f 1e 5c 3c 2c d9 c5 3d f3 cf 5a bd 6a c6 9e 3d
       0.013434901 0.09660563 -0.053420972 0.07752688
000020 09 c9 37 bd 48 62 e2 3d 5a b7 c0 3d a4 19 12 3b
       -0.044869456 0.11053902 0.094099715 0.0022293115
000030 9f e8 8e 3d 03 a1 7c 3c a1 a4 95 3d b0 9a b9 3d
       0.06977963 0.015419248 0.07306791 0.090627074
000040 f1 ff 98 bb 89 1d d5 3d e7 b6 08 bd 85 4b 89 3d
       -0.0046691825 0.10406024 -0.033377554 0.06703857
000050 21 cf 92 3d bf d5 a7 3d a7 28 4f 3d 40 cf b8 bc
       0.07168413 0.08195066 0.05057588 -0.022559762
000060 3d ff 16 bd 71 59 93 3d 77 7b b3 3d f9 d4 6d 3d
       -0.036864508 0.07194794 0.087637834 0.058064435
000070 1e e9 28 3c 8a ef c2 bc 7f a3 85 bc 62 d1 e4 bc
       0.010309486 -0.023795862 -0.016313313 -0.027931873
000080 3d f5 2a bc 14 1c 0c bb 38 68 4f bc 2c 23 3f 3d
       -0.010434446 -0.002137904 -0.012659125 0.046664402
000090 dc 74 cd 3d 85 15 f7 3d 52 46 6f 3d b4 c9 80 3d
       0.10032055 0.120646514 0.058416672 0.06288472
0000a0 e2 1e c5 3d 17 4d 72 3c 9c 5b ed bc 8e 37 a0 bc
       0.09625031 0.014788887 -0.028974347 -0.01955774
0000b0 f3 d1 fd 3d f9 7b 8f 3c 53 9e b3 3d 68 db da 3d
       0.1239356 0.01751517 0.08770432 0.1068638
0000c0 db 3e c9 3d 85 07 c5 3d 41 f4 a0 bd 7a cf a4 bd
       0.09826442 0.09620575 -0.07859088 -0.080473855
0000d0 1e 24 ff bc fb 74 42 bc fa 3a 9c bd 08 c8 a1 3c
       -0.031145152 -0.011868711 -0.076284364 0.019748703
0000e0 fd 21 8d 3d da 2d a4 bd cc 26 aa bd 6a f4 89 3d
       0.068912484 -0.08016558 -0.08308181 0.067360714
0000f0 f9 0d ff bc 48 78 6b 3c 96 db 8a 3d e9 28 57 3b
       -0.031134592 0.014371939 0.06780164 0.003283078
000100 20 b2 54 3d 7b e4 8f 3c ba 81 07 3d 92 2c 4f bd
       0.051927686 0.017565003 0.0330827 -0.050579615
000110 3e 25 f4 bc ac 12 d3 bc 8e e7 6f bd a7 4d 66 3d
       -0.029802915 -0.02576574 -0.058570437 0.0562264
000120 75 d9 6d bd 83 37 15 3d 74 dd e6 bc c5 39 51 bd
       -0.05806871 0.036429893 -0.028181769 -0.051080484
000130 66 b0 bb 3d 71 00 78 bd 93 2f 3f 3d 3c b1 97 3d
       0.09164505 -0.060547296 0.04667623 0.07406852
000140 ca 67 7f 3d 3e f9 b2 3d 3c 51 af 3d f1 4a a3 3d
       0.06235484 0.087389454 0.08560416 0.07973278
000150 38 ce 75 3d b4 0f 9f 3d d8 c5 45 bc df 7d c1 3d
       0.06001112 0.07766667 -0.012071095 0.09447836
000160 fb 7f 18 3d 98 28 79 3c a6 03 c6 3d 61 9d 95 3c
       0.037231427 0.015207432 0.09668665 0.01826352
000170 68 ab b1 3d 4f 98 21 3d 91 6d 4f 3d 7b 85 00 3d
       0.08675271 0.039451893 0.0506416 0.031377297
000180 84 5d ca 3d 16 ad a0 3d 63 90 1f 3b aa c7 7d bb
       0.09881118 0.078455135 0.0024347536 -0.0038723745
000190 82 6f 56 3d ca b1 59 3d 0c 7d 76 3d 43 17 33 3d
       0.052352436 0.05314807 0.060177848 0.043723356
0001a0 2f 2c ba 3d f9 fa c7 3d 31 f3 53 bd 4f 5e 7e 3b
       0.090904586 0.09764666 -0.051745597 0.0038813537
0001b0 a7 0e 59 3c 59 08 8f 3d e8 d9 87 3c 31 6a fa bc
       0.013248122 0.06984014 0.016583398 -0.030568214
0001c0 39 47 9d 3d 58 7d 34 3d d1 3d 80 3d 8c 3f 47 bd
       0.076796 0.04406485 0.062617905 -0.048644587
0001d0 db a9 62 bb 8c 82 9c 3d 04 6e db bc 13 04 27 3d
       -0.0034586105 0.07642087 -0.026785858 0.04077537
0001e0 4b 2a 73 bd e3 28 ed bb 0a a0 41 3d 38 6c 43 3d
       -0.059366506 -0.00723754 0.047271766 0.047710627
0001f0 f4 83 13 bd c0 1a 85 bd e1 19 24 3d 76 c1 34 3c
       -0.036014512 -0.06499243 0.040063743 0.011032453
000200 a5 4d 72 3d f2 bd a3 bd 4a 95 64 bc d5 7f 43 bd
       0.05915608 -0.079952136 -0.013951609 -0.047729332
000210 fb 14 ae 3d ff 1e da 3c 88 7f 55 3c f6 9d ac 3b
       0.085000955 0.026626108 0.013030894 0.005267854
000220 82 05 c1 bc 43 4f bc 3c 0f 60 c6 bc 5d 47 ae 3d
       -0.023562197 0.022987014 -0.024215726 0.08509705
000230 37 1e ab 3d 67 1e 3f 3d b7 54 ab bd dc b2 6b 37
       0.083553724 0.046659853 -0.083657674 1.40487355e-05
000240 32 d3 8e bc ca 50 9a 3d d6 6e 99 bd 1c 54 f8 bb
       -0.01743469 0.075349405 -0.074918434 -0.007578386
000250 f2 52 5d bd 6e 05 8b 3d 34 f9 0b 3d 8a 61 d2 39
       -0.05403418 0.06788145 0.034173205 0.00040126994
000260 ea 01 0b bd dd ff a5 3d 66 8b 9c 3d d4 46 a2 3d
       -0.033937372 0.08105443 0.07643776 0.07923666
000270 0f eb 55 3d e0 df 55 3c 6d 2e 14 bd 0a dc e3 3c
       0.052226122 0.013053864 -0.036177088 0.027814884
000280 45 16 58 bc 9f b7 0e bd 10 07 97 bd 5c 6f b4 3c
       -0.013188903 -0.034843083 -0.07374394 0.022025757
000290 ca 5c d3 3b cc e6 a2 bc 7f 19 91 3d 61 a0 2b 3d
       0.0064502703 -0.019885443 0.07084941 0.041900996
0002a0 bc 81 25 bd 2c 90 1f bc ef bd 92 bd b6 4f 1b bd
       -0.040406927 -0.009738963 -0.07165133 -0.037917815
0002b0 44 1b 80 bd f9 fd 76 3c f8 d9 54 3d 8d 36 56 bd
       -0.062552005 0.0150752 0.051965684 -0.052298117
0002c0 16 8e d6 3b 89 b1 2f bd 10 60 2a 3d c8 91 b6 bc
       0.0065476997 -0.04289392 0.04159552 -0.02228631
0002d0 6b 1a f8 bb f5 11 1a bc b5 c2 e4 bc a3 1f 6d 3c
       -0.0075715086 -0.009403695 -0.027924875 0.014472875
0002e0 bc c5 90 bd 35 e2 2e 3b f6 88 d9 bc 26 2d 32 3d
       -0.07068965 0.0026685123 -0.026554566 0.04350009
0002f0 dd ae b5 3d 1b 17 0e bb 26 e2 ce 3c 69 af 25 bd
       0.08871243 -0.0021681252 0.02525432 -0.040450487
000300 ee 1b 0b bc 8a 5f e1 bb 47 bb 71 bd b9 b6 96 3d
       -0.008490546 -0.006877844 -0.059016492 0.0735907
000310 95 cb 1e ba c8 80 64 bd 6d 56 0a bd 85 59 9b 3d
       -0.0006057558 -0.055786878 -0.03377383 0.07585434
000320 b7 5d 26 3c a5 92 86 3c c1 64 a7 3c aa ee b5 bb
       0.010154179 0.016427347 0.020433785 -0.0055521326
000330 aa 55 69 bd b0 41 81 bd 3c c1 a2 bd 9e c0 10 bd
       -0.05696646 -0.06311357 -0.07947013 -0.035339944
000340 19 33 86 bd ea ae 32 bd 96 5d 90 bd 2f 4b 3f bc
       -0.06552715 -0.043623842 -0.070491 -0.01167564
000350 7b 6d 07 bd 1f 1c 9d 3d 0b 35 d2 bc 43 8b 3d bb
       -0.033063393 0.07671379 -0.025660058 -0.0028922118
000360 4e 2a 7b 3d 60 c2 e4 3c 6f 4a e6 3b fc 9e 86 3c
       0.06131964 0.027924716 0.007027916 0.016433232
000370 65 71 d4 3c bd 0b c8 3c 8a d9 8f bc 62 64 1f 3d
       0.025932977 0.02441966 -0.017559785 0.038914092
000380 7a ed 6b 3d 67 3f a5 3d bf c0 1e 3d 0b 05 90 bd
       0.057599522 0.08068734 0.038758036 -0.07032212
000390 f4 f0 b9 3c 47 05 87 3d f4 c0 3d 3d 04 20 73 3d
       0.022697903 0.065928034 0.046326593 0.059356704
0003a0 6a 36 49 bd 36 55 9b bd 16 4d 03 3d 03 f1 de 3a
       -0.04912416 -0.07584612 0.032055937 0.0017009083
0003b0 93 7b 1b bd 37 41 47 bd 98 c0 c7 3c c8 6d 24 bd
       -0.037959646 -0.048646178 0.024383828 -0.040143758
0003c0 28 4f 29 3d 5d e3 8c 3d 9e b1 92 3d 11 bd 96 bd
       0.041335255 0.068793036 0.07162784 -0.0736028
0003d0 37 d2 9c bd 6a 60 81 3d 29 75 02 bc 7a 2c c2 3c
       -0.07657283 0.06317218 -0.0079625035 0.023702849
0003e0 26 df 98 bd 69 c8 70 bd fe 2c 40 3d 4a 09 73 3c
       -0.07464437 -0.058784876 0.046917908 0.014833758
0003f0 d2 37 86 bd a2 af 0b 3d 78 70 69 3a 28 61 26 bd
       -0.06553616 0.034103043 0.0008905004 -0.04062

conv2.bias f4 [16]
000000 87 ba 90 3d c3 bb 6f bc 59 30 8d 3d a7 c5 0e ba
       0.07066827 -0.014632168 0.06893987 -0.00054463226
000010 22 d2 cf bd 54 05 78 3b f8 47 85 bd b7 37 90 3d
       -0.101475015 0.0037844973 -0.065078676 0.07041877
000020 76 2d e7 bc ff 22 b8 bb c3 27 0e 3d 18 14 b0 3d
       -0.02821992 -0.0056194062 0.03470589 0.085975826
000030 be 15 06 3d 5b d7 30 bd 13 7c 7a bd 6d 15 7c bd
       0.03273558 -0.04317413 -0.061153483 -0.06154387

fc1.weight f4 [120, 576]
000000 00 5f 32 bb 56 5f 0e bc b0 e4 09 bc ab 21 2c ba
       -0.002721727 -0.008689722 -0.00841634 -0.0006566296
000010 86 86 b1 3c d6 88 cb bc 6b 7a bb bc 7b 7b 2d bc
       0.021670591 -0.024845522 -0.022885522 -0.010588522
000020 2b c7 fe 3b 20 9c a9 3b f0 65 67 bc 96 12 bf bc
       0.0077752075 0.0051760823 -0.014123425 -0.023324292
000030 66 96 58 3c c0 38 e9 bb c8 a4 80 3c b8 5a e1 3c
       0.0132194515 -0.007117361 0.015703574 0.027509078
000040 c0 bc 65 bb 16 eb 1d bd 30 6b 94 bc a3 e9 c1 bc
       -0.003505513 -0.038554274 -0.018117517 -0.023670977
000050 7f 4d 19 3d d0 81 3c 3c 1b 61 78 bc bb 60 1b bd
       0.03742742 0.011505559 -0.0151598705 -0.037934046
000060 ab 33 75 3a b6 30 a2 bb 37 ab 27 bd 0b 59 36 3c
       0.00093537074 -0.0049496545 -0.040934768 0.011129628
000070 06 d1 fe bc bb 7a 15 bc b8 a1 00 3d cb ee cb 3c
       -0.03110553 -0.0091234995 0.031404227 0.024894139
000080 70 54 23 3d 16 9c 26 bd 70 5e 57 bc 68 c7 25 bd
       0.039875448 -0.0406762 -0.013145074 -0.04047337
000090 5b e8 af 3c eb 9e 9c 3c 98 f4 24 3d 0c 63 0c 3d
       0.0214731 0.019118747 0.040272325 0.034274146
0000a0 5c 2d 1a bd 83 e5 e2 3c 80 9b 00 3c 2f c9 0c bd
       -0.037640914 0.02769733 0.007849574 -0.03437155
0000b0 f0 19 28 3d 88 e1 ee bc b6 09 d5 bb 87 29 07 3d
       0.04104036 -0.029160276 -0.006501402 0.032998588
0000c0 73 b9 c0 3c 9b 06 27 bc 5e 21 fd bc 50 11 b4 3c
       0.02352593 -0.010194446 -0.0308997 0.021980911
0000d0 5b 43 ba bc 6b cb 1c 3c b6 3a a4 3c 7b 83 42 bc
       -0.022737196 0.009569983 0.020047527 -0.011872168
0000e0 80 ef d3 bc 00 fe 06 3c 86 17 79 3c b3 53 12 3d
       -0.025871038 0.008239269 0.015203362 0.035724353
0000f0 ab 7d 0b 3b 96 43 77 3c a0 97 35 bc 47 12 25 3d
       0.002128462 0.015091797 -0.0110835135 0.040300634
000100 00 60 ee bb de eb b4 3c 3b 54 9d 3c 66 d0 cc bc
       -0.0072746277 0.022085126 0.019205203 -0.025001716
000110 10 05 1c bd ab b9 7f 3a 00 eb 40 3a ff a5 14 3d
       -0.038090765 0.0009755145 0.00073592365 0.03629112
000120 a6 36 cd 3c e0 4c b2 3c f6 0c 74 bc 1b ef 25 3d
       0.025050472 0.021765172 -0.014895668 0.040511232
000130 ab 4f 40 3c 00 9b bb 3a 0b 51 88 3c 00 a6 81 3a
       0.011737744 0.0014313161 0.016640207 0.0009891391
000140 0b b2 c9 3c 56 a4 12 3a 00 1e f2 3c 08 07 f6 bc
       0.02462103 0.0005593946 0.02955532 -0.03003265
000150 d8 bb 12 bd d7 bc 1a bd 92 8a 1a 3d 4b da 66 bc
       -0.035823673 -0.037777748 0.037729807 -0.014090131
000160 93 0b 95 3c 8e 22 c7 3c d6 ee 53 3c 04 35 19 bd
       0.018193996 0.02430847 0.012935361 -0.037404075
000170 f0 9f 35 3c cb ed d8 bb 48 10 db bc fb b7 0e 3d
       0.011085495 -0.006620144 -0.026741162 0.034843426
000180 3a 56 1f bd 00 f0 0b b8 23 f9 d5 3c bb f8 b5 3c
       -0.03890059 -3.33637e-05 0.026119774 0.02221333
000190 a3 87 9d 3c 60 51 fc bc 30 98 18 bc b0 a3 6c 3c
       0.019229716 -0.030800521 -0.009313628 0.014443323
0001a0 d0 8c 11 3d d6 cc 5d 3c da 30 06 bd 93 5d f5 3c
       0.03553468 0.013537606 -0.032761432 0.029951846
0001b0 18 df d9 3c 56 bd e1 39 20 cb 7b bc c3 a3 83 bc
       0.026595637 0.0004305641 -0.015368253 -0.016069299
0001c0 36 cd 98 3c 40 9d c5 bb 80 88 14 bb 4e ef e1 3c
       0.01865254 -0.0060307086 -0.0022664368 0.02757993
0001d0 80 50 6b 3c 03 98 d9 3c 0b 5b 3a bc c0 c0 a8 bc
       0.014362454 0.026561743 -0.011374245 -0.020599723
0001e0 ae 67 8e bc c0 d2 c7 bc 6b 8b bb 3b 03 5f ce 3c
       -0.017383423 -0.024392486 0.005723407 0.02519179
0001f0 d6 3a 23 3b 8e d5 86 3c 2b 05 78 bb 34 1f 00 bd
       0.0024906895 0.016459253 -0.0037844877 -0.031279758
000200 00 21 ed 3b 7b bf 7b 3c 50 41 be 3c e6 bc 4c bc
       0.0072366 0.015365477 0.023224503 -0.012496209
000210 40 30 9f 3c 00 7a 14 ba 2b e5 d4 bb 46 91 ec 3c
       0.019432187 -0.00056639314 -0.0064970455 0.028877866
000220 d6 30 39 bc 43 29 e7 3c c0 73 71 bb c8 46 c6 bc
       -0.011303147 0.028217917 -0.0036842674 -0.024203673
000230 06 28 b5 3c 38 52 dd bc e0 56 bf 3b ee f6 bb bc
       0.022113811 -0.027016744 0.0058392137 -0.022944894
000240 eb fc 2a 3c 96 fd 99 3b c0 8b 68 3b 4b 0c 2a bd
       0.010436277 0.0046994193 0.0035483688 -0.04151563
000250 83 d4 aa 3c d6 6b 24 3b d8 cd ee bc 70 f3 66 3c
       0.020853287 0.002508869 -0.029150888 0.014096126
000260 07 71 0a 3d 4b 89 a4 bc 80 ca 9f 3a 5a 1f 0d 3d
       0.033799198 -0.020084998 0.0012191087 0.034453727
000270 ab 76 d2 3a 9e 43 a6 bc 00 6b f0 ba 00 5c 34 ba
       0.0016057094 -0.020295914 -0.0018342435 -0.0006880164
000280 b6 43 f2 bc c8 1e cc 3c 43 df c2 bc 40 66 1f bd
       -0.029573303 0.024917021 -0.0237881 -0.038915873
000290 eb e0 69 3b 86 13 ba 3c 64 2a 28 bd 80 37 47 bb
       0.003568704 0.022714388 -0.04105605 -0.003039807
0002a0 3b c9 02 3d b6 b0 34 bc 40 15 5f 3b 8b 87 01 3c
       0.03193019 -0.011028459 0.0034039766 0.007905851
0002b0 98 f8 f3 bc 56 71 1e bd fb 7d e4 3c 6b 51 6e bb
       -0.029781625 -0.038682304 0.027892103 -0.0036364447
0002c0 b6 b4 d4 3b 7b 77 e1 bc cb c5 93 bb a6 72 75 3c
       0.006491269 -0.027522793 -0.0045096627 0.014980948
0002d0 be bc 92 3c f3 9a 04 3d 8b b2 99 3b 1b ba 15 3c
       0.017912265 0.032374334 0.0046904734 0.009138609
0002e0 56 7d ae bb af cc 07 bd 3b 2c 8d bc 97 18 19 3d
       -0.005325 -0.033154186 -0.017233005 0.037376966
0002f0 e8 28 eb bc 70 22 eb 3c 04 a8 0d bd ab 4c 9a 3a
       -0.028706029 0.028702945 -0.03458406 0.0011772116
000300 08 95 ce bc be 2c 16 3d 88 6d f2 3c ab 3f 34 3b
       -0.025217548 0.036663763 0.029593244 0.002750377
000310 2b 58 49 3b 03 be 89 3c 7b 62 6c bc 7b 61 ea bc
       0.0030722718 0.016814237 -0.014427776 -0.028610935
000320 b3 d8 27 bd 9e 7f d3 3c 0b 09 bd 3c 1e bd c2 3c
       -0.040978145 0.025817689 0.023075601 0.023771819
000330 43 ca d6 bc 56 16 65 ba 6b 91 5f bc f4 12 1e bd
       -0.026219493 -0.0008738985 -0.01364551 -0.038592294
000340 60 53 1c bc 48 e5 e9 bc 8b 9e 15 3c e6 8e 11 bc
       -0.0095413625 -0.028551713 0.009132038 -0.008884167
000350 30 9a 58 bc 9e 9f 9f bc b3 38 a7 3c cc bd 0b 3d
       -0.013220355 -0.019485291 0.020412778 0.03411655
000360 9e 93 0a 3d 8e cd d5 3c 1b d1 8d 3c 5b cb 02 bd
       0.033832185 0.026098993 0.017311623 -0.031932216
000370 76 32 a9 bc e0 c4 e0 bc fb 17 1d 3c d6 69 91 bb
       -0.020653944 -0.027437627 0.009588237 -0.0044376655
000380 04 61 23 3d 36 1a 97 3c 1b 9d d5 3c 78 b3 83 bc
       0.039887443 0.018445116 0.02607589 -0.016076788
000390 d6 f7 a5 bc 2e 19 f8 bc c6 8c c6 3c c0 e0 48 bc
       -0.020259779 -0.030285444 0.024237048 -0.012260616
0003a0 f6 83 1d 3d 00 25 a4 bc 4e 67 16 bd d3 c2 fd bc
       0.038455926 -0.020037174 -0.036719613 -0.030976688
0003b0 86 71 0e bd 56 b6 44 ba 73 90 fb 3c cf d5 0e bd
       -0.034776233 -0.0007503977 0.030708527 -0.034871873
0003c0 93 bb 89 bc 76 aa 84 bc 00 c2 86 3c 00 6a ce 3b
       -0.016813075 -0.016194563 0.016449928 0.0062992573
0003d0 53 19 f3 3c 6e f9 c9 3c ab f9 de 3c a6 6f 09 3d
       0.029675161 0.02465507 0.02721866 0.033553742
0003e0 c8 33 07 bd 2e d4 8b 3c cb f0 a1 bb 0e 0c e6 3c
       -0.033008367 0.017068949 -0.004942035 0.02808192
0003f0 be 9e 21 3d 76 66 f1 3b bb c8 e7 bc 00 a9 43 bb
       0.03945803 0.0073669506 -0.028293958 -0.002985537

fc1.bias f4 [120]
000000 be bb cb bc 52 04 86 3c 77 75 09 bc dc cd 26 3d
       -0.024869796 0.016359482 -0.008389822 0.040723667
000010 13 dd 2b 3c 33 c1 c7 3c 87 43 b3 3c e4 9f 84 3b
       0.01048972 0.024384117 0.021882785 0.0040473808
000020 6c 8f d5 bc 64 6d b5 3c ba ef d3 bb fe 11 0e 3d
       -0.026069365 0.022146888 -0.0064677866 0.034685127
000030 68 11 09 3d 00 82 d7 bc f2 42 06 3c 77 05 50 bb
       0.033463866 -0.026307106 0.008194672 -0.0031741539
000040 88 72 1a bd 14 d5 27 3c 7b 62 75 bc 47 48 2e bc
       -0.03770688 0.010243673 -0.014977093 -0.010637349
000050 9f ff 20 bd 34 90 2b 3d 20 26 6c bc 11 ef 55 bc
       -0.03930628 0.04188557 -0.014413387 -0.013057486
000060 7e fd ca bb 7e ce 6b 3c 95 04 ac 3c 5c 02 a1 3c
       -0.0061947694 0.014392493 0.020998279 0.019654445
000070 b3 6c de 3c 39 e7 c1 3c 3d 8f ae 3c 94 15 8f bc
       0.027151441 0.023669826 0.021308536 -0.017466344
000080 ef af 38 bc a3 dc d7 bc e3 24 05 bd 66 4a 32 bd
       -0.011272415 -0.026350325 -0.03250588 -0.043527983
000090 7b 4d 0e bd 96 e1 29 bd 14 16 ce 3c 8e 8a 27 3d
       -0.03474186 -0.0414749 0.025157012 0.04090362
0000a0 71 98 81 3b ed 44 d5 3c d5 cb 57 bc ec 2f 4b bc
       0.00395494 0.026033843 -0.013171156 -0.012401562
0000b0 9e 13 08 3b 02 e3 ca ba 67 82 c6 3c bd 2d d4 bc
       0.0020763646 -0.001547903 0.024232103 -0.025900716
0000c0 d8 ca b3 bc 7a 90 89 3b 5c 58 3f 3d 54 2d bb 3c
       -0.02194731 0.004198131 0.046715125 0.022848763
0000d0 35 91 f6 bc a5 3a 1d 3d 2a 3e 39 3d e1 28 32 bd
       -0.030098537 0.038386006 0.0452253 -0.043496016
0000e0 e6 45 1a 3c f9 7d c8 3c b4 1c cb 3c a6 f8 c5 3c
       0.009416079 0.024474131 0.02479396 0.024166416
0000f0 f5 48 01 bd 29 04 06 3c 18 f3 99 3b 2e 6c 89 3b
       -0.031563718 0.008179703 0.0046981685 0.004193804
000100 5c 70 da 3b de bd d8 bc d0 06 26 3d 9d db 04 3d
       0.0066662263 -0.026457723 0.04053384 0.032436002
000110 34 e9 20 bd 8c 7b ae 3c 46 56 05 bc 2c 20 e5 39
       -0.0392849 0.021299146 -0.008138245 0.00043702254
000120 94 b6 9c 3a a1 3a 00 bd 94 0f b9 3b b9 cd 3a bc
       0.0011956268 -0.031305913 0.005647609 -0.011401587
000130 5f df 08 bd b4 b1 80 ba b7 1f 49 3d b4 4f 00 bc
       -0.03341615 -0.0009818585 0.04910251 -0.007831503
000140 bc 51 47 ba 50 1f db 3c e5 ce 38 bc d1 68 17 bd
       -0.0007603427 0.02674833 -0.011279796 -0.036965195
000150 a4 d5 10 bd 71 39 c6 bc a8 d3 e7 bc b2 5d 25 bd
       -0.035359994 -0.024197312 -0.028299168 -0.040372558
000160 81 eb 3d bd da 94 8a 3b 24 4d 2c 3d 16 67 fe 3c
       -0.046367172 0.0042291703 0.042065755 0.031055015
000170 9e 4e 07 bd 04 47 03 3d 41 37 0d 3d b0 96 9b bb
       -0.03303396 0.032050148 0.034476522 -0.004748188
000180 a0 f0 24 bd 6d 51 b5 ba b6 c0 05 bd ec c1 70 3c
       -0.04026854 -0.0013833471 -0.032654487 0.014694672
000190 51 17 3b 3d 20 d3 c5 bc 30 20 cb bc 17 32 88 bb
       0.045676533 -0.024148524 -0.024795622 -0.004156362
0001a0 49 21 c1 3b 5d 37 8a bc aa af 33 bd 86 b9 ed bb
       0.0058938605 -0.016872102 -0.0438687 -0.007254782
0001b0 e2 a1 ae 3c 2b dd 70 3d 35 9e f2 bb 8a f2 18 bd
       0.021317426 0.058804672 -0.0074041137 -0.03734068
0001c0 ae 5c b7 3c 6d 04 0c bc af c5 f9 3c a8 e6 03 bd
       0.02238306 -0.008545977 0.03048977 -0.032202393
0001d0 4a 83 18 3b 4f 0b 8b bb 57 06 be bc 98 e8 86 3c
       0.0023271614 -0.0042432914 -0.023196382 0.016468331

fc2.weight f4 [84, 120]
000000 44 41 2f 3d a5 96 8c bd 7d a1 3b bc 06 01 61 bd
       0.04278685 -0.06864671 -0.011452076 -0.054932617
000010 86 ab 63 bc f7 36 a2 3d 68 51 06 3d 53 15 02 bd
       -0.013895875 0.0792064 0.03279248 -0.031758618
000020 fc 5a 52 bc 7c 95 62 bd c2 97 b9 3d f0 5a bc ba
       -0.012839075 -0.05531834 0.09062149 -0.0014370363
000030 ef f3 bc bc 0a 74 8d 3c 29 a8 8b 3d 02 3e 42 bd
       -0.023065535 0.017267246 0.068191834 -0.047422417
000040 ef a1 15 bd 9a da 71 3d 97 c8 ae bd 63 0d d8 bc
       -0.036531385 0.059046365 -0.08534353 -0.02637357
000050 21 84 7b bd 7e 67 ab bd fc c0 6d 3c 7c 69 83 3d
       -0.061405305 -0.08369349 0.014511343 0.06416604
000060 a7 4b 56 3d e1 b2 fe 3c 04 7f 34 bd 96 f2 5f bd
       0.05231824 0.031091155 -0.044066444 -0.054674707
000070 21 3c 87 bc 7f 2f 20 3d 4f 30 21 bd 19 6e a5 3d
       -0.016508164 0.039107796 -0.03935271 0.0807764
000080 76 7b fc bc f5 d1 82 3d b3 15 f6 bc bb 7b 87 3d
       -0.03082059 0.063877024 -0.030039644 0.066153966
000090 cc cf 90 bd 88 fb db 3c 68 b1 a4 3d bc f3 a3 bd
       -0.07070884 0.026853338 0.0804165 -0.08005473
0000a0 7c 22 46 bd 0c f6 e7 3c 3f 89 56 bd 56 07 9e 3d
       -0.04837273 0.028315566 -0.05237698 0.07716243
0000b0 34 dd 54 bd d5 6d 46 3d 12 2c a6 bd 79 ae b0 bb
       -0.05196877 0.048444588 -0.081138745 -0.0053918925
0000c0 27 46 25 3d 9a 14 43 bd 7d c6 6f bc d2 99 a3 bd
       0.040350106 -0.04762707 -0.014634726 -0.07988323
0000d0 41 12 af bd c1 30 a6 bd 31 ea 47 3c 42 00 2b 3d
       -0.085484035 -0.08114768 0.012201832 0.041748293
0000e0 12 12 8c bc e9 2a 27 3d 7f 2f 8b 3d f6 c0 a0 3d
       -0.01709846 0.040812407 0.067961685 0.078493044
0000f0 8f a5 ba bd 10 8d aa 3c 4a 8e 5d 3d b5 c1 60 3c
       -0.09113609 0.020819217 0.054090776 0.013718058
000100 25 7f 7f bd 42 fd d9 3b 6d 3a d1 bb 30 47 cb 3c
       -0.062377114 0.006652505 -0.0063851387 0.024814218
000110 7c 88 a5 3d 84 1c af bd fa c5 90 3d 53 73 b5 3c
       0.08082673 -0.08550361 0.07069011 0.022149717
000120 c7 8d 4b 3b e4 60 9b bc 31 db 37 bd 36 ab f0 3c
       0.0031059848 -0.0189671 -0.04488677 0.029378515
000130 60 c6 e1 3c 71 c6 d6 3c 39 e2 87 bb c8 59 e2 bc
       0.027560413 0.026217671 -0.004146841 -0.027630702
000140 eb 9e 37 3c 63 4a ae bd 57 c1 bc bc 48 de a0 bd
       0.011207323 -0.08510282 -0.02304141 -0.07854897
000150 47 d9 a6 3d 78 8d 88 bd 49 69 8a 3d aa 03 b6 bd
       0.08146911 -0.06667608 0.06758363 -0.088874176
000160 e1 6f 48 3c 3b eb f2 3c 29 27 09 3c 7a 5e 63 bd
       0.012233705 0.029653182 0.008371153 -0.05551002
000170 7a 30 9f bd fa ae 43 3d c2 ca 10 3c cf 2b 95 3d
       -0.07772918 0.047774293 0.008837404 0.072837465
000180 09 2a 48 bd 92 8a 60 bc db 4c 1c 3d 96 de 32 bd
       -0.048868213 -0.013704913 0.038159233 -0.043669306
000190 d0 80 a8 bd 6a 63 69 3d 20 bb b7 3d 74 3d 9e 3d
       -0.08227694 0.056979574 0.08971238 0.07726565
0001a0 f3 64 ef bc 40 eb 11 bd af 4d 8b bd cd 30 60 bd
       -0.029222941 -0.035624743 -0.06801926 -0.05473404
0001b0 5d f6 11 bb c3 26 8b 3d 8b 4e 54 3d 04 7c 80 3c
       -0.0022272088 0.067945026 0.051832717 0.015684135
0001c0 e8 f1 a3 bd 25 87 63 3d c4 e0 fc bc c2 d4 77 bc
       -0.08005124 0.055548806 -0.030868895 -0.015126409
0001d0 f0 68 69 bd 8e b4 06 3d 5b 26 a7 3d e4 af 27 3c
       -0.05698484 0.032887034 0.081616126 0.010234807
0001e0 10 16 71 bc 71 93 45 3d 98 a8 34 3d 43 f2 a4 bd
       -0.014714733 0.048236314 0.044106096 -0.0805402
0001f0 07 e3 18 3d 5e 75 93 3d 4b 61 65 bd 67 46 8c 39
       0.037325885 0.072001204 -0.05600099 0.00026755335
000200 9d 60 7d 3d 80 e3 25 3d c8 08 99 bd 7e 24 4b bd
       0.061859716 0.040500164 -0.07472378 -0.04959535
000210 dc 1d 27 3d eb 0d 9f bd 1d 47 4f 3d 0a 38 9c 3d
       0.04079996 -0.077663265 0.05060493 0.07627876
000220 5e 32 f3 bc 9a 05 9e 3c c5 06 4d 3d 31 6c 0b 3c
       -0.029687103 0.01928978 0.050055284 0.008509682
000230 9c b4 a5 bc bc 26 29 3c 83 f2 9f 3d d1 58 90 bb
       -0.020227723 0.010324176 0.07809927 -0.004405119
000240 97 f5 94 bd 40 e5 8f bd 78 df 1d 3c 3a de be bc
       -0.07273405 -0.07026148 0.009635799 -0.023299325
000250 53 ae 86 bc 8f 04 4f 3d 81 e2 fe bc 26 49 b7 bd
       -0.016440546 0.050541457 -0.031113865 -0.08949499
000260 22 05 95 bd 6c 59 08 3d 5c d7 b4 3d 8d fd 1d 3d
       -0.0727637 0.033288404 0.08830139 0.038571883
000270 ee 45 47 3d 06 49 90 bd ec 28 d1 3c 3a 9a 98 3b
       0.048650675 -0.07045178 0.025532208 0.004657057
000280 a7 69 03 bd 7a 2c 1d bd 46 81 91 bd 7d d1 36 3d
       -0.03208318 -0.038372494 -0.07104735 0.044633377
000290 4c 00 ba bd 7c 3b bd ba 68 3f 89 3d e5 fa 5c 3d
       -0.09082088 -0.0014437283 0.06701547 0.05395021
0002a0 6c f8 21 bb 78 45 f5 bc cc a1 0c bd 4f 5b 75 3c
       -0.0024714721 -0.029940352 -0.03433399 0.014975383
0002b0 a2 12 9d bd 1d e6 58 3c 72 54 2a bd 2b 41 9b 3d
       -0.076695696 0.013238457 -0.04158444 0.07580789
0002c0 05 ab ab bd b3 5b 73 3d 8f c2 13 bd 69 e2 6e 3d
       -0.08382229 0.059413623 -0.036074217 0.05832139
0002d0 97 d3 e1 3c b5 ec 6e bd d4 86 0f 3d ed 88 4d 3d
       0.027566714 -0.05833121 0.03504069 0.05017941
0002e0 c1 8e 89 3d d6 c4 9c bd 36 a9 e7 bc 96 3f f5 bc
       0.06716681 -0.07654731 -0.028278928 -0.029937547
0002f0 d5 36 90 bc 66 36 14 bd 86 44 75 bc b5 63 a1 bd
       -0.017604271 -0.03618469 -0.014969951 -0.07880346
000300 71 ac 2d bd d4 f7 e4 bc 9d 47 a1 3d 0d 7f 23 3d
       -0.04240078 -0.027950205 0.07874987 0.039916087
000310 c7 89 3a 3d 8f 75 47 bd 2d ff 9d 3d 97 f3 3f 3d
       0.04554155 -0.048696097 0.077146865 0.046863165
000320 72 82 b9 bc fe b4 bb bd 03 bb c7 3b a8 47 99 bc
       -0.022645209 -0.09165381 0.0060952916 -0.018710926
000330 3e 18 85 3d f9 61 53 3d d7 59 0a 3d 0e 24 7a 3b
       0.064987645 0.051607106 0.033777084 0.0038168463
000340 df aa 53 bd f9 dd d6 bc 85 15 be bb 16 57 10 3d
       -0.051676627 -0.026228892 -0.005800905 0.0352393
000350 7f b4 1f 3d ba f3 7f bc 7d 8b ec 3c 8a d4 72 bb
       0.038990494 -0.015622074 0.028875107 -0.0037052953
000360 92 92 fa 3c ac 25 67 bd 85 d1 67 3c a7 ec b2 bd
       0.030587468 -0.05643241 0.014149074 -0.08736544
000370 78 66 bb 3c d4 19 52 3d e2 dc d7 3c 4f 1c 94 bd
       0.02287601 0.051294163 0.026350442 -0.07231962
000380 12 a0 8d 3d f5 9d b9 3d f2 96 3c 3c 3e 73 0c bc
       0.069152966 0.09063331 0.011510598 -0.008572398
000390 e4 7c 6d 3c 80 e4 00 bd 27 3d 99 bd a2 9e 64 bc
       0.014495108 -0.031467915 -0.07482367 -0.013953837
0003a0 52 0d 37 3d 66 df ad 3d f0 d1 32 3d 64 18 a2 3d
       0.044690438 0.084898755 0.043657243 0.079148084
0003b0 72 f8 85 3d d4 f5 3c 3c 6e 85 ac bd 66 3b 53 bc
       0.06541528 0.011533219 -0.08423887 -0.01289258
0003c0 6c 11 f2 3c 70 e8 6b 3c 10 29 bb bb 37 6b 1c 3d
       0.029549323 0.014398679 -0.005711682 0.038188186
0003d0 85 f1 81 3d e1 77 0c 3d 7b 27 10 3d 81 b7 95 bd
       0.06344894 0.034294013 0.0351939 -0.07310391
0003e0 5b 1f 88 bd df 10 18 3d ff e9 84 bd 62 18 34 bd
       -0.066466056 0.037125465 -0.06489944 -0.043968566
0003f0 5c e1 fb 3c c5 b5 96 3d f5 cb de 3c 63 48 28 bc
       0.030747108 0.073588885 0.027196864 -0.010271165

fc2.bias f4 [84]
000000 c1 a9 b4 bd fe e5 62 bd 14 60 02 3d 43 c5 20 3c
       -0.088214405 -0.05539512 0.03182991 0.009812656
000010 2b 4c 17 3c 49 5b a1 bd ea c3 79 bd b7 cf bf bd
       0.009234468 -0.078787394 -0.060977854 -0.0936579
000020 8d 53 79 3d 71 f6 5d 3d f3 e2 b7 bd e9 e8 0c 3d
       0.060870696 0.054190103 -0.08978834 0.034401808
000030 75 1e b0 3d ca 44 7d 3d b1 5a 35 3c 81 8c 8c bd
       0.08599559 0.06183318 0.011068986 -0.068627365
000040 c5 17 59 bd 43 10 b2 3d 2b ac be 3d 76 25 50 3d
       -0.053001184 0.08694508 0.09310182 0.050816976
000050 45 89 a4 3d 15 43 3d bd e5 37 7b bd 87 cd 9c 3d
       0.080339946 -0.046206553 -0.061332602 0.07656389
000060 b8 1f 2f bd b2 e9 50 bd 2b 60 a6 bd 92 bb 5d bd
       -0.04275486 -0.05100412 -0.08123811 -0.05413396
000070 4f a0 27 bc 77 ca ab bd 2c 01 9a 3d 99 7c f3 3d
       -0.010231092 -0.083882265 0.07519755 0.118889995
000080 f1 f5 86 3d 13 6a b0 bd 27 fd 46 bd e4 e8 94 3d
       0.06589878 -0.08613982 -0.04858127 0.07270983
000090 65 fa 4c bd bc 36 94 bd a8 cf 46 3d c2 6a 1f bd
       -0.050043482 -0.07237002 0.04853788 -0.03892017
0000a0 5c 24 84 bd 70 f1 04 bd ab a5 b8 bd f0 e4 b7 3d
       -0.064522475 -0.032456815 -0.09015974 0.08979213
0000b0 a7 71 29 bd ff b3 79 3d ad 39 55 3d 14 16 8f bd
       -0.041368153 0.060962673 0.052056957 -0.06986633
0000c0 fc ea 4d bd a8 0c 50 3d d2 0b 5e 3c 41 dc 77 bb
       -0.050272927 0.05079332 0.013552623 -0.003782049
0000d0 ab 62 43 bd 91 c2 2a bd 2f 31 9e bb 87 8b e4 bb
       -0.04770152 -0.04168946 -0.0048276405 -0.006974641
0000e0 6a ea 82 3d a8 7b 86 3d 0c aa 45 3d 8d 33 11 3d
       0.06392367 0.06566554 0.048257872 0.035449553
0000f0 83 7d 9f 3c 81 78 7a 3d e1 32 a0 bc 26 ed c1 bd
       0.019469028 0.061150078 -0.019555511 -0.094690606
000100 bb 5b 35 3b 8d 48 07 bd 4a f5 77 3c 85 c8 bc 3d
       0.0027673084 -0.033028174 0.015134165 0.092179336
000110 e5 1c 9f 3d 5c b0 19 bc 34 da 2c 3d a1 c3 08 3d
       0.07769183 -0.009380426 0.042200282 0.03338969
000120 b8 02 c9 bd aa 11 09 3d 1e 9a 4b 3c e5 2d e2 bd
       -0.09814972 0.03346411 0.012426881 -0.1104391
000130 df 13 0e bd d9 5d 80 bd 30 d1 a1 3d 56 c1 01 3d
       -0.03468692 -0.062679 0.079012275 0.03167852
000140 8f 90 82 3d 49 e2 40 3b 9c 79 79 bd f6 e5 6f 3c
       0.063752286 0.0029431751 -0.06090699 0.014642229

fc3.weight f4 [1297, 84]
000000 47 cd 20 bd 4d dd 28 3d 11 64 cf bd 88 9c 45 3d
       -0.039258268 0.041226674 -0.10126508 0.048244983
000010 e4 e2 8c bc da cb 80 3d f7 de d5 bc f0 f5 9a 3d
       -0.017198034 0.062888816 -0.026107294 0.0756644
000020 55 a3 a3 3d 36 c6 da bd 01 5a 16 bd 54 02 80 3d
       0.079901375 -0.10682337 -0.03670693 0.06250444
000030 4e 38 49 bd 9f c8 b7 bd 66 0d 9c 3c 99 11 6b 3d
       -0.049125962 -0.08973812 0.019049358 0.05738983
000040 78 5c a7 bd e8 d4 c4 3d 71 ad cc bc 47 fe b6 bb
       -0.08171934 0.09610921 -0.024985047 -0.0055845114
000050 18 3a 82 3d 72 0b 8e bd b9 3c 88 3c da f4 73 bd
       0.06358737 -0.06935777 0.016630517 -0.05955968
000060 ff 52 c2 3d b6 53 08 3d a5 4b 8c 3d 99 07 d6 bd
       0.094884865 0.033282958 0.068503655 -0.10450668
000070 b4 71 84 3d 8f a2 a4 3d 69 50 7c bd 7c 1c 6a bc
       0.06467 0.08038818 -0.061600123 -0.014289018
000080 4b 95 3c bd d8 03 4b bd 6b 83 68 3d a7 12 63 3a
       -0.046040814 -0.049564213 0.056765955 0.0008662142
000090 ec 06 dd 3d 1e b0 f1 bb 1f 93 37 3d 64 e1 87 3d
       0.10792336 -0.007375731 0.04481804 0.06634787
0000a0 aa 6b 94 3b a2 2b c5 bc 38 b7 d3 bd 37 b4 dc 3d
       0.004529436 -0.024068657 -0.103376806 0.10776561
0000b0 35 a5 ca bd 7b 81 af 3d 6d 3e a9 3d a5 89 79 3d
       -0.09894792 0.08569618 0.0826386 0.060922284
0000c0 54 db 60 bd dc 15 29 bd ac c1 49 bd ac 5f 92 bd
       -0.054896668 -0.041280612 -0.049256966 -0.07147154
0000d0 24 80 a2 3c da cd 4b bd fe 97 12 3c 81 91 ec bc
       0.019836493 -0.049756862 0.008947371 -0.028877975
0000e0 8f 95 1d 3d cd e8 18 bc 73 5a 94 bd a6 00 86 3d
       0.03847271 -0.009332848 -0.07243814 0.065430924
0000f0 7a d2 10 bd 9a 46 2a bd 44 41 12 3d d7 24 38 bd
       -0.035356976 -0.041571237 0.035706773 -0.04495701
000100 57 b6 25 3d 6e 26 66 3d 20 b8 40 3d 96 32 d3 3d
       0.040457096 0.056188993 0.047050595 0.10312383
000110 90 ce 2f bd 45 0c 15 bd 21 65 ab 3c b7 10 02 3d
       -0.042921603 -0.036388654 0.020922245 0.03175422
000120 77 9d cb bd 5f 33 9d 3d 8c f5 a1 3d d3 b9 e9 bc
       -0.099421434 0.07675814 0.079081625 -0.02853099
000130 40 f6 8c bd c5 78 ae bd 4f ec d7 bd f1 be 3d bc
       -0.06882906 -0.08519129 -0.10543119 -0.0115811685
000140 2d ea ab bd 70 e1 38 3d 73 2e 62 3d 98 71 ec bd
       -0.08394275 0.04513687 0.05522008 -0.11545104
000150 9c 91 bc 3d ec ac 2d bd fe cb c3 bc 03 cd 13 3d
       0.0920746 -0.04240124 -0.023900982 0.036084186
000160 b2 64 76 3d fb ab 15 3d d5 83 b5 3d ee 04 70 bb
       0.060154624 0.036540966 0.088630356 -0.0036624032
000170 d6 5c 77 3d bf fb b7 bd 6c 4d 38 bd 69 2a d9 bd
       0.06039127 -0.08983564 -0.04499571 -0.10603792
000180 d7 4a c0 bd 5c 3d d2 bd 0b f4 bc 3d 47 ec 02 bd
       -0.093892746 -0.102656096 0.09226235 -0.031963613
000190 31 4e 8a bd 13 50 e1 39 58 81 13 3d da ce b9 3d
       -0.06753195 0.00042975004 0.036012024 0.09072657
0001a0 5b 71 c5 bd 16 8c 5b bd 0c 9b 9a bd 42 d8 86 3c
       -0.096407615 -0.053600393 -0.07549104 0.016460542
0001b0 3d 7c 45 bd 9e 2e 3f 3c a5 d7 c4 bd a9 b6 b0 bd
       -0.048214186 0.011668829 -0.096114434 -0.0862859
0001c0 ee 0f 91 bd d4 fe 4c bd a4 9d a5 bd 2a 41 8c 3d
       -0.070831165 -0.05004771 -0.08086708 0.068483666
0001d0 99 89 93 bb b3 ba b7 3d 13 2b 8b 3d 41 e6 c6 38
       -0.004502487 0.08971157 0.06795325 9.484264e-05
0001e0 14 b1 fa bc 9f 94 da 3d c8 d4 a6 bc e2 9a 5d bc
       -0.030602016 0.106728785 -0.020365134 -0.0135256965
0001f0 9d 03 40 3d d5 d1 0d bc bd a0 a6 bd a2 80 1d bd
       0.046878446 -0.008655985 -0.08136127 -0.038452752
000200 26 fb c6 bb 15 1c 5a bd cb 5d 93 3c 45 c0 91 3d
       -0.0060724197 -0.053249437 0.01798906 0.07116751
000210 53 c2 35 bd 14 2d c6 3d 50 6e 95 bd 1c a7 cd bd
       -0.044374775 0.09676567 -0.07296431 -0.10041639
000220 17 63 ab 3d bc 91 cb bb dc bc b4 bd ff fc 27 3d
       0.08368509 -0.0062124413 -0.088250846 0.04101276
000230 c9 ee c2 bd 9f 3b d4 bd 18 91 e5 3b 94 96 53 3c
       -0.09518201 -0.10362934 0.007005822 0.012914319
000240 bd 74 97 bd 42 2e b8 3d f4 54 89 3d 9a c9 91 3d
       -0.07395313 0.08993198 0.06705657 0.071185306
000250 73 17 2e 3d de 90 ce bb 0e e7 88 3d a4 02 72 bd
       0.04250283 -0.0063038906 0.06684695 -0.05908455
000260 34 72 d3 3d 62 8f 80 3d 55 51 7a 3c bd f8 d8 bc
       0.10324517 0.06277348 0.01527818 -0.026485795
000270 17 5d dc 3d c4 f6 43 bd f1 04 42 3d e2 f6 02 bd
       0.10759943 -0.047842756 0.047367994 -0.031973727
000280 24 aa 89 3c 4e 69 5e 3d fc 86 a5 bd 9f 62 df bc
       0.016804762 0.054299645 -0.08082387 -0.027268706
000290 d3 86 a1 3b 19 a0 4d bd 5b 80 97 bd b1 5f ba bd
       0.0049294024 -0.05020151 -0.07397529 -0.09100283
0002a0 de 9c 15 bd 31 e9 d0 bd 8b 1a 23 3c 5f 2a 66 3d
       -0.036526553 -0.10200728 0.009955059 0.056192752
0002b0 bc f0 04 3d 1e 42 1e bc c1 0a 90 bc db ab 47 3d
       0.032456145 -0.009659318 -0.017583253 0.04874788
0002c0 78 47 e0 3d eb 0c 90 3d 52 1e c9 bd f5 4e 05 bd
       0.109511316 0.07033714 -0.09820236 -0.032546002
0002d0 a7 8b 80 3c 28 c5 68 bd dd ba 64 3d 04 15 d1 bd
       0.015691591 -0.056828648 0.05584227 -0.102090865
0002e0 e3 ec 2c 3d f3 08 18 bd 4b 79 10 3d 0b 4a b5 3d
       0.0422181 -0.03711791 0.035271924 0.08852013
0002f0 ab 05 bd 3d b2 e4 bf bd 44 35 45 3d 05 d1 91 bd
       0.09229597 -0.09369792 0.0481465 -0.071199454
000300 a1 92 da 3d d2 26 2d bb 8b 04 2c bd 9d 49 2e bd
       0.106724985 -0.0026420844 -0.04199652 -0.04255067
000310 a2 36 ae 3c d0 49 73 bb 35 43 89 3d d2 d5 dd 3d
       0.021266285 -0.0037122853 0.06702272 0.108317986
000320 05 a3 a8 3d 9e 1e c3 bd db 29 2d 3d 5f 4c fa bc
       0.082342185 -0.09527324 0.042276245 -0.030553995
000330 6e f3 a4 bd f7 bf 4a bb 22 c5 8e bd 22 e2 3a 3d
       -0.08054243 -0.0030937174 -0.06971194 0.045625813
000340 b0 15 c3 bd 43 a6 0f 3d 00 95 2f bb 6f f6 3f bc
       -0.09525621 0.03507067 -0.0026791692 -0.011716469
000350 83 13 e9 3c 1c 34 5e 3d 57 4c 05 bc 89 f7 56 3d
       0.028451687 0.054248914 -0.008135877 0.05248216
000360 df d2 00 3d 32 b9 bb bd a3 b5 8e 39 ba dd 82 3d
       0.031451102 -0.091661826 0.0002721968 0.06389947
000370 2f fb d4 bd d0 62 3b bc 68 a0 ce bd e6 ec d0 3d
       -0.10399472 -0.011437133 -0.10089189 0.10201435
000380 56 d5 a3 bc 66 f7 e5 bd df 6f 88 bd 9f 87 19 3d
       -0.019999187 -0.11228828 -0.06661963 0.037482854
000390 f0 bf 9d 3d 28 93 d9 bd 92 18 b5 3c 80 03 94 bd
       0.07702625 -0.10623771 0.022106443 -0.0722723
0003a0 9d 51 90 bc 78 91 ce bd 2f f6 e4 3b 1f f9 34 3d
       -0.017617041 -0.1008634 0.006987355 0.044182893
0003b0 57 a7 ff 3c 78 90 a4 3d 6f a2 59 bd cb 77 7f bd
       0.031207724 0.08035368 -0.053133424 -0.062370103
0003c0 ca 84 40 3d 3b b5 99 bd 99 b1 41 3d ee 10 dd bd
       0.047001638 -0.0750527 0.04728851 -0.10794245
0003d0 94 dd ac 3b 58 41 ef bc 86 2a 85 bd 32 34 1f bd
       0.0052754376 -0.029205963 -0.06502251 -0.038868137
0003e0 d3 e3 90 3d ed 75 3e bd 4f c0 8f 3d ad 93 90 3c
       0.07074704 -0.04649918 0.07019102 0.017648542
0003f0 5b 51 84 bd 85 1b 54 bd 5c c4 8d bd 8c 4e 7c bd
       -0.0646083 -0.051784057 -0.06922218 -0.061598346

fc3.bias f4 [1297]
000000 7a 48 46 3d 3f 31 b5 bd e0 34 56 bd a4 20 90 3d
       0.048408963 -0.088472836 -0.05229652 0.07037476
000010 e1 68 8e bd 20 2e a7 3d c7 bc 17 bb c9 9b 8d 3b
       -0.06953598 0.081630945 -0.0023153292 0.0043215496
000020 f5 e8 8a bd 15 c7 77 bd 45 96 ad bd 85 a5 fe 3b
       -0.06782714 -0.060492594 -0.08475927 0.0077711963
000030 4d 7b 5b 3d 54 8c 42 bd 6d 33 a6 bd b2 8a bd 3d
       0.053584386 -0.04749711 -0.081152774 0.0925497
000040 88 3e 8e bc 96 59 d0 3d b7 de 3e bd dd 15 c5 bd
       -0.017363802 0.10173337 -0.046599116 -0.09623311
000050 5e b9 95 3d dd 81 5c 3d e4 f3 14 bc e0 18 b6 bd
       0.073107466 0.053834785 -0.009091351 -0.08891463
000060 f3 38 3b bd 62 69 07 bd 2b 33 85 3d 12 a6 a3 3d
       -0.045708608 -0.033059485 0.065039 0.0799066
000070 f0 99 51 3d 4b dc 3b 3d 44 cb 66 bd 88 20 7f bd
       0.051172197 0.045864385 -0.056346193 -0.062286884
000080 a0 cc b7 bc b8 b6 5a bc 1f 98 90 bd 49 e8 02 3d
       -0.02243644 -0.013349228 -0.07060265 0.031959806
000090 8d 96 6a bd 5a ad 8d bd f9 0f 83 3d b1 e7 7b bd
       -0.057272483 -0.0691783 0.06399531 -0.061500255
0000a0 9b 3c b9 bd cc 53 b7 3d 69 f1 e5 bc f9 2f 66 bd
       -0.09044763 0.0895153 -0.028069215 -0.056198094
0000b0 c3 3f af bd 8e 4c 92 bd b3 51 60 3d af 97 a5 bd
       -0.085570835 -0.07143508 0.054765414 -0.08085572
0000c0 67 e6 1f 3a 9d 29 08 bd 33 7e 08 3d ea ed 83 bd
       0.0006099701 -0.03324281 0.033323478 -0.06441863
0000d0 aa 18 d8 3d 14 b1 99 3d 37 0f 6f bd 9a 36 da 3c
       0.10551579 0.07504478 -0.05836412 0.026637364
0000e0 9d 52 fe bc a7 6c 91 bc 1f da 30 bd 95 e4 b2 3d
       -0.031045252 -0.017752005 -0.043176766 0.08735005
0000f0 03 87 93 bd 3f 85 74 bd 59 0d 83 3c 6f f1 3e 3d
       -0.07203486 -0.059697386 0.015997576 0.046616968
000100 a4 2d 36 bb 08 ec 3c bd 54 22 28 3d d3 47 c8 3d
       -0.00277982 -0.046123534 0.041048363 0.097793244
000110 aa 30 b5 3d bf 86 6e 3d a9 9a 8b bd f6 b1 a1 3d
       0.088471726 0.058233973 -0.068166085 0.078952715
000120 24 4a 36 bd 58 90 32 bd c3 18 a9 bd 68 13 83 3d
       -0.0445043 -0.04359469 -0.08256676 0.06400186
000130 56 82 0b 3b 0f 83 05 bd 11 30 01 3d 57 b3 80 bc
       0.0021287403 -0.03259569 0.03153998 -0.015710516
000140 8f 32 3e bd 3e 35 b4 bd 29 07 4c bd c8 f3 bb 3d
       -0.046434935 -0.08799218 -0.049811516 0.09177357
000150 d9 f3 4f bd 69 e5 47 3d cd fe 1b bb 87 76 7d bd
       -0.05076966 0.048802767 -0.0023802996 -0.061880615
000160 19 a0 8c bc 50 1f 04 bc 6d 4f 37 bd 9d 95 86 bd
       -0.017166184 -0.008064106 -0.04475348 -0.06571505
000170 56 6e be 3d 61 22 18 bc 23 31 f1 3b b2 5e 50 bd
       0.09298389 -0.00928554 0.007360594 -0.05087156
000180 2a c2 b4 bb c1 3e b8 bd 74 24 6e bd 4f 3a 6f 3d
       -0.00551631 -0.08996344 -0.058140233 0.058405217
000190 a1 40 9c bd 09 d7 8d 3d ed 6e 06 bc e0 fb 77 bd
       -0.076295145 0.0692578 -0.008205158 -0.06054294
0001a0 e3 c5 11 bd 08 fa 73 bd 86 78 c7 bd 67 d6 bf 3d
       -0.03558911 -0.05956462 -0.09739785 0.09367066
0001b0 42 23 22 3d 9d 7e 43 3d f9 46 fa 3c 09 01 c4 3a
       0.039584406 0.04772817 0.03055142 0.0014953922
0001c0 31 d9 15 3c 17 0a 0a bd fa 84 92 bd 8c 6c 8f 3d
       0.009146021 -0.03370103 -0.071542695 0.070031255
0001d0 a4 38 b1 3d e0 2d 64 ba b3 e2 52 3c 4c ae 36 bd
       0.086533815 -0.00087043457 0.012871432 -0.044599816
0001e0 bb cc b2 bd aa cb 90 bb d7 27 97 bd 22 af d1 3d
       -0.087304555 -0.00441881 -0.07380646 0.10238482
0001f0 04 0a 0d 3b eb bc c2 3d f1 0c b3 bd 9f ca f5 3b
       0.0021520862 0.095086895 -0.08742703 0.007500961
000200 28 d0 bf bd d3 bd 65 3d 71 6a 00 bc 9a 58 b3 bd
       -0.093658745 0.056089234 -0.007837878 -0.08757134
000210 6e 92 9f 3c b3 c9 95 bd 08 36 39 bd 8b 85 ba 3c
       0.019479003 -0.07313862 -0.045217544 0.022768756
000220 bb 40 db 3d ba e1 af bd e5 e2 d3 bd 3d 8f 11 3d
       0.10705706 -0.08587976 -0.10346011 0.035536993
000230 ba 45 cf 3d 03 38 32 bb 7d 99 65 bb bf 8a 55 bd
       0.10120721 -0.002719403 -0.0035034113 -0.05213427
000240 3b 13 d1 3d df 10 07 3d aa 70 d0 bd 3f 23 86 3d
       0.10208746 0.032975074 -0.10177739 0.065496914
000250 41 42 9a 3d 4c f9 01 3d d9 17 e5 bc 15 a7 ca 3c
       0.07532168 0.03173189 -0.027965473 0.024737874
000260 e1 c3 ba 3d 6b 90 5b bc 82 e0 32 3d 36 21 48 3d
       0.09119392 -0.013401131 0.04367114 0.048859797
000270 8e 29 d3 bc 05 d7 23 bd 6f d1 52 bd 35 f6 12 3d
       -0.02577665 -0.03999998 -0.051469263 0.035879333
000280 77 7f a6 bd 35 e5 92 3c 81 bb 19 3d 07 7d 6f bc
       -0.08129781 0.01793156 0.037532333 -0.014617211
000290 91 30 ba bb 71 b7 b0 bd c5 65 c2 3d 94 ff 94 3d
       -0.005682059 -0.08628739 0.09492067 0.0727531
0002a0 d8 03 6a 3c 27 28 9d bd 05 35 66 bc fe 37 5b bd
       0.014283143 -0.07673674 -0.014050727 -0.053520195
0002b0 02 38 64 bd a4 48 cf 3d 8c 88 ba bd 59 1b 24 3d
       -0.055717476 0.10121277 -0.091080755 0.040065143
0002c0 79 12 d3 bc fb 30 9a 3d a8 83 a3 3d 24 d1 dd bc
       -0.025765644 0.075288735 0.07984096 -0.027077265
0002d0 4c db a8 bd b9 37 d1 3d b4 63 3b 3d a2 05 da 3c
       -0.082449526 0.102157064 0.04574938 0.026614014
0002e0 13 9f 0d bd 48 87 92 3c e3 45 81 bd 97 e7 c7 3d
       -0.034575533 0.017886773 -0.06312158 0.09760969
0002f0 6b a5 68 bd 59 6e 38 3d b1 72 fd 39 44 38 c5 3d
       -0.05679838 0.04502711 0.00048341372 0.096298724
000300 61 4f cd bd dd a4 66 bd 47 32 f7 3a 78 2e 5e 3b
       -0.10024906 -0.05630957 0.0018859588 0.003390221
000310 3d d1 2b 3c f4 99 80 bd fe d8 2d 3d 77 10 0d bd
       0.010486898 -0.06279364 0.042443268 -0.03443953
000320 aa 66 dd 3d ec c7 10 bc b8 ed df 3c 8b cf e3 bc
       0.10810597 -0.008836728 0.027335033 -0.027808925
000330 35 94 06 bd b3 5b a9 3d 3d fe b9 bd aa c7 b4 bd
       -0.032856185 0.08269443 -0.09081695 -0.088271454
000340 62 50 23 bc 1f c1 08 3d b2 ea bf 3d 3e 12 9e bd
       -0.009967895 0.0333873 0.093709365 -0.07718323
000350 fa 84 dc bc 6a cd ce 3d 9c ae 9a bb f5 fa c6 bd
       -0.026918877 0.100977734 -0.004720522 -0.09715835
000360 63 c2 a5 3b cd 7a 81 bd 08 0f c6 3c 33 43 cb bd
       0.005058573 -0.063222505 0.02417709 -0.099249266
000370 24 17 20 3d c5 c8 68 bd 93 00 ba 3c 7c 65 b2 3d
       0.03908457 -0.056832094 0.022705352 0.08710763
000380 b1 40 c4 3d d8 77 c0 bd 0c b9 c6 3d c6 0a b1 bd
       0.095826514 -0.093978584 0.09703264 -0.08644633
000390 aa 58 bc bd e6 64 25 3d 73 59 c7 3d de b8 e2 3d
       -0.09196599 0.040379427 0.09733858 0.11070417
0003a0 54 44 00 3d e5 fb 07 3b 57 17 a7 bd 91 d3 64 bc
       0.031315163 0.0020749506 -0.081587486 -0.013966457
0003b0 ea 70 c8 bd 6b d1 d4 3d 6c ed 43 3d 89 b5 4b bc
       -0.09787162 0.10391506 0.047833845 -0.012433418
0003c0 64 35 3a 3d 6e ca c7 bd 18 7b b4 3d a6 e8 8f 3d
       0.045461074 -0.09755407 0.08812541 0.07026796
0003d0 16 69 23 bd 23 f5 57 3d 82 cf 3f 3d 63 00 29 3d
       -0.03989514 0.052724015 0.046828754 0.041260134
0003e0 29 c7 0a 3d 04 d1 4e 3c ca 9f fc bc 97 59 c6 3d
       0.03388134 0.012623075 -0.030837912 0.09685057
0003f0 3f ca 05 3d 3b 92 82 bd 9c 78 47 3c 1c 96 b7 3c
       0.03266358 -0.063755475 0.012174752 0.022410445
