models/1296_pixels/8.pt (torch, 771783 bytes, 10 tensors)

conv1.weight f4 [6, 1, 5, 5]
0	0xbd426164	-0.04745616
1	0xbcf3291e	-0.029682692
2	0xbe370ef0	-0.17876792
3	0x3da3ca51	0.07997573
4	0xbd909c13	-0.07061019
5	0x3e925699	0.28581694
6	0xbdcf9a9a	-0.1013691
7	0x3bfa2b70	0.0076345727
8	0xbe623c09	-0.22093214
9	0x3e25834a	0.16163364
10	0xbe65ae43	-0.22429757
11	0xbe24e6b0	-0.16103625
12	0xbd431452	-0.0476268
13	0xbdb3fdf8	-0.08788675
14	0xbe58d0dc	-0.21173424
15	0x3e0c02e0	0.13672972
16	0x3e7d7dcc	0.24755019
17	0xbd46c626	-0.048528813
18	0xbdd0f3f4	-0.1020278
19	0x3e6ca5c7	0.23110114
20	0x3d9a5d59	0.07537336
21	0xbd1a9e4b	-0.037748616
22	0xbc181eb7	-0.009284667
23	0x3e3821f9	0.1798171
24	0xbe14aaea	-0.14518324
25	0xbe2aea46	-0.1669093
26	0x3e387ff1	0.18017556
27	0x3d7497ab	0.059714954
28	0x3dd7d5eb	0.105388485
29	0x3e5111fc	0.20417017
30	0x3e04fac2	0.12986282
31	0xbe6eef06	-0.23333368
32	0xbe8f456b	-0.2798265
33	0xbe83420e	-0.25636333
34	0x3e8c9609	0.27458218
35	0x3db2cc7c	0.087304085
36	0xbb1449a0	-0.0022626892
37	0x3e5b254d	0.21400948
38	0xbe3bd39b	-0.1834244
39	0xbdd27d4f	-0.10277807
40	0x3e66e2ce	0.22547457
41	0x3e4e7900	0.20163345
42	0xbe8413ac	-0.25796258
43	0xbdfdd6ba	-0.123944715
44	0xbe2c09c8	-0.16800606
45	0xbe2f87e0	-0.17141676
46	0xbe2e31bb	-0.17011158
47	0x3d1c9ba2	0.03823436
48	0x3cbe5cd7	0.023237629
49	0xbe2c3416	-0.16816744
50	0xbd33a0c2	-0.043854482
51	0xbd59eaef	-0.053202566
52	0x3e664712	0.22488049
53	0x3e5c7828	0.21530211
54	0x3db9bffe	0.09069823
55	0x3b856a0c	0.0040714797
56	0x3d8e7119	0.069551654
57	0x3e6ffab8	0.23435485
58	0xbd20e1ea	-0.03927795
59	0x3d9ba1f2	0.07599248
60	0x3e7f8c16	0.24955782
61	0x3d7a7cd6	0.06115421
62	0x3e4e2a53	0.20133333
63	0xbc4baeee	-0.012431843
64	0x3e308192	0.17236927
65	0x3e88c8c1	0.26715663
66	0x3e442c60	0.19157553
67	0x3d49584a	0.049156465
68	0x3e461fd8	0.19348085
69	0x3e8d9cb3	0.27658615
70	0x3e2cd3a5	0.16877611
71	0x3e5fdcdf	0.218616
72	0x3c2be25b	0.010490979
73	0x3e89adb3	0.26890334
74	0x3e775442	0.24153236
75	0x3d8ffcdc	0.07030651
76	0x3e0a0134	0.13477021
77	0xbe4ff330	-0.20307612
78	0xbe5096d3	-0.20370035
79	0x3e210f10	0.15728402
80	0xbdc54faf	-0.09634339
81	0xbdb8d7f4	-0.09025565
82	0x3e81e650	0.25371027
83	0xbe0d3332	-0.1378906
84	0x3e87d40f	0.26528975
85	0x3c1255b6	0.008931568
86	0x3d596e16	0.0530835
87	0x3e9337ba	0.28753453
88	0xbe028f28	-0.12749922
89	0xbac3ddfc	-0.0014943476
90	0xbc844d85	-0.016150245
91	0xbe4ff33a	-0.20307627
92	0xbd6b2096	-0.057404123
93	0xbd3dd98b	-0.046350043
94	0xbe1af767	-0.15133439
95	0xbdf804b8	-0.12110275
96	0x3e1252fd	0.1428947
97	0xbe169e32	-0.14708784
98	0x3e312fbc	0.17303365
99	0xbe1af986	-0.15134248
100	0x3e408fd7	0.1880487
101	0x3e5299ea	0.20566526
102	0xbd6ee29d	-0.058321584
103	0xbd58fea1	-0.052977208
104	0x3d273c27	0.04082885
105	0xba11552c	-0.00055440026
106	0xbddd8397	-0.108161144
107	0xbdd1bbe6	-0.10240917
108	0xbd3658f3	-0.044518422
109	0x3db4381f	0.08799767
110	0x3dfdb085	0.12387184
111	0x3cfa673d	0.030566806
112	0xbe2fed95	-0.17180474
113	0x3e03d35b	0.12873594
114	0xbe3805ee	-0.17971012
115	0xbe43990c	-0.19101351
116	0xbe1ff7b8	-0.15621841
117	0xbe4f3739	-0.2023591
118	0x3e41131d	0.18854947
119	0x3e2f5161	0.17120887
120	0x3dd1bc93	0.10241046
121	0x3e48ccef	0.19609426
122	0x3dbaf2f0	0.09128368
123	0x3e360a3a	0.17777339
124	0x3e37f0e7	0.1796299
125	0xbbdb6a1b	-0.0066959984
126	0x3d759025	0.05995192
127	0x3dfab689	0.12241847
128	0x3de589f6	0.112079546
129	0x3e57c849	0.21072496
130	0x3d4a5c46	0.049404405
131	0x3e359590	0.17732835
132	0x3d5ba362	0.05362261
133	0x3dc8982b	0.09794649
134	0x3e50d635	0.20394213
135	0x3e6a6e77	0.22893701
136	0x3d97f345	0.07419447
137	0x3d2854c4	0.041096464
138	0xbd3b9420	-0.04579556
139	0xbc163ad8	-0.009169303
140	0x3e20c24b	0.15699117
141	0x3e36e615	0.17861207
142	0x3e6975c3	0.22798829
143	0xbd8748bd	-0.066056706
144	0x3e4d5751	0.2005284
145	0x3e7f9013	0.24957304
146	0x3e87aba6	0.26498145
147	0x3da4ac39	0.08040661
148	0x3d6b673b	0.057471495
149	0xbc5c3050	-0.013439253

conv1.bias f4 [6]
0	0x3e9ab5f6	0.3021695
1	0x3f04c39f	0.51860994
2	0x3d6f00e3	0.058350455
3	0x3e460595	0.19338067
4	0xbd9e2854	-0.07722536
5	0x3ce82af9	0.028340803

conv2.weight f4 [16, 6, 5, 5]
0	0xbcf90f48	-0.030402794
1	0x3ddf6964	0.109087735
2	0xbc4ca1f9	-0.012489789
3	0xbc2b850a	-0.010468731
4	0x3d087199	0.03331146
5	0x3defa286	0.11700921
6	0xbd1192b7	-0.03554031
7	0x3dc6ee11	0.09713376
8	0xbce02331	-0.02736053
9	0x3e057eea	0.13036695
10	0x3de8d9a6	0.11369638
11	0x3c9f7f75	0.019469956
12	0x3db7c657	0.08973377
13	0x3d0b0fc6	0.03395059
14	0x3dbe9d60	0.09307361
15	0x3de19500	0.110147476
16	0x3c51dcbf	0.012808978
17	0x3dfc03ef	0.12305438
18	0xbc849f40	-0.016189218
19	0x3db09440	0.086220264
20	0x3db9cb75	0.090720095
21	0x3dcfd4c1	0.101480015
22	0x3d8efdcf	0.06982004
23	0xbb86a954	-0.004109541
24	0xbc8fcfd9	-0.017555164
25	0x3dc73aaa	0.09727986
26	0x3de8c730	0.11366117
27	0x3daa19e1	0.08305717
28	0x3d0f9651	0.035055462
29	0xb95c626d	-0.00021017501
30	0x3bf8573c	0.0075787585
31	0xbbbb9283	-0.0057242527
32	0x3c531216	0.01288273
33	0x3cb43b3a	0.022000898
34	0x3c3b3504	0.011426214
35	0x3d909a9d	0.0706074
36	0x3dfee878	0.12446684
37	0x3e16f658	0.1474241
38	0x3da7499d	0.081683375
39	0x3db38464	0.08765486
40	0x3dfcb461	0.12339092
41	0x3d1a3967	0.0376524
42	0xbbd27e1d	-0.0064237253
43	0x3b1d3b26	0.0023991554
44	0x3e1a74fb	0.15083687
45	0x3d2ce55a	0.042210914
46	0x3de86430	0.11347234
47	0x3e08186a	0.13290563
48	0x3dfc5515	0.123209156
49	0x3dfa336d	0.1221684
50	0xbda42d51	-0.08016456
51	0xbda96d46	-0.082727954
52	0xbcf004be	-0.029299136
53	0xbc4b0ed4	-0.012393672
54	0xbd9d97a4	-0.07694939
55	0x3ca5e305	0.020249853
56	0x3d8da5e5	0.069164075
57	0xbda2b987	-0.07945543
58	0xbdaee50d	-0.08539782
59	0x3d8e05e6	0.06934719
60	0xbcfe5243	-0.031045085
61	0x3c7a98c0	0.0152952075
62	0x3d9083ca	0.07056387
63	0x3b6dcd32	0.0036285636
64	0x3d5cb3f5	0.053882558
65	0x3c958a19	0.018254327
66	0x3d088b6e	0.033336096
67	0xbd59833d	-0.053103674
68	0xbcf46eef	-0.029838054
69	0xbcd468d0	-0.025928885
70	0xbd7662f6	-0.06015297
71	0x3d630f32	0.055434413
72	0xbd7546f1	-0.059882108
73	0x3d1ae479	0.037815545
74	0xbcf655c4	-0.030070193
75	0xbd0ce31c	-0.034396276
76	0x3de398fd	0.111131646
77	0xbd34288b	-0.043983977
78	0x3d848cc9	0.06472165
79	0x3dbd5892	0.09245409
80	0x3da4c72f	0.08045804
81	0x3dd952eb	0.106115185
82	0x3dd32fa7	0.10311823
83	0x3dca7152	0.098848954
84	0x3d9f1864	0.07768324
85	0x3dc4623f	0.095890515
86	0x3ba3bc2e	0.004996798
87	0x3de4cfa9	0.111724205
88	0x3d60a05b	0.054840427
89	0x3d04c41b	0.032413583
90	0x3ded614b	0.11590823
91	0x3d0f5a50	0.034998238
92	0x3dd8c4dc	0.10584423
93	0x3d6b91a1	0.05751193
94	0x3d8f8d01	0.07009316
95	0x3d4c6414	0.04990013
96	0x3deeda37	0.11662715
97	0x3dc76797	0.09736555
98	0x3ca0dbd1	0.019636067
99	0x3c70501e	0.014667539
100	0x3d7e114a	0.062028207
101	0x3d80bfbb	0.0628657
102	0x3d904324	0.07044056
103	0x3d5a93e0	0.05336368
104	0x3dd02d82	0.1016493
105	0x3de008c1	0.1093917
106	0xbd333d3b	-0.043759566
107	0x3c4a1ca1	0.012335927
108	0x3ca7fcbd	0.020506257
109	0x3da20928	0.07911903
110	0x3cd6b207	0.026207937
111	0xbcc4ab87	-0.024007572
112	0x3db2ac7e	0.087243065
113	0x3d5bcc33	0.053661536
114	0x3d95452c	0.07288584
115	0xbd25b633	-0.04045696
116	0x3b90e92c	0.0044223275
117	0x3db23881	0.087021835
118	0xbca77503	-0.020441538
119	0x3d4b5de0	0.049650073
120	0xbd52a524	-0.05142702
121	0x3ab050fd	0.0013451871
122	0x3d666f30	0.05625838
123	0x3d69b8a1	0.05706084
124	0xbcdbc46a	-0.026827056
125	0xbd881362	-0.06644322
126	0x3d22da3d	0.03975891
127	0x3c4ff2fe	0.012692211
128	0x3d76a2ea	0.06021396
129	0xbda4161c	-0.080120295
130	0xbc625cb3	-0.0138160465
131	0xbd4378a7	-0.047722485
132	0x3db2e19e	0.08734439
133	0x3cd0e952	0.02550188
134	0x3c644491	0.013932363
135	0x3bd05b19	0.006358516
136	0xbcbb9533	-0.022898292
137	0x3cd341ec	0.02578827
138	0xbcc4e43c	-0.024034612
139	0x3db56e40	0.08858919
140	0x3db186ee	0.08668314
141	0x3d4201d1	0.047365014
142	0xbdacf1c4	-0.08444551
143	0xb95d74fe	-0.00021119785
144	0xbc82dd2a	-0.0159746
145	0x3d9b496b	0.07582363
146	0xbd9b6c83	-0.07589056
147	0xbbf18eb3	-0.0073717474
148	0xbd5a5c7b	-0.053310852
149	0x3d8d09de	0.06886648
150	0x3d134302	0.035952576
151	0x3b080f45	0.0020761054
152	0xbd051ceb	-0.03249828
153	0x3da9d236	0.08292048
154	0x3da0d778	0.078535974
155	0x3da5e823	0.08100917
156	0x3d5d6497	0.054051008
157	0x3c728b56	0.014803728
158	0xbd0cb645	-0.034353513
159	0x3cf164d6	0.029467028
160	0xbc3d0e2d	-0.011539024
161	0xbd08415a	-0.03326545
162	0xbd93a04c	-0.072083086
163	0x3cc1b75c	0.023647003
164	0x3c082693	0.008309978
165	0xbc94296f	-0.018086163
166	0x3d952d69	0.07284052
167	0x3d33b0bb	0.043869715
168	0xbd1e3134	-0.038621143
169	0xbc020b54	-0.007937271
170	0xbd8f3678	-0.06992811
171	0xbd1418ed	-0.036156584
172	0xbd7a89e3	-0.061166655
173	0x3c8a62c4	0.016892798
174	0x3d5b8e15	0.053602297
175	0xbd4ec299	-0.05047855
176	0x3c09b7e0	0.008405656
177	0xbd28b135	-0.041184623
178	0x3d34d8bc	0.044152007
179	0xbca23e21	-0.019805016
180	0xbbbce7d9	-0.005764943
181	0xbbeeed31	-0.007291459
182	0xbcd47d12	-0.025938544
183	0x3c858cb4	0.016302444
184	0xbd8d4fd2	-0.0689999
185	0x3b9c1ed0	0.0047644153
186	0xbcca8fe9	-0.024726825
187	0x3d39f914	0.045403555
188	0x3dba4ebd	0.090970494
189	0xb879db46	-5.957044e-05
190	0x3cde9bc4	0.027173884
191	0xbd1daf66	-0.03849735
192	0xbbd70e2c	-0.0065629687
193	0xbba065a0	-0.004894927
194	0xbd6a6574	-0.05722566
195	0x3d9b202c	0.07574496
196	0x3a97b9a6	0.0011575713
197	0xbd5ed9e5	-0.05440702
198	0xbd01c0d2	-0.03167803
199	0x3d9feb04	0.078084975
200	0x3c3772bb	0.0111967875
201	0x3c90fc88	0.017698541
202	0x3cb15db9	0.021651136
203	0xbb9670e6	-0.0045910953
204	0xbd675922	-0.056481488
205	0xbd7dd1aa	-0.06196753
206	0xbda0a507	-0.078439765
207	0xbd0bd334	-0.034136966
208	0xbd84eca1	-0.06490446
209	0xbd2fc115	-0.042908747
210	0xbd8e4b36	-0.06947939
211	0xbc31c40b	-0.010849963
212	0xbd03e80a	-0.03220371
213	0x3d9fc392	0.07800974
214	0xbccb8682	-0.024844412
215	0xbb097a57	-0.0020977461
216	0x3d7fcb21	0.06244958
217	0x3cef9781	0.029247047
218	0x3c09ec23	0.008418116
219	0x3c9195a5	0.017771551
220	0x3cdd0fc7	0.026985062
221	0x3cd0ee70	0.02550432
222	0xbc8718ab	-0.016491255
223	0x3d25078d	0.040290404
224	0x3d70c84c	0.058784768
225	0x3da93fa2	0.0826409
226	0x3d263117	0.04057416
227	0xbd8cd821	-0.06877161
228	0x3cc9f94a	0.024655003
229	0x3d8acd37	0.06777423
230	0x3d45f03c	0.04832481
231	0x3d7b412c	0.06134145
232	0xbd41ae39	-0.047285292
233	0xbd97e87b	-0.07417389
234	0x3d0af49d	0.033924688
235	0x3b59562e	0.003316294
236	0xbd1434c9	-0.036183152
237	0xbd402ef1	-0.046919767
238	0x3cd84a3d	0.026402587
239	0xbd1c9b65	-0.038234133
240	0x3d30fedb	0.0432118
241	0x3d90c133	0.070681
242	0x3d966b67	0.07344704
243	0xbd935ec3	-0.07195809
244	0xbd98f211	-0.074680455
245	0x3d854bbb	0.06508585
246	0xbbcb45de	-0.006203397
247	0x3cd20750	0.025638252
248	0xbd94dd1b	-0.07268735
249	0xbd6954ef	-0.056965765
250	0x3d474ef5	0.048659284
251	0x3c878de7	0.016547156
252	0xbd83b9f7	-0.06431954
253	0x3d12236c	0.035678312
254	0x3b0b5fe2	0.0021266867
255	0xbd218f6e	-0.039443426

conv2.bias f4 [16]
0	0x3dad5eaf	0.08465325
1	0xbc73e3ed	-0.014885885
2	0x3d976cab	0.07393774
3	0xba0ec5a7	-0.00054463226
4	0xbddb3fef	-0.10705554
5	0x3cb130ff	0.021629808
6	0xbd857fc1	-0.06518508
7	0x3d9bddca	0.07610662
8	0xbceff99d	-0.02929383
9	0x3ba09c2f	0.004901431
10	0x3cfb7fa3	0.03070051
11	0x3db5d840	0.08879137
12	0x3d0e6fc2	0.03477455
13	0xbd3962a4	-0.045260087
14	0xbd8c8e78	-0.06863111
15	0xbd750625	-0.059820313

fc1.weight f4 [120, 576]
0	0xbb325f00	-0.002721727
1	0xbc0e5f56	-0.008689722
2	0xbc09e4b0	-0.00841634
3	0xba2c21ab	-0.0006566296
4	0x3cb18686	0.021670591
5	0xbccb88d6	-0.024845522
6	0xbcbb7a6b	-0.022885522
7	0xbc2d7b7b	-0.010588522
8	0x3bfec72b	0.0077752075
9	0x3ba99c20	0.0051760823
10	0xbc6765f0	-0.014123425
11	0xbcbf1296	-0.023324292
12	0x3c589666	0.0132194515
13	0xbbe938c0	-0.007117361
14	0x3c80a4c8	0.015703574
15	0x3ce15ab8	0.027509078
16	0xbb65bcc0	-0.003505513
17	0xbd1deb16	-0.038554274
18	0xbc946b30	-0.018117517
19	0xbcc1e9a3	-0.023670977
20	0x3d194d7f	0.03742742
21	0x3c3c81d0	0.011505559
22	0xbc78611b	-0.0151598705
23	0xbd1b60bb	-0.037934046
24	0x3a7533ab	0.00093537074
25	0xbba230b6	-0.0049496545
26	0xbd27ab37	-0.040934768
27	0x3c36590b	0.011129628
28	0xbcfed106	-0.03110553
29	0xbc157abb	-0.0091234995
30	0x3d00a1b8	0.031404227
31	0x3ccbeecb	0.024894139
32	0x3d235470	0.039875448
33	0xbd269c16	-0.0406762
34	0xbc575e70	-0.013145074
35	0xbd25c768	-0.04047337
36	0x3cafe85b	0.0214731
37	0x3c9c9eeb	0.019118747
38	0x3d24f498	0.040272325
39	0x3d0c630c	0.034274146
40	0xbd1a2d5c	-0.037640914
41	0x3ce2e583	0.02769733
42	0x3c009b80	0.007849574
43	0xbd0cc92f	-0.03437155
44	0x3d2819f0	0.04104036
45	0xbceee188	-0.029160276
46	0xbbd509b6	-0.006501402
47	0x3d072987	0.032998588
48	0x3cc0b973	0.02352593
49	0xbc27069b	-0.010194446
50	0xbcfd215e	-0.0308997
51	0x3cb41150	0.021980911
52	0xbcba435b	-0.022737196
53	0x3c1ccb6b	0.009569983
54	0x3ca43ab6	0.020047527
55	0xbc42837b	-0.011872168
56	0xbcd3ef80	-0.025871038
57	0x3c06fe00	0.008239269
58	0x3c791786	0.015203362
59	0x3d1253b3	0.035724353
60	0x3b0b7dab	0.002128462
61	0x3c774396	0.015091797
62	0xbc3597a0	-0.0110835135
63	0x3d251247	0.040300634
64	0xbbee6000	-0.0072746277
65	0x3cb4ebde	0.022085126
66	0x3c9d543b	0.019205203
67	0xbcccd066	-0.025001716
68	0xbd1c0510	-0.038090765
69	0x3a7fb9ab	0.0009755145
70	0x3a40eb00	0.00073592365
71	0x3d14a5ff	0.03629112
72	0x3ccd36a6	0.025050472
73	0x3cb24ce0	0.021765172
74	0xbc740cf6	-0.014895668
75	0x3d25ef1b	0.040511232
76	0x3c404fab	0.011737744
77	0x3abb9b00	0.0014313161
78	0x3c88510b	0.016640207
79	0x3a81a600	0.0009891391
80	0x3cc9b20b	0.02462103
81	0x3a12a456	0.0005593946
82	0x3cf21e00	0.02955532
83	0xbcf60708	-0.03003265
84	0xbd12bbd8	-0.035823673
85	0xbd1abcd7	-0.037777748
86	0x3d1a8a92	0.037729807
87	0xbc66da4b	-0.014090131
88	0x3c950b93	0.018193996
89	0x3cc7228e	0.02430847
90	0x3c53eed6	0.012935361
91	0xbd193504	-0.037404075
92	0x3c359ff0	0.011085495
93	0xbbd8edcb	-0.006620144
94	0xbcdb1048	-0.026741162
95	0x3d0eb7fb	0.034843426
96	0xbd1f563a	-0.03890059
97	0xb80bf000	-3.33637e-05
98	0x3cd5f923	0.026119774
99	0x3cb5f8bb	0.02221333
100	0x3c9d87a3	0.019229716
101	0xbcfc5160	-0.030800521
102	0xbc189830	-0.009313628
103	0x3c6ca3b0	0.014443323
104	0x3d118cd0	0.03553468
105	0x3c5dccd6	0.013537606
106	0xbd0630da	-0.032761432
107	0x3cf55d93	0.029951846
108	0x3cd9df18	0.026595637
109	0x39e1bd56	0.0004305641
110	0xbc7bcb20	-0.015368253
111	0xbc83a3c3	-0.016069299
112	0x3c98cd36	0.01865254
113	0xbbc59d40	-0.0060307086
114	0xbb148880	-0.0022664368
115	0x3ce1ef4e	0.02757993
116	0x3c6b5080	0.014362454
117	0x3cd99803	0.026561743
118	0xbc3a5b0b	-0.011374245
119	0xbca8c0c0	-0.020599723
120	0xbc8e67ae	-0.017383423
121	0xbcc7d2c0	-0.024392486
122	0x3bbb8b6b	0.005723407
123	0x3cce5f03	0.02519179
124	0x3b233ad6	0.0024906895
125	0x3c86d58e	0.016459253
126	0xbb78052b	-0.0037844877
127	0xbd001f34	-0.031279758
128	0x3bed2100	0.0072366
129	0x3c7bbf7b	0.015365477
130	0x3cbe4150	0.023224503
131	0xbc4cbce6	-0.012496209
132	0x3c9f3040	0.019432187
133	0xba147a00	-0.00056639314
134	0xbbd4e52b	-0.0064970455
135	0x3cec9146	0.028877866
136	0xbc3930d6	-0.011303147
137	0x3ce72943	0.028217917
138	0xbb7173c0	-0.0036842674
139	0xbcc646c8	-0.024203673
140	0x3cb52806	0.022113811
141	0xbcdd5238	-0.027016744
142	0x3bbf56e0	0.0058392137
143	0xbcbbf6ee	-0.022944894
144	0x3c2afceb	0.010436277
145	0x3b99fd96	0.0046994193
146	0x3b688bc0	0.0035483688
147	0xbd2a0c4b	-0.04151563
148	0x3caad483	0.020853287
149	0x3b246bd6	0.002508869
150	0xbceecdd8	-0.029150888
151	0x3c66f370	0.014096126
152	0x3d0a7107	0.033799198
153	0xbca4894b	-0.020084998
154	0x3a9fca80	0.0012191087
155	0x3d0d1f5a	0.034453727
156	0x3ad276ab	0.0016057094
157	0xbca6439e	-0.020295914
158	0xbaf06b00	-0.0018342435
159	0xba345c00	-0.0006880164
160	0xbcf243b6	-0.029573303
161	0x3ccc1ec8	0.024917021
162	0xbcc2df43	-0.0237881
163	0xbd1f6640	-0.038915873
164	0x3b69e0eb	0.003568704
165	0x3cba1386	0.022714388
166	0xbd282a64	-0.04105605
167	0xbb473780	-0.003039807
168	0x3d02c93b	0.03193019
169	0xbc34b0b6	-0.011028459
170	0x3b5f1540	0.0034039766
171	0x3c01878b	0.007905851
172	0xbcf3f898	-0.029781625
173	0xbd1e7156	-0.038682304
174	0x3ce47dfb	0.027892103
175	0xbb6e516b	-0.0036364447
176	0x3bd4b4b6	0.006491269
177	0xbce1777b	-0.027522793
178	0xbb93c5cb	-0.0045096627
179	0x3c7572a6	0.014980948
180	0x3c92bcbe	0.017912265
181	0x3d049af3	0.032374334
182	0x3b99b28b	0.0046904734
183	0x3c15ba1b	0.009138609
184	0xbbae7d56	-0.005325
185	0xbd07ccaf	-0.033154186
186	0xbc8d2c3b	-0.017233005
187	0x3d191897	0.037376966
188	0xbceb28e8	-0.028706029
189	0x3ceb2270	0.028702945
190	0xbd0da804	-0.03458406
191	0x3a9a4cab	0.0011772116
192	0xbcce9508	-0.025217548
193	0x3d162cbe	0.036663763
194	0x3cf26d88	0.029593244
195	0x3b343fab	0.002750377
196	0x3b49582b	0.0030722718
197	0x3c89be03	0.016814237
198	0xbc6c627b	-0.014427776
199	0xbcea617b	-0.028610935
200	0xbd27d8b3	-0.040978145
201	0x3cd37f9e	0.025817689
202	0x3cbd090b	0.023075601
203	0x3cc2bd1e	0.023771819
204	0xbcd6ca43	-0.026219493
205	0xba651656	-0.0008738985
206	0xbc5f916b	-0.01364551
207	0xbd1e12f4	-0.038592294
208	0xbc1c5360	-0.0095413625
209	0xbce9e548	-0.028551713
210	0x3c159e8b	0.009132038
211	0xbc118ee6	-0.008884167
212	0xbc589a30	-0.013220355
213	0xbc9f9f9e	-0.019485291
214	0x3ca738b3	0.020412778
215	0x3d0bbdcc	0.03411655
216	0x3d0a939e	0.033832185
217	0x3cd5cd8e	0.026098993
218	0x3c8dd11b	0.017311623
219	0xbd02cb5b	-0.031932216
220	0xbca93276	-0.020653944
221	0xbce0c4e0	-0.027437627
222	0x3c1d17fb	0.009588237
223	0xbb9169d6	-0.0044376655
224	0x3d236104	0.039887443
225	0x3c971a36	0.018445116
226	0x3cd59d1b	0.02607589
227	0xbc83b378	-0.016076788
228	0xbca5f7d6	-0.020259779
229	0xbcf8192e	-0.030285444
230	0x3cc68cc6	0.024237048
231	0xbc48e0c0	-0.012260616
232	0x3d1d83f6	0.038455926
233	0xbca42500	-0.020037174
234	0xbd16674e	-0.036719613
235	0xbcfdc2d3	-0.030976688
236	0xbd0e7186	-0.034776233
237	0xba44b656	-0.0007503977
238	0x3cfb9073	0.030708527
239	0xbd0ed5cf	-0.034871873
240	0xbc89bb93	-0.016813075
241	0xbc84aa76	-0.016194563
242	0x3c86c200	0.016449928
243	0x3bce6a00	0.0062992573
244	0x3cf31953	0.029675161
245	0x3cc9f96e	0.02465507
246	0x3cdef9ab	0.02721866
247	0x3d096fa6	0.033553742
248	0xbd0733c8	-0.033008367
249	0x3c8bd42e	0.017068949
250	0xbba1f0cb	-0.004942035
251	0x3ce60c0e	0.02808192
252	0x3d219ebe	0.03945803
253	0x3bf16676	0.0073669506
254	0xbce7c8bb	-0.028293958
255	0xbb43a900	-0.002985537

fc1.bias f4 [120]
0	0xbccbbbbe	-0.024869796
1	0x3c96d69e	0.018412884
2	0xbc0d07be	-0.008607803
3	0x3d288452	0.041141815
4	0x3c12fe2e	0.008971734
5	0x3cc54550	0.024080902
6	0x3cad6403	0.021165853
7	0x3b8d0425	0.0043034726
8	0xbcdd3f3e	-0.027007695
9	0x3cbb0f67	0.022834493
10	0xbbd7930a	-0.0065788077
11	0x3d0e9ebb	0.034819346
12	0x3d07d6ba	0.033163764
13	0xbcd78200	-0.026307106
14	0x3c09f1e0	0.008419484
15	0xbb500577	-0.0031741539
16	0xbd1a7288	-0.03770688
17	0x3c390dc2	0.011294784
18	0xbc75627b	-0.014977093
19	0xbc1eb76f	-0.009687289
20	0xbd21a033	-0.03945942
21	0x3d2bdc94	0.041958407
22	0xbc76a0ef	-0.015053018
23	0xbc60b864	-0.013715837
24	0xbb55b3f2	-0.0032608476
25	0x3c7f28f0	0.015573725
26	0x3cb3b8eb	0.021938762
27	0x3ca10812	0.019657169
28	0x3cde3955	0.027126947
29	0x3cc1e739	0.023669826
30	0x3caa3363	0.020776456
31	0xbc84c921	-0.016209187
32	0xbc48c719	-0.0122545
33	0xbcd7dca3	-0.026350325
34	0xbd0524e3	-0.03250588
35	0xbd33defa	-0.04391382
36	0xbd10d437	-0.035358634
37	0xbd29e196	-0.0414749
38	0x3cce1614	0.025157012
39	0x3d2be75c	0.04196869
40	0x3b4bb8a7	0.0031085403
41	0x3cd544ed	0.026033843
42	0xbc4e9ee4	-0.012611125
43	0xbc4b2fec	-0.012401562
44	0x3b82cb4a	0.003991519
45	0xbb1caaa6	-0.0023905425
46	0x3cbc761d	0.02300554
47	0xbccdb439	-0.02511035
48	0xbcb3cad8	-0.02194731
49	0x3b97b0ea	0.004629244
50	0x3d421bfe	0.047389977
51	0x3cba9454	0.022775806
52	0xbcf69a14	-0.030102767
53	0x3d220938	0.039559573
54	0x3d3f8ab8	0.046763152
55	0xbd3655e7	-0.044515517
56	0x3c3a5d69	0.01137481
57	0x3cc87f4c	0.024474762
58	0x3ce25882	0.027630094
59	0x3cc4043a	0.023927797
60	0xbd0152cf	-0.031573113
61	0x3c0cc8d1	0.0085928
62	0x3b8dc54f	0.0043264995
63	0x3b5c627d	0.003362804
64	0x3be58972	0.00700491
65	0xbcd8bdde	-0.026457723
66	0x3d237492	0.039906092
67	0x3d04db9d	0.032436002
68	0xbd20e934	-0.0392849
69	0x3ca73984	0.020413168
70	0xbc24ed12	-0.010066288
71	0x396a4bf1	0.0002234427
72	0x3a044f99	0.00050472614
73	0xbd00740a	-0.031360663
74	0x3bb91f54	0.0056494866
75	0xbc3acdb9	-0.011401587
76	0xbd09f882	-0.03368426
77	0xbab3ca83	-0.0013716969
78	0x3d54aa80	0.051920414
79	0xbbf765d0	-0.007549979
80	0xbac0e1c9	-0.0014715727
81	0x3cceb6e3	0.025233692
82	0xbc48e179	-0.012260788
83	0xbd171350	-0.036883652
84	0xbd110307	-0.035403278
85	0xbcc84402	-0.024446491
86	0xbce7d3a8	-0.028299168
87	0xbd272bee	-0.04081338
88	0xbd3e6651	-0.046484295
89	0x3b8a94da	0.0042291703
90	0x3d29db67	0.041469004
91	0x3cfe6306	0.031053077
92	0xbd07833f	-0.03308415
93	0x3d00acf0	0.031414926
94	0x3d0d3741	0.034476522
95	0xbba3d3f9	-0.0049996343
96	0xbd286952	-0.041116066
97	0xbab5516d	-0.0013833471
98	0xbd0be4b3	-0.03415365
99	0x3c6c1acd	0.014410687
100	0x3d3c43e7	0.045963194
101	0xbcb9e58d	-0.022692466
102	0xbcd176ac	-0.025569282
103	0xbb892311	-0.0041850884
104	0x3bbac943	0.005700262
105	0xbc8a76a7	-0.016902281
106	0xbd360eb2	-0.04444761
107	0xbbedb986	-0.007254782
108	0x3caea1e2	0.021317426
109	0x3d7c32a3	0.06157173
110	0xbbe5ce24	-0.0070130993
111	0xbd26f860	-0.040764213
112	0x3cb8ae94	0.022544183
113	0xbc102ee1	-0.008800239
114	0x3cf9c5af	0.03048977
115	0xbd079a52	-0.033106156
116	0x3b1d16f4	0.002396998
117	0xbbb2aec6	-0.0054529635
118	0xbcbe0657	-0.023196382
119	0x3c7d64fb	0.01546597

fc2.weight f4 [84, 120]
0	0x3d2f4144	0.04278685
1	0xbd8c96a5	-0.06864671
2	0xbc3ba17d	-0.011452076
3	0xbd610106	-0.054932617
4	0xbc63ab86	-0.013895875
5	0x3da236f7	0.0792064
6	0x3d065168	0.03279248
7	0xbd021553	-0.031758618
8	0xbc525afc	-0.012839075
9	0xbd62957c	-0.05531834
10	0x3db997c2	0.09062149
11	0xbabc5af0	-0.0014370363
12	0xbcbcf3ef	-0.023065535
13	0x3c8d740a	0.017267246
14	0x3d8ba829	0.068191834
15	0xbd423e02	-0.047422417
16	0xbd15a1ef	-0.036531385
17	0x3d71da9a	0.059046365
18	0xbdaec897	-0.08534353
19	0xbcd80d63	-0.02637357
20	0xbd7b8421	-0.061405305
21	0xbdab677e	-0.08369349
22	0x3c6dc0fc	0.014511343
23	0x3d83697c	0.06416604
24	0x3d564ba7	0.05231824
25	0x3cfeb2e1	0.031091155
26	0xbd347f04	-0.044066444
27	0xbd5ff296	-0.054674707
28	0xbc873c21	-0.016508164
29	0x3d202f7f	0.039107796
30	0xbd21304f	-0.03935271
31	0x3da56e19	0.0807764
32	0xbcfc7b76	-0.03082059
33	0x3d82d1f5	0.063877024
34	0xbcf615b3	-0.030039644
35	0x3d877bbb	0.066153966
36	0xbd90cfcc	-0.07070884
37	0x3cdbfb88	0.026853338
38	0x3da4b168	0.0804165
39	0xbda3f3bc	-0.08005473
40	0xbd46227c	-0.04837273
41	0x3ce7f60c	0.028315566
42	0xbd56893f	-0.05237698
43	0x3d9e0756	0.07716243
44	0xbd54dd34	-0.05196877
45	0x3d466dd5	0.048444588
46	0xbda62c12	-0.081138745
47	0xbbb0ae79	-0.0053918925
48	0x3d254627	0.040350106
49	0xbd43149a	-0.04762707
50	0xbc6fc67d	-0.014634726
51	0xbda399d2	-0.07988323
52	0xbdaf1241	-0.085484035
53	0xbda630c1	-0.08114768
54	0x3c47ea31	0.012201832
55	0x3d2b0042	0.041748293
56	0xbc8c1212	-0.01709846
57	0x3d272ae9	0.040812407
58	0x3d8b2f7f	0.067961685
59	0x3da0c0f6	0.078493044
60	0xbdbaa58f	-0.09113609
61	0x3caa8d10	0.020819217
62	0x3d5d8e4a	0.054090776
63	0x3c60c1b5	0.013718058
64	0xbd7f7f25	-0.062377114
65	0x3bd9fd42	0.006652505
66	0xbbd13a6d	-0.0063851387
67	0x3ccb4730	0.024814218
68	0x3da5887c	0.08082673
69	0xbdaf1c84	-0.08550361
70	0x3d90c5fa	0.07069011
71	0x3cb57353	0.022149717
72	0x3b4b8dc7	0.0031059848
73	0xbc9b60e4	-0.0189671
74	0xbd37db31	-0.04488677
75	0x3cf0ab36	0.029378515
76	0x3ce1c660	0.027560413
77	0x3cd6c671	0.026217671
78	0xbb87e239	-0.004146841
79	0xbce259c8	-0.027630702
80	0x3c379eeb	0.011207323
81	0xbdae4a63	-0.08510282
82	0xbcbcc157	-0.02304141
83	0xbda0de48	-0.07854897
84	0x3da6d947	0.08146911
85	0xbd888d78	-0.06667608
86	0x3d8a6949	0.06758363
87	0xbdb603aa	-0.088874176
88	0x3c486fe1	0.012233705
89	0x3cf2eb3b	0.029653182
90	0x3c092729	0.008371153
91	0xbd635e7a	-0.05551002
92	0xbd9f307a	-0.07772918
93	0x3d43aefa	0.047774293
94	0x3c10cac2	0.008837404
95	0x3d952bcf	0.072837465
96	0xbd482a09	-0.048868213
97	0xbc608a92	-0.013704913
98	0x3d1c4cdb	0.038159233
99	0xbd32de96	-0.043669306
100	0xbda880d0	-0.08227694
101	0x3d69636a	0.056979574
102	0x3db7bb20	0.08971238
103	0x3d9e3d74	0.07726565
104	0xbcef64f3	-0.029222941
105	0xbd11eb40	-0.035624743
106	0xbd8b4daf	-0.06801926
107	0xbd6030cd	-0.05473404
108	0xbb11f65d	-0.0022272088
109	0x3d8b26c3	0.067945026
110	0x3d544e8b	0.051832717
111	0x3c807c04	0.015684135
112	0xbda3f1e8	-0.08005124
113	0x3d638725	0.055548806
114	0xbcfce0c4	-0.030868895
115	0xbc77d4c2	-0.015126409
116	0xbd6968f0	-0.05698484
117	0x3d06b48e	0.032887034
118	0x3da7265b	0.081616126
119	0x3c27afe4	0.010234807
120	0xbc711610	-0.014714733
121	0x3d44e3cd	0.04806881
122	0x3d3347ac	0.043769524
123	0xbda58f77	-0.08084004
124	0x3d156d1f	0.03648102
125	0x3d933970	0.0718869
126	0xbd66a468	-0.056309134
127	0xb75aee70	-1.3049328e-05
128	0x3d7c3e92	0.06158311
129	0x3d21c4be	0.03949427
130	0xbd991924	-0.07475498
131	0xbd4d2cd7	-0.05009159
132	0x3d26daf9	0.040736172
133	0xbd9f0deb	-0.077663265
134	0x3d4f471d	0.05060493
135	0x3d9c380a	0.07627876
136	0xbcf3325e	-0.029687103
137	0x3c9c4ac3	0.019078618
138	0x3d4d06c5	0.050055284
139	0x3c0b6c31	0.008509682
140	0xbca95dc0	-0.020674586
141	0x3c274847	0.010210103
142	0x3d9fcf00	0.07803154
143	0xbb9ca05c	-0.0047798585
144	0xbd95105a	-0.072785094
145	0xbd90362f	-0.07041585
146	0x3c1c2faa	0.009532848
147	0xbcbede3a	-0.023299325
148	0xbc86ae53	-0.016440546
149	0x3d4f048f	0.050541457
150	0xbcfee281	-0.031113865
151	0xbdb74926	-0.08949499
152	0xbd957ed1	-0.07299579
153	0x3d08596c	0.033288404
154	0x3db4d75c	0.08830139
155	0x3d1b64b8	0.03793785
156	0x3d43dcd3	0.047818016
157	0xbd904906	-0.07045178
158	0x3cd128ec	0.025532208
159	0x3b92a816	0.004475604
160	0xbd07286c	-0.032997534
161	0xbd1d2c7a	-0.038372494
162	0xbd937091	-0.07199205
163	0x3d36d17d	0.044633377
164	0xbdba004c	-0.09082088
165	0xbb066b57	-0.0020510757
166	0x3d887aaa	0.06664021
167	0x3d5cfae5	0.05395021
168	0xbb21f86c	-0.0024714721
169	0xbcfadbe8	-0.030622438
170	0xbd0d2e89	-0.034468208
171	0x3c74d070	0.0149422735
172	0xbd9d12a2	-0.076695696
173	0x3c557253	0.013027745
174	0xbd2b7cea	-0.041867174
175	0x3d9a980d	0.07548533
176	0xbdabab2d	-0.083822586
177	0x3d735bb3	0.059413623
178	0xbd13e400	-0.03610611
179	0x3d6e66aa	0.058203377
180	0x3ce1d397	0.027566714
181	0xbd7016b6	-0.05861541
182	0x3d0e3b26	0.034724377
183	0x3d4c9af4	0.049952462
184	0x3d898ec1	0.06716681
185	0xbd9cc4d6	-0.07654731
186	0xbcebcb3d	-0.028783435
187	0xbcf53f96	-0.029937547
188	0xbc9036d5	-0.017604271
189	0xbd15c863	-0.036568057
190	0xbc75b186	-0.014995938
191	0xbda22f50	-0.079191804
192	0xbd2e9461	-0.042621974
193	0xbce4f7d4	-0.027950205
194	0x3da1479d	0.07874987
195	0x3d237f0d	0.039916087
196	0x3d38d57d	0.045125473
197	0xbd482995	-0.04886778
198	0x3d9dca17	0.07704561
199	0x3d3b9c14	0.045803145
200	0xbcbddae0	-0.023175657
201	0xbdbcc651	-0.09217513
202	0x3bc10d40	0.005891472
203	0xbc9947a8	-0.018710926
204	0x3d847efd	0.064695336
205	0x3d5361f9	0.051607106
206	0x3d0a59d7	0.033777084
207	0x3b6c3c48	0.0036046673
208	0xbd53f86b	-0.05175058
209	0xbcd6ddf9	-0.026228892
210	0xbbc4de3a	-0.006007937
211	0x3d105716	0.0352393
212	0x3d1fb47f	0.038990494
213	0xbc833061	-0.01601428
214	0x3cec8b7d	0.028875107
215	0xbb775313	-0.0037738725
216	0x3cf8d502	0.030375008
217	0xbd6725ac	-0.05643241
218	0x3c5e439c	0.013565924
219	0xbdb355b9	-0.08756585
220	0x3cbb6678	0.02287601
221	0x3d4ebd85	0.05047371
222	0x3cd1a160	0.025589645
223	0xbd943cc4	-0.072381526
224	0x3d8da012	0.069152966
225	0x3db99df5	0.09063331
226	0x3c2b1c87	0.010443813
227	0xbc0c733e	-0.008572398
228	0x3c6d7ce4	0.014495108
229	0xbd00e480	-0.031467915
230	0xbd9af272	-0.07565774
231	0xbc6644ab	-0.014054458
232	0x3d370d52	0.044690438
233	0x3dadc48d	0.08484755
234	0x3d32d1f0	0.043657243
235	0x3da1646e	0.078804836
236	0x3d85f872	0.06541528
237	0x3c310f9c	0.010806944
238	0xbdac856e	-0.08423887
239	0xbc58a0e2	-0.013221951
240	0x3cf2116c	0.029549323
241	0x3c66a2df	0.014076917
242	0xbc67f47a	-0.014157409
243	0x3d293bd7	0.041316833
244	0x3d1244d9	0.03571019
245	0x3cdd4384	0.027009733
246	0x3d2a30fc	0.04155062
247	0xbd8fa50d	-0.07013903
248	0xbd901c6b	-0.0703667
249	0x3d58297e	0.052773945
250	0xbd8aea91	-0.06783021
251	0xbd0b7727	-0.03404918
252	0x3cde6a0f	0.027150182
253	0x3d96b5c5	0.073588885
254	0x3cde9876	0.027172308
255	0xbc284863	-0.010271165

fc2.bias f4 [84]
0	0xbdb4a9c1	-0.088214405
1	0xbd6338f7	-0.055474248
2	0x3ce5df72	0.028060649
3	0x3c06e42c	0.008233111
4	0x3c42738d	0.01186837
5	0xbda15b49	-0.078787394
6	0xbd79c3ea	-0.060977854
7	0xbdc068fb	-0.093950234
8	0x3d7abb1b	0.061213594
9	0x3d506544	0.050877824
10	0xbdb8114c	-0.08987674
11	0x3d0ce8e9	0.034401808
12	0x3db25223	0.087070726
13	0x3d7ceafe	0.061747544
14	0x3c346b7e	0.011011956
15	0xbd91b74d	-0.0711504
16	0xbd73c626	-0.05951514
17	0x3db21043	0.08694508
18	0x3dbf426b	0.0933884
19	0x3d50cd52	0.05097706
20	0x3da48945	0.080339946
21	0xbd412ded	-0.04716294
22	0xbd801baa	-0.062552765
23	0x3da4e2b8	0.08051056
24	0xbd327485	-0.043568153
25	0xbd526d0f	-0.051373538
26	0xbda9552b	-0.082681976
27	0xbd72cbd8	-0.05927643
28	0xbc45e9a0	-0.012079626
29	0xbdad3af1	-0.08458508
30	0x3d9b6cd2	0.07589115
31	0x3df4c1c6	0.11951022
32	0x3d87e050	0.06634581
33	0xbdb1e00d	-0.086853124
34	0xbd548cbc	-0.051892027
35	0x3d8c8307	0.06860929
36	0xbd4e75e8	-0.050405413
37	0xbd98d555	-0.07462565
38	0x3d463ebd	0.048399676
39	0xbd156f68	-0.0364832
40	0xbd814f0e	-0.063139066
41	0xbd0e6d49	-0.03477219
42	0xbdbe0afd	-0.092794396
43	0x3dbc7e37	0.09203761
44	0xbd2971a7	-0.041368153
45	0x3d77bf7d	0.06048535
46	0x3d63588e	0.055504374
47	0xbd9188ba	-0.07106157
48	0xbd5df356	-0.05418714
49	0x3d4893e1	0.048969153
50	0x3c5e0bd2	0.013552623
51	0xbb64394e	-0.0034824195
52	0xbd410ac3	-0.047129404
53	0xbd2b588c	-0.04183249
54	0xbba8d283	-0.005152048
55	0xbbe4e016	-0.006984721
56	0x3d833f25	0.06408528
57	0x3d8578ca	0.06517179
58	0x3d45a7d4	0.048255756
59	0x3d1832d2	0.03715784
60	0x3ca4b431	0.020105453
61	0x3d6c395e	0.057671897
62	0xbc8b15f5	-0.016978243
63	0xbdd2ae40	-0.10287142
64	0x39453742	0.00018807969
65	0xbd013b84	-0.0315509
66	0x3c70e357	0.01470264
67	0x3dbc97a6	0.09208612
68	0x3da7a27e	0.0818529
69	0xbc2d0816	-0.01056101
70	0x3d2cda34	0.042200282
71	0x3cffb18f	0.031212596
72	0xbdca49cb	-0.09877356
73	0x3cc53a0f	0.024075536
74	0x3c2359b9	0.009970122
75	0xbde559df	-0.11198782
76	0xbd0e13df	-0.03468692
77	0xbd805dd9	-0.062679
78	0x3da2fd78	0.079585016
79	0x3cf17991	0.029476913
80	0x3d7d3480	0.061817646
81	0x3b3eb96f	0.0029102226
82	0xbd80e1c9	-0.06293065
83	0x3c6c80be	0.014434991

fc3.weight f4 [1297, 84]
0	0xbd20cd47	-0.039258268
1	0x3d28dd3e	0.041226618
2	0xbdd78438	-0.105232656
3	0x3d4b4d54	0.049634293
4	0xbc552903	-0.013010266
5	0x3d80cbda	0.062888816
6	0xbcd5def7	-0.026107294
7	0x3d94d7fa	0.07267757
8	0x3da62870	0.081131816
9	0xbdd3d89f	-0.103440516
10	0xbd165a62	-0.03670729
11	0x3d800254	0.06250444
12	0xbd48479c	-0.048896417
13	0xbdb1a8a8	-0.08674747
14	0x3c9c0d30	0.019049257
15	0x3d5c4734	0.053778842
16	0xbda8c6c3	-0.08241036
17	0x3dc4d4e8	0.09610921
18	0xbcc94760	-0.024570167
19	0xbc147a11	-0.009062306
20	0x3d823a18	0.06358737
21	0xbd8e0c48	-0.06935936
22	0x3c8ec36d	0.01742717
23	0xbd67e000	-0.056610107
24	0x3dc23906	0.094835326
25	0x3d0853b0	0.033282936
26	0x3d8da80b	0.06916817
27	0xbdd99e67	-0.10625916
28	0x3d602a2c	0.05472772
29	0x3d9abd0b	0.07555588
30	0xbd578eb7	-0.052626338
31	0xbbee0c5a	-0.007264656
32	0xbd306689	-0.043066535
33	0xbd500b69	-0.05079213
34	0x3d592099	0.053009603
35	0x3b85946f	0.0040765326
36	0x3ddd069b	0.107922755
37	0xbc098623	-0.008393797
38	0x3d3749b0	0.04474801
39	0x3d8ab453	0.06772675
40	0x3ba0f6ba	0.0049122246
41	0xbcfa4ad1	-0.030553253
42	0xbdd63613	-0.104595326
43	0x3de21c8c	0.11040601
44	0xbdcaa535	-0.09894792
45	0x3dad8926	0.084734246
46	0x3db12561	0.086497076
47	0x3d79885b	0.060921054
48	0xbd5d09b1	-0.05396432
49	0xbd315827	-0.04329696
50	0xbd49c1ac	-0.049256966
51	0xbd906179	-0.070498414
52	0x3c9ad3e8	0.018899873
53	0xbd4bbc8c	-0.04974036
54	0x3bc968aa	0.00614651
55	0xbcec9182	-0.028877977
56	0x3d11706a	0.035507597
57	0xbc768f45	-0.015048807
58	0xbd95e1de	-0.07318471
59	0x3d8afb6d	0.06786237
60	0xbd274ad6	-0.040842853
61	0xbd4d2fc4	-0.05009438
62	0x3d1eb979	0.0387511
63	0xbd4dc19d	-0.050233472
64	0x3cb9ef12	0.022697005
65	0x3d6e0048	0.058105737
66	0x3d410b21	0.047129754
67	0x3dd5bdca	0.1043659
68	0xbd18081c	-0.03711711
69	0xbd305fdf	-0.04306018
70	0x3cab6521	0.020922245
71	0x3cedecab	0.029043516
72	0xbdccfc6a	-0.10009082
73	0x3d997a73	0.074940585
74	0x3d998889	0.07496745
75	0xbd065a13	-0.032800745
76	0xbd8cf640	-0.06882906
77	0xbdae78c5	-0.08519129
78	0xbdd7948d	-0.10526381
79	0xbc3dcf5b	-0.011585082
80	0xbd98a715	-0.07453743
81	0x3d38e170	0.04513687
82	0x3d48948d	0.048969794
83	0xbdf9d812	-0.12199415
84	0x3dbc919c	0.0920746
85	0xbd2dacef	-0.04240125
86	0xbcd8369f	-0.026393233
87	0x3d1a1aa3	0.03762306
88	0x3d84e41a	0.064888194
89	0x3d15abfb	0.036540966
90	0x3db583d5	0.088630356
91	0xbb9bae4e	-0.0047510033
92	0x3d7cef05	0.061751384
93	0xbdafbf26	-0.085813805
94	0xbd384d7f	-0.04499578
95	0xbdd92a69	-0.10603792
96	0xbdbfc1ba	-0.09363122
97	0xbdcb419e	-0.09924625
98	0x3dbcf408	0.09226233
99	0xbd08587d	-0.033287514
100	0xbd880ddb	-0.06643268
101	0x39e15013	0.00042975004
102	0x3d1794ad	0.037007023
103	0x3db7705a	0.08956976
104	0xbdc5715b	-0.096407615
105	0xbd5b876d	-0.05359595
106	0xbd97b3ce	-0.07407342
107	0x3ca21339	0.019784557
108	0xbd45978a	-0.048240222
109	0x3c3f3567	0.011670447
110	0xbdc34e10	-0.095363736
111	0xbdb26c5e	-0.08712076
112	0xbd97c6f2	-0.07410993
113	0xbd53a170	-0.05166763
114	0xbd909268	-0.07059175
115	0x3d9cdf95	0.076598324
116	0xba8c02d5	-0.0010681996
117	0x3db6feb3	0.08935299
118	0x3d88be70	0.06676948
119	0x3b7d18fd	0.003861963
120	0xbcfab272	-0.030602667
121	0x3dda0794	0.10645977
122	0xbca6efeb	-0.020378074
123	0xbc456abf	-0.012049376
124	0x3d41d9e4	0.047326937
125	0xbc31a3c4	-0.010842267
126	0xbda75721	-0.081709154
127	0xbd104655	-0.035223324
128	0xbbc6fb26	-0.0060724197
129	0xbd5d7122	-0.05406297
130	0x3cb643bf	0.0222491
131	0x3d91bfb9	0.07116646
132	0xbd2ff81a	-0.042961217
133	0x3dc501f8	0.09619516
134	0xbd956e50	-0.07296431
135	0xbdcb65c5	-0.099315204
136	0x3daa7b01	0.083242424
137	0xbbcaec20	-0.006192699
138	0xbdb6df65	-0.08929328
139	0x3d27fcff	0.04101276
140	0xbdc52ab5	-0.09627286
141	0xbdd7f934	-0.105455786
142	0x3bde7621	0.0067889844
143	0x3c81ca3a	0.0158435
144	0xbd9c850a	-0.07642563
145	0x3db20607	0.08692556
146	0x3d903855	0.070419945
147	0x3d8a83dc	0.067634314
148	0x3d127ee4	0.035765544
149	0xbb884551	-0.004158654
150	0x3d8916f9	0.06693835
151	0xbd68c2c8	-0.056826383
152	0x3de0c4e5	0.10975055
153	0x3d77861d	0.060430635
154	0x3c7a5155	0.01527818
155	0xbcdf7534	-0.027277566
156	0x3ddbed9f	0.10738682
157	0xbd45f741	-0.048331503
158	0x3d3cf223	0.046129357
159	0xbd0a3074	-0.033737615
160	0x3c89aa24	0.016804762
161	0x3d5e694e	0.054299645
162	0xbda503b1	-0.08057345
163	0xbcd82061	-0.026382627
164	0x3c849045	0.016182074
165	0xbd4da019	-0.05020151
166	0xbd9c5d55	-0.07634989
167	0xbdbf82ff	-0.093511574
168	0xbd159cde	-0.036526553
169	0xbdd0e932	-0.102007285
170	0x3b721202	0.0036937003
171	0x3d679a0a	0.056543387
172	0x3cf898cc	0.030346297
173	0xbc1e421e	-0.009659318
174	0xbc900ac1	-0.017583253
175	0x3d42e302	0.047579773
176	0x3de1ed91	0.1103164
177	0x3d87eebf	0.06637334
178	0xbdc91e54	-0.09820238
179	0xbd054ef5	-0.032546002
180	0x3c81dcdf	0.01585239
181	0xbd6b544f	-0.05745345
182	0x3d64bada	0.055842258
183	0xbdd3ea70	-0.1034745
184	0x3d02f116	0.0319682
185	0xbd1808f3	-0.03711791
186	0x3cf137c2	0.029445533
187	0x3db31744	0.08744672
188	0x3dbd05ab	0.09229597
189	0xbdbfe609	-0.093700476
190	0x3d323d1b	0.043515306
191	0xbd932ff1	-0.071868785
192	0x3dda77fa	0.10667415
193	0xbb2cf598	-0.0026391502
194	0xbd30b8ad	-0.04314487
195	0xbd425471	-0.04744381
196	0x3c959745	0.018260607
197	0xbbabd8af	-0.0052443366
198	0x3d75a574	0.05997224
199	0x3dd2a3bd	0.10285137
200	0x3da805a3	0.082042
201	0xbdc3b072	-0.09555139
202	0x3d28f8eb	0.04125301
203	0xbd084baa	-0.033275284
204	0xbda4f467	-0.080544285
205	0xbb5709c9	-0.003281223
206	0xbd8ec809	-0.069717474
207	0x3d3c00af	0.04589909
208	0xbdc2cb3c	-0.0951142
209	0x3d07406f	0.033020433
210	0xbb40c1b3	-0.0029412329
211	0xbc8861e7	-0.016648246
212	0x3ce91383	0.028451687
213	0x3d507d1a	0.050900556
214	0xbc215c71	-0.0098487
215	0x3d56f3f1	0.052478734
216	0x3cda4031	0.026641937
217	0xbdbc967d	-0.09208391
218	0x398eb5a3	0.0002721968
219	0x3d83d8dd	0.06437848
220	0xbdd8ab6c	-0.10579571
221	0xbc3b4094	-0.011428971
222	0xbdd0eaa3	-0.102010034
223	0x3dd0ece6	0.10201435
224	0xbcadbc96	-0.021208089
225	0xbde94601	-0.11390305
226	0xbd88ca35	-0.06679193
227	0x3d0ed9a3	0.034875523
228	0x3d960a90	0.073262334
229	0xbddfad74	-0.109217554
230	0x3cb5bb7b	0.022184124
231	0xbdaf90fb	-0.08572575
232	0xbccdc54a	-0.025118489
233	0xbdcd9936	-0.10038988
234	0x3be72924	0.007054465
235	0x3d0fee05	0.035139102
236	0x3cf5e75f	0.030017553
237	0x3d9fcf3b	0.07803198
238	0xbd59a26f	-0.053133424
239	0xbd80fd11	-0.062982686
240	0x3d3fcb5b	0.046824794
241	0xbda70cec	-0.081567615
242	0x3d3d9ac3	0.04629017
243	0xbde1b30c	-0.110204786
244	0x3bacdd94	0.0052754376
245	0xbcef4158	-0.029205963
246	0xbd84efc5	-0.06491045
247	0xbd2dbb28	-0.042414814
248	0x3d6f1d69	0.058377657
249	0xbd3e75ed	-0.04649918
250	0x3d8a405a	0.06750555
251	0x3c72d753	0.014821845
252	0xbd84515b	-0.0646083
253	0xbd541b85	-0.051784057
254	0xbd95b724	-0.07310322
255	0xbd776b39	-0.06040499

fc3.bias f4 [1297]
0	0x3d57a2ea	0.0526456
1	0xbda900d6	-0.082521126
2	0xbd5b5b12	-0.05355365
3	0x3d9858d4	0.074388176
4	0xbd85ed25	-0.06539372
5	0x3daa3254	0.083103806
6	0x3ad64f22	0.0016350488
7	0x3b946bf2	0.0045294696
8	0xbd874d33	-0.066065215
9	0xbd797674	-0.06090398
10	0xbda75ecf	-0.0817238
11	0x3c03aa6b	0.008036236
12	0x3d652de6	0.055951975
13	0xbd30067b	-0.04297493
14	0xbd9d8618	-0.07691592
15	0x3dc3ffec	0.095702976
16	0xbc7f102c	-0.0155678205
17	0x3dd7430e	0.105108365
18	0xbd31f78b	-0.043448966
19	0xbdc1421f	-0.0943644
20	0x3d965a69	0.07341463
21	0x3d6dcbb8	0.05805561
22	0xbbea0c58	-0.007142585
23	0xbdb826ce	-0.089917764
24	0xbd4304a4	-0.047611848
25	0xbcf609c5	-0.030033955
26	0x3d8e4bc6	0.069480464
27	0x3da3bc22	0.07994868
28	0x3d5c085d	0.053718913
29	0x3d402abe	0.046915762
30	0xbd617db4	-0.05505152
31	0xbd6e670e	-0.05820375
32	0xbca71d84	-0.020399816
33	0xbc0274ba	-0.0079624
34	0xbd8c1e5f	-0.0684173
35	0x3d145d4c	0.036221787
36	0xbd567e99	-0.052366827
37	0xbd887113	-0.06662192
38	0x3d81fb17	0.0634672
39	0xbd742731	-0.05960769
40	0xbdb6ed4b	-0.08931979
41	0x3dbbdad6	0.09172599
42	0xbcbe6ce0	-0.023245275
43	0xbd5d592c	-0.05404012
44	0xbdada4cb	-0.084786974
45	0xbd8d241e	-0.068916544
46	0x3d79033e	0.060794108
47	0xbda231e1	-0.0791967
48	0xbb57b3e5	-0.0032913622
49	0xbd01f09f	-0.031723615
50	0x3d0d4c25	0.034496445
51	0xbd781fc4	-0.06057717
52	0x3dde4005	0.108520545
53	0x3da30011	0.07958997
54	0xbd5b975c	-0.053611144
55	0x3d051e00	0.032499313
56	0xbce73b3b	-0.028226485
57	0xbc51b086	-0.012798434
58	0xbd1c6e17	-0.038190927
59	0x3db2cc1f	0.08730339
60	0xbd8ea641	-0.06965304
61	0xbd6b9e84	-0.05752422
62	0x3c9926d1	0.018695267
63	0x3d4df67a	0.050283886
64	0xbad49804	-0.0016219621
65	0xbd230ccc	-0.039807126
66	0x3d302619	0.043005083
67	0x3dcc9ebd	0.099912144
68	0x3db44fc2	0.08804275
69	0x3d6fae1c	0.058515653
70	0xbd7b8a03	-0.061410915
71	0x3da20d09	0.079126425
72	0xbd35075f	-0.044196483
73	0xbd224ba4	-0.039622918
74	0xbda8c35b	-0.08240386
75	0x3d82e965	0.06392173
76	0x3bcf1691	0.006319829
77	0xbcfec694	-0.031100549
78	0x3d0f3e2f	0.034971412
79	0xbc746b47	-0.014918155
80	0xbd358a31	-0.044321243
81	0xbda942b8	-0.08264679
82	0xbd41d147	-0.047318723
83	0x3dc3b7ca	0.09556539
84	0xbd4607d3	-0.048347306
85	0x3d482f80	0.048873425
86	0x3af1f268	0.0018459084
87	0xbd6e6fe2	-0.05821217
88	0xbc5a5d20	-0.013327867
89	0xbb79c34e	-0.0038110795
90	0xbd24b485	-0.04021122
91	0xbd7cd8cd	-0.061730195
92	0x3dc101f4	0.09424201
93	0xbc0c18a4	-0.008550797
94	0x3ba178c1	0.004927725
95	0xbd3e97cf	-0.046531495
96	0xbb77945c	-0.0037777638
97	0xbdb474e5	-0.08811358
98	0xbd620a3e	-0.05518555
99	0x3d811e26	0.063045785
100	0xbd9811a1	-0.074252374
101	0x3d94cfb5	0.072661795
102	0xbbb8a63c	-0.005635051
103	0xbd673b1c	-0.056452855
104	0xbd0d3ff6	-0.034484826
105	0xbd663ac7	-0.0562084
106	0xbdc2611d	-0.09491179
107	0x3dc31810	0.09526074
108	0x3d21f1c0	0.03953719
109	0x3d40d0b4	0.047074035
110	0x3d07917a	0.03309772
111	0x3beeeb8a	0.007291262
112	0x3c2edbc5	0.010672514
113	0xbcfc5e9b	-0.03080683
114	0xbd8af980	-0.067858696
115	0x3d957031	0.072967894
116	0x3db67979	0.08909888
117	0xbaddc0ad	-0.0016918384
118	0x3c801961	0.015637102
119	0xbd2585ba	-0.040410735
120	0xbdb0f92a	-0.08641274
121	0x3a14904d	0.00056672544
122	0xbd90ba0d	-0.07066736
123	0x3dd4eb55	0.103964485
124	0x3be70137	0.0070497054
125	0x3dcacfcd	0.09902916
126	0xbda775e5	-0.081767835
127	0x3c19ea31	0.0093942145
128	0xbdbdd313	-0.09268775
129	0x3d6ccd70	0.057813108
130	0xbbdba98e	-0.006703562
131	0xbdac0128	-0.08398658
132	0x3cb5052e	0.022097196
133	0xbd8f4eab	-0.069974266
134	0xbd36c26e	-0.044619016
135	0x3cc84f13	0.024451768
136	0x3de13a6c	0.10997471
137	0xbda6e4e2	-0.08149125
138	0xbdce3640	-0.10068941
139	0x3d1bf524	0.03807558
140	0x3dd3b985	0.103381194
141	0xba1764e2	-0.00057752256
142	0xbb10467d	-0.002201467
143	0xbd47e21c	-0.04879962
144	0x3ddc11b7	0.10745566
145	0x3d1184fe	0.03552722
146	0xbdcbc618	-0.09949893
147	0x3d8f156c	0.06986508
148	0x3da196b6	0.07890074
149	0x3d0a4d18	0.03376493
150	0xbcb8e99f	-0.022572337
151	0x3ce994df	0.02851337
152	0x3dbc0a2a	0.09181626
153	0xbc1a7bc7	-0.009428925
154	0x3d385db9	0.045011256
155	0x3d536332	0.051608272
156	0xbcb0306c	-0.021507464
157	0xbd19d3a1	-0.03755534
158	0xbd50c76e	-0.05097144
159	0x3d213772	0.039359517
160	0xbd9f11a4	-0.077670366
161	0x3cb0665a	0.02153318
162	0x3d2107cf	0.039314087
163	0xbc4a5f39	-0.012351804
164	0xbba8ccec	-0.0051513817
165	0xbdac93a4	-0.08426598
166	0x3dbffae2	0.09374024
167	0x3d927309	0.071508475
168	0x3c749dd6	0.014930209
169	0xbd930faa	-0.07180722
170	0xbc2d149e	-0.010563998
171	0xbd479785	-0.048728485
172	0xbd6fd857	-0.058555927
173	0x3dd4a03c	0.10382125
174	0xbdb7bea0	-0.08971906
175	0x3d188e0f	0.037244853
176	0xbcbee63d	-0.023303146
177	0x3da4638e	0.08026801
178	0x3dace168	0.0844143
179	0xbce13995	-0.027493278
180	0xbda5ea27	-0.08101302
181	0x3dd73773	0.10508623
182	0x3d276f8b	0.04087786
183	0x3cdf8a3a	0.027287591
184	0xbcfc6588	-0.030810133
185	0x3caf95e8	0.021433786
186	0xbd84fac8	-0.06493145
187	0x3dce8905	0.10084728
188	0xbd573616	-0.052541815
189	0x3d405b57	0.04696211
190	0x3a775b0f	0.0009435871
191	0x3dccf528	0.10007697
192	0xbdcd58fa	-0.100267366
193	0xbd64951b	-0.05580626
194	0x3af4f861	0.0018689745
195	0x3b38c2ab	0.0028192203
196	0x3c5a9b37	0.01334267
197	0xbd813fb2	-0.06310977
198	0x3d3afcaa	0.045651115
199	0xbcfabf93	-0.030608928
200	0x3de6acdd	0.1126344
201	0xbc172da5	-0.009227191
202	0x3cff649b	0.031175902
203	0xbd046986	-0.032327197
204	0xbd141d9b	-0.036161046
205	0x3da9ebb2	0.082969084
206	0xbdb1ee1d	-0.08687995
207	0xbdada211	-0.08478177
208	0xbc03f562	-0.008054109
209	0x3d0d20f3	0.03445525
210	0x3dc4e2f0	0.096135974
211	0xbd994230	-0.074833274
212	0xbcdbe5c6	-0.026842963
213	0x3dd41f88	0.103575766
214	0xbb0ae432	-0.0021193144
215	0xbdc32082	-0.09527685
216	0x3b9b405b	0.0047378964
217	0xbd753ec1	-0.0598743
218	0x3ce66296	0.028123181
219	0xbdc36999	-0.095416255
220	0x3d1bb478	0.038013905
221	0xbd5105f7	-0.05103108
222	0x3ccbfecc	0.02490177
223	0x3db01006	0.08596806
224	0x3dd0e078	0.10199064
225	0xbdbfc76e	-0.0936421
226	0x3dc20bb9	0.09474892
227	0xbdaa990b	-0.08329972
228	0xbdb6b1c2	-0.08920623
229	0x3d303b8c	0.04302554
230	0x3dc35d62	0.09539296
231	0x3deda90f	0.11604511
232	0x3d05dec2	0.03268314
233	0x3b0f1d9f	0.0021837724
234	0xbdad02c0	-0.0844779
235	0xbc34c78b	-0.011033903
236	0xbdbfb440	-0.09360552
237	0x3ddd5ad9	0.108083434
238	0x3d2accec	0.041699335
239	0xbc18b408	-0.009320267
240	0x3d43462c	0.047674343
241	0xbdc4936c	-0.09598431
242	0x3db0049f	0.085946314
243	0x3d8c68a0	0.06855893
244	0xbd181ace	-0.037134938
245	0x3d5b47ff	0.053535458
246	0x3d3c06d5	0.045904953
247	0x3d378d41	0.044812445
248	0x3d16beda	0.036803104
249	0x3c8a0396	0.016847413
250	0xbce34531	-0.027742954
251	0x3dc5be27	0.09655409
252	0x3cfa4f2e	0.030555334
253	0xbd89a2af	-0.067204826
254	0x3c62a86b	0.013834099
255	0x3cd09ecb	0.025466343
