models/1296_pixels/9.pt (torch, 771783 bytes, 10 tensors)

conv1.weight f4 [6, 1, 5, 5]
0	0xbd783585	-0.060597915
1	0xbd492627	-0.04910865
2	0xbe5e0604	-0.21681982
3	0x3da9f272	0.08298196
4	0xbdb2be61	-0.08727718
5	0x3eaa0372	0.33205754
6	0xbe06738f	-0.1313002
7	0x3c0108d0	0.007875636
8	0xbe840552	-0.2578531
9	0x3e3a38f8	0.18185794
10	0xbe884a32	-0.26619107
11	0xbe49e402	-0.19715884
12	0xbd848edd	-0.064725615
13	0xbdf18888	-0.117936194
14	0xbe7c843c	-0.24659818
15	0x3e0d4878	0.13797176
16	0x3e8f985d	0.2804593
17	0xbd926783	-0.071486495
18	0xbe04609f	-0.12927483
19	0x3e867f18	0.2626884
20	0x3d9117a8	0.0708459
21	0xbd6d7f89	-0.057982955
22	0xbcfbbcae	-0.030729618
23	0x3e46b622	0.19405416
24	0xbe36214d	-0.1778614
25	0xbe591e26	-0.21202907
26	0x3e470384	0.19434935
27	0x3d2b7f2a	0.04186932
28	0x3dc39f98	0.095519245
29	0x3e5b6eb7	0.21428953
30	0x3e059361	0.13044502
31	0xbe9589b0	-0.2920661
32	0xbeab8ba4	-0.33504975
33	0xbea2f092	-0.31824166
34	0x3e9da0a1	0.30786613
35	0x3d9a75e7	0.07542019
36	0xbd019b73	-0.03164239
37	0x3e7f91b6	0.24957928
38	0xbe714de5	-0.2356487
39	0xbe07ba44	-0.13254648
40	0x3e70bb8b	0.23509042
41	0x3e5c8c0e	0.21537802
42	0xbea09a78	-0.3136785
43	0xbe1f72eb	-0.15571181
44	0xbe54dfac	-0.20788449
45	0xbe5bcd45	-0.21465023
46	0xbe608059	-0.21923961
47	0x3cd7c646	0.026339661
48	0x3c1f2881	0.009714247
49	0xbe55278c	-0.20815867
50	0xbcd854c0	-0.0264076
51	0xbd11d8b1	-0.035607044
52	0x3e7c7f27	0.2465788
53	0x3e74be3f	0.23900698
54	0x3de2ec92	0.110802785
55	0x3cb5964f	0.0221664
56	0x3db680aa	0.089112595
57	0x3e82c933	0.25544128
58	0xbcc95f89	-0.024581688
59	0x3dc4e9e3	0.09614923
60	0x3e8b28b7	0.271795
61	0x3d9ad1e6	0.07559566
62	0x3e630eef	0.22173665
63	0x3b93b699	0.0045078513
64	0x3e447ac7	0.19187461
65	0x3e933e9b	0.28758702
66	0x3e5a3008	0.21307385
67	0x3d896149	0.06708009
68	0x3e5b2c45	0.21403606
69	0x3e96a091	0.29419377
70	0x3e41c093	0.18921117
71	0x3e7526b9	0.23940553
72	0x3cdd079b	0.026981166
73	0x3e943e9a	0.2895401
74	0x3e86e0eb	0.26343474
75	0x3d915d90	0.07097924
76	0x3e0ff290	0.14057374
77	0xbe717086	-0.2357808
78	0xbe71d3ce	-0.23615953
79	0x3e2a1dbc	0.16612905
80	0xbde9b7bb	-0.11411997
81	0xbde95804	-0.11393741
82	0x3e90a7dc	0.28253067
83	0xbe2ab22b	-0.16669528
84	0x3e96bb4f	0.2943978
85	0x3a509bc5	0.0007957782
86	0x3d4afbec	0.049556658
87	0x3ea3635a	0.31911737
88	0xbe1beddf	-0.1522746
89	0xbc27707c	-0.010219689
90	0xbcdbeade	-0.026845392
91	0xbe6d2f71	-0.23162629
92	0xbd9f1877	-0.07768338
93	0xbd869653	-0.06571641
94	0xbe305ea0	-0.17223597
95	0xbe13b327	-0.1442381
96	0x3e2353c2	0.1594992
97	0xbe306a72	-0.17228106
98	0x3e453af1	0.19260766
99	0xbe31089a	-0.17288437
100	0x3e4785c3	0.1948462
101	0x3e5dd9b3	0.21665077
102	0xbd9eaf85	-0.077483214
103	0xbd89b7dd	-0.06724522
104	0x3d126bd3	0.03574736
105	0xbc73d624	-0.014882598
106	0xbe0559ac	-0.13022488
107	0xbdfc31e4	-0.123142034
108	0xbd7bd62f	-0.06148356
109	0x3db4c8a9	0.088273354
110	0x3e035874	0.12826711
111	0x3cec631d	0.028855855
112	0xbe507206	-0.20355996
113	0x3e0c3814	0.13693267
114	0xbe5cd605	-0.21566017
115	0xbe632153	-0.22180681
116	0xbe3cba48	-0.18430436
117	0xbe746e7d	-0.23870273
118	0x3e462ee8	0.19353831
119	0x3e317122	0.17328313
120	0x3dcec415	0.100959934
121	0x3e525312	0.20539501
122	0x3da8040d	0.082038976
123	0x3e355b53	0.17710619
124	0x3e382027	0.17981015
125	0x3bf39120	0.0074330717
126	0x3d9bf826	0.0761569
127	0x3e0c887c	0.1372394
128	0x3e0482fe	0.12940595
129	0x3e686a69	0.22696842
130	0x3d83fd67	0.06444817
131	0x3e466836	0.19375691
132	0x3d8f922d	0.07010303
133	0x3dece88a	0.11567791
134	0x3e62e007	0.22155772
135	0x3e7aecd8	0.24504411
136	0x3db6b566	0.08921318
137	0x3d6884a5	0.056767125
138	0xbcfff284	-0.03124357
139	0x3bbc6dee	0.0057504093
140	0x3e32ed10	0.17473245
141	0x3e4867bb	0.1957082
142	0x3e7aff78	0.24511516
143	0xbd5994da	-0.05312047
144	0x3e5b13c5	0.2139426
145	0x3e8966cb	0.26836237
146	0x3e9041bb	0.28175148
147	0x3dc354bd	0.09537647
148	0x3d953456	0.07285373
149	0x3a3ca479	0.0007196139

conv1.bias f4 [6]
0	0x3ef097c6	0.46990794
1	0x3f3df847	0.74206966
2	0x3ae42e3d	0.00174088
3	0x3eaac3b1	0.33352426
4	0xbcd1a650	-0.025592
5	0xbcad58a1	-0.021160426

conv2.weight f4 [16, 6, 5, 5]
0	0xbc14d60b	-0.009084235
1	0x3e07427b	0.13208954
2	0x3c0fd439	0.008778625
3	0x3c3cab57	0.01151546
4	0x3d63ca38	0.055612773
5	0x3e102d24	0.1407972
6	0xbc8220da	-0.015884805
7	0x3df4fe93	0.11962619
8	0xbbf658a6	-0.007517892
9	0x3e1cd6f4	0.15316373
10	0x3e0b7991	0.13620593
11	0x3d1f1ae5	0.038844008
12	0x3de64316	0.112432644
13	0x3d5fb58e	0.054616503
14	0x3decfb10	0.11571324
15	0x3e07d208	0.13263714
16	0x3d05caf8	0.03266427
17	0x3e143077	0.14471613
18	0x3b508cb6	0.0031822152
19	0x3dde8ffa	0.10867305
20	0x3de64859	0.11244268
21	0x3dfd3fee	0.12365709
22	0x3dbb4f8c	0.09146032
23	0x3c89c64a	0.016818184
24	0x3b8e84ee	0.0043493425
25	0x3e0173c2	0.12641814
26	0x3e13acef	0.14421438
27	0x3de4857d	0.11158273
28	0x3d836288	0.06415278
29	0x3ce05119	0.02738242
30	0x3d128128	0.035767704
31	0x3ca0b85e	0.019619163
32	0x3d237094	0.039902285
33	0x3d4db51e	0.050221555
34	0x3d22b064	0.039719
35	0x3dca5da3	0.09881141
36	0x3e1bfcbb	0.15233128
37	0x3e3684e8	0.17824137
38	0x3ddee992	0.10884394
39	0x3dee267f	0.11628436
40	0x3e1eccf0	0.15507865
41	0x3d846a3e	0.064655766
42	0x3ca9bfd3	0.020721352
43	0x3ce65bbc	0.028119914
44	0x3e3a88b2	0.18216208
45	0x3d919783	0.07108977
46	0x3e130e6e	0.14360973
47	0x3e2757f3	0.16342144
48	0x3e1c0da7	0.15239583
49	0x3e1bc4f5	0.15211852
50	0xbdab908f	-0.08377182
51	0xbdb0645a	-0.086128905
52	0xbce96bd0	-0.028493792
53	0xbc684b46	-0.014178103
54	0xbda24c4c	-0.07924709
55	0x3c9f9708	0.019481197
56	0x3d8c5651	0.06852401
57	0xbda1a9ed	-0.07893739
58	0xbdb5e258	-0.08881062
59	0x3d8ff4bf	0.070291035
60	0xbd0268e0	-0.031838298
61	0x3c808028	0.01568611
62	0x3d96ee18	0.073696315
63	0x3b539186	0.0032282784
64	0x3d645d91	0.055753294
65	0x3c92fd2d	0.01794299
66	0x3d0730c8	0.033005506
67	0xbd66e66c	-0.05637209
68	0xbcfa87ec	-0.03058239
69	0xbce141fc	-0.027497284
70	0xbd815df1	-0.06316746
71	0x3d594dd5	0.053052742
72	0xbd8164c0	-0.06318045
73	0x3d19cbbb	0.03754781
74	0xbd08dc6e	-0.033413343
75	0xbc823f5b	-0.01589935
76	0x3e07fc2b	0.13279788
77	0xbcd2f3a8	-0.02575095
78	0x3dacfb46	0.08446364
79	0x3de887f7	0.11354058
80	0x3dccc254	0.09998003
81	0x3e01b8cc	0.1266815
82	0x3df9f208	0.12204367
83	0x3df526cd	0.11970291
84	0x3dc61e53	0.09673753
85	0x3dedc157	0.11609142
86	0x3cc56feb	0.024101218
87	0x3e05e556	0.13075766
88	0x3d981e83	0.07427695
89	0x3d526039	0.051361296
90	0x3e0cce46	0.13750562
91	0x3d5af9f1	0.05346102
92	0x3e021590	0.12703538
93	0x3d9dd543	0.07706692
94	0x3dbae217	0.091251545
95	0x3d8fe576	0.07026188
96	0x3e0bd195	0.13654168
97	0x3df29ab7	0.11845916
98	0x3d1d3db4	0.038388923
99	0x3d1033fc	0.035205826
100	0x3d9205a6	0.071299836
101	0x3d933ab6	0.071889326
102	0x3da3d552	0.07999672
103	0x3d80ef45	0.06295637
104	0x3de5bf05	0.11218075
105	0x3df7aeee	0.12093912
106	0xbd118786	-0.035529636
107	0x3ca9bf1d	0.020721013
108	0x3ce6f357	0.028192205
109	0x3db3a75e	0.08772157
110	0x3d114e62	0.035475142
111	0xbc927e66	-0.017882537
112	0x3dc7b818	0.0975191
113	0x3d806460	0.06269145
114	0x3daa5c62	0.08318402
115	0xbd059a5f	-0.032617923
116	0x3c46c190	0.01213111
117	0x3dc78ac0	0.09743261
118	0xbc6dbbed	-0.014510137
119	0x3d6e5427	0.058185723
120	0xbd327cb6	-0.043575965
121	0x3c1f88fe	0.009737251
122	0x3d84b85e	0.06480478
123	0x3d86d935	0.06584398
124	0xbc91f61b	-0.017817548
125	0xbd8e99ba	-0.06962915
126	0x3d1a2681	0.037634376
127	0x3c58a600	0.013223171
128	0x3d7594d7	0.059956398
129	0xbda7ab20	-0.081869364
130	0xbc73515f	-0.014850943
131	0xbd48c0e1	-0.04901207
132	0x3db6c99f	0.08925175
133	0x3cbd83a3	0.023134058
134	0x3c67d0e5	0.014148925
135	0x3bd270bd	0.006422131
136	0xbcbcea50	-0.023060948
137	0x3ce6c8e4	0.028171964
138	0xbcca34cd	-0.02468338
139	0x3dbb8545	0.091562785
140	0x3db6190f	0.08891498
141	0x3d4127be	0.04715704
142	0xbdb0066e	-0.08594976
143	0xbaaa3080	-0.0012984425
144	0xbc7d716a	-0.015468935
145	0x3d988bcb	0.074485384
146	0xbd9fc3ac	-0.07800993
147	0xbc0e4660	-0.008683771
148	0xbd5bf150	-0.05369693
149	0x3d8b8d6d	0.06814084
150	0x3d1ad37c	0.037799343
151	0x3b79ef77	0.0038137117
152	0xbcfc0710	-0.030765086
153	0x3dad6df8	0.084682405
154	0x3da5e7a1	0.0810082
155	0x3da9a91b	0.082842074
156	0x3d6561bd	0.056001414
157	0x3c89a71d	0.016803319
158	0xbd05f683	-0.032705795
159	0x3d012e6c	0.031538412
160	0xbc1b5140	-0.009479821
161	0xbd0030ef	-0.031296667
162	0xbd90032b	-0.07031854
163	0x3cd3dfba	0.025863517
164	0x3c2ab6b0	0.010419533
165	0xbc8566d6	-0.016284388
166	0x3d996f34	0.074919134
167	0x3d3bf940	0.045892
168	0xbd15f3b7	-0.036609378
169	0xbbc77b2a	-0.0060876803
170	0xbd8b57bf	-0.068038456
171	0xbd0d0f17	-0.03443822
172	0xbd742236	-0.05960294
173	0x3c99bd5c	0.018767051
174	0x3d643037	0.055710044
175	0xbd462608	-0.048376113
176	0x3c28f4fc	0.010312315
177	0xbd220d92	-0.039563723
178	0x3d3d613d	0.04623531
179	0xbc9153d0	-0.01774016
180	0xbb6979a8	-0.0035625491
181	0xbb9fc722	-0.0048760334
182	0xbcc3a8bf	-0.023884175
183	0x3c94cd6b	0.018164357
184	0xbd8a2aa5	-0.06746415
185	0x3bd84517	0.006600033
186	0xbcbae6be	-0.022815105
187	0x3d436fdd	0.047714103
188	0x3dbf4485	0.09339241
189	0x3b0e5a13	0.002172117
190	0x3ced8285	0.0289929
191	0xbd174e5a	-0.036939956
192	0xbb9dbec2	-0.004814
193	0xbb3c1415	-0.0028698493
194	0xbd63342a	-0.05546967
195	0x3da02ada	0.07820673
196	0x3b39e9bd	0.0028368079
197	0xbd57d2f0	-0.0526914
198	0xbcf18caa	-0.02948602
199	0x3da4e30d	0.08051119
200	0x3c4fa578	0.012673728
201	0x3ca1972c	0.019725405
202	0x3cc06e60	0.02349013
203	0xbb298ec3	-0.0025872446
204	0xbd613cd4	-0.05498965
205	0xbd762bcb	-0.060100358
206	0xbd9ddac1	-0.077077396
207	0xbd044b31	-0.03229827
208	0xbd81c109	-0.06335647
209	0xbd2995e1	-0.0414027
210	0xbd8a8118	-0.06762904
211	0xbc0f3b70	-0.008742198
212	0xbcfaadf1	-0.03060052
213	0x3da43082	0.08017065
214	0xbcbafd55	-0.022825876
215	0xb9877aeb	-0.00025840788
216	0x3d84d999	0.06486816
217	0x3d01e912	0.031716414
218	0x3c2db30f	0.010601773
219	0x3ca2c26f	0.019868104
220	0x3ce9e51d	0.028551633
221	0x3ce26a23	0.0276385
222	0xbc6cac7c	-0.01444542
223	0x3d2e0fa0	0.04249537
224	0x3d78ec9e	0.06077253
225	0x3dae5cca	0.08513792
226	0x3d2ed0cd	0.042679597
227	0xbd88da57	-0.0668227
228	0x3cda0128	0.02661188
229	0x3d8fdb38	0.070242345
230	0x3d4e5c3d	0.050380934
231	0x3d830af4	0.063985735
232	0xbd393c6e	-0.045223646
233	0xbd93c00e	-0.07214366
234	0x3d143605	0.03618433
235	0x3bb2fdce	0.005462385
236	0xbd0bbca1	-0.034115437
237	0xbd381173	-0.044938516
238	0x3ced6a9d	0.028981501
239	0xbd13a066	-0.03604164
240	0x3d3b3f0b	0.04571442
241	0x3d94fee1	0.07275177
242	0x3d9b105c	0.0757148
243	0xbd8efbd6	-0.06981628
244	0xbd945fe4	-0.07244852
245	0x3d89ee4d	0.067349054
246	0xbb806c44	-0.0039191563
247	0x3ce57fcc	0.02801504
248	0xbd90bc2c	-0.07067141
249	0xbd612784	-0.054969326
250	0x3d4f98fc	0.050683007
251	0x3c991047	0.01868452
252	0xbd804539	-0.06263203
253	0x3d1a1336	0.037615977
254	0x3b889bfb	0.004168985
255	0xbd19e1f0	-0.037568986

conv2.bias f4 [16]
0	0x3dda0690	0.10645783
1	0xbc7ae0b0	-0.015312359
2	0x3da53139	0.08066029
3	0xba0ec5a7	-0.00054463226
4	0xbdef62d0	-0.11688769
5	0x3d4c8db8	0.04993984
6	0xbd85dffe	-0.06536864
7	0x3da83340	0.082129
8	0xbcfa3f63	-0.030547803
9	0x3cb083be	0.021547195
10	0x3cee29ca	0.029072661
11	0x3dbf42e7	0.093389325
12	0x3d09720b	0.033556025
13	0xbd483590	-0.048879206
14	0xbd944f81	-0.07241727
15	0xbd652c32	-0.05595035

fc1.weight f4 [120, 576]
0	0xbb325f00	-0.002721727
1	0xbc0e5f56	-0.008689722
2	0xbc09e4b0	-0.00841634
3	0xba2c21ab	-0.0006566296
4	0x3cb18686	0.021670591
5	0xbccb88d6	-0.024845522
6	0xbcbb7a6b	-0.022885522
7	0xbc2d7b7b	-0.010588522
8	0x3bfec72b	0.0077752075
9	0x3ba99c20	0.0051760823
10	0xbc6765f0	-0.014123425
11	0xbcbf1296	-0.023324292
12	0x3c589666	0.0132194515
13	0xbbe938c0	-0.007117361
14	0x3c80a4c8	0.015703574
15	0x3ce15ab8	0.027509078
16	0xbb65bcc0	-0.003505513
17	0xbd1deb16	-0.038554274
18	0xbc946b30	-0.018117517
19	0xbcc1e9a3	-0.023670977
20	0x3d194d7f	0.03742742
21	0x3c3c81d0	0.011505559
22	0xbc78611b	-0.0151598705
23	0xbd1b60bb	-0.037934046
24	0x3a7533ab	0.00093537074
25	0xbba230b6	-0.0049496545
26	0xbd27ab37	-0.040934768
27	0x3c36590b	0.011129628
28	0xbcfed106	-0.03110553
29	0xbc157abb	-0.0091234995
30	0x3d00a1b8	0.031404227
31	0x3ccbeecb	0.024894139
32	0x3d235470	0.039875448
33	0xbd269c16	-0.0406762
34	0xbc575e70	-0.013145074
35	0xbd25c768	-0.04047337
36	0x3cafe85b	0.0214731
37	0x3c9c9eeb	0.019118747
38	0x3d24f498	0.040272325
39	0x3d0c630c	0.034274146
40	0xbd1a2d5c	-0.037640914
41	0x3ce2e583	0.02769733
42	0x3c009b80	0.007849574
43	0xbd0cc92f	-0.03437155
44	0x3d2819f0	0.04104036
45	0xbceee188	-0.029160276
46	0xbbd509b6	-0.006501402
47	0x3d072987	0.032998588
48	0x3cc0b973	0.02352593
49	0xbc27069b	-0.010194446
50	0xbcfd215e	-0.0308997
51	0x3cb41150	0.021980911
52	0xbcba435b	-0.022737196
53	0x3c1ccb6b	0.009569983
54	0x3ca43ab6	0.020047527
55	0xbc42837b	-0.011872168
56	0xbcd3ef80	-0.025871038
57	0x3c06fe00	0.008239269
58	0x3c791786	0.015203362
59	0x3d1253b3	0.035724353
60	0x3b0b7dab	0.002128462
61	0x3c774396	0.015091797
62	0xbc3597a0	-0.0110835135
63	0x3d251247	0.040300634
64	0xbbee6000	-0.0072746277
65	0x3cb4ebde	0.022085126
66	0x3c9d543b	0.019205203
67	0xbcccd066	-0.025001716
68	0xbd1c0510	-0.038090765
69	0x3a7fb9ab	0.0009755145
70	0x3a40eb00	0.00073592365
71	0x3d14a5ff	0.03629112
72	0x3ccd36a6	0.025050472
73	0x3cb24ce0	0.021765172
74	0xbc740cf6	-0.014895668
75	0x3d25ef1b	0.040511232
76	0x3c404fab	0.011737744
77	0x3abb9b00	0.0014313161
78	0x3c88510b	0.016640207
79	0x3a81a600	0.0009891391
80	0x3cc9b20b	0.02462103
81	0x3a12a456	0.0005593946
82	0x3cf21e00	0.02955532
83	0xbcf60708	-0.03003265
84	0xbd12bbd8	-0.035823673
85	0xbd1abcd7	-0.037777748
86	0x3d1a8a92	0.037729807
87	0xbc66da4b	-0.014090131
88	0x3c950b93	0.018193996
89	0x3cc7228e	0.02430847
90	0x3c53eed6	0.012935361
91	0xbd193504	-0.037404075
92	0x3c359ff0	0.011085495
93	0xbbd8edcb	-0.006620144
94	0xbcdb1048	-0.026741162
95	0x3d0eb7fb	0.034843426
96	0xbd1f563a	-0.03890059
97	0xb80bf000	-3.33637e-05
98	0x3cd5f923	0.026119774
99	0x3cb5f8bb	0.02221333
100	0x3c9d87a3	0.019229716
101	0xbcfc5160	-0.030800521
102	0xbc189830	-0.009313628
103	0x3c6ca3b0	0.014443323
104	0x3d118cd0	0.03553468
105	0x3c5dccd6	0.013537606
106	0xbd0630da	-0.032761432
107	0x3cf55d93	0.029951846
108	0x3cd9df18	0.026595637
109	0x39e1bd56	0.0004305641
110	0xbc7bcb20	-0.015368253
111	0xbc83a3c3	-0.016069299
112	0x3c98cd36	0.01865254
113	0xbbc59d40	-0.0060307086
114	0xbb148880	-0.0022664368
115	0x3ce1ef4e	0.02757993
116	0x3c6b5080	0.014362454
117	0x3cd99803	0.026561743
118	0xbc3a5b0b	-0.011374245
119	0xbca8c0c0	-0.020599723
120	0xbc8e67ae	-0.017383423
121	0xbcc7d2c0	-0.024392486
122	0x3bbb8b6b	0.005723407
123	0x3cce5f03	0.02519179
124	0x3b233ad6	0.0024906895
125	0x3c86d58e	0.016459253
126	0xbb78052b	-0.0037844877
127	0xbd001f34	-0.031279758
128	0x3bed2100	0.0072366
129	0x3c7bbf7b	0.015365477
130	0x3cbe4150	0.023224503
131	0xbc4cbce6	-0.012496209
132	0x3c9f3040	0.019432187
133	0xba147a00	-0.00056639314
134	0xbbd4e52b	-0.0064970455
135	0x3cec9146	0.028877866
136	0xbc3930d6	-0.011303147
137	0x3ce72943	0.028217917
138	0xbb7173c0	-0.0036842674
139	0xbcc646c8	-0.024203673
140	0x3cb52806	0.022113811
141	0xbcdd5238	-0.027016744
142	0x3bbf56e0	0.0058392137
143	0xbcbbf6ee	-0.022944894
144	0x3c2afceb	0.010436277
145	0x3b99fd96	0.0046994193
146	0x3b688bc0	0.0035483688
147	0xbd2a0c4b	-0.04151563
148	0x3caad483	0.020853287
149	0x3b246bd6	0.002508869
150	0xbceecdd8	-0.029150888
151	0x3c66f370	0.014096126
152	0x3d0a7107	0.033799198
153	0xbca4894b	-0.020084998
154	0x3a9fca80	0.0012191087
155	0x3d0d1f5a	0.034453727
156	0x3ad276ab	0.0016057094
157	0xbca6439e	-0.020295914
158	0xbaf06b00	-0.0018342435
159	0xba345c00	-0.0006880164
160	0xbcf243b6	-0.029573303
161	0x3ccc1ec8	0.024917021
162	0xbcc2df43	-0.0237881
163	0xbd1f6640	-0.038915873
164	0x3b69e0eb	0.003568704
165	0x3cba1386	0.022714388
166	0xbd282a64	-0.04105605
167	0xbb473780	-0.003039807
168	0x3d02c93b	0.03193019
169	0xbc34b0b6	-0.011028459
170	0x3b5f1540	0.0034039766
171	0x3c01878b	0.007905851
172	0xbcf3f898	-0.029781625
173	0xbd1e7156	-0.038682304
174	0x3ce47dfb	0.027892103
175	0xbb6e516b	-0.0036364447
176	0x3bd4b4b6	0.006491269
177	0xbce1777b	-0.027522793
178	0xbb93c5cb	-0.0045096627
179	0x3c7572a6	0.014980948
180	0x3c92bcbe	0.017912265
181	0x3d049af3	0.032374334
182	0x3b99b28b	0.0046904734
183	0x3c15ba1b	0.009138609
184	0xbbae7d56	-0.005325
185	0xbd07ccaf	-0.033154186
186	0xbc8d2c3b	-0.017233005
187	0x3d191897	0.037376966
188	0xbceb28e8	-0.028706029
189	0x3ceb2270	0.028702945
190	0xbd0da804	-0.03458406
191	0x3a9a4cab	0.0011772116
192	0xbcce9508	-0.025217548
193	0x3d162cbe	0.036663763
194	0x3cf26d88	0.029593244
195	0x3b343fab	0.002750377
196	0x3b49582b	0.0030722718
197	0x3c89be03	0.016814237
198	0xbc6c627b	-0.014427776
199	0xbcea617b	-0.028610935
200	0xbd27d8b3	-0.040978145
201	0x3cd37f9e	0.025817689
202	0x3cbd090b	0.023075601
203	0x3cc2bd1e	0.023771819
204	0xbcd6ca43	-0.026219493
205	0xba651656	-0.0008738985
206	0xbc5f916b	-0.01364551
207	0xbd1e12f4	-0.038592294
208	0xbc1c5360	-0.0095413625
209	0xbce9e548	-0.028551713
210	0x3c159e8b	0.009132038
211	0xbc118ee6	-0.008884167
212	0xbc589a30	-0.013220355
213	0xbc9f9f9e	-0.019485291
214	0x3ca738b3	0.020412778
215	0x3d0bbdcc	0.03411655
216	0x3d0a939e	0.033832185
217	0x3cd5cd8e	0.026098993
218	0x3c8dd11b	0.017311623
219	0xbd02cb5b	-0.031932216
220	0xbca93276	-0.020653944
221	0xbce0c4e0	-0.027437627
222	0x3c1d17fb	0.009588237
223	0xbb9169d6	-0.0044376655
224	0x3d236104	0.039887443
225	0x3c971a36	0.018445116
226	0x3cd59d1b	0.02607589
227	0xbc83b378	-0.016076788
228	0xbca5f7d6	-0.020259779
229	0xbcf8192e	-0.030285444
230	0x3cc68cc6	0.024237048
231	0xbc48e0c0	-0.012260616
232	0x3d1d83f6	0.038455926
233	0xbca42500	-0.020037174
234	0xbd16674e	-0.036719613
235	0xbcfdc2d3	-0.030976688
236	0xbd0e7186	-0.034776233
237	0xba44b656	-0.0007503977
238	0x3cfb9073	0.030708527
239	0xbd0ed5cf	-0.034871873
240	0xbc89bb93	-0.016813075
241	0xbc84aa76	-0.016194563
242	0x3c86c200	0.016449928
243	0x3bce6a00	0.0062992573
244	0x3cf31953	0.029675161
245	0x3cc9f96e	0.02465507
246	0x3cdef9ab	0.02721866
247	0x3d096fa6	0.033553742
248	0xbd0733c8	-0.033008367
249	0x3c8bd42e	0.017068949
250	0xbba1f0cb	-0.004942035
251	0x3ce60c0e	0.02808192
252	0x3d219ebe	0.03945803
253	0x3bf16676	0.0073669506
254	0xbce7c8bb	-0.028293958
255	0xbb43a900	-0.002985537

fc1.bias f4 [120]
0	0xbccbbbbe	-0.024869796
1	0x3ca964cf	0.020677952
2	0xbc11338c	-0.008862387
3	0x3d2c6900	0.042092323
4	0x3c1067b0	0.0088137835
5	0x3cc0dad4	0.023541845
6	0x3ca7ab4d	0.020467425
7	0x3b9bfe1b	0.0047605163
8	0xbcddc621	-0.027072014
9	0x3cb14ebd	0.02164399
10	0xbbde0c33	-0.0067763566
11	0x3d0acea8	0.03388849
12	0x3d06a68f	0.032873686
13	0xbcd78200	-0.026307106
14	0x3c20af93	0.009807485
15	0xbb500577	-0.0031741539
16	0xbd1a7288	-0.03770688
17	0x3c5191b5	0.012791087
18	0xbc75627b	-0.014977093
19	0xbc0b18c0	-0.008489788
20	0xbd2258ff	-0.039635655
21	0x3d2babe0	0.04191196
22	0xbc6c3e93	-0.014419216
23	0xbc6899f2	-0.01419686
24	0xbabf24ea	-0.0014583145
25	0x3c882ef6	0.016623955
26	0x3cb56ae2	0.022145692
27	0x3ca0feb6	0.019652706
28	0x3ce56bdf	0.028005539
29	0x3cc1e739	0.023669826
30	0x3caa1ee7	0.020766689
31	0xbc73392f	-0.014845177
32	0xbc570ab7	-0.013125113
33	0xbcd7dca3	-0.026350325
34	0xbd0524e3	-0.03250588
35	0xbd3616e6	-0.04445543
36	0xbd147db8	-0.036252707
37	0xbd29e196	-0.0414749
38	0x3cce1614	0.025157012
39	0x3d306697	0.043066587
40	0x3b2032ea	0.002444441
41	0x3cd544ed	0.026033843
42	0xbc5b185c	-0.013372507
43	0xbc4b2fec	-0.012401562
44	0x3bb0572e	0.0053814864
45	0xbb2dfd03	-0.0026548512
46	0x3cafa6f9	0.021441923
47	0xbccc9ea5	-0.024977991
48	0xbcb3cad8	-0.02194731
49	0x3b886770	0.0041627213
50	0x3d46a37d	0.04849576
51	0x3cb973f0	0.022638291
52	0xbcf69a14	-0.030102767
53	0x3d24c843	0.040230047
54	0x3d4728f9	0.04862306
55	0xbd3b211d	-0.045685876
56	0x3c573943	0.013136211
57	0x3cc88179	0.0244758
58	0x3cfd7b29	0.030942516
59	0x3cc2c9f0	0.023777932
60	0xbd015c67	-0.031582262
61	0x3c0a4f7f	0.008441805
62	0x3b822a40	0.0039723217
63	0x3b93921b	0.004503501
64	0x3beae954	0.007168928
65	0xbcd8bdde	-0.026457723
66	0x3d1d4786	0.03839829
67	0x3d04db9d	0.032436002
68	0xbd20e934	-0.0392849
69	0x3ca1d756	0.019756
70	0xbc363b83	-0.011122587
71	0x377af5b5	1.4958369e-05
72	0xb93b506b	-0.00017863668
73	0xbd00ae58	-0.031416267
74	0x3bb91f54	0.0056494866
75	0xbc3acdb9	-0.011401587
76	0xbd0bedae	-0.034162216
77	0xbafa8fe7	-0.0019116373
78	0x3d59786a	0.05309335
79	0xbc02cfa3	-0.007984075
80	0xbb00f0e3	-0.001967483
81	0x3cc98898	0.024601266
82	0xbc5d6ed5	-0.013515194
83	0xbd177319	-0.036975
84	0xbd1247bc	-0.035712942
85	0xbcc86919	-0.024464177
86	0xbce7d3a8	-0.028299168
87	0xbd2846b0	-0.041083038
88	0xbd3d4a6d	-0.046213556
89	0x3b8a94da	0.0042291703
90	0x3d275d47	0.04086044
91	0x3cfe55c9	0.031046765
92	0xbd077de1	-0.03307903
93	0x3cfb940f	0.030710248
94	0x3d0d3741	0.034476522
95	0xbbacbb8f	-0.005271382
96	0xbd2926af	-0.041296657
97	0xbab5516d	-0.0013833471
98	0xbd101aa2	-0.03518165
99	0x3c69e125	0.01427487
100	0x3d400eae	0.046889
101	0xbcc24c13	-0.023717916
102	0xbcd5edbb	-0.026114335
103	0xbb8c4ee5	-0.004281866
104	0x3bb857e4	0.0056257118
105	0xbc8ac35c	-0.016938858
106	0xbd3fca69	-0.046823893
107	0xbbedb986	-0.007254782
108	0x3caea1e2	0.021317426
109	0x3d83618c	0.0641509
110	0xbbf59f45	-0.007495793
111	0xbd2f5cc2	-0.04281307
112	0x3cbce453	0.023058092
113	0xbc141e3d	-0.0090404125
114	0x3cf9c5af	0.03048977
115	0xbd08eecc	-0.03343086
116	0x3b1d5eed	0.002401288
117	0xbbeff83b	-0.0073232925
118	0xbcbe0657	-0.023196382
119	0x3c7da914	0.015482206

fc2.weight f4 [84, 120]
0	0x3d2f4144	0.04278685
1	0xbd8c96a5	-0.06864671
2	0xbc3ba17d	-0.011452076
3	0xbd610106	-0.054932617
4	0xbc63ab86	-0.013895875
5	0x3da236f7	0.0792064
6	0x3d065168	0.03279248
7	0xbd021553	-0.031758618
8	0xbc525afc	-0.012839075
9	0xbd62957c	-0.05531834
10	0x3db997c2	0.09062149
11	0xbabc5af0	-0.0014370363
12	0xbcbcf3ef	-0.023065535
13	0x3c8d740a	0.017267246
14	0x3d8ba829	0.068191834
15	0xbd423e02	-0.047422417
16	0xbd15a1ef	-0.036531385
17	0x3d71da9a	0.059046365
18	0xbdaec897	-0.08534353
19	0xbcd80d63	-0.02637357
20	0xbd7b8421	-0.061405305
21	0xbdab677e	-0.08369349
22	0x3c6dc0fc	0.014511343
23	0x3d83697c	0.06416604
24	0x3d564ba7	0.05231824
25	0x3cfeb2e1	0.031091155
26	0xbd347f04	-0.044066444
27	0xbd5ff296	-0.054674707
28	0xbc873c21	-0.016508164
29	0x3d202f7f	0.039107796
30	0xbd21304f	-0.03935271
31	0x3da56e19	0.0807764
32	0xbcfc7b76	-0.03082059
33	0x3d82d1f5	0.063877024
34	0xbcf615b3	-0.030039644
35	0x3d877bbb	0.066153966
36	0xbd90cfcc	-0.07070884
37	0x3cdbfb88	0.026853338
38	0x3da4b168	0.0804165
39	0xbda3f3bc	-0.08005473
40	0xbd46227c	-0.04837273
41	0x3ce7f60c	0.028315566
42	0xbd56893f	-0.05237698
43	0x3d9e0756	0.07716243
44	0xbd54dd34	-0.05196877
45	0x3d466dd5	0.048444588
46	0xbda62c12	-0.081138745
47	0xbbb0ae79	-0.0053918925
48	0x3d254627	0.040350106
49	0xbd43149a	-0.04762707
50	0xbc6fc67d	-0.014634726
51	0xbda399d2	-0.07988323
52	0xbdaf1241	-0.085484035
53	0xbda630c1	-0.08114768
54	0x3c47ea31	0.012201832
55	0x3d2b0042	0.041748293
56	0xbc8c1212	-0.01709846
57	0x3d272ae9	0.040812407
58	0x3d8b2f7f	0.067961685
59	0x3da0c0f6	0.078493044
60	0xbdbaa58f	-0.09113609
61	0x3caa8d10	0.020819217
62	0x3d5d8e4a	0.054090776
63	0x3c60c1b5	0.013718058
64	0xbd7f7f25	-0.062377114
65	0x3bd9fd42	0.006652505
66	0xbbd13a6d	-0.0063851387
67	0x3ccb4730	0.024814218
68	0x3da5887c	0.08082673
69	0xbdaf1c84	-0.08550361
70	0x3d90c5fa	0.07069011
71	0x3cb57353	0.022149717
72	0x3b4b8dc7	0.0031059848
73	0xbc9b60e4	-0.0189671
74	0xbd37db31	-0.04488677
75	0x3cf0ab36	0.029378515
76	0x3ce1c660	0.027560413
77	0x3cd6c671	0.026217671
78	0xbb87e239	-0.004146841
79	0xbce259c8	-0.027630702
80	0x3c379eeb	0.011207323
81	0xbdae4a63	-0.08510282
82	0xbcbcc157	-0.02304141
83	0xbda0de48	-0.07854897
84	0x3da6d947	0.08146911
85	0xbd888d78	-0.06667608
86	0x3d8a6949	0.06758363
87	0xbdb603aa	-0.088874176
88	0x3c486fe1	0.012233705
89	0x3cf2eb3b	0.029653182
90	0x3c092729	0.008371153
91	0xbd635e7a	-0.05551002
92	0xbd9f307a	-0.07772918
93	0x3d43aefa	0.047774293
94	0x3c10cac2	0.008837404
95	0x3d952bcf	0.072837465
96	0xbd482a09	-0.048868213
97	0xbc608a92	-0.013704913
98	0x3d1c4cdb	0.038159233
99	0xbd32de96	-0.043669306
100	0xbda880d0	-0.08227694
101	0x3d69636a	0.056979574
102	0x3db7bb20	0.08971238
103	0x3d9e3d74	0.07726565
104	0xbcef64f3	-0.029222941
105	0xbd11eb40	-0.035624743
106	0xbd8b4daf	-0.06801926
107	0xbd6030cd	-0.05473404
108	0xbb11f65d	-0.0022272088
109	0x3d8b26c3	0.067945026
110	0x3d544e8b	0.051832717
111	0x3c807c04	0.015684135
112	0xbda3f1e8	-0.08005124
113	0x3d638725	0.055548806
114	0xbcfce0c4	-0.030868895
115	0xbc77d4c2	-0.015126409
116	0xbd6968f0	-0.05698484
117	0x3d06b48e	0.032887034
118	0x3da7265b	0.081616126
119	0x3c27afe4	0.010234807
120	0xbc711610	-0.014714733
121	0x3d43a2a3	0.047762524
122	0x3d32be0c	0.043638274
123	0xbda69772	-0.08134355
124	0x3d13de20	0.036100507
125	0x3d933970	0.0718869
126	0xbd67d103	-0.056595813
127	0xb9c59b8a	-0.00037690654
128	0x3d7bcdfc	0.06147574
129	0x3d1e76d5	0.038687546
130	0xbd991c82	-0.074761406
131	0xbd4ecee8	-0.05049029
132	0x3d26daf9	0.040736172
133	0xbd9f0deb	-0.077663265
134	0x3d4f471d	0.05060493
135	0x3d9c380a	0.07627876
136	0xbcf3325e	-0.029687103
137	0x3c996b11	0.018727811
138	0x3d4d06c5	0.050055284
139	0x3c0b6c31	0.008509682
140	0xbcab93b1	-0.020944448
141	0x3c24be6c	0.010055166
142	0x3d9f8e15	0.07790772
143	0xbba88c52	-0.0051436806
144	0xbd95154a	-0.07279451
145	0xbd909ba0	-0.07060933
146	0x3c19655e	0.009362547
147	0xbcbede3a	-0.023299325
148	0xbc86ae53	-0.016440546
149	0x3d4f048f	0.050541457
150	0xbcfee281	-0.031113865
151	0xbdb74926	-0.08949499
152	0xbd957ee1	-0.07299591
153	0x3d08596c	0.033288404
154	0x3db4d75c	0.08830139
155	0x3d1a1ac2	0.037623174
156	0x3d41ef73	0.047347497
157	0xbd904906	-0.07045178
158	0x3cd128ec	0.025532208
159	0x3b88771d	0.00416459
160	0xbd0897bf	-0.03334784
161	0xbd1d2c7a	-0.038372494
162	0xbd949fee	-0.07257067
163	0x3d36d17d	0.044633377
164	0xbdba004c	-0.09082088
165	0xbb19d050	-0.0023470111
166	0x3d87b92a	0.06627114
167	0x3d5cfae5	0.05395021
168	0xbb21f86c	-0.0024714721
169	0xbcfe14ef	-0.031015841
170	0xbd0de6b0	-0.03464383
171	0x3c74d070	0.0149422735
172	0xbd9d12a2	-0.076695696
173	0x3c52756c	0.012845378
174	0xbd2d83b5	-0.042361934
175	0x3d99ca15	0.07509247
176	0xbdabab2d	-0.083822586
177	0x3d735bb3	0.059413623
178	0xbd13e861	-0.036110286
179	0x3d6e165d	0.058126796
180	0x3ce1d397	0.027566714
181	0xbd70ae69	-0.05876008
182	0x3d0d9730	0.03456801
183	0x3d4b4d38	0.04963419
184	0x3d898ec1	0.06716681
185	0xbd9cc4d6	-0.07654731
186	0xbcefe995	-0.029286185
187	0xbcf53f96	-0.029937547
188	0xbc9036d5	-0.017604271
189	0xbd1604d8	-0.036625713
190	0xbc764ccd	-0.015032959
191	0xbda28d28	-0.0793708
192	0xbd2f418c	-0.04278712
193	0xbce4f7d4	-0.027950205
194	0x3da1479d	0.07874987
195	0x3d237f0d	0.039916087
196	0x3d37fbd8	0.04491791
197	0xbd482abb	-0.048868876
198	0x3d9db058	0.076996505
199	0x3d3913a3	0.045184743
200	0xbcbf5717	-0.023356957
201	0xbdbd23bb	-0.09235331
202	0x3bb838e7	0.0056220177
203	0xbc9947a8	-0.018710926
204	0x3d8429ed	0.06453309
205	0x3d5361f9	0.051607106
206	0x3d0a59d7	0.033777084
207	0x3b6ab2cd	0.003581214
208	0xbd5464fb	-0.051854115
209	0xbcd6ddf9	-0.026228892
210	0xbbc73daa	-0.006080349
211	0x3d105716	0.0352393
212	0x3d1fb47f	0.038990494
213	0xbc8592d1	-0.01630536
214	0x3cec8b7d	0.028875107
215	0xbb775313	-0.0037738725
216	0x3cf555c4	0.029948123
217	0xbd6725ac	-0.05643241
218	0x3c558577	0.013032309
219	0xbdb3e5b3	-0.08784046
220	0x3cbb6678	0.02287601
221	0x3d4c214b	0.04983644
222	0x3cced6f1	0.025248976
223	0xbd943cc4	-0.072381526
224	0x3d8da012	0.069152966
225	0x3db99df5	0.09063331
226	0x3c1badb9	0.009501868
227	0xbc0c733e	-0.008572398
228	0x3c6d7ce4	0.014495108
229	0xbd00e480	-0.031467915
230	0xbd9c31aa	-0.0762666
231	0xbc69653f	-0.01424533
232	0x3d370d52	0.044690438
233	0x3dadc48d	0.08484755
234	0x3d32d1f0	0.043657243
235	0x3da12655	0.078686394
236	0x3d85f872	0.06541528
237	0x3c26967d	0.010167715
238	0xbdac856e	-0.08423887
239	0xbc5da605	-0.013528352
240	0x3cf2116c	0.029549323
241	0x3cbdfd9a	0.023192216
242	0xbcf60a8f	-0.030034332
243	0x3d7dac2a	0.061931767
244	0xbc3885d2	-0.011262374
245	0x3c002fe6	0.00782392
246	0x3d5fa967	0.054604914
247	0xbd61f986	-0.055169605
248	0xbdaa990d	-0.08329973
249	0x3db31739	0.08744664
250	0xbd97174f	-0.07377493
251	0xbc7617c3	-0.015020314
252	0x3c936a8e	0.017995145
253	0x3d96b5c5	0.073588885
254	0x3cb36faa	0.021903832
255	0xbc284863	-0.010271165

fc2.bias f4 [84]
0	0xbdb4a9c1	-0.088214405
1	0xbd636474	-0.05551572
2	0x3ce2ef20	0.027701914
3	0x3c14c67f	0.009080528
4	0x3c79461b	0.015214468
5	0xbda15b49	-0.078787394
6	0xbd79ff1a	-0.0610343
7	0xbdc1500f	-0.09439098
8	0x3d800d4c	0.06252536
9	0x3d4f1626	0.05055823
10	0xbdb8114c	-0.08987674
11	0x3d0cc965	0.034371752
12	0x3db2c912	0.08729757
13	0x3d8056f9	0.06266589
14	0x3c332cad	0.0109359445
15	0xbd9392b6	-0.07205717
16	0xbd81f08b	-0.06344708
17	0x3db1d208	0.086826384
18	0x3dbedea1	0.09319807
19	0x3d506a2f	0.050882515
20	0x3da48945	0.080339946
21	0xbd41248d	-0.047154
22	0xbd7824b8	-0.060581893
23	0x3da90706	0.08253293
24	0xbd3290d9	-0.04359517
25	0xbd52da40	-0.05147767
26	0xbdab043d	-0.08350418
27	0xbd7acf6b	-0.061232965
28	0xbc4e4e9c	-0.012591984
29	0xbdae4d60	-0.08510852
30	0x3da192f0	0.07889354
31	0x3df75b0f	0.12077915
32	0x3d8a4fc5	0.06753496
33	0xbdb36bd7	-0.08760803
34	0xbd584d1e	-0.05280792
35	0x3d897e8a	0.067135885
36	0xbd4eac93	-0.05045755
37	0xbd9bc785	-0.07606415
38	0x3d43392b	0.04766194
39	0xbd0eca50	-0.03486091
40	0xbd77943b	-0.060444098
41	0xbd1267f8	-0.035743684
42	0xbdc08f49	-0.094023295
43	0x3dbd1825	0.09233121
44	0xbd2971a7	-0.041368153
45	0x3d75571f	0.05989754
46	0x3d70d460	0.058796287
47	0xbd91d547	-0.071207576
48	0xbd6a0ae8	-0.057139307
49	0x3d43c9d2	0.047799893
50	0x3c5e0bd2	0.013552623
51	0xbb416982	-0.002951235
52	0xbd46aea0	-0.04850638
53	0xbd297214	-0.04136856
54	0xbbbf2370	-0.005833082
55	0xbbe4e016	-0.006984721
56	0x3d83bce5	0.06432513
57	0x3d864bae	0.065574035
58	0x3d444283	0.047914993
59	0x3d193444	0.03740336
60	0x3c9f70fa	0.019463051
61	0x3d66dfa9	0.056365643
62	0xbc6d801a	-0.014495874
63	0xbdd5cb95	-0.10439221
64	0x3a273e9b	0.00063798734
65	0xbcef2dee	-0.029196706
66	0x3c70e43d	0.014702854
67	0x3dbea720	0.0930922
68	0x3dae1ccd	0.08501587
69	0xbc262ab3	-0.010142016
70	0x3d2cda34	0.042200282
71	0x3cf4b036	0.02986918
72	0xbdcb6df6	-0.09933083
73	0x3cc0f564	0.023554511
74	0x3c04e4b4	0.008111168
75	0xbde6efdd	-0.11276219
76	0xbd0e13df	-0.03468692
77	0xbd805dd9	-0.062679
78	0x3da2fae3	0.07958009
79	0x3cf34bd3	0.029699242
80	0x3d829af5	0.06377212
81	0x3b27764c	0.0025552688
82	0xbd7f3537	-0.06230661
83	0x3c667fe1	0.014068575

fc3.weight f4 [1297, 84]
0	0xbd20cd47	-0.039258268
1	0x3d28dd3e	0.041226618
2	0xbddd1139	-0.107943006
3	0x3d6871be	0.056749098
4	0x3bb1b234	0.005422855
5	0x3d80cbda	0.062888816
6	0xbcd5def7	-0.026107294
7	0x3d93d29a	0.072179034
8	0x3dae96ea	0.08524878
9	0xbdbc1100	-0.0918293
10	0xbd165a62	-0.03670729
11	0x3d800254	0.06250444
12	0xbd47efac	-0.048812553
13	0xbd9b3c2d	-0.07579837
14	0x3c9c0d2f	0.019049255
15	0x3d5b1ecb	0.053496163
16	0xbd9858d5	-0.07438818
17	0x3dc4d4e8	0.09610921
18	0xbc93e09a	-0.018051434
19	0xbc1aae3d	-0.009440956
20	0x3d823a18	0.06358737
21	0xbd8e0c48	-0.06935936
22	0x3cbe629f	0.023240386
23	0xbd371683	-0.044699203
24	0x3dc23906	0.094835326
25	0x3d085ec9	0.03329352
26	0x3d90ffa2	0.07080008
27	0xbddce6c6	-0.10786204
28	0x3d5c9947	0.053857114
29	0x3d999801	0.074996956
30	0xbc816f87	-0.01580025
31	0x3cb8ea9f	0.022572814
32	0xbcf9cfc8	-0.030494586
33	0xbd506998	-0.050881952
34	0x3d57fa35	0.05272885
35	0x3c79a41b	0.01523688
36	0x3ddd0638	0.10792202
37	0xbc0a8829	-0.008455315
38	0x3d37444f	0.04474288
39	0x3d98b2f1	0.07456005
40	0x3c16de21	0.009208233
41	0xbcff87d4	-0.031192698
42	0xbdd6458e	-0.10462485
43	0x3dfdb05a	0.12387152
44	0xbdcaa535	-0.09894792
45	0x3daaefee	0.08346544
46	0x3dd3453b	0.10315939
47	0x3d798857	0.06092104
48	0xbd4b1d11	-0.049588267
49	0xbd31cf22	-0.043410428
50	0xbd49c1ac	-0.049256966
51	0xbd885610	-0.0665704
52	0x3c95f184	0.01830364
53	0xbd4a6699	-0.04941425
54	0x3bbe5a5f	0.005809113
55	0xbcec9182	-0.028877977
56	0x3d0fd15e	0.035111777
57	0xbc7ef382	-0.0155609865
58	0xbd9606a3	-0.073254846
59	0x3da139cc	0.07872352
60	0xbd2e904d	-0.042618085
61	0xbd5060a1	-0.050873403
62	0x3d4d724f	0.05015784
63	0xbd6227de	-0.0552138
64	0x3ca0d5ab	0.019633135
65	0x3d8ac188	0.067751944
66	0x3d410c1a	0.04713068
67	0x3de7b841	0.113144405
68	0xbc481d84	-0.012214068
69	0xbd33d6c7	-0.043906
70	0x3cab6521	0.020922245
71	0x3cec9f32	0.028884504
72	0xbdcd1d19	-0.100153156
73	0x3d9396d4	0.072065026
74	0x3d991688	0.074750006
75	0xbd0aaf67	-0.033858683
76	0xbd8cf640	-0.06882906
77	0xbdae78c5	-0.08519129
78	0xbdd7948d	-0.10526381
79	0xbc0d7f3b	-0.008636291
80	0xbd016b96	-0.031596743
81	0x3d3905f2	0.045171686
82	0x3d445bcf	0.047939118
83	0xbdfc6852	-0.12324585
84	0x3dbc919c	0.0920746
85	0xbd2dacef	-0.04240125
86	0xbce9dadc	-0.028546743
87	0x3d2fdfc3	0.042938005
88	0x3da0704a	0.078339174
89	0x3d15abfb	0.036540966
90	0x3db583d5	0.088630356
91	0xbba21dee	-0.0049474156
92	0x3d8590a3	0.06521728
93	0xbd9f48ca	-0.07777555
94	0xbd384d7f	-0.04499578
95	0xbdd92a69	-0.10603792
96	0xbdbfac0c	-0.09358987
97	0xbdbaa9b4	-0.091143996
98	0x3dbcf408	0.09226233
99	0xbd08abb7	-0.033366885
100	0xbd7cd7ab	-0.061729115
101	0x39e15010	0.00042974995
102	0x3d262ab3	0.040568065
103	0x3db7347f	0.0894556
104	0xbdc5715b	-0.096407615
105	0xbd5b8772	-0.053595968
106	0xbd8f9413	-0.07010665
107	0x3ce83f25	0.028350422
108	0xbd45978a	-0.048240222
109	0x3c3fa08c	0.011695992
110	0xbdc1e2e6	-0.094671056
111	0xbdb5f733	-0.0888504
112	0xbd984209	-0.0743447
113	0xbd544dd8	-0.05183205
114	0xbd36293c	-0.044472918
115	0x3dc7e1eb	0.09759887
116	0x3c040d42	0.0080598015
117	0x3db6f477	0.08933347
118	0x3d889b62	0.06670262
119	0x3c3e0048	0.011596747
120	0xbcfab3c8	-0.030603305
121	0x3dda01dd	0.10644887
122	0xbca6f10f	-0.020378618
123	0xbbd612ac	-0.0065329876
124	0x3d4f4585	0.05060341
125	0xbc34a04f	-0.011024549
126	0xbda75952	-0.081713334
127	0xbcd70719	-0.026248502
128	0xbbc6fb26	-0.0060724197
129	0xbd63126b	-0.055437487
130	0x3d0c980f	0.034324702
131	0x3d91bfaf	0.07116639
132	0xbd265325	-0.040606637
133	0x3dc4f648	0.09617287
134	0xbd956e50	-0.07296431
135	0xbdc47aa7	-0.095937066
136	0x3da9f4e5	0.08298663
137	0xbbc1aa89	-0.005910222
138	0xbdb719ae	-0.08940445
139	0x3d27fcff	0.04101276
140	0xbdc576ab	-0.09641775
141	0xbdd840ad	-0.10559211
142	0x3bdde454	0.0067716036
143	0x3cc0c22a	0.023530085
144	0xbd9e6cac	-0.07735571
145	0x3db1902f	0.08670079
146	0x3da214cb	0.07914122
147	0x3d806fc6	0.06271319
148	0x3d0de2bf	0.03464007
149	0x3b57a310	0.003290359
150	0x3d8916f9	0.06693835
151	0xbd5326f8	-0.051550835
152	0x3e02c67e	0.12771031
153	0x3d766c6b	0.06016199
154	0x3c7a5155	0.01527818
155	0xbcdfb969	-0.02731009
156	0x3ddbe51f	0.10737061
157	0xbd50c0c4	-0.050965086
158	0x3d3cc2b0	0.046084106
159	0xbd0c056b	-0.034184854
160	0x3c89aa24	0.016804762
161	0x3d5e694e	0.054299645
162	0xbda503b1	-0.08057345
163	0xbcc975f5	-0.02459238
164	0x3d3b8690	0.045782626
165	0xbd4d688e	-0.05014854
166	0xbd9d1ef1	-0.07671917
167	0xbdc07c5d	-0.093987204
168	0xbd159cde	-0.036526553
169	0xbdd0e932	-0.102007285
170	0xbba0da41	-0.0049088304
171	0x3d6cd60e	0.057821326
172	0x3cd71a23	0.02625758
173	0xbc1e421e	-0.009659318
174	0xbc900ac1	-0.017583253
175	0x3d41468a	0.047186412
176	0x3de7da67	0.11320954
177	0x3d701617	0.058614817
178	0xbdc91e54	-0.09820238
179	0xbd054ef5	-0.032546002
180	0x3c8226d6	0.015887659
181	0xbd6c30e7	-0.057663824
182	0x3d64bada	0.055842258
183	0xbdd418d8	-0.10356301
184	0x3c62bc8b	0.013838897
185	0xbd1808f3	-0.03711791
186	0x3c90788c	0.017635606
187	0x3db2cdff	0.08730697
188	0x3dbd05ab	0.09229597
189	0xbdbfe616	-0.09370057
190	0x3d159c81	0.036526207
191	0xbd950e98	-0.07278174
192	0x3dda77fa	0.10667415
193	0xbb2c207d	-0.0026264482
194	0xbd3d9eaa	-0.046293892
195	0xbd61ec7f	-0.05515718
196	0x3c93947c	0.018015139
197	0xbbb292f1	-0.0054496457
198	0x3d3c5ed8	0.045988888
199	0x3dbc0e97	0.0918247
200	0x3da667e2	0.08125283
201	0xbdc3b78b	-0.095564924
202	0x3d28bc8c	0.041195437
203	0xbd1cc3dc	-0.038272724
204	0xbda4f555	-0.08054606
205	0xbb575e6c	-0.0032862676
206	0xbd8ec809	-0.069717474
207	0x3d4617c2	0.0483625
208	0xbdc03022	-0.093841806
209	0x3d06696a	0.032815374
210	0xbb40dc37	-0.0029428133
211	0xbce18454	-0.02752892
212	0x3ce91383	0.028451687
213	0x3d37e78f	0.044898566
214	0xbc5cd3e3	-0.013478252
215	0x3d56f5cb	0.0524805
216	0x3c85eda1	0.016348662
217	0xbdbc9cb6	-0.09209578
218	0x398eb5a3	0.0002721968
219	0x3d87abc6	0.0662456
220	0xbdda5a37	-0.10661738
221	0xbc373c29	-0.011183777
222	0xbdd137ee	-0.10215746
223	0x3dd0ece6	0.10201435
224	0xbcafc1e5	-0.02145476
225	0xbde98fda	-0.11404391
226	0xbd88d287	-0.0668078
227	0x3cebd5c6	0.028788459
228	0x3d8fecc8	0.07027584
229	0xbde030d7	-0.109468155
230	0x3cb9b905	0.022671232
231	0xbdd9baaa	-0.106313065
232	0xbcde46aa	-0.027133305
233	0xbdc87de3	-0.09789636
234	0x3be728cd	0.0070544244
235	0x3c8bbac9	0.01705684
236	0x3cddc107	0.027069582
237	0x3d9f0b38	0.07765812
238	0xbd59a26f	-0.053133424
239	0xbd8106f4	-0.06300154
240	0x3d3fb9f6	0.046808206
241	0xbdbcc75d	-0.09217713
242	0x3d3d7d86	0.046262287
243	0xbde3d95b	-0.11125442
244	0x3bacdd94	0.0052754376
245	0xbcef4158	-0.029205963
246	0xbd84efc6	-0.06491046
247	0xbd436ba0	-0.04771006
248	0x3d0a7f24	0.033812657
249	0xbd3e4068	-0.04644814
250	0x3d88e08a	0.066834524
251	0x3c640e28	0.013919391
252	0xbd84515b	-0.0646083
253	0xbd541b85	-0.051784057
254	0xbda18d4d	-0.07888279
255	0xbd63bfce	-0.05560284

fc3.bias f4 [1297]
0	0x3d6e8752	0.05823452
1	0xbd9f4d28	-0.07778388
2	0xbd5af621	-0.053457383
3	0x3d9ff6b2	0.07810725
4	0xbd78840e	-0.060672812
5	0x3dafc869	0.08583147
6	0x3bcf6704	0.006329419
7	0x3c139609	0.009007939
8	0xbd7c598d	-0.06160884
9	0xbd7a4015	-0.06109627
10	0xbd9cfc19	-0.07665271
11	0x3c0f25c6	0.008737033
12	0x3d7c9eec	0.061674997
13	0xbd189786	-0.03725388
14	0xbd9b0a93	-0.07570376
15	0x3dd172ed	0.102269985
16	0xbc6f8469	-0.014618971
17	0x3dde2f47	0.10848861
18	0xbd28f4f6	-0.041249238
19	0xbdc4d9a1	-0.09611822
20	0x3d976316	0.07391946
21	0x3d827d34	0.06371537
22	0xbb1f1823	-0.0024275861
23	0xbdb949cf	-0.09047281
24	0xbd474442	-0.04864908
25	0xbccde626	-0.025134157
26	0x3d98f4bc	0.074685544
27	0x3daa1a57	0.08305805
28	0x3d6b1622	0.057394154
29	0x3d51e924	0.05124773
30	0xbd5c977f	-0.053855415
31	0xbd5d9290	-0.05409485
32	0xbc9686c6	-0.018374812
33	0xb9484a5d	-0.00019101189
34	0xbd870c96	-0.065941975
35	0x3d253816	0.04033669
36	0xbd3c7f0f	-0.04601961
37	0xbd83367e	-0.06406878
38	0x3d84e516	0.06489007
39	0xbd670736	-0.05640336
40	0xbdaf6b34	-0.08565369
41	0x3dc21e36	0.094784185
42	0xbc9e7df6	-0.019347172
43	0xbd4adefd	-0.049529064
44	0xbdaeef75	-0.085417666
45	0xbd861fa8	-0.06549007
46	0x3d86572e	0.06559597
47	0xbd9d9f38	-0.07696384
48	0xbb62cfac	-0.0034608645
49	0xbd042eb4	-0.032271102
50	0x3d12d7a8	0.035850197
51	0xbd6b699e	-0.05747377
52	0x3de6a9e7	0.11262875
53	0x3da8639b	0.08222123
54	0xbd4cef1f	-0.05003273
55	0x3d2022dc	0.039095744
56	0xbcce71e8	-0.0252008
57	0xbbe04b77	-0.0068449336
58	0xbd10956e	-0.035298757
59	0x3db7a8af	0.08967721
60	0xbd8a0015	-0.06738297
61	0xbd62af68	-0.05534306
62	0x3cab8ccf	0.020941166
63	0x3d5d2a66	0.053995512
64	0xba9e8302	-0.0012093487
65	0xbd06c0b6	-0.032898627
66	0x3d3d6823	0.04624189
67	0x3dd13178	0.102145135
68	0x3dac6958	0.0841853
69	0x3d7b63ee	0.061374597
70	0xbd6de783	-0.058082115
71	0x3d9f8807	0.07789617
72	0xbd31eed1	-0.043440644
73	0xbd067a78	-0.03283164
74	0xbdadee79	-0.08492751
75	0x3d7fb0f8	0.06242463
76	0x3c25d577	0.010121695
77	0xbcf4c199	-0.02987747
78	0x3d242bc1	0.04008079
79	0xbc6bb9ee	-0.014387591
80	0xbd2f841e	-0.042850606
81	0xbd9e70e4	-0.07736376
82	0xbd37b6ad	-0.044851948
83	0x3dcfc566	0.10145073
84	0xbd410a8f	-0.04712921
85	0x3d4aca0b	0.04950909
86	0x3b88ddf6	0.0041768504
87	0xbd693818	-0.05693826
88	0xbc37cd71	-0.011218415
89	0x3a023811	0.0004967461
90	0xbd119d20	-0.035550237
91	0xbd657117	-0.056016054
92	0x3dc4edb1	0.096156485
93	0xbbf2c4f1	-0.007408731
94	0x3b5a4e96	0.0033311
95	0xbd408444	-0.04700114
96	0xbab6022e	-0.0013886148
97	0xbdb2f136	-0.087374136
98	0xbd5cd512	-0.053914137
99	0x3d877448	0.06613976
100	0xbd9641b6	-0.07336752
101	0x3d9b4408	0.07581335
102	0xbb7f85e8	-0.0038989726
103	0xbd547e3a	-0.05187819
104	0xbd03cc03	-0.032176983
105	0xbd64bc5f	-0.055843707
106	0xbdc1e1ea	-0.09466918
107	0x3dbe62e1	0.092962034
108	0x3d1da69f	0.03848898
109	0x3d3af33e	0.04564213
110	0x3d0f5ad4	0.03499873
111	0x3c23d05a	0.009998405
112	0x3c1ce227	0.009575403
113	0xbce482ae	-0.027894344
114	0xbd866588	-0.06562334
115	0x3d9540df	0.07287764
116	0x3db78c9d	0.08962367
117	0xbb952812	-0.004551896
118	0x3c92cc80	0.017919779
119	0xbd133e48	-0.035948068
120	0xbdad5861	-0.084641226
121	0x3b97afe6	0.004629123
122	0xbd88c279	-0.06677718
123	0x3dd87c19	0.10570545
124	0x3c54d872	0.012991058
125	0x3dd03b47	0.10167556
126	0xbda0d149	-0.07852418
127	0x3c2dc08e	0.010604991
128	0xbdbcff47	-0.09228378
129	0x3d6f2ce6	0.058392428
130	0xbc2e782f	-0.010648771
131	0xbda75dfb	-0.08172222
132	0x3caac224	0.020844527
133	0xbd8fd43b	-0.070229016
134	0xbd402de2	-0.046918757
135	0x3cd8f8eb	0.02648588
136	0x3de3c744	0.11121991
137	0xbd9c08c9	-0.07618863
138	0xbdc94144	-0.098269016
139	0x3d208305	0.03918745
140	0x3dd77d25	0.10521916
141	0x39ae6427	0.00033262486
142	0xbb960dc9	-0.00457928
143	0xbd42899d	-0.04749452
144	0x3de36905	0.11104015
145	0x3d1b17d9	0.03786454
146	0xbdc50fc8	-0.09622151
147	0x3d9523e8	0.07282239
148	0x3daa898f	0.083270185
149	0x3d1ea83e	0.038734667
150	0xbcaa309a	-0.020775128
151	0x3d04fd39	0.032468054
152	0x3dbd4903	0.092424415
153	0xbbe8d28d	-0.0071051777
154	0x3d34cdcb	0.044141572
155	0x3d5aa77c	0.05338238
156	0xbca58e07	-0.020209325
157	0xbd0a1b11	-0.03371722
158	0xbd529f00	-0.051421165
159	0x3d35ee36	0.04441663
160	0xbd9e1cf4	-0.07720366
161	0x3cba3d61	0.022734346
162	0x3d218e48	0.03944233
163	0xbc534364	-0.012894485
164	0xbbba11c3	-0.005678387
165	0xbdad1c62	-0.08452679
166	0x3dbbcf8c	0.09170446
167	0x3d8e2335	0.06940309
168	0x3c771a44	0.015081946
169	0xbd8e8743	-0.06959393
170	0xbbf200fb	-0.007385371
171	0xbd332a29	-0.04374138
172	0xbd805d75	-0.062678255
173	0x3dd55084	0.10415748
174	0xbdbc589e	-0.0919659
175	0x3d035941	0.03206754
176	0xbccca5b4	-0.024981357
177	0x3daa8630	0.083263755
178	0x3db51d99	0.08843536
179	0xbcf83952	-0.03030077
180	0xbda59bca	-0.08086355
181	0x3ddc4f92	0.10757364
182	0x3d12ea93	0.03586824
183	0x3cda3945	0.026638636
184	0xbce40641	-0.027835013
185	0x3cce4c3d	0.025182838
186	0xbd8d00a3	-0.06884887
187	0x3dce6f83	0.10079863
188	0xbd4d2ae0	-0.050089717
189	0x3d41bf81	0.047301773
190	0xba1cfc23	-0.0005988499
191	0x3dd3e577	0.10346501
192	0xbdd0d766	-0.10197334
193	0xbd68f6dc	-0.05687605
194	0x3a08f81a	0.00052249583
195	0x3ac6cfc5	0.0015168121
196	0x3c84f839	0.016231643
197	0xbd83b855	-0.06431643
198	0x3d4253f0	0.04744333
199	0xbcdc4097	-0.026886268
200	0x3defb841	0.117050655
201	0xbc4a92f6	-0.01236414
202	0x3d0b1d8e	0.033963732
203	0xbd118fd5	-0.03553756
204	0xbd252d6c	-0.04032652
205	0x3da9a5b0	0.082835555
206	0xbdadbc25	-0.08483151
207	0xbda1c170	-0.078982234
208	0xbc0931c2	-0.00837368
209	0x3d087bf8	0.03332135
210	0x3dc5bde9	0.09655363
211	0xbd983abc	-0.07433078
212	0xbce96b47	-0.028493537
213	0x3dd67621	0.1047175
214	0xbb0ee170	-0.0021801852
215	0xbdc15821	-0.094406374
216	0x3b32e844	0.0027299086
217	0xbd6e3981	-0.05816031
218	0x3cee1d41	0.029066684
219	0xbdbda3b9	-0.09259743
220	0x3d1da0ce	0.038483433
221	0xbd448800	-0.047981262
222	0x3cd1434a	0.025544781
223	0x3daa2366	0.08307533
224	0x3dd0727c	0.10178086
225	0xbdbae5d5	-0.09125868
226	0x3dbcb968	0.09215051
227	0xbda69168	-0.08133203
228	0xbdb2300e	-0.08700572
229	0x3d31df5d	0.043425906
230	0x3dc0d720	0.09416032
231	0x3df8c462	0.12146832
232	0x3d03b8c1	0.032158617
233	0x37b60ee7	2.170303e-05
234	0xbdb3e4fd	-0.087839104
235	0xbc3bb1c4	-0.011455957
236	0xbdc164ac	-0.0944303
237	0x3de54fb9	0.111968465
238	0x3d18d96e	0.037316732
239	0xbc052446	-0.008126324
240	0x3d466a3a	0.04844115
241	0xbdc6c85d	-0.09706185
242	0x3dab3a14	0.08360687
243	0x3d87a898	0.066239536
244	0xbd128e81	-0.035780434
245	0x3d582991	0.052774016
246	0x3d3c1c49	0.045925412
247	0x3d3add4f	0.045621213
248	0x3d1db87b	0.038506012
249	0x3ca27bf7	0.019834502
250	0xbce1ede1	-0.02757925
251	0x3dc5ee78	0.09664625
252	0x3cd31e40	0.02577126
253	0xbd92823b	-0.07153746
254	0x3c510162	0.012756677
255	0x3cd420c6	0.025894534
